best_policy99.model (torch, 529533 bytes, 15 tensors)

conv1.weight f4 [32, 4, 3, 3]
000000 b3 50 b3 3e f4 88 68 bb 4f 9e d3 3b 01 e8 22 be
       0.35022506 -0.003548202 0.006458081 -0.15908815
000010 47 18 d8 3d 3c 70 ca bd 15 7e 23 3e f2 3f 8f be
       0.105515055 -0.09884688 0.15966065 -0.27978474
000020 ab c9 f6 3d 61 91 34 3e 91 cb 93 be a8 a1 7c 3d
       0.12050184 0.17633583 -0.28866246 0.061677605
000030 f2 f5 8c be bd 2c 10 3d 64 35 be 3d 33 31 d7 bd
       -0.2753139 0.035198916 0.09287527 -0.10507431
000040 e7 5e 9c 3d 3d 13 83 be 9e 25 d0 ba de b0 36 3e
       0.07635289 -0.25600615 -0.0015880351 0.17840907
000050 ec 5c df 3b d9 55 75 3d 96 f1 66 3d 6a f0 bd bd
       0.006816497 0.059896324 0.056382738 -0.09274371
000060 8c 43 e3 3d 1c d9 8d 3d a0 5c ba bc aa 5b 4d bd
       0.11096868 0.06926176 -0.022749245 -0.050136246
000070 a0 15 19 be 02 a7 16 3e ed 66 ea 3c b1 89 94 3a
       -0.14949656 0.14712146 0.028613532 0.0011332539
000080 71 b2 09 bd b8 9f 01 be 2f fd 1b 3e 7d 83 fc 3d
       -0.03361744 -0.12658584 0.152333 0.12329767
000090 a7 d3 81 be ae e3 02 3d 03 60 ce 3c 7a 5e 7f be
       -0.2535679 0.031955414 0.025192266 -0.24938384
0000a0 88 b9 af bd 21 09 54 be 4f 7a 81 be 75 c9 b4 bc
       -0.08580309 -0.20706607 -0.25288627 -0.022068718
0000b0 8f 32 bb bd c5 c2 a3 be 32 5a 4e be de 9b 27 be
       -0.09140503 -0.31984535 -0.20151594 -0.16368052
0000c0 30 17 2b be f6 2b 15 3e 58 5d 93 be 7f 9d bc be
       -0.16708064 0.14567551 -0.28782153 -0.3683891
0000d0 1b 5d 19 3e 2e cd 48 3d fe cf ce bd 1e 38 a5 3d
       0.14976923 0.0490238 -0.10098265 0.08067344
0000e0 97 0e 80 bd 31 8d 0b 3d 3a b9 ec 3d 55 10 b0 bd
       -0.06252783 0.034070197 0.11558767 -0.08596865
0000f0 51 23 93 3b 3c 36 21 bd e6 37 87 bc b4 69 e4 bd
       0.004490294 -0.039358363 -0.016506147 -0.11152974
000100 3c ed cf bd 0f fa 10 be ea 87 96 bc 34 70 62 3e
       -0.10152671 -0.1415789 -0.018375356 0.22113115
000110 7b cb 0d 3e cd 95 17 3e f9 c3 3a 3d 5a 9e 2e 3e
       0.13847153 0.14803238 0.04559705 0.17052594
000120 8a 79 23 3e e5 ca 80 be ab 21 99 be 3b 33 05 3e
       0.15964332 -0.25154796 -0.299085 0.13007824
000130 e7 4c 19 3e 9c 2a e6 3d 14 2c 2c 3e 29 99 63 be
       0.14970742 0.11238596 0.1681369 -0.22226395
000140 d1 26 04 be 06 9c cd be 8a 4f 60 3e 2b 00 5a 3e
       -0.12905432 -0.401581 0.21905342 0.21289127
000150 b5 79 ce be 19 ce c0 3d ca c5 6a be ff 43 00 be
       -0.4032723 0.0941431 -0.22927013 -0.12525938
000160 4a ff 10 be 2d 75 4c 3d bf d1 56 3d 8e f9 a0 bd
       -0.14159885 0.049916435 0.052446123 -0.07860099
000170 fe 45 8c 3d e8 40 d0 bd 8d 8b 1f 3d ba 51 98 bc
       0.068492875 -0.1016863 0.038951445 -0.018593658
000180 9f cb b8 bd b7 3c 16 3e ca 5f 82 3d 48 4b 0a 3e
       -0.09023213 0.14671598 0.063659266 0.1350528
000190 3d 09 31 be cd 5b a9 3d 13 73 21 3e 46 c3 f5 3d
       -0.1728868 0.08269463 0.15766554 0.12000136
0001a0 c2 17 da 3d 34 4b be bd 7b a7 9f bd 65 b6 97 bd
       0.10649063 -0.092916876 -0.07795616 -0.07407836
0001b0 06 35 6a be 32 f7 75 bd 57 9d 10 bd 97 d7 3a be
       -0.2287179 -0.060050197 -0.0353063 -0.18246303
0001c0 24 83 63 be a5 14 10 be 53 c3 2b bc 13 59 ee bd
       -0.22217995 -0.14070375 -0.010483581 -0.11638083
0001d0 fb d1 66 3e 90 24 77 bd d6 7b c9 3e 56 20 32 be
       0.22541039 -0.060337603 0.39352292 -0.17395148
0001e0 98 9a 33 39 70 b0 a9 3e 24 14 9a 3e b1 b4 5a be
       0.00017128361 0.33142424 0.3009349 -0.21357991
0001f0 63 11 85 3e 6d 41 91 be 70 81 58 bb 88 c5 46 3c
       0.25989828 -0.28370228 -0.0033036135 0.012132056
000200 20 e6 38 3d 7f fd 9c 3c 1c e6 73 bd 8e 01 2c 3b
       0.04514134 0.019163845 -0.05954562 0.0026246044
000210 09 dc 6f bd 0a 20 b8 bd 57 70 86 bd cf c9 fa 3d
       -0.05855945 -0.08990486 -0.06564396 0.12245523
000220 e0 8e a7 3d 77 6d 04 3e ed b6 2b 3c 93 2b 5f bd
       0.08181548 0.12932383 0.010480625 -0.054484915
000230 74 d0 3a 3e b3 13 e1 bd a5 4b f1 bd 34 22 20 be
       0.18243581 -0.109900855 -0.11782006 -0.15638047
000240 96 e2 31 be 1d 9b 91 be 44 90 e8 bd b9 c9 c7 3d
       -0.17371592 -0.28438655 -0.113556415 0.097552724
000250 5a 71 d2 bd 46 35 cb 3d 1c 49 cf 3d f7 fb cf 3d
       -0.10275526 0.099222705 0.101213664 0.1015548
000260 b7 05 cd 3d 12 e6 0c be c2 0e be bd 06 3a 62 be
       0.10010856 -0.1375964 -0.092801586 -0.22092447
000270 03 92 ae 3d 95 0b 06 3e eb dc 03 3e 7b 7b fd 3d
       0.08523943 0.13090356 0.12877242 0.12377068
000280 41 af 89 3e da d2 61 be 17 3d 72 3c 27 8e 17 3c
       0.2689152 -0.2205309 0.014785073 0.0092502
000290 ad fa 16 3b 74 fa fa 3b 7d f9 f1 bd 0b a2 9f bd
       0.0023037598 0.007659251 -0.11815164 -0.07794579
0002a0 80 e2 89 bb e5 d4 9a 3c c1 89 0b 3e cd da 60 be
       -0.004207909 0.018900344 0.13626768 -0.21958466
0002b0 71 91 80 be 2b 79 4a be 09 37 29 be f5 1e 2f be
       -0.25110963 -0.19772784 -0.165249 -0.17101653
0002c0 99 b2 08 3d c1 87 1c be 17 33 b3 bd 70 0f b6 3d
       0.03337345 -0.15286161 -0.08749979 0.08889663
0002d0 44 8f d8 3e 8d ce 17 3e e8 7a c6 3e 25 5c c3 bd
       0.42296803 0.14824887 0.38765645 -0.095390595
0002e0 f0 f4 84 3e 54 0b 39 3e 29 e7 3f 3e 9d ad 76 3e
       0.25968122 0.18070728 0.18740524 0.24089666
0002f0 78 99 b6 3e d9 01 25 be 35 c4 2b be c0 eb 01 be
       0.35663962 -0.16113986 -0.16774066 -0.12687588
000300 7f 9e fa bd e8 c1 ad bd fe 30 84 ba f5 90 80 3d
       -0.12237262 -0.0848425 -0.0010085402 0.06277648
000310 8e 67 51 bd e5 b5 0b be 48 59 32 3b 1f 19 3e bd
       -0.051124148 -0.13643606 0.002721386 -0.046410676
000320 de c7 77 3d 24 5b fc 3c a2 2a 80 bd c6 c5 a7 bd
       0.060493343 0.030805178 -0.062581316 -0.08192019
000330 3c 2e 85 bd 74 ca bd bc b5 3b bb 3d 90 8f 02 3d
       -0.06502959 -0.023167826 0.091422476 0.031875193
000340 32 11 e1 3d bf c1 1c be 06 c1 12 3d ec 21 85 3b
       0.10989608 -0.15308283 0.035828613 0.0040628817
000350 7c c8 c4 bd 3f d4 7d bd ea c3 63 bd 2a 42 26 3e
       -0.09608552 -0.06196999 -0.05560676 0.16236177
000360 3e c6 f0 3d e0 50 63 3e 2b 37 92 be a1 5e 0c be
       0.11756562 0.2219882 -0.28557715 -0.13707973
000370 64 64 53 be 86 e2 3d 3c b1 f2 b5 3e cb 70 8c bd
       -0.20643765 0.011589652 0.3553672 -0.06857451
000380 7d 73 24 bd 44 97 5a 3e b7 a8 32 be 4e d4 9e 3e
       -0.0401492 0.21346766 -0.17447172 0.3102135
000390 9e 4a 1f be 74 22 d9 3c da ce 15 bd 21 f6 a3 3e
       -0.15555808 0.026505686 -0.036574222 0.3202372
0003a0 51 c3 41 be e0 29 35 3d c5 96 1b 3d 14 62 f7 3d
       -0.18922164 0.04422939 0.037985582 0.12079254
0003b0 e7 0e ff 3c 7c 91 bd 3c 4d 5b d9 3c 36 45 ba bc
       0.031135036 0.023140661 0.026532793 -0.02273808
0003c0 f2 aa c1 bd 51 36 d8 3d cd ac 22 bd 0b 7e e9 bd
       -0.09456433 0.10557235 -0.039715577 -0.11400994
0003d0 05 55 4c 3c 7c f7 0c bd e5 0e c3 3d 7a 7d fb bd
       0.012471442 -0.034415707 0.09524325 -0.12279792
0003e0 dc e7 8f 3c ee d8 d0 3d 07 9a 88 bd 27 29 e8 3c
       0.017566614 0.10197626 -0.066700034 0.028339935
0003f0 93 43 42 be 22 f8 86 3e 37 05 8a bd 36 61 67 3c
       -0.1897109 0.26361185 -0.06739276 0.014122298

conv1.bias f4 [32]
000000 ab 11 4f bc 6a f9 58 bd 58 a7 87 3d 3b a1 fc 3c
       -0.01263849 -0.052972235 0.06623715 0.0308386
000010 0b 24 55 bc c5 fb 10 be e9 27 3c 3e c2 7c 14 be
       -0.013009082 -0.14158542 0.183746 -0.14500716
000020 ce a5 1d be 43 95 03 3e 2e a9 9f 3d 9e 37 b1 bd
       -0.1539528 0.12849908 0.0779594 -0.08653186
000030 fd b1 23 bd ad 06 6e 3d bd e0 74 bc 92 a7 14 3e
       -0.039964665 0.058111835 -0.01494616 0.14517048
000040 61 71 94 3d 4f c8 b9 bb 44 b8 37 be 02 57 03 3d
       0.07248188 -0.0056696306 -0.17941386 0.0320654
000050 9f 64 f3 bd 3a 49 4e bc 79 dc da bc a0 fd 0e 3e
       -0.11884426 -0.012590701 -0.026716458 0.13963938
000060 b8 1b 1c 3e a5 68 1e 3e 91 1c 51 3d c4 e2 8f 3d
       0.15244949 0.15469606 0.051052634 0.07025674
000070 43 02 8c 3d 42 e1 0b be 71 77 89 bd c6 54 47 be
       0.06836369 -0.13660148 -0.06712235 -0.19465932

conv2.weight f4 [64, 32, 3, 3]
000000 ff ac c3 bd 0c 93 14 bb 0b 57 19 bd 0d bf 2d be
       -0.09554481 -0.0022670655 -0.037436526 -0.16967411
000010 cb e4 07 3e 45 67 80 bd 6e 9b 8e 3d 46 1a 39 be
       0.13270871 -0.06269697 0.069632396 -0.18076429
000020 49 ef 29 3d cc 2b 8d bd 55 58 46 3d c3 cb 08 bd
       0.041487966 -0.06893119 0.048424084 -0.033397447
000030 ab b7 81 3b 26 74 17 3d 9b 44 f3 3d de 4a 2a 3e
       0.0039586625 0.036976002 0.1187832 0.16630122
000040 20 db 28 be bf 6f f3 bc bb de d3 bd 9b 2c 52 3d
       -0.1648984 -0.02971637 -0.10345217 0.05131207
000050 af 47 55 bd e1 f9 05 3d 07 6b ba 3d ab 88 de bb
       -0.052070316 0.032709006 0.09102445 -0.0067911944
000060 3b c2 3e bd 38 b8 3b 3e ea 81 8d bc 4c f9 2f 3e
       -0.04657195 0.18331993 -0.017273862 0.17184943
000070 af cc bd bd 39 7e 22 be 39 30 58 be a4 02 67 3c
       -0.09267556 -0.15868463 -0.21112145 0.014099751
000080 62 83 2c be b2 da ee bd 2d 1f 57 3d ff 6f df bb
       -0.16846994 -0.116628066 0.052519966 -0.006818771
000090 c7 9f d9 bd 0a 04 c5 3d 74 fa 67 bd 5d bf 07 be
       -0.10626178 0.09619911 -0.056635335 -0.13256593
0000a0 17 81 83 3d df 83 75 3d 68 44 8a 3d 4b 83 89 bd
       0.06421106 0.059940215 0.06751329 -0.06714495
0000b0 dc c6 50 bd eb c3 0b 3d 39 fb e6 3d aa a8 00 3e
       -0.050970897 0.03412239 0.11278386 0.1256434
0000c0 8b 8d 4d 3e dc ca 85 3d fc fb b8 3d fb 09 72 3e
       0.20073526 0.06532833 0.09032437 0.2363662
0000d0 e2 74 0b 3e ca 60 67 3d 8c ed e1 bc 04 9d 49 be
       0.13618806 0.05648879 -0.027579091 -0.19688803
0000e0 38 fc b1 bc 82 ea e5 bc 11 92 40 3e e8 5a 96 3c
       -0.021726713 -0.028065924 0.1880572 0.018353894
0000f0 4e 07 bc bd c0 84 65 be 9c 33 c2 bd b8 19 91 3d
       -0.09181081 -0.22413921 -0.094825 0.070849836
000100 ee 9e a4 bd 14 13 94 3c 95 f6 a6 3d 98 65 2b 3d
       -0.08038126 0.018075503 0.081525005 0.041844934
000110 2f e3 f3 3c 1b 87 bb bd 88 d9 0c 3c c3 13 b7 bd
       0.029771416 -0.09156629 0.008596785 -0.08939316
000120 fe 9e c7 bc f0 a2 38 bd ca 6b 8d 3d 2a c8 07 3d
       -0.024367806 -0.045077264 0.06905325 0.033149876
000130 73 4f e4 3c fa af 13 be 47 47 ce 3d 85 5e 94 bd
       0.027869916 -0.14422598 0.10072189 -0.07244591
000140 b9 4e 12 bd 0b 99 a4 bd df 3b 1e bd 78 61 b6 3d
       -0.035719607 -0.08037003 -0.038631316 0.089053094
000150 1d d1 8c 3d 40 5c 90 3d c5 ab 90 3b 8a 01 80 bd
       0.06875823 0.07048845 0.004415008 -0.062502936
000160 2a e2 0c bc 25 87 11 bd cd 9d e6 bd b5 11 d9 bd
       -0.008598844 -0.035529274 -0.11260567 -0.105990805
000170 9e 8d f2 bd 4e da 88 bd 20 a1 24 bd 8c 67 03 be
       -0.118434176 -0.06682263 -0.040192723 -0.12832469
000180 00 31 20 be b2 1b 0d be 4c 46 93 3d 21 3c 07 be
       -0.15643692 -0.13780096 0.071911424 -0.13206531
000190 35 a1 74 be 84 10 23 bd 3b 11 9a be 76 f0 11 3e
       -0.2388962 -0.039810672 -0.3009127 0.14251885
0001a0 24 fb a1 3d 97 a5 9e bd 4b 32 03 be a4 4c 5d 3e
       0.079092294 -0.077464275 -0.12812154 0.21611267
0001b0 b3 91 89 3d 72 62 0a bd f7 30 8e 3e fb 77 3f be
       0.06717243 -0.03378529 0.27771732 -0.18698113
0001c0 0f a0 89 3d 3f e2 89 3d ae f2 94 bd 6c a3 9a 3c
       0.06719982 0.06732606 -0.0727285 0.018876754
0001d0 f8 ca 75 3a a2 fd 1b bc f0 e7 06 3e 84 a0 08 bc
       0.0009376253 -0.00952092 0.13174415 -0.008339051
0001e0 4a ea a6 3c 8f 94 b7 bd 3c cf e3 bd fe 61 31 3d
       0.02037539 -0.08963882 -0.11123511 0.043306343
0001f0 21 5c 0a 3d 48 a3 1e be 65 28 af be e0 c4 38 be
       0.033779267 -0.15491974 -0.34210506 -0.18043852
000200 d0 dd 50 bd 50 01 b3 3c 1d 25 08 bd 59 e8 f1 3b
       -0.050992787 0.021851212 -0.03323852 0.0073824343
000210 bb 96 52 bc e8 0b aa bc 8b 6c 8a 3d df b5 5c 3d
       -0.01285332 -0.02075763 0.06758984 0.053884383
000220 02 79 1f be 39 e0 c4 3d 1c b3 c2 bd ea b9 11 be
       -0.15573505 0.096130796 -0.09506819 -0.14231077
000230 40 da 86 be bf ab 63 3c b6 97 0a 3e b4 85 ff 3c
       -0.26338387 0.013895928 0.13534436 0.031191684
000240 1d 9f 52 bc e1 79 20 be cf 63 7a bc 1d c6 60 be
       -0.012855318 -0.15671493 -0.015282585 -0.21950574
000250 ec ea ce bb 61 fc 14 3e 43 bf 41 be 30 35 8a bd
       -0.006314626 0.145494 -0.18920617 -0.06748426
000260 ac a9 8d bc c5 c3 16 bd c3 94 1f bc 45 77 bf 3d
       -0.01729282 -0.036807794 -0.009740057 0.09348921
000270 18 d3 10 3e 83 d7 60 bd de ac d4 3c d0 ae 3f 3e
       0.14143026 -0.054893028 0.025961336 0.1871903
000280 c6 e3 77 3c 26 ff a9 3d 91 90 28 3d 3e 38 82 bb
       0.015129989 0.08300619 0.041153494 -0.0039739897
000290 5a 75 d6 bc c4 bc 7c 3e 4a a6 16 3e 9c 65 44 3e
       -0.026179004 0.24681383 0.14711872 0.19179386
0002a0 8c b5 7b 3e 3b 91 05 3d 1b 60 47 be 3e 10 9c bd
       0.24580973 0.032609206 -0.19470255 -0.076202855
0002b0 43 61 0d bd 7c 6e ca bd 26 a3 69 be 92 8b ea 3c
       -0.034516584 -0.098843545 -0.22816142 0.028631005
0002c0 17 a9 6e be 8f b0 65 3e 46 d5 0c 3b 08 5b ce 3d
       -0.2330669 0.22430633 0.0021489426 0.100759566
0002d0 f2 78 8f 3d 9a 59 a1 be f4 74 e7 bd aa e5 f5 bd
       0.0700549 -0.31513673 -0.11301604 -0.120066956
0002e0 80 78 29 3b 5e 25 ea 3d 39 c2 bf 3d 7d 3e 49 3e
       0.0025859177 0.114329085 0.09363217 0.19652744
0002f0 1d f2 21 3e 4e 43 2c be 44 67 34 bb fa 21 80 be
       0.15815015 -0.1682255 -0.0027527371 -0.25025922
000300 e8 e1 56 3e f4 d3 d1 3c bf 57 86 3c 7d 11 03 be
       0.20984614 0.025613762 0.016399262 -0.1279964
000310 65 28 6b 3b a5 ae 14 be de c1 89 bd d3 21 ec 3d
       0.0035882231 -0.14519747 -0.0672643 0.11529889
000320 96 6c 8d bd 43 e1 a8 3d 28 76 86 bc 46 88 d3 3d
       -0.06905477 0.0824609 -0.016413763 0.103287265
000330 18 9a 31 3c 02 9a 1f 3e 6d aa c2 bc f4 73 d3 3d
       0.0108399615 0.15586093 -0.023762906 0.10324851
000340 54 f7 8e bd 14 90 49 3e 9e 33 ca bc fa 01 17 bd
       -0.06980768 0.19683868 -0.024682816 -0.03686712
000350 03 9c 12 3c 70 9e 79 bd 7d ca 15 be 44 d2 ae bd
       0.008948329 -0.060942113 -0.14628024 -0.08536199
000360 31 30 11 3e 02 e7 9f bd 2a e6 c2 3c 46 32 38 3e
       0.1417854 -0.07807733 0.023791391 0.17987928
000370 a4 50 28 bd b7 76 9c 3d 13 f0 3c 3e de 20 26 be
       -0.04109253 0.076398306 0.18450956 -0.16223475
000380 5d a9 fa bc b9 d6 71 be 25 ee 32 be 8c 5e 43 3c
       -0.030598337 -0.23617066 -0.17473657 0.011924397
000390 be 57 d5 bd c3 13 fa bd a9 5b 46 be 6c 98 26 bd
       -0.10417126 -0.122108005 -0.19370903 -0.040672705
0003a0 bc 7b 07 3d 05 2f 3b bc f8 18 b4 3d 26 ad 8b bd
       0.033076987 -0.011424785 0.08793825 -0.06820135
0003b0 66 c4 55 3c e5 89 ac be 09 a5 2c be 30 27 df bd
       0.013047313 -0.33698955 -0.16859831 -0.10896146
0003c0 4c a8 12 be 64 e0 d4 3d da 6a 79 3d fc 4c b9 bd
       -0.14322013 0.103943616 0.060892917 -0.09047887
0003d0 c6 ba 20 bb 07 85 4b 3d d6 43 ca 3c f7 34 b3 3d
       -0.0024525388 0.04968741 0.02469055 0.087503366
0003e0 6b 77 0e be 9b 95 24 3e 1e ad c9 bc 92 93 95 bd
       -0.13912742 0.16072695 -0.024618682 -0.073035374
0003f0 ac aa 63 3d 59 67 20 be b1 57 45 3d 72 f0 c8 3c
       0.055582687 -0.15664424 0.048179332 0.024528716

conv2.bias f4 [64]
000000 8b c0 d2 bc ac 01 ac 3c 44 14 84 bd fd fd 61 bd
       -0.025726577 0.020996891 -0.06449178 -0.055173863
000010 99 d4 ad bd f7 25 8a 3d 65 a1 a8 3c 8c 4b 8c bc
       -0.084878154 0.067455225 0.020584771 -0.017125867
000020 45 b8 cb bb 23 18 ac bd 6a 48 28 bd 34 b3 4f bd
       -0.006217035 -0.08403041 -0.041084684 -0.05070801
000030 f6 5c 55 3d 14 fe 19 3b 31 fc 6c 3d dd a0 b5 3c
       0.052090608 0.002349739 0.057857696 0.022171432
000040 95 6c 51 bd c0 1e 9c bb d6 de 09 bd a6 e2 c6 3c
       -0.051128943 -0.004764408 -0.03365978 0.024277996
000050 80 8b 15 3d dd 7e 5e 3d 44 50 31 bd da 5b b8 3d
       0.03650999 0.054320205 -0.043289438 0.09001894
000060 c4 e2 d2 bd b7 a9 52 3d bf 81 87 3d e8 cf 05 bd
       -0.10297158 0.051431384 0.06616544 -0.032668978
000070 dd eb 12 3c 0e 91 b2 3a b6 25 8a 3d b8 97 9e bb
       0.008967367 0.0013623552 0.06745474 -0.0048398636
000080 71 4a dc bd 16 80 47 bd 5c 77 dd bc ac 0d 2c bd
       -0.10756386 -0.048706137 -0.027034454 -0.042005226
000090 0a a4 30 3b 5d 01 b5 bd fc dd a6 bd c2 b4 34 3d
       0.0026953244 -0.08838151 -0.08147809 0.044117697
0000a0 ef 52 39 3d f6 a9 38 3d 65 3b b4 3c a9 e6 5c bd
       0.045245107 0.045083962 0.022000978 -0.053930912
0000b0 5a 83 6e bd cf fe b0 3c 49 cf 97 bb f8 40 42 3c
       -0.058230735 0.021605877 -0.0046328646 0.01185631
0000c0 32 8b 8f b9 af 4b 95 bd 24 c7 0f 3b 1a 29 b4 bc
       -0.00027378794 -0.07289826 0.0021938765 -0.021992255
0000d0 15 0e 85 bd 2a 2e 04 bc 83 61 cd 3c 40 17 a4 3a
       -0.064968266 -0.008067647 0.025070911 0.0012519136
0000e0 a7 48 a0 3c 6c dd 55 bd 07 eb b0 bd 99 0b 0f be
       0.019565893 -0.052213117 -0.08638578 -0.13969268
0000f0 c5 82 93 3c bf c1 8e bc 34 2c a1 bc 02 9a 4c bd
       0.018006692 -0.01742637 -0.019674398 -0.04995156

conv3.weight f4 [128, 64, 3, 3]
000000 91 99 4b bd b2 2a 21 be c9 fa 08 be e6 6e 56 bd
       -0.049707 -0.15738943 -0.13376917 -0.052351855
000010 95 b0 2b bd 6a 20 88 3d 2e c4 6c 3d 84 e3 49 bd
       -0.04191645 0.066468075 0.05780428 -0.04928924
000020 a6 ee d5 bd fd a8 46 bc 19 03 b1 bc 93 e1 8a bc
       -0.10445909 -0.012125251 -0.021607922 -0.016953265
000030 31 ff 83 3d e9 24 2c 3d 2f ef 86 3d 02 19 26 3d
       0.06445158 0.042027388 0.065885894 0.040551193
000040 bc 90 86 3c d6 c4 e4 3d 9a 7c 0d bd a6 75 99 bd
       0.016426437 0.11170356 -0.034542657 -0.07493143
000050 b1 07 b7 3d 3c 72 1a bd 82 9b bc bd 5e e1 12 3c
       0.08937014 -0.0377066 -0.09209348 0.008964865
000060 59 ca c9 3a 2c e3 b2 bc e0 d4 dc bb 02 06 c6 3d
       0.0015395387 -0.02183684 -0.006739244 0.09669115
000070 97 11 9c 3d b5 bf 44 3d 00 c7 2e 3d 3d 11 2c be
       0.076205425 0.04803439 0.04267025 -0.16803451
000080 b1 44 08 3e 59 53 17 3d be 63 99 3a 90 69 85 bc
       0.13307454 0.03694472 0.0011702699 -0.016285688
000090 f7 ae b8 bd 98 58 4a 3d 05 f9 09 bd 91 1d e7 bd
       -0.09017747 0.049400896 -0.03368475 -0.11284936
0000a0 b4 cb e2 bd 0b 92 a0 3d 5a 21 29 3d 19 46 4e bd
       -0.110740095 0.078403555 0.041291572 -0.05035982
0000b0 0c 91 61 3d 16 13 a0 3c a1 ab 4d bd 53 2a a1 bd
       0.055069968 0.01954035 -0.050212506 -0.07869401
0000c0 96 76 da 3c b3 a5 44 3c b2 20 f8 3c 65 b5 36 3d
       0.026667874 0.012002396 0.030289028 0.044606585
0000d0 6d 10 3d 3c 2e e6 b4 bb 16 4d 6d 3d 88 e9 55 bd
       0.011539561 -0.0055206036 0.057934843 -0.052224666
0000e0 ed 02 a0 3b 2a 43 50 3c 0e 53 7e 3d 43 a4 b5 3d
       0.0048831613 0.012711326 0.062090926 0.08869221
0000f0 0a 58 14 3d a6 cb 97 3d 94 4d 25 3d 6e cd bf bd
       0.036216773 0.0741189 0.040357187 -0.093653545
000100 4f 13 ca bd af 42 cb bd 07 22 85 3d 5a 3c f7 bd
       -0.09866964 -0.09924828 0.06500631 -0.12072058
000110 6f 22 cf 3d e0 9d e5 3c 53 e6 a4 3c d9 48 32 bd
       0.101139896 0.028029382 0.020129358 -0.043526504
000120 b0 70 e9 3c 77 d6 83 3d da 77 e1 3d 8c 04 a1 3d
       0.028496116 0.0643739 0.11009188 0.078621954
000130 c7 74 64 3d 52 7f 6c 3d cd 66 ba 3d 33 78 a6 3b
       0.05577543 0.05773861 0.09101639 0.005080247
000140 64 fe 35 3d 41 d1 0d 3d 5d d8 af bc 05 cb 1d bd
       0.04443206 0.03462339 -0.021465475 -0.038523693
000150 42 86 d8 3c f9 86 15 3e c2 81 c0 3d 26 4b c2 3b
       0.026431207 0.14602269 0.09399749 0.0059293685
000160 3a 3e b2 3d fc 97 83 bb 78 29 5c bd 16 8c d0 3c
       0.08703275 -0.0040159207 -0.053750485 0.025457423
000170 50 7a 0f 3d 64 24 2a 3d ad 95 d4 3c 16 ae b4 3d
       0.035028756 0.04153861 0.025950277 0.08822267
000180 18 6a 22 3e 92 36 b2 3c 9d 93 0b bd 32 b3 e5 bc
       0.15860784 0.021754537 -0.034076322 -0.028039549
000190 86 42 60 bd 64 ad 75 3d 35 e1 30 bd 74 bc 0b 3e
       -0.05475094 0.05997981 -0.043183524 0.13646108
0001a0 5e 93 b1 bd bb 93 25 bd 98 1f 83 3d 17 1f e2 3d
       -0.08670686 -0.04042409 0.064025104 0.11041086
0001b0 32 14 9d bd 2b db 7b bd 42 17 af bd 91 e6 5f bc
       -0.076698676 -0.06148831 -0.08549358 -0.013665811
0001c0 64 55 2a be 3c 0d e1 bd 93 1e 87 bd 6d c9 79 bd
       -0.16634136 -0.109888524 -0.065976284 -0.06098311
0001d0 25 b9 b4 bd 57 e6 fb 3c 9e 4c 85 3d c9 e5 d4 3a
       -0.08824376 0.030749483 0.06508754 0.0016242798
0001e0 eb 89 ea bc 74 7d 30 bd 73 7a 51 3d b0 85 5a 3d
       -0.028630218 -0.04308839 0.051142167 0.05335015
0001f0 8b 58 0d 3e c1 ab 2d bd cf a4 da bd 3f 32 c7 3b
       0.13803308 -0.042400125 -0.10675966 0.006078988
000200 6f a8 bd bd fd 97 a8 3c 08 85 0b be 07 6e 6b bd
       -0.09260642 0.020580286 -0.13624966 -0.057477977
000210 93 d8 1a be 36 b9 78 bd 93 2a 98 3d e7 5f 8b bd
       -0.15121679 -0.060723506 0.074299954 -0.06805401
000220 ec ed 36 be f4 c8 e0 3b 57 db 36 3c 44 0f 85 bd
       -0.17864197 0.006859893 0.011160693 -0.06497052
000230 93 8f d3 bc 13 35 08 bd 00 a4 e3 bc 7a d1 fc bd
       -0.025825297 -0.03325374 -0.027788162 -0.12344642
000240 fa 60 be bd 4b 75 bd bd 90 a4 b6 bd d2 d7 a9 3d
       -0.092958406 -0.092508875 -0.089181066 0.082931176
000250 36 59 04 3e 20 70 d2 bc 67 e7 e6 bd 3b 4d 64 bc
       0.12924656 -0.025688231 -0.11274605 -0.013934429
000260 92 e6 11 be 02 13 0c 3d e8 bc 28 3d 6f 64 ff bc
       -0.14248112 0.034197815 0.04119578 -0.03117582
000270 d2 49 48 bd 0f eb 1e be 0c 89 8d bd 61 6b eb 3c
       -0.048898526 -0.15519355 -0.06910905 0.028737726
000280 2f d3 da 3d 1a 00 06 bd 9c 3d e8 b9 03 51 8c 3d
       0.10684811 -0.03271494 -0.0004429639 0.06851389
000290 d2 be d8 bd 81 b2 b9 bd 8d cb 48 bd 0c 46 28 bc
       -0.10583271 -0.0906725 -0.049022246 -0.010270607
0002a0 e8 3b 50 bd f6 0f 3f bd cc d5 89 3c 03 b3 e8 ba
       -0.05083838 -0.04664608 0.01682558 -0.0017753545
0002b0 fc 49 88 bd ff 50 82 bb fe 2b 34 3c 65 70 74 3d
       -0.066547364 -0.0039769406 0.010996817 0.0596775
0002c0 2d 0e f2 3d 3d 7f 06 be 2f 29 a4 bd 8a 0c 8a bd
       0.1181911 -0.13134475 -0.08015668 -0.06740673
0002d0 0b af a0 bc e9 0c 3e be d0 22 e9 bd ea 9c 49 3d
       -0.019614717 -0.18559612 -0.11383593 0.04922191
0002e0 6f ec 80 3c 1d 3d c4 3b f5 0f 8d bd ed ea 59 bd
       0.01573774 0.0059887306 -0.06887809 -0.05320256
0002f0 bd 3f 80 bd 6a 53 82 3d f8 2c 51 bc 37 b5 96 bd
       -0.06262157 0.06363566 -0.012767069 -0.07358783
000300 fb 25 03 bd 6c ed 87 3d 1e 19 11 3e 03 b0 87 3d
       -0.032018643 0.066370815 0.14169738 0.066253684
000310 f6 23 3b 3e 8e 36 6e bd fd ec 86 bd ae 40 9f 3c
       0.18275437 -0.058157496 -0.06588171 0.019440021
000320 b8 d9 ef 3d 18 26 80 3d 53 94 85 3d 11 2f d3 3d
       0.117114484 0.06257266 0.06522431 0.103117116
000330 e6 eb df 3d 5e fc 13 be bf 20 a0 bd 13 6c 95 bd
       0.10933666 -0.14451739 -0.07818746 -0.07296004
000340 7a e7 f8 3c d6 2c a9 3d b2 1c 9a 3c 6e a3 1f 3d
       0.030383814 0.08260505 0.018812511 0.038974218
000350 af fd db 3c ef e8 f1 bc 2a 55 7a 3c ba 7c 49 3d
       0.026854364 -0.029530017 0.015279094 0.049191214
000360 40 26 db bd 4e cd 10 bd da e6 11 bd 58 95 31 bd
       -0.10700655 -0.035352044 -0.035620548 -0.043355316
000370 f8 3a 2a 3e 90 38 00 3d 3e a2 23 bd 7c e1 02 be
       0.16624057 0.031303942 -0.039949648 -0.12781328
000380 42 36 15 3d cd 6a b0 3d ad 17 10 be 5f ef 97 bb
       0.036428697 0.08614121 -0.14071532 -0.0046366896
000390 90 d2 dc bc dc 02 cd 3c a1 ef 1e be dd 69 58 3d
       -0.026955873 0.025025778 -0.15521099 0.052835334
0003a0 36 31 7f 3d 0f 04 1a 3c 0f 36 a9 3d 27 0f 90 bd
       0.06230279 0.009400382 0.08262264 -0.0703414
0003b0 22 1c d1 bd 7f c5 f9 bd 81 9b 03 be 3f 8d f5 bd
       -0.10210444 -0.121958725 -0.12852289 -0.11989831
0003c0 ac cc b6 3d 37 22 92 3d 46 4d 1d bc 73 b6 81 3d
       0.08925757 0.07135432 -0.009600943 0.063336276
0003d0 b8 56 a3 bc fd 9f 15 bb 36 85 87 bd 0e f3 d5 bc
       -0.019938812 -0.0022830956 -0.06617205 -0.026116874
0003e0 7c 45 d0 3d e2 f6 15 bc 28 d9 95 3d 13 fb 7b 3d
       0.10169503 -0.0091531 0.0731681 0.06151874
0003f0 e1 7a 03 3e 05 1f 38 bd 14 16 56 bb 3d 02 ce bd
       0.12839843 -0.044951458 -0.0032666968 -0.10059021

conv3.bias f4 [128]
000000 bf a9 c5 3c 58 21 29 bc be b4 ba bd 67 e7 73 3c
       0.024128793 -0.010322891 -0.09116505 0.014886714
000010 2f 83 c7 bd e2 f0 9f 3d dd d7 64 bc 4f 86 a0 bd
       -0.09741818 0.078096166 -0.013967481 -0.07838117
000020 69 9e e9 3c 25 da 0a 3d 3f b7 4e bc dc 77 bc 3d
       0.028517919 0.033899445 -0.012616931 0.09202549
000030 35 76 8d 3c 60 4c 36 3d 74 9f d7 bd 20 ab 31 3d
       0.01726828 0.04450643 -0.1052846 0.04337609
000040 14 89 52 bd 94 34 91 3d ce 20 09 3e 9c 63 ad b5
       -0.05140026 0.070901066 0.1339142 -1.2918495e-06
000050 c1 bf 00 3d 8e 76 cf 39 36 a9 c6 3c 51 a2 6c bd
       0.03143287 0.00039570447 0.024250608 -0.057771984
000060 26 ff 6c ba 01 15 79 bd 44 dc 12 3d 66 63 d6 3b
       -0.00090407056 -0.060811047 0.035854593 0.006542611
000070 e2 1d 5a bd 27 8f 0f be 7a 84 12 bd 5f 53 21 3c
       -0.053251155 -0.14019452 -0.03577087 0.009846537
000080 ad 5b 9e 3d 0f ce 25 3c 8d 22 83 bc 33 83 80 bc
       0.077323295 0.010119929 -0.016007686 -0.01568756
000090 37 34 88 bd ef 3b 85 96 b4 ec 2a bd 0b f0 9b 9a
       -0.06650584 -2.1525132e-25 -0.041729644 -6.449431e-23
0000a0 5d 82 c9 3c 08 1b 35 bd 38 13 dd bd 31 91 c6 bd
       0.024598295 -0.044215232 -0.10794681 -0.09695662
0000b0 fb 64 2d 3c 68 dc 87 3d d2 a8 b4 3a 76 19 d2 bd
       0.010583158 0.06633836 0.0013783223 -0.102587625
0000c0 a0 5f a7 3c 7e 09 35 3d 18 c2 87 3d cc bd 2c bb
       0.02043134 0.044198506 0.06628817 -0.0026358245
0000d0 e0 c3 95 3c cc 78 6c bd 5e 37 01 3c 60 a9 73 3c
       0.018281877 -0.05773239 0.007886736 0.014871925
0000e0 42 1e ee bc 7b 5f 17 bd 69 df 85 bd 4d f5 05 bc
       -0.029067162 -0.03695629 -0.06536753 -0.00817616
0000f0 48 56 85 bc 13 8f 95 bd b4 ad 88 bc be 9a 2a bc
       -0.016276494 -0.0730268 -0.01668439 -0.01041287
000100 c4 46 bf ba ad 7b 08 3d 5c 6c 19 3d 8c ba e8 bc
       -0.0014593233 0.03332107 0.037456855 -0.028409265
000110 50 ab da 3b fc dc 81 3c 0a cc 71 3d 30 13 9a bd
       0.006673254 0.015852444 0.059032477 -0.07523191
000120 cf 0b f0 bc 24 d4 51 bc 51 0c 08 3d 9b 53 b3 3a
       -0.029302506 -0.012806926 0.03321487 0.0013681533
000130 a8 c5 18 bd 2c 36 a6 3d 42 a8 4f bd e0 a6 34 bc
       -0.037297875 0.08115801 -0.050697573 -0.011026114
000140 fc c1 70 bc 47 2f 00 3c ab be 8c bc ae 54 e6 bd
       -0.014694687 0.007823772 -0.017180761 -0.1124662
000150 18 ed b7 bc 15 71 33 bd 78 59 10 3e 2c 44 42 3c
       -0.022451922 -0.043809015 0.1409663 0.011857074
000160 32 c9 f7 3d 54 ef 9c bb c4 f6 8d bc 7e 47 81 bb
       0.12098922 -0.0047892723 -0.017329581 -0.00394529
000170 b2 57 80 bd ef 21 06 3c 43 3c a0 3d 99 da 52 bd
       -0.062667266 0.008186801 0.07823994 -0.051478002
000180 27 07 5f bd 42 6f 0c 3e f0 f5 41 bd fc ad 82 ba
       -0.05445018 0.13714316 -0.047353685 -0.0009970064
000190 06 29 05 bd 8b 2a 1c bd 5f 7e 77 bc 4a b3 89 3d
       -0.032509826 -0.03812651 -0.015105813 0.0672365
0001a0 ed 70 0b 3c 40 44 d8 bd 43 fa 10 3c d7 f6 73 3b
       0.00851081 -0.10559893 0.00884873 0.0037225985
0001b0 d9 00 ac bb a3 e6 cd 3d 3b 25 fa 3c 58 8a 5d 3c
       -0.0052491245 0.10053756 0.030535331 0.013521753
0001c0 fc 14 38 bd 63 19 c0 bc a9 e9 87 3c f1 73 13 3d
       -0.044941887 -0.023449605 0.01659091 0.035999242
0001d0 ff 79 08 3e 34 90 1a bd 5a dd 91 3c 43 87 1a bd
       0.13327788 -0.03773518 0.017805744 -0.037726652
0001e0 3a c3 41 96 b9 81 c6 bb 50 89 04 be 21 10 2a 3e
       -1.5652018e-25 -0.0060579446 -0.12943006 0.16607715
0001f0 28 fa 07 bd 66 df d4 bd 2e f6 bb bd 34 38 d8 bc
       -0.033197552 -0.10394172 -0.091778144 -0.026393987

act_conv1.weight f4 [4, 128, 1, 1]
000000 c0 75 e2 3c 91 8b c8 bc 34 6f a1 bd 30 f3 bc bb
       0.027644038 -0.024480613 -0.078825384 -0.005766295
000010 c6 e4 39 bd 98 83 b1 3e ed 28 b6 bd 60 51 21 3e
       -0.04538419 0.3467071 -0.08894525 0.15753698
000020 14 00 ae ba a0 3d ef bb 51 50 ca bd 34 f2 71 3d
       -0.001327517 -0.0073010474 -0.098786004 0.059068874
000030 6e b9 2f 3b 2b 9b 9e bd 22 7b 8b 3d 37 9e ac 3d
       0.0026813406 -0.0774444 0.06810595 0.084286146
000040 bc c6 ac bd a1 5c 0f 3d ea 2f 6c bd d2 4d cf b7
       -0.08436343 0.035000447 -0.057662882 -2.471256e-05
000050 b6 33 66 3d a2 3a 5c bd 82 0c 69 bc 38 d6 ed 3c
       0.05620166 -0.053766854 -0.0142241735 0.029032812
000060 2f a5 4d 3d 9c 4b 0f 3e 66 80 3a 3e b2 36 ae bd
       0.05020636 0.13993686 0.18213043 -0.08506526
000070 1c 3d d8 3c 5b f5 a8 bd 4c 76 c0 bc 0c b8 80 3e
       0.026396327 -0.08249923 -0.023493908 0.25140417
000080 0b 12 be 3e 8f 5a 28 3d 0b 85 9e 3a ba 52 4f 3c
       0.3712314 0.04110199 0.0012094093 0.012654001
000090 57 38 73 be ff b0 42 00 6b 9a 89 bb 55 59 d7 36
       -0.2375196 6.124637e-39 -0.0041993163 6.417899e-06
0000a0 c7 75 3d bd d0 81 4c 3e 39 2d 77 be 7c 19 24 be
       -0.0462549 0.19971395 -0.24138345 -0.16025347
0000b0 8c cb 03 3b e4 fa 3c be e5 8c c3 bd e5 41 77 bd
       0.0020110337 -0.18455082 -0.09548358 -0.060365576
0000c0 46 d3 a3 bd 1a 15 97 3d d1 c3 1d 3d 57 70 14 3c
       -0.079992816 0.07377072 0.038516823 0.009059987
0000d0 08 d5 2b 3e e7 78 28 3e f0 e2 5e 3d e7 77 0b bd
       0.16780484 0.1645237 0.054415643 -0.034049895
0000e0 d2 51 15 3b ca 38 ab bd 0c cd 92 bd 97 cf 3a bd
       0.0022784364 -0.08360441 -0.07168016 -0.04560813
0000f0 f0 ef cd bc c7 5a 5a 3e 55 e1 8a 3d c5 16 df 3c
       -0.025138825 0.21323691 0.0678126 0.027232537
000100 df 4e a0 3d 5f af 83 3c c3 da cc 3e a4 73 7f bc
       0.078275435 0.016074834 0.40010652 -0.015591536
000110 01 52 de 3e 29 48 3a 3d c0 05 3c 3d 82 e9 3f 3e
       0.4342194 0.045478974 0.04590392 0.1874142
000120 c8 9f 33 3b c9 95 e1 3b fe 40 6f bd 62 75 8c bd
       0.002740847 0.006884311 -0.05841159 -0.068583265
000130 8c 51 49 bd b6 08 32 bd 3d 5b 6c 3d 43 32 56 bd
       -0.049150035 -0.04346534 0.0577042 -0.052294027
000140 43 28 c9 bd eb 69 87 be 57 3c 67 3d 4f e4 37 3d
       -0.098221324 -0.26447996 0.05645403 0.044895466
000150 00 0e cd 3c 3d dc 51 be 79 60 d8 3c 21 33 b0 bd
       0.02503109 -0.2049417 0.02641319 -0.08603502
000160 62 b3 c4 3d 8d c9 58 bc 16 2f ad 3d e5 72 80 3c
       0.09604527 -0.013231647 0.084562466 0.015679786
000170 06 25 59 be 6c e7 d1 bc 79 3d 84 3e 4d 73 9b bc
       -0.2120553 -0.025623046 0.2582815 -0.018975878
000180 da 46 eb 3d e4 25 03 3d fc 18 37 be e3 8e c2 b9
       0.11488123 0.032018557 -0.17880625 -0.00037109022
000190 18 65 3d 3e 5d 34 5b 3d 5a d2 1f 3e e4 14 f3 3c
       0.18495595 0.053516734 0.15607587 0.029673047
0001a0 5e f7 c6 bd a7 6d 82 3d 05 31 80 3d 81 6b 09 3d
       -0.0971515 0.06368571 0.0625935 0.03354979
0001b0 c6 a5 4e bd 2e c8 53 3d 8b ac 01 3c 73 10 d7 3d
       -0.050451063 0.051704578 0.007914673 0.10501184
0001c0 ed 75 27 3d 7d 6f 1a 3d d2 1f 9e 3a 75 20 9c bd
       0.040883947 0.03770398 0.0012063927 -0.07623378
0001d0 22 7d 08 3e 0b 04 94 3e 75 90 5d bc 0f b7 5b bc
       0.13328984 0.28909335 -0.013523211 -0.013410344
0001e0 46 f6 89 ac a6 3f 73 bd 8b d5 79 3c c0 f4 00 3e
       -3.921116e-12 -0.05938687 0.0152486665 0.12593365
0001f0 c4 71 17 be df 01 b5 bd 91 77 c5 bc 2c d4 92 bd
       -0.14789492 -0.088382475 -0.024104865 -0.07169375
000200 c3 8f a0 bc 75 48 20 3c d5 b2 c7 3d f7 5b 3d 3d
       -0.0195998 0.0097829 0.097509064 0.046230283
000210 a5 b4 86 bc 26 00 0a be 84 cb 7c 3e 59 ce d7 3c
       -0.01644356 -0.13476619 0.2468701 0.026343511
000220 69 29 9f 3e 26 44 9d bb 57 1d a3 bd 00 65 0d 3d
       0.3108628 -0.0047993837 -0.079645805 0.03452015
000230 e5 61 30 bd 70 d6 99 3e b4 4b 92 be ff 88 11 3d
       -0.04306211 0.30046415 -0.28573382 0.03553104
000240 be 7b cb 3d 68 0d 10 be 6a b2 3f 3d 51 b7 e6 38
       0.09935711 -0.14067614 0.04680101 0.000110014
000250 93 54 7e bd 8d 5f 6f 3d c8 46 ec bd ef e9 4e 3c
       -0.062092375 0.058440734 -0.11536938 0.012629016
000260 8b 3a 91 bd 33 80 9a be b8 a8 46 3c 70 64 87 3c
       -0.07091244 -0.30175933 0.012125187 0.016527385
000270 02 b6 08 be a0 ca 4b 3c e0 e6 ce ba dc e7 94 be
       -0.1335068 0.012438446 -0.0015785359 -0.29083145
000280 c0 ca 0a 3e fe f6 6f bd 1d 3d 09 bc a0 bc ae bc
       0.13553905 -0.05858516 -0.008376387 -0.021330178
000290 60 eb 9a 3e 73 aa 09 80 1e e3 05 3e ae f0 00 b4
       0.30257702 -8.87665e-40 0.1307492 -1.2008488e-07
0002a0 1a 5f 95 bd ca 62 94 3d 62 f9 af 3d be 45 dd 3d
       -0.0729353 0.07245405 0.08592488 0.10804318
0002b0 ae 27 c6 3b d4 d9 6c 3e 55 d5 2a 3b 25 b5 2f be
       0.0060472107 0.2312997 0.0026067097 -0.17158945
0002c0 e3 8c a2 3e 76 13 5f 3d 7c e1 0c 3e 22 f9 20 bc
       0.31748113 0.05446192 0.1375789 -0.009825023
0002d0 e3 fd 58 be 7a 7e 95 3d b6 1d 86 bd dc 38 00 3e
       -0.211906 0.07299514 -0.06548636 0.1252169
0002e0 50 e2 d6 bc 98 f6 cd 3d c2 9b 10 3f 69 0b d6 3a
       -0.026230961 0.100568 0.5648767 0.0016330305
0002f0 8c d3 5c 3d dd d1 e2 bc fe f1 5b bd 31 a2 5a 3e
       0.053912684 -0.027687961 -0.05369758 0.21350934
000300 88 40 1f bc 6c 0b 69 3d d3 96 bf 3d 1f ce 0c bd
       -0.009719975 0.05689566 0.09354939 -0.03437626
000310 62 a7 9b be 4d 91 48 3c 4c a6 f8 bd e2 3c 85 bd
       -0.3040114 0.012241674 -0.121410936 -0.06505753
000320 cd ff f0 bd 1f ec c9 bc 3c 84 1c 3d c0 6e a8 3c
       -0.1176754 -0.024648724 0.038212046 0.020560622
000330 8f 99 fc bd 34 05 84 3e 8f c4 53 3d 0a 09 8f 3d
       -0.123339765 0.2578522 0.051701125 0.06984146
000340 5a 61 4a 3e 9d 42 a2 3e de 97 75 bd dc 98 14 be
       0.19763699 0.31691447 -0.059959285 -0.14511436
000350 38 93 f6 bd 66 29 e7 3d 5b ef 40 3e ed 15 15 3e
       -0.120397985 0.11287193 0.18841307 0.14559145
000360 ef 3e d9 3d 93 bb b0 3d d1 e6 c3 3d a1 4c 52 bc
       0.10607707 0.08629527 0.09565509 -0.012835653
000370 9e a2 4b 3e ab 1c 25 bd da 63 2d bd b1 5b a8 3d
       0.19886252 -0.040310543 -0.042331554 0.08220614
000380 75 aa 7d 3d c3 75 ab 3d 77 16 1d 3e ad 0b 2d 3a
       0.06193014 0.08372071 0.15340601 0.0006601166
000390 7a e4 20 be 9b cf 76 bc 41 06 86 be 98 db 5f bd
       -0.15712157 -0.015064145 -0.26176646 -0.05465278
0003a0 77 22 c6 bc d2 f5 18 bd 1a 4f ba 3d 68 18 91 bd
       -0.024186356 -0.037343808 0.09097119 -0.07084733
0003b0 c9 74 29 3e 9e 31 f6 3d 43 65 24 be 78 eb f5 bd
       0.16548456 0.120211825 -0.16054253 -0.12007803
0003c0 8a 5f 77 bb 6b 75 f3 bd 6a 5a 14 3d bb 99 73 3e
       -0.0037746155 -0.1188763 0.036219038 0.23789112
0003d0 64 70 c9 3d 6f 7f 25 3c 31 cb 97 bd fc 26 4b 39
       0.0983589 0.010101183 -0.074118026 0.00019374111
0003e0 d1 96 39 30 2a e7 98 bd 50 da 9d bb 2e 9f 1a 3e
       6.751693e-10 -0.07465966 -0.0048172846 0.15099785
0003f0 d4 6c 76 3d 32 ef d6 3d d9 ad 61 3d 59 fc 55 3e
       0.06016238 0.10494842 0.055097435 0.20897044

act_conv1.bias f4 [4]
000000 fc 76 92 3d b4 8f ab 3c 35 cf c3 3d e6 58 98 bb
       0.07151601 0.020942546 0.09561006 -0.0046492694

act_fc1.weight f4 [81, 324]
000000 6c 24 06 bd 49 31 26 bd 38 cf 49 bc e9 c3 b2 bd
       -0.03274958 -0.040574346 -0.012317471 -0.08728773
000010 37 8d c1 bc 77 84 62 bd 92 12 91 bd a8 3e c9 bd
       -0.023626907 -0.05530211 -0.0708362 -0.09826404
000020 93 d3 52 bd 4e de 71 bc dc 01 93 bd 1b 6e 0d bd
       -0.051471304 -0.014762474 -0.07178089 -0.034528833
000030 31 7b 44 bd dc 8b 44 bd 22 9a 1d bd e6 22 ff bb
       -0.047969047 -0.047984943 -0.03847707 -0.0077861426
000040 ed 25 68 bd 4f 26 03 bd e2 5b 00 bc f2 fd dd bc
       -0.056676794 -0.032018956 -0.007834407 -0.02709863
000050 48 df cb bb e0 d7 bc bc 2f 59 17 bd c1 8d b1 bc
       -0.0062216856 -0.023052156 -0.036950286 -0.021674039
000060 0a 32 1a bd 3c a9 c8 bc 01 7a 30 bd dc 21 61 bd
       -0.037645377 -0.02449476 -0.043085102 -0.05496393
000070 7c f8 95 bd a1 ee 26 bd ff 32 73 bd 58 d5 04 bd
       -0.07322785 -0.040754918 -0.059374806 -0.032430023
000080 d1 c5 26 3b 5a e8 c4 bd c9 21 95 bd 88 4b 43 bc
       0.0025447498 -0.0961463 -0.07281835 -0.0119198635
000090 e6 c3 60 bd f1 b6 f0 bc fd 6f 2c bd b4 47 ba bd
       -0.054874323 -0.029384108 -0.042098988 -0.090957075
0000a0 5a 37 7c bd 78 a6 9b bc 0b a4 71 bd 79 85 a3 bd
       -0.061576225 -0.019000277 -0.058994334 -0.07984442
0000b0 7f 59 84 bd ce db a6 bd e1 fd da bd 59 7f 2f be
       -0.064623825 -0.08147393 -0.10692955 -0.17138423
0000c0 0c ae 25 bd 04 15 8e ba 2b 99 1c 3d 70 fa 9e 39
       -0.040449187 -0.0010840003 0.03823201 0.000303227
0000d0 b9 30 ea bc 4a 19 0a bd 4f 12 eb bd a6 b9 47 be
       -0.028587686 -0.033715524 -0.114781015 -0.19504413
0000e0 74 3b 5f bd 66 bf 98 bc 6f 82 91 bc 61 f9 06 bd
       -0.05450006 -0.018645953 -0.01776239 -0.03295267
0000f0 72 b0 a3 bd b8 cf 0d bd 2c 39 61 bd 24 65 99 3d
       -0.07992639 -0.034621924 -0.054986164 0.07489994
000100 62 03 ed 3d 7f fd 98 3d 60 a9 bb 3b 68 f2 54 bd
       0.11572911 0.074702255 0.005726978 -0.05198899
000110 40 fb 4d bb 5c 56 6c bc df ae 2f 3c 39 3e 14 bd
       -0.0031430274 -0.014424887 0.010722845 -0.036192153
000120 7a 88 8f 3d c7 f6 ab bd ac f6 5a 3c b1 5d d4 3a
       0.07008453 -0.083966784 0.013364475 0.0016202239
000130 b7 64 68 bd 20 69 9f bd 2b 0e 63 bd d9 66 83 3c
       -0.056736674 -0.07783723 -0.055433434 0.016040253
000140 0b 2e b5 bc d0 c4 69 bd ef 8b 47 bd 4c ae 72 bc
       -0.022116682 -0.05707246 -0.048717435 -0.014812063
000150 6e 00 d4 bc 67 1b 1d bd cc 8a eb 3c 54 fb 9a 3a
       -0.025879111 -0.03835621 0.028752707 0.0011824169
000160 a7 d5 a0 bd 12 42 c5 bc a1 4d dc bc ab cf c7 bc
       -0.07853251 -0.024079356 -0.026892485 -0.024391016
000170 37 3f f1 bc c3 95 b3 3c b9 c7 39 bd 29 d6 73 3b
       -0.029449088 0.021921998 -0.045356486 0.0037206507
000180 96 c2 0a 3d 28 47 2f bc 3a 21 c7 bc 30 a1 eb bc
       0.033876978 -0.010698117 -0.024307836 -0.028763384
000190 c7 11 e6 3c e3 88 2c bb 4c a3 70 bc c0 15 aa 38
       0.028084649 -0.0026326708 -0.0146873705 8.110283e-05
0001a0 ee 32 0d 3a 12 20 d1 3b 4b c4 27 bc b5 4a 06 3d
       0.0005386312 0.006381997 -0.010239671 0.03278609
0001b0 17 51 cc 3b 4c 43 0a 3d 95 eb 12 3d 43 8c 8b 3d
       0.0062352526 0.033755586 0.0358692 0.06813862
0001c0 22 f3 9e 3d e0 51 78 3c 71 b6 34 bd 15 fc db 3c
       0.07761218 0.015156239 -0.044119302 0.0268536
0001d0 d1 a2 10 bd da 95 e7 bc 92 96 f3 bb e9 cf c1 3a
       -0.035311524 -0.028269697 -0.007433721 0.0014786694
0001e0 39 45 6f 3d 20 63 61 3c d3 10 7c 3d 8c 64 16 3d
       0.058415625 0.013756543 0.061539482 0.036716983
0001f0 ad 08 c8 3c 53 f7 b1 3c 54 57 cb 3d 1a d7 cd 3b
       0.0244182 0.021724379 0.09928766 0.0062817456
000200 4c d8 81 3d c7 6d 98 3b 0c 16 cb 3d 99 4e 0c 3d
       0.063400835 0.0046517584 0.099163145 0.034254644
000210 aa 04 92 bc 4a 37 df 3c 97 f6 aa bc 3b 5e e7 3c
       -0.01782449 0.027248044 -0.020869536 0.028243175
000220 61 fe 82 3d 06 8a 9c 3d 34 60 0d 3d 45 e2 f7 3c
       0.06396175 0.076435134 0.034515575 0.03025926
000230 6f bd 4a 3c 29 f9 84 3c c1 35 e0 bc ff 1c b3 bc
       0.012374266 0.01623209 -0.027369382 -0.021864412
000240 6d 54 4a be 86 df 98 bb 58 fb c0 3c e6 7e 02 3d
       -0.19758768 -0.004665318 0.02355735 0.0318593
000250 96 a5 db 3c c8 c3 c7 3b 1f 5a 8e bb 61 a1 22 bb
       0.026812356 0.006096337 -0.0043442394 -0.0024815428
000260 e5 0a 19 bd d7 a8 9c 3c d8 83 ce 3d 5a 1d e9 bb
       -0.037363905 0.019123478 0.10083741 -0.0071140947
000270 61 cf c5 bc 0d f0 1b 3c ba 5a 36 3c 8b 97 83 3d
       -0.024146738 0.009517682 0.011130029 0.06425389
000280 13 75 54 3d f4 fc 49 bc 92 fd 39 bd a4 e0 9f 3a
       0.051869463 -0.012328375 -0.04540784 0.0012197685
000290 15 01 30 bd 6b b6 5c bd 79 20 48 bd a0 5a d9 bd
       -0.042969782 -0.053884905 -0.048859093 -0.106129885
0002a0 47 93 1c 3c f6 d3 84 bd c8 22 55 bd 98 35 10 bd
       0.009556598 -0.06485741 -0.052035123 -0.03520736
0002b0 96 36 f4 bb b7 5e 3f bd 9a 0d 36 bb f9 56 fd bc
       -0.007452796 -0.046721186 -0.0027779103 -0.03092526
0002c0 a0 0e d6 bc e5 4c 52 bd 6e 68 73 3c 3b de 30 bd
       -0.02613002 -0.051342864 0.014856441 -0.043180685
0002d0 53 65 6d bd dd 5b 42 bd 0e 6f 17 bd 6f 60 41 bd
       -0.05795796 -0.04745089 -0.036971144 -0.047211107
0002e0 69 70 5c bc 5f f8 c5 3c 14 2a 23 bd 87 b5 be bd
       -0.013454535 0.024166284 -0.03983505 -0.09311967
0002f0 f6 f3 8b bd c0 83 bd bd 97 4a 1c bd 45 a7 b9 bc
       -0.06833641 -0.09253645 -0.038157072 -0.022662768
000300 0e f9 3c bd c3 72 98 bd fe cd 9f bd d4 a4 c1 bb
       -0.046135955 -0.07443764 -0.07802962 -0.0059095416
000310 e8 a9 8a bd ec ab 79 bd fa 5f 40 bd a5 84 30 bd
       -0.06770688 -0.060954973 -0.04696653 -0.04309525
000320 ce 87 92 bc bb ca e0 bc 89 8d 83 bd 92 32 94 bd
       -0.017887022 -0.02744042 -0.0642348 -0.07236208
000330 fe 15 fe bc a9 10 13 bd f2 65 e3 b8 30 77 fe 3c
       -0.031016346 -0.03590456 -0.00010843192 0.031062692
000340 f9 a0 8f bd 87 e1 4b 3d d4 22 56 bd b9 4d 8c bd
       -0.07013125 0.049775627 -0.05227931 -0.06850762
000350 31 d6 e7 bd c0 52 a3 bd 4f 31 33 bd a1 f3 0e bd
       -0.11320151 -0.07974768 -0.043748196 -0.03490031
000360 11 87 a3 bd 5f cf 1e 3d 70 0c ef bd a5 b7 77 bd
       -0.07984746 0.038771983 -0.11672294 -0.06047787
000370 dc e9 26 bd 0d ce 89 bd b2 74 81 bd e5 08 0e bd
       -0.04075037 -0.06728754 -0.06321086 -0.03467645
000380 75 8c d5 bc 3d 7c d5 be 58 e9 f1 3c 6d 0b 48 3d
       -0.026067952 -0.4169635 0.029530212 0.04883902
000390 ed f8 ac bd ba 5b 87 bd cf 98 49 bd e0 bc 51 bd
       -0.08445916 -0.06609292 -0.049217995 -0.051205516
0003a0 de 8a 74 bd af da e6 bc 2e 69 a2 3d eb f5 61 bc
       -0.059702747 -0.028180448 0.07930218 -0.013791542
0003b0 82 05 6f 3c 85 cb 38 bc a4 c2 70 bd bf 28 33 bd
       0.0145887155 -0.011278992 -0.058779374 -0.04374003
0003c0 dd 44 cc bb 82 3a 34 3c fa ab 85 bc 59 41 7e 80
       -0.006233795 0.0110002775 -0.016317356 -1.1594715e-38
0003d0 77 ed 15 80 62 1e 1e 80 1b 46 9e 80 68 52 05 00
       -2.013732e-39 -2.765964e-39 -1.4535157e-38 4.88739e-40
0003e0 da d0 93 00 7d 13 03 80 f2 0b 68 00 aa c4 6f 00
       1.357474e-38 -2.82498e-40 9.555177e-39 1.026429e-38
0003f0 2d 06 7b 80 1c 98 81 00 66 0d 25 00 7f 28 a3 80
       -1.1297981e-38 1.1901346e-38 3.40272e-39 -1.4983713e-38

act_fc1.bias f4 [81]
000000 e9 b2 ac 3c 78 b0 83 bd fa 81 0a be f3 8c 4f bd
       0.021081405 -0.06430143 -0.13526145 -0.05067153
000010 2e 07 4e bd 96 7a 97 bd 30 45 14 be 79 e6 55 bd
       -0.050299816 -0.07396428 -0.14479518 -0.05222175
000020 22 6d dd 3c 54 90 3d bd 9b 5f ff 3a 4f bb fb bd
       0.027029578 -0.04628022 0.0019483449 -0.12291586
000030 fa 9c 90 3d 29 6a 79 3c 0d 33 dd 3d 40 29 d2 bd
       0.07061191 0.015223064 0.10800753 -0.10261774
000040 92 90 68 bd 05 6b e1 bc c6 37 1e be 23 af e4 bd
       -0.056778498 -0.027516851 -0.15450963 -0.11166217
000050 35 3d 3e 3e 22 4b 92 3d e9 90 db 3d 95 c4 03 3d
       0.18578036 0.07143237 0.10720999 0.032169897
000060 40 9d f0 3d 17 93 1d be 94 de d5 bd 1f 7c 1e bd
       0.11748743 -0.15388142 -0.10442844 -0.03869259
000070 93 b4 bc 3d 68 b3 1e 3d 77 60 23 3c f4 fb 29 3d
       0.09214129 0.038745314 0.0099717295 0.041500047
000080 cf ff d2 bb f9 35 fe 3b b7 7d 9a 3d 32 fb 5a bd
       -0.006439186 0.007757899 0.075435095 -0.053462215
000090 85 a4 90 bc 20 3d 82 bc 5d cf 14 3e 7d 1a 4f 3c
       -0.017656574 -0.015898287 0.14532228 0.012640593
0000a0 88 bc 0d bd 92 aa 44 3d ad 20 e8 3d c6 62 08 bd
       -0.034603626 0.04801423 0.113343574 -0.033297323
0000b0 3d 48 7f bb c0 30 24 bd 6c 1a b7 3d f7 04 8a bb
       -0.003895297 -0.040085554 0.089405864 -0.0042120176
0000c0 39 41 73 3c b6 46 84 3d c9 65 3f bc 34 cd 00 3d
       0.014847093 0.064587995 -0.011681982 0.031445697
0000d0 b1 11 14 3d 9f e4 65 bd d3 d5 e7 bd d2 64 e0 bd
       0.036149684 -0.056126233 -0.113200806 -0.1095673
0000e0 7d bc 3a 3e 9b 1b 2e 3d b2 95 20 3e f5 4a 9c 3d
       0.18235965 0.042506795 0.15682104 0.076314844
0000f0 cb b0 6b 3e 3a 76 b8 bd bd 7b b7 bd 21 23 77 bd
       0.2301666 -0.09006925 -0.08959148 -0.060336236
000100 cf c1 58 3c 91 a6 fd bd 20 58 97 3d 83 5b 21 bb
       0.013229801 -0.12385286 0.073898554 -0.0024621196
000110 14 df a9 3d ce 04 db bd 3b 13 7f 3c 31 aa 09 bd
       0.08294502 -0.10694276 0.01556855 -0.033609573
000120 db 42 43 3c 40 00 b1 bc 32 34 02 be d2 bd 85 bd
       0.011917795 -0.021606565 -0.12715223 -0.06530346
000130 0a 40 bb bc 18 45 ae bd 20 14 8b bd bc 3b 14 bd
       -0.022857685 -0.08509272 -0.06790948 -0.03618978
000140 c1 e6 9e 3c
       0.019397141
