best_policy99.model (torch, 529533 bytes, 15 tensors)

conv1.weight f4 [32, 4, 3, 3]
000000 e4 d6 cf 3e 08 0d b8 bc 3f e0 90 bc 5a 5e c1 bd
       0.40593636 -0.022467151 -0.017685054 -0.09441824
000010 c4 3d 15 3e 06 9a 41 be fb 27 4a 3e ad be 7b be
       0.14574343 -0.18906412 0.19741814 -0.24584456
000020 48 2f 28 3d e2 d8 1f 3e 7e 7c 77 be ef c7 37 3d
       0.041060716 0.15610078 -0.24168584 0.044868406
000030 c2 30 9f be 87 be 91 3d 89 5a 0a 3e 5e 03 c5 bd
       -0.31091887 0.07116418 0.13511099 -0.09619783
000040 44 d9 10 3e 49 b8 91 be e1 44 11 bc cb 03 c9 3d
       0.1414538 -0.2846091 -0.00886652 0.098151766
000050 f7 49 63 3d 4f dc 0e 3d 0a ad 17 3d bb 19 09 be
       0.05549046 0.03487807 0.037030257 -0.13388722
000060 d3 24 dd 3d 9c 82 7f 3d 9e 07 fd bc f0 fd 88 bd
       0.10798039 0.06238042 -0.030887421 -0.0668906
000070 63 21 1d be 7b e1 0d 3e 9c bb db 3c 0f a0 63 3c
       -0.15344767 0.13855545 0.026822858 0.013893141
000080 38 76 c6 bc 4a 46 0c be 7f 50 1f 3e ea 31 fd 3d
       -0.024226293 -0.13698688 0.1555805 0.12363036
000090 6c eb 6a be 04 82 94 bc 79 38 82 3d 51 77 58 be
       -0.22941369 -0.018128403 0.063584276 -0.21139266
0000a0 42 1c d1 bd 63 a0 9d be c8 c1 7d be 62 dc 42 bd
       -0.10210468 -0.30786428 -0.24780953 -0.047573455
0000b0 d8 df 30 be bb 22 83 be c2 30 4a be dc 3d 90 bd
       -0.1727289 -0.25612435 -0.19745162 -0.07043049
0000c0 d0 cb 8b be 33 39 f3 3d bb 86 b7 be 9a 94 e9 be
       -0.27303934 0.11876144 -0.3584498 -0.45621186
0000d0 0a e1 0f 3e ed 18 24 bd 1d aa aa 3b ea c5 3a 3d
       0.1405069 -0.040062834 0.0052082674 0.0455989
0000e0 e8 fd 3d ba f6 cc 2c bd 3f b2 88 3d 12 ed a8 bd
       -0.0007247613 -0.042187653 0.06674623 -0.082483426
0000f0 6a c2 92 3b 7c c2 ba bc 3b 34 40 3d 7a d2 be bd
       0.0044787424 -0.022797816 0.04692481 -0.09317489
000100 2b 2f b3 bd 59 95 03 be 34 99 74 bc fe 2b 66 3e
       -0.08749231 -0.1284994 -0.014929105 0.22477719
000110 18 48 11 3e 92 fb 19 3e 63 ee 4a 3d 17 a0 33 3e
       0.14187658 0.15037373 0.04954375 0.17541538
000120 a6 39 2a 3e 9b bf 75 be 89 1c a6 be ff 06 48 3e
       0.16623554 -0.23998873 -0.32443646 0.19533919
000130 b7 16 c5 3d 50 21 1b 3e 74 31 37 3e 2b 80 62 be
       0.09623473 0.15149426 0.17889959 -0.22119205
000140 e5 a0 18 be 81 af df be 64 a0 5a 3e 74 8b 40 3e
       -0.14905126 -0.43688586 0.21350247 0.18803197
000150 a8 97 df be c4 17 13 3e b5 8c 67 be 85 81 18 be
       -0.43670392 0.14364535 -0.22612269 -0.14893158
000160 c6 0a 35 be 4a ce f2 3d e5 e3 e5 3c 3b 45 9b bd
       -0.17679891 0.11855753 0.02806277 -0.07581564
000170 95 ec 0a bc 68 b6 8e bd d0 d0 a3 3d 7d b9 fd bd
       -0.008479257 -0.06968385 0.07998812 -0.12388895
000180 1f 0f 87 bd fa 46 a9 3d 0f e6 6c 3d 0d 8b 14 3e
       -0.06594681 0.08265491 0.05783659 0.14506169
000190 ce 86 29 be 08 e7 ab 3d cc fb 32 3e 55 69 08 3e
       -0.1655533 0.08393675 0.17478865 0.13321431
0001a0 97 54 f0 3d 3a 50 b2 bd 23 ae 8b bd d8 c2 93 bd
       0.11734884 -0.08706708 -0.06820323 -0.07214898
0001b0 7b 78 99 be ac 27 4a bd 10 0e af bd ba 45 f2 bd
       -0.29974732 -0.04935424 -0.08547604 -0.118297055
0001c0 6e 48 75 be eb 74 0f be 44 55 d8 bd ae c9 1e be
       -0.23953411 -0.14009444 -0.10563138 -0.15506622
0001d0 19 5d 58 3e fd 89 35 bd 3b 17 c1 3e 76 f8 27 be
       0.21129264 -0.04432105 0.37713036 -0.16403374
0001e0 12 cd dc 3c 8d 6e d0 3e b9 41 ae 3e 58 13 9a be
       0.026953254 0.40709344 0.34034517 -0.30092883
0001f0 cc b2 94 3e d8 fc c7 be d2 6b 39 3c 64 9c d5 bb
       0.2904266 -0.39060092 0.01131721 -0.0065188874
000200 48 05 d5 3d c4 83 12 3b 54 50 91 3c 03 c7 85 3c
       0.10401398 0.002235637 0.017738499 0.016330248
000210 87 e8 b0 bd 8a 7a a0 bc e6 10 05 be 6c 72 f8 3d
       -0.08638101 -0.019589681 -0.12994727 0.12131199
000220 49 8e b4 3d a3 c8 07 3e b1 ac 74 3c 48 19 35 bd
       0.08816201 0.1326013 0.014933751 -0.044213563
000230 74 b7 41 3e be 65 e7 bd 51 cb f9 bd 0c 74 24 be
       0.18917638 -0.11298703 -0.12196983 -0.16059893
000240 2b ef 9f be 55 9f b8 be 51 b6 38 be 31 8d 43 3e
       -0.31237158 -0.3605906 -0.18038298 0.19096829
000250 8b 0c 04 be fe 50 d5 3d ea a3 ce 3b 31 d3 eb 3d
       -0.1289541 0.10415839 0.006306161 0.11514891
000260 9c 48 09 3e fd c8 2e be 2f b2 00 be 99 74 79 be
       0.13406605 -0.17068858 -0.12567972 -0.24360885
000270 92 95 81 bb d5 75 44 3d 38 4a 69 3e e2 ff 97 3d
       -0.0039545977 0.047963936 0.22782218 0.07421853
000280 e8 63 95 3e 89 98 22 be 44 9b 6c 3d 93 72 6e b9
       0.29177785 -0.158785 0.05776526 -0.00022740131
000290 ba 40 9b bc 3c 53 98 3c 62 c8 17 bd f0 7a 1d be
       -0.018951762 0.018594377 -0.037056334 -0.15378928
0002a0 98 d7 81 3c 10 a3 f1 bc 56 ff 38 3e 3f 0e 80 bd
       0.015849873 -0.0294967 0.18066153 -0.06252717
0002b0 c1 9b 03 be 59 be c7 bd 02 01 2d be 39 1b f2 bd
       -0.12852384 -0.09753103 -0.16894916 -0.118215986
0002c0 15 30 16 3d 2f 41 26 be ac d4 5f bd 59 02 a1 3d
       0.03666695 -0.16235803 -0.05464618 0.07861776
0002d0 18 47 e3 3e 38 48 3d 3e 5d ac c1 3e ee 60 05 be
       0.44390178 0.1848458 0.37826815 -0.13025257
0002e0 e6 02 8c 3e 1b 99 26 3e 6b e5 7b 3e 0e 71 72 3e
       0.2734596 0.16269343 0.24599235 0.2367594
0002f0 3f 3d b6 3e 8c 78 5c be 14 cb 1a be b9 15 b3 bd
       0.35593602 -0.2153036 -0.1511653 -0.08744378
000300 2c cb ba bd 32 84 cd bd ec 14 3c 3b f3 f9 73 bc
       -0.09120783 -0.1003498 0.0028698994 -0.0148911355
000310 82 a5 42 bd ad c0 00 be d8 bc d4 bd 60 56 0d be
       -0.04752112 -0.125735 -0.103875816 -0.1380248
000320 8a bf b0 3d 18 39 6d 3d bf 71 1d 3d 5e 02 b8 bc
       0.08630283 0.057915777 0.038438555 -0.022462066
000330 23 54 00 bd 0a 50 84 bd e8 32 68 bb bb 46 6b 3c
       -0.03133024 -0.06460579 -0.0035430733 0.014360125
000340 c5 3d b5 3d d0 40 2e be cd e8 23 3c 42 5d c2 bc
       0.08849672 -0.17016912 0.0100042345 -0.02372611
000350 69 4b f6 bd b4 d4 b5 bd dd 17 ac bd 75 57 0b 3e
       -0.12026102 -0.088784605 -0.08402989 0.13607581
000360 9b d7 1e 3e 73 d9 60 3e b0 ca a3 be 3c 34 94 bd
       0.15511934 0.2195795 -0.31990576 -0.072365254
000370 1f b1 5e be 0f c1 3c bd ac 3c a8 3e 47 d6 08 be
       -0.21747254 -0.046082553 0.3285879 -0.1336299
000380 7f 1f 4c 3c f5 5b 2b 3e df 94 d6 bd f3 3b b2 3e
       0.012458681 0.16734298 -0.10477614 0.34811363
000390 67 31 66 be bf ad c0 3c 99 0f 81 bc 26 e6 a5 3e
       -0.22479783 0.023520349 -0.015754508 0.32402152
0003a0 f6 23 e8 bd a1 24 7f 3c 65 84 31 bc 84 5c a1 3d
       -0.11334984 0.015572698 -0.010834788 0.07878974
0003b0 66 e4 8b 3c ec 78 53 bd 0e 3e 11 3d 02 ce 45 bd
       0.017076682 -0.051628992 0.03545957 -0.048292167
0003c0 4e bc a2 bd 9a 66 cd 3d 4e 9e 9a bd 83 da 05 be
       -0.079460725 0.10029335 -0.075497255 -0.13071637
0003d0 d9 ef c4 bb 75 0d 3d bd 87 40 ad 3d fc 92 0c be
       -0.0060100374 -0.04615541 0.08459573 -0.13727945
0003e0 22 1e 6d 3c 1a 5b af 3d e6 f3 b0 bd 07 86 a0 3c
       0.014472516 0.08562298 -0.0864027 0.01959516
0003f0 69 1f 4b be 7b 81 8d 3e 31 9c 8c bd ca 34 23 3d
       -0.19836201 0.27637848 -0.06865729 0.039845265

conv1.bias f4 [32]
000000 18 8f 97 3c f6 fd 9e bd cf 85 74 3d 28 65 c6 3c
       0.01850085 -0.07763283 0.059697922 0.024218157
000010 42 4a 4e 3c bd 68 30 be 13 83 4d 3e 1f 75 1b be
       0.012590947 -0.17227454 0.20069532 -0.15181397
000020 a2 23 3b be fd be ea 3d 7e d2 ae 3d 6c 12 dd bd
       -0.18275312 0.114622094 0.08536242 -0.10794529
000030 59 3f 2b bd 77 83 9c 3d 76 d5 78 3c 8d a7 ef 3d
       -0.04180846 0.076422624 0.015187612 0.1170188
000040 3c a8 ad 3d 96 73 e5 bc e4 d9 39 be 49 c8 cd 3c
       0.08479354 -0.028009217 -0.18149525 0.025119917
000050 5d 41 2d be bb 31 f4 bc 9f b8 b7 bc bc 5b 08 3e
       -0.16919465 -0.02980887 -0.022426901 0.13316244
000060 28 44 07 3e f5 f5 40 3e c4 4e 70 3d 05 98 8a 3d
       0.13209593 0.18843825 0.058668867 0.06767277
000070 11 6f a8 3d 07 d8 2b be 33 34 97 bd 32 76 5c be
       0.08224309 -0.16781627 -0.07383003 -0.21529463

conv2.weight f4 [64, 32, 3, 3]
000000 22 71 b5 bd 47 cd 77 3c 7e 12 60 bd c6 1b 32 be
       -0.08859469 0.0151246255 -0.054705136 -0.17393407
000010 6e af f1 3d e4 ec 3a bd b2 42 65 3d f5 9e 41 be
       0.11801039 -0.045636073 0.05597181 -0.18908294
000020 ea 4d f8 3c a2 1c 04 be 01 29 8b 3d 32 4b 38 bd
       0.03031059 -0.12901548 0.0679493 -0.044993587
000030 bf df 67 3c c3 88 f8 3d ad e7 e3 3d e0 89 e6 3d
       0.014152466 0.1213546 0.11128173 0.11256766
000040 b5 83 24 be d0 de c4 bc 7c cb 95 bd 3e 1b ca 3d
       -0.16065867 -0.024032027 -0.07314202 0.09868477
000050 9c 6e c9 bc 7d cc c5 3d bd 54 a1 3d 79 3c 72 bd
       -0.024588875 0.09658144 0.07877491 -0.059139702
000060 24 3a 8e bb 9a 24 7e 3e 0c 7e 37 bb dd f2 74 3e
       -0.004340427 0.2481865 -0.0027998714 0.2392077
000070 d1 91 07 be 7b 64 32 be b2 af 6b be ee d5 a2 3d
       -0.13239218 -0.17421143 -0.23016241 0.0795096
000080 ac 35 13 be 22 fb 8a bd 63 b1 ad 3d 10 a1 6f 3d
       -0.14375943 -0.06786181 0.084810995 0.05850321
000090 64 0f e3 bd 3e 20 02 3d 61 da 0e be a7 39 b4 bd
       -0.1108692 0.03176903 -0.13950492 -0.08800059
0000a0 f1 22 50 3d 72 52 9e 3c 16 c9 72 3d 82 c7 1c be
       0.050814573 0.019326422 0.0592738 -0.15310481
0000b0 b1 50 af bd 0a e0 26 3d df 78 f2 3d 5c 0f 1f 3e
       -0.085603125 0.040741004 0.118394606 0.15533203
0000c0 0d 28 26 3e 69 87 3d 3d 52 2b 82 3d 56 70 61 3e
       0.16226216 0.046271715 0.06355919 0.22015509
0000d0 f8 0e ef 3d a7 a1 3b 3c 93 7b 97 bc 45 2d 31 be
       0.11672777 0.011452115 -0.018491542 -0.17302425
0000e0 5d 64 17 bd 94 37 82 bd af 80 39 3e 04 17 a9 3b
       -0.03696095 -0.06358257 0.18115495 0.0051602144
0000f0 ae fc af bd 57 0a 43 be 18 56 ed bd a9 a6 b5 3d
       -0.08593117 -0.19046913 -0.11588687 0.088696785
000100 55 c6 9d bd 89 fd ca 3c 1d cd f5 3d 07 5b d6 3d
       -0.077038445 0.024779098 0.12002013 0.10466581
000110 4c 22 ba 3c 61 39 98 bd 56 b8 83 3c ae 5f ca bd
       0.022721432 -0.07432819 0.01607911 -0.09881531
000120 bd 14 6f bd cd 5f a5 bc 94 e2 d5 3d d6 4b fc 3c
       -0.058369387 -0.020187283 0.10443607 0.03079788
000130 18 0f 2c bc 75 b2 1c be 02 96 94 3d 2d 67 84 bd
       -0.0105016455 -0.15302451 0.07255174 -0.06464992
000140 62 fe a0 bc e9 59 d5 bd 60 f5 16 bd 1f c7 04 3e
       -0.01965255 -0.104175396 -0.0368551 0.12966584
000150 57 64 57 3d ed bf a8 3d 98 6f 21 bc 97 19 7c bd
       0.052585926 0.08239732 -0.009853266 -0.061547842
000160 51 eb 23 39 fc 8f 22 bd 09 00 d8 bd a7 78 17 bc
       0.00015632554 -0.039688095 -0.10546882 -0.009245074
000170 6c 1f 02 be 6a cf 8d bd e0 51 30 3d 17 67 f3 bd
       -0.12707299 -0.06924327 0.043046832 -0.11884897
000180 80 b0 20 be 62 33 9c bd 66 b0 0c 3e f4 37 85 bd
       -0.1569233 -0.07626988 0.13739166 -0.06504813
000190 37 43 41 be 86 99 9d 3c 98 d4 bf be 9c d7 24 3e
       -0.18873297 0.019238245 -0.37466884 0.16097873
0001a0 da 88 fe 3d 68 13 e5 bc 96 cb 88 bd e5 9d 7d 3e
       0.12428446 -0.027963355 -0.06679456 0.24767263
0001b0 52 83 9f 3d 32 1d 87 bc 40 45 92 3e 05 ff 6b be
       0.07788719 -0.016493414 0.2856846 -0.23046501
0001c0 24 b8 2f 3d 82 b9 91 3d c6 ab 92 bd 35 5b d4 bc
       0.04290022 0.07115461 -0.071616694 -0.025922397
0001d0 a3 79 aa bc 2f 08 83 bd 08 4a f0 3d 14 d6 d0 3b
       -0.020809954 -0.06398045 0.1173287 0.0063731764
0001e0 60 90 8b bc 2e b0 d7 bd 02 f5 de bd 83 06 9d 3c
       -0.017036617 -0.105316505 -0.10886575 0.019168144
0001f0 46 3f 27 3d 4e 30 4d be 33 f5 91 be af a0 15 be
       0.040831827 -0.20037958 -0.28507385 -0.14612077
000200 b2 c7 74 bd 6c 42 4a 3a dd 66 15 bd 4b ae 25 3c
       -0.059760757 0.0007715586 -0.03647505 0.010112355
000210 87 2f 80 3d d2 1a 41 3d 83 a8 fc 3c 4a 9f 7d 3d
       0.06259065 0.04714472 0.030842071 0.061919488
000220 96 d4 12 be 74 c2 95 3d 85 fa b8 bd 4c c6 9b bd
       -0.14338908 0.073124796 -0.09032158 -0.076061815
000230 2e a1 93 be 2e 3b b6 3b e4 f0 07 3e b3 5c 10 3c
       -0.28833908 0.005561254 0.13275486 0.008811164
000240 53 f0 11 bc 04 d6 20 be 8b ce 9c bc c3 d8 45 be
       -0.008907395 -0.1570664 -0.019141456 -0.1932097
000250 48 71 2c 3d 40 b1 f5 3d a6 57 7e be 20 36 c8 bc
       0.04210022 0.119966984 -0.24838123 -0.024439871
000260 18 7a 21 bd 4b d7 be bc 4b 04 a8 bc 79 ed e8 3d
       -0.03942308 -0.023296019 -0.02050986 0.11373419
000270 6a cf 25 3e 42 b6 f2 bc 3e 28 bb 3c fe e3 28 3e
       0.16192403 -0.029627923 0.022846337 0.16493222
000280 40 1f 7a 3c e2 cc fd 3d df 76 73 3d d7 a1 55 bc
       0.01526624 0.12392594 0.059439536 -0.013039074
000290 80 7e f5 bc 87 f3 81 3e fe e1 00 3e ce ba 36 3e
       -0.029967546 0.2538111 0.12586209 0.17844698
0002a0 96 b3 77 3e 7a dc c0 3c 6e b3 49 be 80 c3 bb bd
       0.241896 0.023542631 -0.19697353 -0.09168148
0002b0 63 07 e8 bd 7e 03 c8 bd 09 eb 4f be ee 59 3e bc
       -0.11329534 -0.09766291 -0.20304503 -0.011618121
0002c0 fc cd 82 be 66 77 4c 3e 70 4e 80 bc d7 2c b0 3d
       -0.2554778 0.19967422 -0.015662402 0.086023025
0002d0 e4 98 7d 3d 03 eb 9f be ef 51 84 bd 4c 08 e9 bd
       0.061913386 -0.31233987 -0.0646094 -0.11378536
0002e0 11 07 df 3b 0c a1 e1 3d 0f 90 ae 3d 73 2d 66 3e
       0.0068062623 0.110170454 0.08523571 0.22478275
0002f0 d5 96 30 3e e5 71 2e be 02 f3 1c 3d 4c 4e 2b be
       0.17245038 -0.17035635 0.038317688 -0.16729087
000300 cb 71 2f 3e ac 8b ea 3c 4d 9f f7 3c 95 77 08 be
       0.17133252 0.028631054 0.030227328 -0.13326867
000310 e3 ff 04 3d f8 e1 56 bd 9f 22 87 bd d2 01 07 3e
       0.032470595 -0.052461594 -0.065984 0.13184288
000320 f9 63 2a bd a8 c1 a3 3d ee 5a 84 bb ed a8 e5 3d
       -0.041599248 0.079959214 -0.00403916 0.11213861
000330 66 d2 27 bc 71 ae 0a 3e 84 a5 3c bd 71 38 b5 3d
       -0.010243034 0.13543107 -0.046056286 0.08848656
000340 d1 07 9c bd 5d d4 2e 3e a0 5b cf bc 72 ea 2e bd
       -0.07618678 0.17073198 -0.025312245 -0.042704053
000350 28 70 0c 3c 8f b8 e4 bd 9d 06 2a be 0b 0b 1a be
       0.008571662 -0.11168014 -0.16604085 -0.15043275
000360 30 c5 e9 3d 4c 81 dc bd 4d 6b 10 3d 9f 6e 29 3e
       0.11414564 -0.10766849 0.03525858 0.16546105
000370 e9 d3 19 bd 96 ee a9 3d 92 61 1f 3e 9c cc 68 be
       -0.03755561 0.0829746 0.15564564 -0.22734302
000380 86 4e 83 bd a5 40 8a be 64 6e 31 be 67 aa b2 3c
       -0.064114615 -0.27002445 -0.17327267 0.02180977
000390 b7 27 ce bd df 80 ad bd 8d 9e 42 be ef ca c9 bc
       -0.10066169 -0.08471846 -0.19005795 -0.0246329
0003a0 29 9a 87 3d 12 66 fb 3c 07 92 a1 3d 3a 10 94 bd
       0.066212006 0.03068832 0.07889181 -0.072296575
0003b0 b3 68 40 3d 23 6d 92 be fd 29 f5 bd 5f ba d2 bd
       0.04697485 -0.2859889 -0.11970899 -0.10289454
0003c0 f6 92 2b be 29 2c e3 3d f7 be d9 3d 62 01 b9 bd
       -0.1675528 0.11092407 0.10632127 -0.09033467
0003d0 15 f4 e2 bb d8 cc 64 3d f8 ef 34 3d 1c 92 9f 3d
       -0.0069260695 0.055859417 0.044174165 0.0779154
0003e0 03 26 17 be e8 38 3b 3e 46 e5 1d bd 6c c7 88 bd
       -0.14760594 0.18283427 -0.03854873 -0.06678662
0003f0 19 5e 93 3d db 1d 18 be d2 16 ca 3c b6 ba 2f bd
       0.07195682 -0.14855139 0.024669085 -0.04290267

conv2.bias f4 [64]
000000 89 35 86 bc 5a 6d 7f 3b 1e 5b 9e bd 08 00 1e bd
       -0.01638295 0.003897509 -0.07732223 -0.03857425
000010 71 af 98 bd 88 c8 b3 3d aa ea 09 3d cc 6a d6 3b
       -0.07455338 0.08778483 0.03367106 0.006543493
000020 88 c6 99 bc 70 93 d7 bd 2a 34 2a bd d6 fd 53 bd
       -0.018771425 -0.10526168 -0.041553654 -0.05175575
000030 9a f1 3f 3d 88 13 a1 3c 2b 7e 6b 3d 47 1c 4b 3c
       0.04686127 0.019662634 0.05749337 0.012396879
000040 18 1d 63 bd 55 6d 31 bc a7 21 87 bc 29 ab 00 3d
       -0.055447668 -0.010829289 -0.016495539 0.03141323
000050 f5 74 33 3d 1d 3d 35 3d f4 6b 0b bd d7 30 c3 3d
       0.04381271 0.044247735 -0.0340385 0.095308
000060 b4 eb de bd 35 37 4b 3d f9 e7 8f 3d 55 37 68 bd
       -0.108848006 0.049613196 0.07026667 -0.056693394
000070 d9 46 a9 3b e7 92 bf 3b 4e 41 38 3d 14 2f dd bc
       0.0051659164 0.0058463695 0.044984154 -0.026999988
000080 85 ae 03 be e4 cd 01 bd 5b ae 4a bc f2 44 7d bd
       -0.12859543 -0.031690493 -0.012370671 -0.06183333
000090 6d 58 a7 bc 0b b5 fa bd 78 46 c8 bd 9c d5 64 3c
       -0.020427907 -0.122415625 -0.09779066 0.013966944
0000a0 ee 87 89 3d 4c d4 8c 3d b2 ed 83 ba 17 be 64 bd
       0.0671538 0.0687643 -0.0010065346 -0.055845346
0000b0 35 6d 85 bd 11 d0 a3 3c 16 21 bf 3b 48 a9 20 bc
       -0.0651497 0.019996675 0.0058328016 -0.009805985
0000c0 19 f2 18 bb ea 87 73 bd 15 06 2b 3c 61 45 76 bc
       -0.002333766 -0.05945579 0.010438462 -0.01503119
0000d0 ab 7d 95 bd 8c 3f ad bb df 09 07 3c 56 7f 0d 3b
       -0.0729936 -0.0052871164 0.0082421 0.002159079
0000e0 fb 17 b8 3c 4f 11 3b bd 77 d3 c2 bd 59 ec 26 be
       0.022472372 -0.045670804 -0.0951299 -0.16301097
0000f0 8c 37 f9 bc bf 3c e6 bc e4 e6 f2 bb df d9 9c bd
       -0.030421995 -0.028105138 -0.007412778 -0.07658743

conv3.weight f4 [128, 64, 3, 3]
000000 db 21 24 bd 89 7f 93 bd 24 17 c3 bd b9 77 8f bc
       -0.04007135 -0.0720206 -0.09525898 -0.017513143
000010 ae 7d 48 3d 9b d1 24 3c 29 59 eb 3d a1 40 a3 bd
       0.048947982 0.010059739 0.11491615 -0.07971311
000020 2f 31 01 be f6 93 a2 bd d9 0c 42 bd 5a a3 f7 bc
       -0.12616418 -0.079383776 -0.047375534 -0.03022926
000030 89 3f 93 3d 06 6a 18 bd dc 90 9f 3c a7 bc a9 bc
       0.07189853 -0.037210487 0.019478254 -0.02071984
000040 be 6f fd bc 5e 0d 85 3d 5c 3a 2d bd e1 90 bf bd
       -0.030937072 0.0649669 -0.042291984 -0.09353805
000050 12 28 72 3c a5 7d 92 bc e3 12 aa bd 5b 28 fe bc
       0.014780061 -0.017882178 -0.083043836 -0.031025102
000060 21 99 8f bd 08 2f a5 bc 3a b2 2d bd d2 f1 6b 3d
       -0.07011629 -0.020164028 -0.0424063 0.057603665
000070 09 84 7a 3c 6c aa f7 3c 08 29 04 3d d3 00 fb bd
       0.015290269 0.03023263 0.032265693 -0.122560166
000080 41 21 b3 3d 9f a2 70 3c 59 70 91 3d a7 42 31 bd
       0.08746577 0.014687209 0.07101507 -0.043276455
000090 9f 04 cf bd f6 b6 99 3c ab 6e 47 bd 26 50 cb bd
       -0.10108303 0.018764 -0.048689526 -0.099273965
0000a0 7d 7e ff bd fe 51 29 3d 5b e0 18 3b ac dd 3a bd
       -0.124752976 0.04133796 0.0023327086 -0.04562156
0000b0 62 cd 1f 3d 1c ff 9a 39 69 fe 2c bc 58 8f 4e bd
       0.039014228 0.0002956324 -0.010558703 -0.050429672
0000c0 e4 53 72 3c 04 3d 4d 3d ad 70 2c bb 0f 06 86 3c
       0.014790509 0.050107017 -0.0026312277 0.01636031
0000d0 58 e3 07 bb d1 2b 06 bd 87 2c 1a bd f5 83 af bd
       -0.0020734873 -0.03275663 -0.03764012 -0.08570091
0000e0 03 ae 95 3c 11 36 a6 3c ae e7 96 3c 80 8a 69 3d
       0.018271452 0.020289453 0.01842102 0.05701685
0000f0 e9 98 45 3d 78 86 c3 3d 21 99 d3 bb d1 2d fd bd
       0.04824153 0.09547132 -0.0064574634 -0.123622544
000100 e4 e6 2e be c8 73 04 be 6d a5 af 3b 47 e3 ae bd
       -0.17080265 -0.12934792 0.0053602965 -0.085394435
000110 55 d2 ac 3d 3c 0d 35 3d fa f0 3a bd 30 84 14 3c
       0.08438555 0.044202074 -0.04563997 0.009064719
000120 75 71 ec 3b dd 5c 8b 3d c5 f0 07 3e ab 05 cd 3d
       0.0072156736 0.06804822 0.1327544 0.10010847
000130 d2 4a b9 3d eb 99 25 3d bc e3 b7 3d e3 9a 1d 3d
       0.09047474 0.04042999 0.08978984 0.03847779
000140 c7 a9 98 3c c9 1d 7c 3d 1e f5 6b bd b5 3f 49 bd
       0.018635644 0.061551843 -0.05760681 -0.04913302
000150 7e a5 73 bc 76 a6 eb 3d 80 e0 ae 3d 2e 2a 22 bd
       -0.014870999 0.11506359 0.08538914 -0.039591007
000160 bb 96 e3 3d a4 02 98 3b a5 9d 24 bb 10 d4 3a 3d
       0.11112734 0.0046389867 -0.0025118378 0.045612395
000170 57 e2 af 3d 32 4f 58 3d c2 15 42 3d 5c cf 20 3d
       0.08588093 0.0528099 0.04738403 0.039260253
000180 89 49 0b 3e d2 c9 93 bc c3 06 0d bc a9 74 12 3d
       0.1360227 -0.018040571 -0.008607569 0.035755787
000190 df da 09 be c8 bd 8a bc 4c d2 06 bd cd 1c c4 3d
       -0.13462399 -0.016936198 -0.0329154 0.09575806
0001a0 71 64 d9 bc 82 60 91 bd b1 75 2f 3d d1 58 8b 3d
       -0.026537152 -0.070984855 0.04283685 0.0680405
0001b0 0e 1a 51 bd 00 86 d1 bd 7a a7 86 bd 17 71 bc 3c
       -0.05105024 -0.102306366 -0.06574912 0.023003144
0001c0 56 3f 52 be b5 24 ef bd 12 ac ae bd 19 90 98 bd
       -0.20531973 -0.11676923 -0.085289136 -0.074493594
0001d0 5a e9 94 bd 90 a3 42 bc b3 48 97 3d f6 5f 1b bc
       -0.07271071 -0.011879817 0.07386913 -0.009483328
0001e0 d4 2c 88 3a e1 90 9d bd a4 78 fe bb 49 42 35 3d
       0.0010389336 -0.07693649 -0.0077658463 0.044252668
0001f0 60 d3 08 3e 85 df f3 bd b9 90 b2 bd d9 c4 b2 bc
       0.13361883 -0.11907867 -0.0871901 -0.02182238
000200 8c 04 db bd 91 8b 33 bd cd 7f 14 be e4 26 eb bd
       -0.106942266 -0.043834273 -0.14501877 -0.11482027
000210 db 8c 24 be 29 55 d0 bd 37 d3 8c 3d 79 e3 b0 bd
       -0.16069357 -0.10172493 0.068762235 -0.08637137
000220 a9 05 03 be 50 f1 59 bd 9e c7 27 3d 9e 44 57 bd
       -0.12795128 -0.05320865 0.040961854 -0.052555673
000230 d6 a3 12 bd a2 71 47 bc c5 86 21 bc b6 e1 e6 bd
       -0.035800777 -0.012173088 -0.009858792 -0.1127352
000240 61 c7 01 be 2a 0b dc bc 80 fc b6 bd c3 4e 25 3e
       -0.12673713 -0.026860792 -0.08934879 0.16143326
000250 51 6a 07 3e 18 2b 5c 3d 9a 66 0c be 35 e5 90 3c
       0.1322415 0.053752035 -0.13711014 0.01768742
000260 f8 5e 13 be 36 fc 83 3d 87 00 1d bd 78 e8 ee bc
       -0.14391696 0.0644459 -0.03833058 -0.029163584
000270 57 1f f1 bd e3 ef 06 be 85 8c 86 bd 78 89 3a 3d
       -0.11773556 -0.13177447 -0.06569771 0.045541257
000280 8a 93 1d 3d e3 60 82 3c a4 11 f3 bc aa dd 63 3d
       0.038470782 0.01591534 -0.029671498 0.055631317
000290 d4 4b 15 be e0 9a 81 bd f1 ac 2c bd d4 63 8b bd
       -0.14579707 -0.06328368 -0.042157117 -0.0680615
0002a0 2c 83 40 bd be d6 dd bd dd d0 ac 3c 40 25 a7 3c
       -0.047000095 -0.108319744 0.021095688 0.020403504
0002b0 b8 e2 16 be 3c 76 f8 3b fb 26 da 3c ba 7f 77 3d
       -0.14734924 0.007582454 0.026629915 0.060424544
0002c0 97 9e e3 3d 46 f2 7c bd 97 c6 87 bd 51 67 88 bd
       0.11114233 -0.061754487 -0.06629675 -0.06660331
0002d0 c0 ec b3 36 d5 82 38 be d3 9b db bd 91 32 81 3d
       5.362177e-06 -0.18018658 -0.107230805 0.06308473
0002e0 53 ea 69 bc bd da 72 bc e1 37 0c 3d 77 0e 09 bd
       -0.014277059 -0.014822659 0.034232978 -0.03346106
0002f0 78 c2 4b bd c9 06 9a 3d a5 bc 2e bd d8 10 34 be
       -0.049746007 0.075208254 -0.042660374 -0.1758455
000300 48 fc 2d bd 4e 75 a9 3d 3d 3a f1 3d ce 48 2a 3d
       -0.042476922 0.08274327 0.11778686 0.04157334
000310 d9 c1 3c 3e f0 4b e2 bc bb 24 08 bd 49 ea 0e bb
       0.18433322 -0.0276241 -0.033238154 -0.0021807125
000320 69 ae 9d 3d 81 2d c3 3c e9 c0 91 3d 66 cc b6 3c
       0.07699282 0.023825409 0.07116873 0.022314262
000330 0a 7b 1b 3e 1b 66 04 be fc 8e 5e bd 66 31 af bd
       0.15183654 -0.12929575 -0.05433558 -0.08554344
000340 02 58 54 3d 25 0a fe 3c ac 3d b8 bc 25 b2 92 3c
       0.051841743 0.031010697 -0.022490345 0.017907212
000350 fc 63 1f 3d 5b d6 7c bd f3 14 86 bb 62 c2 66 ba
       0.038913712 -0.061727863 -0.004091853 -0.0008802769
000360 93 c4 a9 bd 1d 51 b3 3b 8b 58 92 3c d4 d7 a7 3c
       -0.08289447 0.005472316 0.017864486 0.020488657
000370 08 d5 48 3e 83 2a b4 3c bc 6f b3 bd 87 12 5c bd
       0.19612515 0.021992927 -0.08761546 -0.053728607
000380 ce 3d a8 bc 7d 51 aa 3d 1e 8d 2b be 36 a2 1f bd
       -0.020537283 0.08316324 -0.1675305 -0.038973056
000390 02 92 83 bc 68 7b 30 bd 9e c1 33 be 62 7a 1f 3d
       -0.016060833 -0.04308644 -0.17554328 0.038935073
0003a0 94 49 3b 3d c1 83 18 bd 71 e2 be 3d 84 0e 03 be
       0.045724466 -0.037235025 0.09320534 -0.12798506
0003b0 4f 41 ec bd ea ae 9a bd cd 04 4f be 3f bc 15 be
       -0.11535894 -0.075528935 -0.20216675 -0.14622591
0003c0 4b 52 f2 3d d0 d2 85 3c a2 d2 4c bc d3 8f c9 3d
       0.118321024 0.016335875 -0.012501391 0.098418854
0003d0 71 95 f6 bc ca f5 47 bd 33 dc d7 bd a0 79 43 bd
       -0.030100556 -0.048818387 -0.105400465 -0.047723413
0003e0 e1 f5 e4 3d 23 ec 8e 3d 5f cb ad 3d da 47 bc 3d
       0.1117971 0.06978633 0.084860556 0.09193392
0003f0 87 ea 28 3e a3 ac 21 be 72 41 b7 bb 71 2b fc bd
       0.16495715 -0.15788512 -0.0055925185 -0.12312973

conv3.bias f4 [128]
000000 f6 23 76 bc dc 29 20 ba d3 61 f5 bd 1c d9 96 3c
       -0.015023222 -0.0006109753 -0.11981549 0.018414073
000010 42 9e c1 bd 61 c9 8d 3d 7c 76 ae bc e1 64 95 bd
       -0.094540134 0.069231756 -0.021296732 -0.07294632
000020 1e 20 43 3d 64 76 8a bb 77 79 3d bd 5e a7 da 3d
       0.04763805 -0.004225539 -0.046258416 0.10676454
000030 14 c9 d2 3c 29 b9 38 3d 18 91 ea bd 63 5a 70 3c
       0.025730647 0.045098457 -0.11453456 0.014669987
000040 24 a1 ad bd 0c 58 7c 3d 1e 88 ec 3d 13 f4 81 b8
       -0.08478001 0.061607406 0.115494 -6.196662e-05
000050 b2 25 12 3d 8b 7c b2 3c ae f5 39 3d 28 f4 ab bd
       0.03568048 0.021787902 0.045400314 -0.083961785
000060 61 d0 82 bb e0 ea 81 bd 87 75 f4 3c a4 61 b2 3b
       -0.003992126 -0.06343627 0.029841198 0.0054437686
000070 0e 77 74 bd 7f 1e 00 be 69 db 6b bd 94 16 22 bb
       -0.059683852 -0.12511633 -0.057582293 -0.0024732696
000080 0a e4 82 3d c1 31 f7 ba 6a f6 54 3c a2 ed ec 3c
       0.06391151 -0.0018859432 0.012998203 0.028921906
000090 dc 04 1c bd f4 d6 b8 3b 2f 49 38 bd de b9 d0 9d
       -0.03809057 0.005640859 -0.04499167 -5.5249324e-21
0000a0 81 c5 a3 3c 58 34 86 bd ac 3f 00 be 09 31 cd bd
       0.019991638 -0.065529525 -0.12524289 -0.10019118
0000b0 42 01 6f 3c d4 5f 55 3d e9 57 06 3c 08 fd f4 bd
       0.014587702 0.052093342 0.00819967 -0.119623244
0000c0 35 79 15 3d ff 41 a0 3d 92 c9 49 3d 93 a3 a2 ba
       0.036492545 0.07825088 0.049264498 -0.0012408368
0000d0 dc f3 88 bb 99 19 bc bd e6 1c 21 3d e3 c9 83 bc
       -0.004179461 -0.0918457 0.0393342 -0.016087478
0000e0 b3 1d 44 bd d2 67 9c bd 62 16 ac bd a3 ac 58 bd
       -0.047879886 -0.0763699 -0.08402707 -0.052899014
0000f0 56 6a d4 bc e0 74 d1 bd b3 37 15 bd 72 42 4c bd
       -0.025929611 -0.1022737 -0.036430072 -0.049868055
000100 4c 9f a4 ba 4a 54 b4 3a 92 79 ee 3c f3 27 0d bd
       -0.0012559681 0.001375803 0.029110704 -0.034461927
000110 ee f9 c5 bc e5 ca 0f 3d ab d9 77 3d 9a 33 98 bd
       -0.024167027 0.035105605 0.06051032 -0.07431717
000120 70 e4 d0 bc 4f 79 77 bc 30 09 d9 3b bc 4f 68 bc
       -0.025499552 -0.015104606 0.0066234097 -0.014179166
000130 af cc 57 bd 56 60 ee 3c 27 be 79 bd d1 85 5d 3a
       -0.052685436 0.02909867 -0.06097236 0.0008450421
000140 4b 08 b5 bc 66 e5 7e 3a b9 8c 60 3b a0 4d e3 bd
       -0.022098681 0.0009723514 0.0034263565 -0.1109879
000150 82 41 99 ba a2 6a 29 bd df 4f 04 3e 44 42 d8 bb
       -0.0011692496 -0.04136146 0.12921093 -0.0065996964
000160 f6 2e e1 3d af 31 ed 3a b3 ca 81 bd ac 40 84 bc
       0.10995285 0.0018096472 -0.0633749 -0.01614412
000170 c1 bd 90 bd a0 c8 a0 bc 33 02 5b 3d 20 c5 56 bd
       -0.07067443 -0.019626915 0.053468894 -0.052434087
000180 d5 4c bf bc 7f bb f5 3d f9 67 3c bd 81 ad 02 bb
       -0.023352066 0.11998653 -0.045997594 -0.0019939842
000190 a6 ec 88 bd 2e 4d 17 bd 1f 94 c1 bb 73 b6 5b 3d
       -0.06685762 -0.03693884 -0.00590755 0.053640794
0001a0 48 6e 06 bb 4b 1c f3 bd 14 7b 64 bc b7 f5 8a bc
       -0.002051251 -0.11870631 -0.01394536 -0.01696287
0001b0 90 4e 07 bd 41 44 93 3d 9f df 2f 3d 9e da ba 3c
       -0.033033907 0.07190753 0.04293787 0.022809323
0001c0 71 cc d9 bc 11 1f 3f bb 8c 61 8a bc 7a ad be 3c
       -0.026586743 -0.0029162804 -0.016892217 0.02327608
0001d0 d6 30 fd 3d ca 8c 77 bd 38 d9 fe bc 84 52 2e bd
       0.1236283 -0.060437 -0.031109437 -0.04255916
0001e0 10 49 36 a9 de 5b af bc c6 90 08 be 6f 46 0e 3e
       -4.047549e-14 -0.02140611 -0.13336477 0.13894056
0001f0 04 ed 70 bd 66 2e bd bd 24 a5 f0 bd 5f eb 39 bc
       -0.058819786 -0.092373654 -0.11750248 -0.011347621

act_conv1.weight f4 [4, 128, 1, 1]
000000 20 cb 1c 3d 04 5e ea bb 40 31 a9 bd 4c b4 76 bd
       0.038279653 -0.007152321 -0.08261347 -0.06023054
000010 bb 42 05 bb 76 ae a3 3e c2 41 54 bd bc 75 53 3e
       -0.0020333964 0.3196904 -0.051820524 0.20650381
000020 90 b4 82 3d 37 c8 23 bd 4e e0 bc bd 1d f1 c3 3c
       0.06382096 -0.03998586 -0.0922247 0.023918683
000030 c5 43 b3 bc 28 fa 3a bd e7 03 da 3d 1d f7 a9 3d
       -0.021882901 -0.045648724 0.106452756 0.08299086
000040 f7 4d 4f bd 0d 59 7e 3d 34 a8 33 bd aa 7a 22 b8
       -0.050611462 0.062096644 -0.043861583 -3.873805e-05
000050 f9 98 e3 3c 4c 37 06 bd cf 9a b7 bb cf d1 48 3d
       0.027782904 -0.03276758 -0.0056031714 0.049028214
000060 06 11 48 3d 83 d2 c7 3d 47 e0 07 3e 61 57 df bd
       0.04884436 0.09756949 0.13269149 -0.10905338
000070 6e 3b 91 3d e4 3e 91 bd a3 70 76 bd 0c 9c 7d 3e
       0.070914134 -0.070920736 -0.060166012 0.24766558
000080 e5 af c9 3e 25 f2 a9 3d de a6 ce 3c 69 3a 7d 3d
       0.3939201 0.082981385 0.025226053 0.061823282
000090 3d a8 60 be fc da 01 3e 10 b7 89 bc e0 3b a6 81
       -0.21939178 0.12681192 -0.016810924 -6.1064686e-38
0000a0 6f 7b c9 3c cb 1c 5e 3e dd 72 33 be 9f b3 2d be
       0.02459499 0.21690671 -0.17524286 -0.16963051
0000b0 82 e8 4a bd 4c 51 2a be 9f c8 65 bd 44 2b 23 be
       -0.049538143 -0.16632575 -0.05609953 -0.15934473
0000c0 c1 9e 5b bd 91 30 74 3d 61 b3 55 3d fe 09 09 bc
       -0.053618196 0.05961663 0.052173022 -0.008364199
0000d0 fb 25 2d 3e 1c 25 ed 3d 75 44 44 3d 5e 61 98 bd
       0.1690902 0.11579344 0.04791685 -0.07440446
0000e0 d6 bd a5 bd f1 90 88 bd 80 ef 01 bd 64 ba 0b bd
       -0.08092849 -0.066682704 -0.031722546 -0.034113303
0000f0 41 55 e8 bd 71 ca 22 3e e3 2a 8a 3d 22 58 08 bb
       -0.11344386 0.15897538 0.06746461 -0.0020804484
000100 ab d4 bf 3d 61 f6 4c 3a 83 3b eb 3e 39 11 1a bd
       0.09366735 0.0007818696 0.4594384 -0.03761408
000110 de 34 00 3f b2 c2 ca 3c ba 96 83 3c 74 5b 53 3e
       0.5008067 0.024751041 0.016063083 0.20640355
000120 03 c5 02 bc 7e 18 0f bc 06 5d ad bd f6 2e cb bd
       -0.007981542 -0.008733867 -0.084650084 -0.099210665
000130 5d 03 20 bd 78 a4 d4 bb 53 ff 93 3d e9 27 82 bd
       -0.039065707 -0.0064893328 0.072264336 -0.063552685
000140 b8 70 f7 bd ab 80 7e be 4b a7 54 3d 30 07 88 3b
       -0.12082046 -0.2485377 0.051917356 0.0041512474
000150 46 3e 8b 3b e4 33 82 be d0 b5 1f 3d c9 2c 97 bd
       0.004249367 -0.25430214 0.03899175 -0.07381589
000160 30 d9 da 3d 49 71 55 bd 4a 59 af 3d 10 63 63 bc
       0.106859565 -0.05210999 0.085619524 -0.013878599
000170 34 63 37 be 47 54 19 bd ef 04 8d 3e 87 80 7d 3c
       -0.17908937 -0.03743389 0.27542827 0.015472538
000180 00 5c d4 3d 97 ad 1f 3d ee 4e 16 be 8f a8 2e a4
       0.1036911 0.038983908 -0.14678547 -3.787301e-17
000190 b6 89 2e 3e d1 7c 8e 3e c4 59 3b 3e f1 09 38 3d
       0.1704472 0.27829602 0.18295962 0.044931356
0001a0 ee cd e6 bd 2f 8c 55 3d 37 cb 03 3e 2a 18 7c 3d
       -0.11269747 0.052135643 0.12870489 0.061546482
0001b0 b7 38 e3 bc 16 cc 9e 3d 77 eb fd 3c 02 d2 59 3e
       -0.027737005 0.0775377 0.030996067 0.21271518
0001c0 98 8d 0a bd 7f ab 70 3d c9 fb 78 3d 28 b6 82 bd
       -0.03382644 0.0587573 0.060786996 -0.063824
0001d0 a1 15 15 3e e1 e7 88 3e ce 42 35 bd 95 0f a8 bd
       0.14559032 0.2673941 -0.044253163 -0.08206097
0001e0 a1 4f ef ba 0a 30 39 bd d9 36 43 3d a1 63 0f 3e
       -0.0018257984 -0.04521183 0.04765973 0.14002849
0001f0 8e c4 61 be 9a fe 64 bd 98 a3 64 bd 0f 09 93 bd
       -0.22047636 -0.05590687 -0.055820078 -0.07179462
000200 57 ac 3c bd 3c 45 f2 bc 05 1c 9d 3d 69 7d a4 bb
       -0.046062794 -0.02957403 0.0767136 -0.005019833
000210 6e 8f 2b bd 72 e1 d4 bd 2b 64 86 3e 38 ae 14 3e
       -0.041884832 -0.10394563 0.26248297 0.14519584
000220 5b 13 74 3e 08 33 70 3c 49 52 67 bd e0 30 4c 3d
       0.23835509 0.014660604 -0.056474958 0.0498513
000230 40 a4 47 bd 3e 28 9e 3e 25 10 5d be 37 4c 6c 3d
       -0.048740625 0.30890077 -0.2158819 0.05768987
000240 14 b1 54 3d cf dc 37 be 4d 95 6e 3c ee 3b e4 ba
       0.051926687 -0.17955326 0.014561963 -0.001741288
000250 15 c1 b2 bc a2 7e 50 3d 0f a3 22 be 7d 7b 6d 3d
       -0.021820584 0.050902016 -0.15882514 0.057979096
000260 84 bf ba bd bf 27 61 be 71 0b d2 bc 56 b3 46 ba
       -0.0911856 -0.21987818 -0.025640221 -0.0007579824
000270 f0 c8 ae bd 00 dc e6 3d c3 41 3c 3d 8b c7 a1 be
       -0.085344195 0.112724304 0.045961153 -0.31597552
000280 01 74 03 3e a1 2d 78 bd 53 95 64 bd d8 74 57 bd
       0.1283722 -0.06059039 -0.05580647 -0.052601665
000290 12 6a b3 3e ab 17 9a bc 9c 38 9a 3d 40 fb a8 01
       0.35041863 -0.018810114 0.07530329 6.207398e-38
0002a0 c4 96 10 be 30 d6 50 3d 59 81 57 3d 97 40 d0 3d
       -0.14120013 0.050985515 0.05261359 0.101685695
0002b0 ab 80 ed 3b d0 e7 81 3e 04 de 5f 3c a5 f0 1d be
       0.0072480044 0.2537217 0.0136637725 -0.1542383
0002c0 0e 8f a5 3e 1e 55 87 3d 69 5f 00 3e cd 07 d1 bd
       0.32335705 0.06608032 0.12536396 -0.10206566
0002d0 bf 61 4c be 84 cb 6e 3d 82 d4 fe b9 20 25 eb 3d
       -0.19959162 0.058299556 -0.00048604986 0.114816904
0002e0 65 84 9b 3d 40 ab e7 3d bf 8b 11 3f ec ba 3a 3d
       0.07593612 0.1131196 0.5685386 0.04558842
0002f0 17 f7 ea 3c 56 14 09 39 1e 9d 9f bc ef 5b 78 3e
       0.028682275 0.00013072914 -0.019484099 0.2425382
000300 9d ed 12 3d f3 c4 45 3c 93 99 d1 3d 1a 59 c1 bd
       0.035871137 0.012070882 0.1023437 -0.09440823
000310 2a 7c 7a be 11 bf 8b bc fd 12 09 be ad 75 52 bd
       -0.24461427 -0.017058881 -0.1338615 -0.051381756
000320 c6 e3 c8 bd d8 01 12 bd 87 3b b1 3c f9 39 0b bd
       -0.09809069 -0.03564629 0.02163483 -0.033990834
000330 36 60 f0 bd aa 30 71 3e a4 fa 1e 3d ce 64 3a 3d
       -0.11737101 0.2355372 0.03881325 0.04550629
000340 a2 d7 33 3e ad 29 99 3e be 26 c2 bc cd 77 dc bd
       0.17562726 0.2991461 -0.023700114 -0.10765038
000350 cf 5d 07 be 5b 94 12 3e d5 ec 47 3e 1a 5c 32 3e
       -0.13219379 0.14314406 0.19523938 0.17417946
000360 04 dc c5 3d f6 d4 8c 3d e2 cc f7 3d f2 a8 db 3b
       0.09661105 0.068765566 0.12099625 0.0067034895
000370 23 6f 32 3e 31 ba 87 bc 0a bc 03 bd 94 4b 3d 3d
       0.17425208 -0.016568275 -0.03216175 0.046214655
000380 1d d7 05 3d de aa 98 3d 6f 2b 04 3e 4c 25 34 80
       0.03267585 0.07454465 0.12907194 -4.788825e-39
000390 64 c9 8f be 1e 56 08 be a9 64 8e be e0 b3 9d bd
       -0.28083336 -0.13314101 -0.27811173 -0.07700324
0003a0 99 cb f0 3b 3d 89 e5 bb 74 43 c5 3d e1 df bc bd
       0.0073484895 -0.0070048855 0.09632006 -0.09222389
0003b0 b8 6e 35 3e 4f 95 05 3e 99 a8 23 be 77 21 53 bc
       0.17718017 0.13045238 -0.15982284 -0.012886397
0003c0 26 82 33 3c 87 33 22 be 81 1d 50 3d 76 42 76 3e
       0.010956323 -0.15839969 0.050809387 0.2404879
0003d0 6d 6b b2 3d 11 2e f8 3c 87 f5 4c bd 96 80 f4 3c
       0.08711896 0.030295404 -0.05003884 0.02984647
0003e0 1c 84 bd 38 8a ec f6 bc 19 f8 67 bc 72 1e 1b 3e
       9.0368296e-05 -0.030142087 -0.014158272 0.15148333
0003f0 43 a3 f1 3d f7 fe a0 3d ba 6a 30 3d 19 3d 4a 3e
       0.11798718 0.07861131 0.043070532 0.1974987

act_conv1.bias f4 [4]
000000 ae 5b 82 3d c4 b6 5e 3c c5 ea cd 3d e9 b7 b1 bb
       0.06365143 0.013593379 0.10054544 -0.005423535

act_fc1.weight f4 [81, 324]
000000 ec 86 54 3b 11 d3 dd bc 00 e4 08 bd 94 e1 9e bd
       0.0032429053 -0.027078183 -0.033420563 -0.07757869
000010 c6 ed 58 bd fc de 8f bc 59 c1 94 bd 48 d7 6a bd
       -0.052961133 -0.017562382 -0.07263441 -0.057334214
000020 94 6a 41 bc f6 33 9e 3b f7 bd ad bd 13 68 ff bc
       -0.011805195 0.0048279716 -0.084834985 -0.031177556
000030 45 6b cd bc b5 66 93 bd 48 e7 99 bd e4 b8 15 bd
       -0.025075564 -0.07197324 -0.075148165 -0.03655328
000040 81 96 8f bd c2 e0 6e bd f7 80 33 bd aa 76 97 bd
       -0.07011128 -0.058319815 -0.043824162 -0.0739568
000050 cb 70 1f bd fb ad 53 bd 1f ef 0f bd 6d 3c 55 bc
       -0.038925927 -0.051679593 -0.035140153 -0.013014895
000060 c5 6c 4b bd ce da 18 bd 71 aa 20 bd fd e9 00 3b
       -0.049664278 -0.037318043 -0.039225046 0.0019670718
000070 4b 6c b6 bc 9f 1d 75 bd e4 82 68 bd 11 d2 fe 3b
       -0.022268435 -0.059842702 -0.056765452 0.0077765067
000080 8d ab 96 3c ce 33 9c bd e3 d4 aa bc 3e d4 61 bb
       0.018392349 -0.076270685 -0.020853465 -0.0034458782
000090 af ba 39 3c 13 f7 b7 3c 08 26 00 bd 0a 17 e4 bd
       0.011336013 0.022456681 -0.03128627 -0.11137207
0000a0 37 55 6e bd 6a 91 8d ba 57 aa 78 bd 67 5b 62 bd
       -0.058186736 -0.0010800783 -0.060709324 -0.05526295
0000b0 cd 2f 87 bd 2b bb ce 3c 24 e1 d9 bd ac 60 46 be
       -0.06600914 0.025235733 -0.10638645 -0.19372815
0000c0 71 4b 44 bd 28 e9 b6 3c fa 4b cb 38 66 51 a1 bc
       -0.04792351 0.022327974 9.693946e-05 -0.019692134
0000d0 8e ed 4c bd 00 91 67 bd ad a6 96 bd db 84 7b be
       -0.050031237 -0.056534767 -0.0735601 -0.24562399
0000e0 32 9a d6 bc 3e 09 e4 3c 5c 81 26 3c 20 85 44 bd
       -0.026196573 0.027836438 0.010162678 -0.04797852
0000f0 03 4c 80 bd 0c 84 27 bd f7 dc ae bd c1 ed ae 3d
       -0.06264498 -0.040897414 -0.085382394 0.08541442
000100 a2 ee 16 3e d1 80 c7 3d 57 65 5c 3d e6 a6 11 bd
       0.14739469 0.09741367 0.053807583 -0.035559557
000110 f4 51 7f bc 48 f6 af bb fd b9 d2 3c 74 79 7b bc
       -0.015583504 -0.005369935 0.025723452 -0.015348781
000120 c9 b8 b4 3d ff a5 a6 bd 4a 9f 1b 3d 09 6e f3 bc
       0.088243075 -0.0813713 0.037993707 -0.029715555
000130 6a 9c a6 bc 92 cc ec bd 47 da 7c bc 2f bf 9f bb
       -0.020338256 -0.11562456 -0.015432901 -0.004875086
000140 61 a2 90 bd 94 c3 14 bd 00 a0 8e bd ab 76 af bc
       -0.07062221 -0.03631933 -0.06964111 -0.02141889
000150 8b d7 23 bd 7e ee 7a bc 93 8e ef 3c 5a 01 92 bc
       -0.04000048 -0.01531565 0.02924279 -0.01782291
000160 a0 e9 c2 bd 27 30 52 bc d8 b4 4b bd ac 46 37 bd
       -0.09517217 -0.012828863 -0.049733013 -0.044745132
000170 b0 94 27 bc 6b 36 0e bc 2f f6 34 bd df 35 ec 3c
       -0.010228321 -0.008679966 -0.04418009 0.028834281
000180 80 bd 6a 3d 40 d2 84 bc 98 19 d0 3c 5e 2f 5d 3c
       0.057309628 -0.016213536 0.025402829 0.013500063
000190 93 bf 83 3d c7 fc 61 3d 6f 42 fd bb 2e 9e 4e 3c
       0.06433024 0.055172708 -0.0077288668 0.012610955
0001a0 0c db da 3c 79 86 cb 3c de 9d 17 3c 18 41 8e 3c
       0.026715778 0.024844395 0.009253947 0.017365023
0001b0 93 35 3f bc 7d e9 7f 3b 3e f2 85 3c e6 8c 6d 3d
       -0.011670488 0.0039049082 0.016350862 0.0579957
0001c0 ad f7 9d 3d 74 04 d1 3c 50 8f 82 bc 05 c4 84 ba
       0.07713256 0.025514819 -0.015937477 -0.0010129219
0001d0 c2 f7 ec bc 1a df 39 bb 66 70 04 3d 30 c8 18 3d
       -0.028926734 -0.0028361739 0.032333754 0.03730029
0001e0 ca 09 bf 3d 6a 2b 1e 3c f4 9c 1b 3d 8a 1f 1e 3d
       0.09328039 0.009653905 0.03799148 0.038604297
0001f0 5f b4 db 3c 56 f3 ac bc 6b ed 8d 3d 89 8d b7 3c
       0.026819406 -0.021112125 0.069300495 0.022406356
000200 d3 cd bc 3d a2 b9 ff 3c 82 3d 92 3d ea da 94 3d
       0.09218945 0.031216446 0.07140638 0.07268317
000210 c4 8d 9b ba 36 49 a8 3c ca 04 b7 bc 76 83 41 3d
       -0.0011867811 0.020542722 -0.02234115 0.04724451
000220 72 4b 92 3d a0 4a d0 3d 59 69 71 3d 0e 3e b7 3c
       0.07143296 0.101704836 0.058938358 0.022368457
000230 37 72 4d 3c d0 28 87 bc dc 27 3b bd 7f f0 43 bd
       0.012539438 -0.016498953 -0.04569231 -0.047836777
000240 4f 9d 8b be f8 a4 20 3d f5 30 8a 3d 3f 89 ea 3c
       -0.27268454 0.039219826 0.06747619 0.028629897
000250 ca 09 38 3c 52 07 92 3d ff cb 91 bb fb e2 2f bc
       0.011232803 0.071303025 -0.004449367 -0.010735269
000260 0e 4a 08 bd 40 d5 6b 3c 30 2b fc 3d fd ff 17 bc
       -0.03327375 0.0143941045 0.12312925 -0.009277341
000270 1c 3e 18 bd bf 11 9d bc 5d b7 28 3d 79 e7 d6 3c
       -0.037168607 -0.019173501 0.041190494 0.026233422
000280 f1 75 86 3c 69 d5 c8 bc 1d 3e 88 3b 24 fa f3 bc
       0.01641366 -0.024515824 0.004157795 -0.029782362
000290 1d b5 db bc f5 7c 05 bd 74 d9 80 bd 11 56 7f bd
       -0.02681976 -0.03258987 -0.06291476 -0.06233794
0002a0 db a2 f2 bc ef 4c 93 bd b5 f3 82 bc e2 2c 05 bd
       -0.029618671 -0.07192408 -0.01598535 -0.032513507
0002b0 c5 67 39 bd e2 97 01 bc 37 ef 2f bd ca 3d 17 bd
       -0.045264978 -0.007909747 -0.042952742 -0.03692416
0002c0 c4 ec 64 bc 3b 92 f6 bc b0 75 4f bc 0a 14 8c 3c
       -0.013972465 -0.030099025 -0.012662336 0.0170994
0002d0 d4 a9 92 bc 0c 61 45 bc ff ec a6 3c f2 ae a1 bd
       -0.017903246 -0.012047064 0.02037668 -0.07894696
0002e0 25 0a 08 bd 6a 9b b4 3c ee 94 e3 bc 5e 1e 8e bd
       -0.0332128 0.022046763 -0.027780976 -0.06939386
0002f0 4c 54 e7 bd c5 1b 7b bd 1c 31 25 bd 19 0f 6c bd
       -0.11295375 -0.06130578 -0.040330037 -0.057631586
000300 5a 71 44 bd c1 02 50 bd 1c 86 9e bd bc 66 e8 bc
       -0.047959663 -0.050783876 -0.07740423 -0.0283693
000310 b1 e9 a1 bd 27 79 53 bd d4 23 ef 3c fa 1e 8f bc
       -0.07905901 -0.05162921 0.029191889 -0.017470825
000320 df ae f9 bc b8 ea 54 3c cc 57 8a bd c5 e8 b3 bd
       -0.030478893 0.012995414 -0.06755027 -0.08784632
000330 c3 41 58 bd 76 95 c3 bc d5 95 1e bd 57 76 84 3d
       -0.05279709 -0.02387498 -0.03871711 0.06467884
000340 50 20 8d bd 10 0e cc 3d c0 36 9b bd 5f d9 87 bd
       -0.06890929 0.0996362 -0.07578802 -0.06633257
000350 8b 49 12 bd 3f 88 83 bd 01 80 e5 bc 5a 53 c9 bc
       -0.035714667 -0.06422471 -0.028015139 -0.024575878
000360 bb 31 6a bd 51 3d 2e 3d 91 32 04 be b6 1d e5 bc
       -0.057176333 0.042538945 -0.12909915 -0.027968269
000370 04 5d 2e bd 19 59 7e bd 4c 96 c2 bd a4 c5 6f bd
       -0.042569175 -0.06209669 -0.09501323 -0.058538094
000380 b8 0a 1f bd 57 aa be be 71 c8 91 3c 21 10 a4 3d
       -0.03882858 -0.37239334 0.017795773 0.08010889
000390 66 66 42 bd 1a c4 7e bd 2d 88 30 bd b8 82 cc bd
       -0.047460936 -0.062198736 -0.043098617 -0.0998587
0003a0 90 9c 96 bd 5e 95 0c bd 4a 9a a7 3d df 1b 9c 3b
       -0.07354081 -0.034322135 0.08183725 0.0047640647
0003b0 69 f2 17 bc c1 f8 21 3c 98 98 2c bd 52 b4 da bd
       -0.009274104 0.009885968 -0.042137712 -0.106789246
0003c0 57 a6 31 bd 62 be f2 bc 0d c9 0e bd 00 3e 44 80
       -0.043371525 -0.029631797 -0.034859706 -6.267055e-39
0003d0 1f 55 44 80 47 f8 2b 80 6a a3 4e 00 0a c2 1d 80
       -6.27535e-39 -4.037991e-39 7.22179e-39 -2.732837e-39
0003e0 ff 70 3e 00 4a f8 14 00 12 0a 20 80 5b 2a 58 00
       5.734336e-39 1.925779e-39 -2.942348e-39 8.096718e-39
0003f0 2a d9 77 80 6d e5 0f 80 d8 91 94 00 60 55 22 80
       -1.1006328e-38 -1.459835e-39 1.3643972e-38 -3.153034e-39

act_fc1.bias f4 [81]
000000 85 5d 49 3c 58 84 61 bd d5 9a e0 bd 4d c6 89 bd
       0.012290363 -0.055057853 -0.10967032 -0.06727276
000010 fc 0f 23 bd d1 0a bb bd 9a d9 fc bd 51 16 35 bd
       -0.039810166 -0.091329224 -0.12346192 -0.044210736
000020 1d 5b 81 3c 32 42 47 bd d3 65 91 bc 28 66 e9 bd
       0.015790517 -0.048647113 -0.017748749 -0.11396438
000030 3b 1b 96 3d c8 38 b7 3c 82 41 b5 3d 88 55 c2 bd
       0.073294125 0.022365943 0.08850385 -0.0948897
000040 fd bc 8b bd 2c 91 10 bc 7b 0a 02 be ef 57 c7 bd
       -0.06823156 -0.008823674 -0.1269931 -0.09733569
000050 b8 de 46 3e 37 13 67 3d 27 46 c7 3d 44 50 02 3d
       0.19420898 0.05641481 0.097301774 0.03181483
000060 ac 88 07 3e 14 62 20 be 0e bf 92 bd c1 b5 1d bd
       0.1323573 -0.15662414 -0.07165347 -0.038503412
000070 ab 50 b3 3d f9 e5 05 3d e8 23 db 3c c6 62 03 3d
       0.087556206 0.032690022 0.02675052 0.03207662
000080 82 1c 10 3c 6a 82 08 3b c2 f0 9c 3d 85 41 5f bd
       0.008795859 0.0020829686 0.076631084 -0.054505844
000090 74 b8 09 bc 3f 9a cb bc e8 a6 00 3e 35 5b d7 3b
       -0.008405793 -0.024853824 0.1256367 0.006572152
0000a0 10 84 0c 3d b1 d9 31 3d cd 36 e2 3d 30 15 10 bd
       0.034305632 0.043420497 0.11045609 -0.035176456
0000b0 42 9d 4f 3c d8 27 65 bd 0b 7f 96 3d db 91 a9 3a
       0.0126717705 -0.0559462 0.0734845 0.0012937145
0000c0 14 94 eb 3c b8 23 4f 3d 50 a5 eb bb a8 2c fa 3c
       0.028757133 0.050571173 -0.0071913376 0.030538872
0000d0 ef 3e a7 3c 17 a1 8e bd 16 ea c3 bd 58 f8 d9 bd
       0.020415751 -0.06964319 -0.09566133 -0.10643071
0000e0 14 8a 3e 3e 93 02 ed 3c 48 e4 0d 3e 82 06 8f 3d
       0.1860736 0.028931892 0.13856614 0.06983663
0000f0 6e b0 6a 3e 0a 20 b4 bd af 0f 82 bd e4 2e 24 bd
       0.22918865 -0.087951735 -0.06350648 -0.04008378
000100 31 67 a0 3a 94 14 e1 bd 54 2d 91 3d 14 a4 bf bb
       0.0012237785 -0.10990253 0.07088724 -0.005848417
000110 19 a8 71 3d 98 e0 bb bd 82 c9 8d bb 4f 9b 51 bc
       0.0589982 -0.09173697 -0.004327 -0.012793376
000120 36 0f 11 3b 7d 03 22 bc a8 bf c5 bd ca 08 96 bd
       0.002213431 -0.009888527 -0.09655696 -0.07325895
000130 c9 88 ca ba 17 66 ba bd c8 7f 47 bd 6d 26 7b bc
       -0.0015452142 -0.09101503 -0.048705846 -0.015328986
000140 9e 96 c1 3b
       0.0059078475
