best_policy.model (torch, 529533 bytes, 15 tensors)

conv1.weight f4 [32, 4, 3, 3]
000000 a8 97 e6 3e 65 6e dc bd 12 5b ad bc 29 0d 0e be
       0.4503758 -0.107632436 -0.02116159 -0.13872208
000010 0b ac a3 3d 21 a2 84 bd ea 9e 40 3e fe 87 6c be
       0.07991799 -0.06476236 0.18810621 -0.23098752
000020 1e 0f 40 3d 66 11 09 3e a1 36 85 be 49 93 28 bd
       0.046889417 0.13385543 -0.2601824 -0.041156087
000030 63 9b 91 be fb f1 3b 3d 30 17 b8 3d ac 6d f3 bd
       -0.28438863 0.045885067 0.08988798 -0.118861526
000040 a6 32 3c 3e 50 cb 95 be fa 5a 47 bc e1 96 b9 3d
       0.18378696 -0.29256678 -0.012167687 0.09061981
000050 78 e9 4c 3d 46 33 95 3d 7d 71 65 3d 74 b9 1e be
       0.05002734 0.0728517 0.056016434 -0.15500432
000060 b8 a5 74 3d 7d 31 fd 3a dd fa 62 bd de 69 95 bd
       0.059728354 0.0019317117 -0.055415023 -0.07295583
000070 2e 07 0f be 3e 81 18 3e 16 4e 1a 3c 6b 9b c5 3c
       -0.13967583 0.14893052 0.009418031 0.02412196
000080 3c 7f 79 bc 4e 19 20 be 04 ce 27 3e c7 89 05 3e
       -0.015228089 -0.15634653 0.16387182 0.13040839
000090 46 85 90 be dd f8 87 bd fc 2b 03 3d f3 56 ba be
       -0.2822668 -0.06639264 0.03202437 -0.36394462
0000a0 58 68 80 bc c4 4d 9a be bf 7d 6e be 4b 6b 05 3e
       -0.015674755 -0.30137455 -0.23290156 0.1302921
0000b0 a0 66 3c be bc 08 7e be ef 74 ae bd fe b5 b5 bd
       -0.18398523 -0.2480802 -0.08518397 -0.08872603
0000c0 1a 03 27 be e1 fc f9 3d b7 55 b5 be 74 b2 d0 be
       -0.16309777 0.12206436 -0.35416958 -0.4076115
0000d0 78 3b 6e 3d 93 39 16 3b e8 22 28 3d b4 73 d4 3c
       0.058162183 0.00229225 0.041048914 0.025934078
0000e0 64 97 1b 3c 3d 0d a0 bc ed cd 71 3d 2d b8 db bd
       0.009496544 -0.019537563 0.059034277 -0.10728488
0000f0 e3 7c e8 bb 9d 52 ea bc bf e4 cb 3d ee 58 da bd
       -0.007094966 -0.028603846 0.09955739 -0.10661493
000100 f2 96 c6 bd 7f 8f 02 be e6 90 ae bc 13 8a 68 3e
       -0.09696759 -0.12750052 -0.021309327 0.22708921
000110 55 79 1f 3e 57 83 1c 3e 7f 26 61 3d 32 f1 41 3e
       0.15573628 0.15284477 0.054968353 0.18939665
000120 f1 a6 10 3e a3 59 3b be d2 78 76 be 38 f2 53 3e
       0.14126183 -0.18295912 -0.24069527 0.20697868
000130 8d da e5 3d 33 b6 12 3e e3 14 40 3e 18 c4 3c be
       0.11223326 0.14327316 0.18757968 -0.18434179
000140 ac 24 2e be 60 f9 dc be 92 31 7c 3e 5f 14 58 3e
       -0.17006177 -0.43159008 0.24628285 0.21101521
000150 0e e9 dc be d3 2d 65 3e 3a 80 47 be 98 26 17 be
       -0.43146557 0.22380762 -0.19482508 -0.14760816
000160 db af 1f be 99 79 e6 3d 9c dd 6e bd a2 ea 4e bd
       -0.15594427 0.11253662 -0.058316812 -0.050516732
000170 cc a7 f4 bb 2f 53 68 3d 0c 66 ab 3d 56 b7 33 bd
       -0.007466292 0.056719955 0.08369073 -0.043876015
000180 85 8d bf bd 8d 9d 71 3c e9 44 3a 3d 8f 22 0b 3e
       -0.093531646 0.014747036 0.045475874 0.13587402
000190 da 95 37 be ae 85 51 3d 91 5b 27 3e 96 ed ed 3d
       -0.17928258 0.051152878 0.16343524 0.116175815
0001a0 ca e1 9f 3d ab d0 c9 bd 6c 1c b1 bd 5f c7 e4 bd
       0.07806738 -0.098542534 -0.08647999 -0.111708395
0001b0 c9 bc 9c be d2 dc de bd 4a 5b 5b bb 2a 6f 78 bd
       -0.30612782 -0.10881962 -0.003347116 -0.06065289
0001c0 e8 a0 2b be fa 3b c5 bd 84 cc 50 bd 9f 3c 26 be
       -0.167606 -0.0963058 -0.05097629 -0.16234063
0001d0 16 74 5a 3e 29 01 ee 3c a7 5a b0 3e 74 83 79 bd
       0.21333346 0.029053288 0.34444162 -0.06091638
0001e0 82 ac c3 bc ab d0 e9 3e 6c 58 b2 3e 30 20 9c be
       -0.02388597 0.45667014 0.34833086 -0.30493307
0001f0 50 50 ab 3e 47 90 a6 be 72 a1 5c bc cb e3 10 3b
       0.3345971 -0.3253195 -0.013466226 0.0022108431
000200 a3 ae cf 3d 34 d7 26 3c 98 b8 85 3c 4d e6 db 3c
       0.10140731 0.010183144 0.016323373 0.026843214
000210 8d 10 13 bd e7 73 f1 b9 81 8a 60 be 69 b6 dc 3d
       -0.035904456 -0.00046053456 -0.21927835 0.107769795
000220 26 dc bc 3d 0c d0 0f 3e 2f 58 75 3c ee 6f ca bc
       0.092216775 0.14044207 0.014974638 -0.024711575
000230 d2 d4 55 3e 3f 93 fc bd 80 30 e1 bd 07 1f 0e be
       0.20881966 -0.123327725 -0.10995579 -0.13879023
000240 0f c8 7a be cf 02 91 be 94 3c 12 be 93 7b 7f 3e
       -0.24490379 -0.28322455 -0.14280921 0.24949484
000250 8f 3d 3d be 88 6d 28 3d 2b 31 03 bd cb 35 b2 3d
       -0.18480514 0.041120082 -0.032029312 0.087016664
000260 94 be 19 3e f2 69 3f be 22 2d 5e bd 61 11 77 be
       0.15014106 -0.18692759 -0.05424226 -0.24127723
000270 89 7f e3 3c 49 cb 16 3e dc 6e 8c 3e 2e 39 b2 3d
       0.027770774 0.14725985 0.2742833 0.087023124
000280 8a 4e af 3e 3a 93 1b be b2 f0 4d 3d 31 b8 6c 3d
       0.34239608 -0.15192881 0.050278373 0.057792846
000290 c2 f8 94 3c 23 cd 56 3b 81 cc 0f bd 97 77 3a be
       0.018185023 0.003277608 -0.03510714 -0.18209682
0002a0 54 fd 5e bd f8 28 89 bd 75 13 57 3e 4c 50 be bd
       -0.05444081 -0.06697267 0.21003516 -0.09292659
0002b0 2a 33 f9 bb b9 c1 aa 3c c1 d9 3b be b1 63 24 bd
       -0.007604976 0.020844327 -0.18344785 -0.040134136
0002c0 ab cb d7 3d 6d cd 41 be e7 cb 01 3b 9d 44 02 3e
       0.105368935 -0.1892602 0.0019805373 0.12721486
0002d0 33 3e ed 3e 1b 43 3e 3e e4 2a b5 3e 74 c2 0f be
       0.46336517 0.18580286 0.35384285 -0.14039022
0002e0 79 47 8b 3e 35 c9 3b 3e 6d 9e 8c 3e f3 26 8c 3e
       0.27202967 0.18338473 0.2746462 0.27373466
0002f0 ee 51 bb 3e 1b 10 79 be 33 9a 0e be c9 dd df bd
       0.36585945 -0.2432255 -0.1392601 -0.10930974
000300 33 d0 21 bd 96 9f 85 bd 6f de 27 3d c9 de 33 bc
       -0.039505195 -0.06524579 0.040983614 -0.010978409
000310 fa ea 3b bd 76 f2 0a be d7 84 44 3d e1 a3 07 bd
       -0.045878388 -0.13569054 0.04797825 -0.03311527
000320 32 01 59 3e c6 02 b5 3d 9e 85 05 3e d5 0b 75 3d
       0.21191862 0.088384196 0.13039252 0.059825737
000330 4e bd 71 3d 03 47 14 3d d1 77 c5 3d 10 bd 5a 3d
       0.059018426 0.036200535 0.09641994 0.05340296
000340 8a a3 04 3e fe 6c f9 bd cf ed 40 3d e7 f2 86 3c
       0.1295301 -0.12178992 0.047101792 0.016473247
000350 50 8a 95 bd 33 d5 70 bd 74 01 4e bd 7b 5b 33 3e
       -0.07301772 -0.058797073 -0.050294355 0.17515366
000360 43 2d 41 3e 47 2c 1d 3e a6 9b ab be d1 54 b2 bd
       0.18864922 0.15348922 -0.33517188 -0.08707584
000370 34 01 39 be 77 a8 c7 bc 36 17 8a 3e 4d 67 3e bd
       -0.18066865 -0.024372322 0.26970834 -0.046485234
000380 56 f8 47 3d 39 06 86 3d 53 37 cb bd e4 bd cb 3e
       0.048820816 0.06544156 -0.09922662 0.39793313
000390 e6 95 84 be 53 b9 ea 3d 5c 52 3c bc 08 6f b2 3e
       -0.25895613 0.11461129 -0.011494245 0.34850335
0003a0 62 10 18 be c5 fa 4c 3c 9c bd 1b be 85 2e 0e 3d
       -0.1485 0.01251096 -0.15209049 0.034712333
0003b0 7f 00 c9 ba 76 1e d6 bd 76 a5 92 bc c2 42 74 3c
       -0.0015335231 -0.10455029 -0.017901164 0.014908494
0003c0 a4 9c e1 bc 9d 31 97 3d 6b 75 7d bd 6f 6c f5 bd
       -0.027540512 0.0738251 -0.061879557 -0.11983573
0003d0 32 63 73 3b e1 59 20 bd ca 06 a2 3d a8 b2 11 be
       0.0037137982 -0.039148215 0.07911451 -0.14228308
0003e0 1b 86 a6 3b 6f 47 ab 3d 26 55 ac bd 9e 56 b3 3c
       0.0050819046 0.08363234 -0.08414678 0.021891888
0003f0 e8 ae 28 be 2d 5c 90 3e 27 b0 c8 bd 1f ac 93 3d
       -0.16472971 0.28195325 -0.097992234 0.07210564

conv1.bias f4 [32]
000000 29 50 9a ba 76 34 75 bd 53 34 6b 3d 1f 0b 9f 3c
       -0.0011773157 -0.059864484 0.057422947 0.019414483
000010 89 67 5a 3c 73 86 37 be fe b3 35 3e 6a 2a 25 be
       0.013330349 -0.17922382 0.17744443 -0.16129461
000020 4c 2f 78 be 4d ff 2b 3e a2 d5 89 3d a8 97 bf bd
       -0.24236792 0.16796608 0.067302 -0.09355098
000030 8b e7 18 bc 35 c0 d1 3d 35 b7 23 3d a6 f2 ef 3d
       -0.009332548 0.10241739 0.03996964 0.117162034
000040 aa a7 6b 3d 8a 89 8b bb b5 86 24 be 00 c2 dc 3d
       0.057532944 -0.0042583393 -0.16067012 0.1077919
000050 5c 86 22 be 86 42 e4 bd 4f fd da 3c d8 a8 ed 3d
       -0.15871567 -0.11145501 0.026732115 0.1160447
000060 82 3f 09 3e 09 9b 56 3e b9 75 ba 3d 60 70 e9 3d
       0.13403133 0.20957579 0.09104485 0.11398387
000070 34 31 bb 3d a8 91 27 be 33 99 d6 bd 6b 69 2c be
       0.09140244 -0.16364157 -0.10478439 -0.16837089

conv2.weight f4 [64, 32, 3, 3]
000000 cc 22 fd bd fb d3 4b bd 22 11 8d bd 0d e5 e2 bd
       -0.123601526 -0.049762707 -0.068880334 -0.11078844
000010 f3 1c da 3d 09 f1 37 bd a9 86 1e bd fc e9 45 be
       0.10650053 -0.044907603 -0.03870264 -0.19327539
000020 07 db b6 3c c3 d7 17 be 25 8b 2d 3c e7 15 d6 bd
       0.022321237 -0.148284 0.010592257 -0.10453396
000030 7d 2f 17 bd 0f 51 b8 3d 41 68 b0 3d fa 22 df 3c
       -0.036910523 0.08999836 0.08613635 0.027238358
000040 69 00 77 be bc 62 84 bd 3e 83 03 bd eb 65 02 3e
       -0.2412125 -0.064641446 -0.032107584 0.12734191
000050 ec cc 30 bd a5 c5 20 3d ae 89 ba 3d 93 09 4e bd
       -0.04316418 0.03925099 0.091082916 -0.0503021
000060 40 e8 dd bb 96 80 68 3e e9 d5 15 3c ab a0 6a 3e
       -0.006772071 0.22705302 0.009145238 0.22912852
000070 28 2b c2 bd 3e 45 0a be 4d e3 0f be ac c0 21 bd
       -0.09480888 -0.13502976 -0.14051552 -0.039490387
000080 06 04 06 be 93 f9 aa bd 32 9b 26 3e 0b ed 03 3d
       -0.13087472 -0.08348384 0.1627014 0.032208484
000090 08 05 57 bd e1 e6 f1 3d d4 d0 00 bd 5c 97 84 bb
       -0.052495033 0.11811615 -0.031449154 -0.0040463638
0000a0 14 bf 87 3d 80 97 9a 3d 93 bc 66 bd 53 7a 31 be
       0.06628242 0.075484276 -0.056332182 -0.17331819
0000b0 a2 61 d3 bd 18 dd 1e 3d 9a 18 a9 3d 44 79 02 3e
       -0.10321356 0.03878507 0.082566455 0.12741572
0000c0 7f b8 18 3e 80 6c 41 3d e9 37 43 3d 1c a5 68 3e
       0.1491413 0.047222614 0.047660742 0.22719234
0000d0 89 7b 06 3e 2b 42 ad bb 79 a1 44 3d c1 00 3a be
       0.13133062 -0.005287429 0.048005555 -0.1816435
0000e0 91 92 a3 3c 2a cc 3c bd 57 85 3e 3e 0d 5d 33 3b
       0.01996735 -0.046093144 0.18605553 0.0027368695
0000f0 ae 03 3b bd 86 e8 75 be bb 13 70 bd 44 a6 94 3d
       -0.045657806 -0.24014482 -0.058612566 0.07258275
000100 4e 36 b7 bd de 8e 53 3d 72 73 01 3e dc 8c 79 3d
       -0.08945905 0.05164992 0.12641695 0.06092535
000110 ee 72 de bc ed ac c1 bd b9 d3 ed bc ca e8 9b bd
       -0.027154412 -0.09456811 -0.029031621 -0.0761276
000120 c8 79 16 39 bd 3a f5 bc 64 ba da 3d 34 ea 15 3d
       0.00014350482 -0.029935235 0.106800824 0.036600307
000130 b3 aa 5a 3d ed 5d 01 be 78 63 97 3d 81 8e cc bd
       0.053385448 -0.12633486 0.07392019 -0.09988118
000140 1a f5 4a 3c 8f cd ff bc ab ad d6 3c 55 44 13 3e
       0.012387538 -0.031225948 0.026205858 0.14381535
000150 dc 6e 2b 3c 6b a5 7f 3d 99 6d 26 3a 9f c2 81 bc
       0.010463443 0.062413614 0.0006348729 -0.015839873
000160 66 62 12 bc 0f ff 9e bc 5e ec b1 bc bc 40 0e bd
       -0.008934593 -0.01940873 -0.021719154 -0.034729704
000170 f4 a7 c4 bd 83 70 ac bd fb d4 14 3e 16 1d 0c be
       -0.09602347 -0.084198974 0.1453437 -0.1368297
000180 ee 45 1c be 51 8a 20 be ae 5b 48 3e a8 c8 02 be
       -0.15261051 -0.15677764 0.19566223 -0.12771857
000190 13 88 41 be 9f 8d 80 bb f6 0d 7d be 08 b7 28 3e
       -0.18899564 -0.0039231325 -0.24712357 0.16476071
0001a0 28 be 44 3e 21 4e 88 bd d1 1c d9 bd ac 95 1f 3e
       0.19213164 -0.06655527 -0.106011994 0.15584439
0001b0 57 01 a5 3d d6 b8 a1 3c 4d 61 91 3e da 6b 7e be
       0.08056896 0.019741457 0.28394547 -0.2484583
0001c0 de 36 6f 3d 7f e3 0e 3d 4f 06 29 bd 94 82 5e bd
       0.058401935 0.034884926 -0.041265782 -0.054323748
0001d0 77 88 7c bd 40 66 50 bd 8f c5 45 3e 16 fa 0c 3d
       -0.06165358 -0.050878763 0.19313644 0.034418188
0001e0 22 42 41 3d bb 31 e9 bd 80 99 fe bd 2b e0 5d bd
       0.04718221 -0.113864385 -0.124316216 -0.05416886
0001f0 07 71 ff 3c b4 94 8e be 13 84 c3 be d9 a4 41 be
       0.031181825 -0.27847826 -0.38186702 -0.1891054
000200 55 25 ab bc e0 fe 99 3d 6c 4b 1a bd 7a 15 be 3d
       -0.020891825 0.07519317 -0.037669584 0.0928144
000210 c9 d6 84 3b bf 97 dd 3d c4 55 4a bb f7 90 e3 3d
       0.0040539247 0.10819959 -0.0030873874 0.11111634
000220 ee 46 4d be 03 32 0d 3d 5e f1 32 be 45 2d 6e bd
       -0.20046589 0.034471523 -0.17474887 -0.05814864
000230 27 d5 b5 be c1 2e f3 39 6d 56 10 3e 11 5d 44 3d
       -0.35514185 0.00046383406 0.14095469 0.047940318
000240 51 0a 8a bb 81 3e 61 be 5e c2 91 3d a9 10 1a be
       -0.0042126556 -0.219965 0.07117151 -0.15045418
000250 b7 54 d7 bb c5 bc 5d 3d 54 e5 5e be ef e3 b6 bb
       -0.006571378 0.054135103 -0.21767169 -0.005581371
000260 4b b4 fd bc bf 64 81 bc e0 20 4b bd f5 af 0d 3e
       -0.03096976 -0.01579511 -0.0495919 0.13836654
000270 20 42 f1 3d 86 be 23 3d 50 e7 ba bc dd 56 1b 3e
       0.117801905 0.03997662 -0.022815377 0.15169854
000280 cd f8 d9 bc e4 b1 50 3e c5 c7 e5 3c 5e 24 1f bd
       -0.026607895 0.2038036 0.02804936 -0.03885304
000290 5f 8d 9b bc 91 c4 78 3e ef f8 de 3d d3 08 0f 3e
       -0.01898831 0.24293734 0.10887324 0.1396821
0002a0 a5 21 7e 3e 29 8a 04 bd f2 20 39 be a1 e7 e2 bd
       0.24817522 -0.032358322 -0.18078974 -0.11079336
0002b0 b6 41 81 bd 4d 8a 86 bd 67 97 10 be a9 49 e5 bc
       -0.063113615 -0.065693475 -0.14120255 -0.027989225
0002c0 67 68 66 be 9d b5 3f 3e 09 ab 41 3b f7 e0 54 3d
       -0.22500764 0.18721624 0.0029551408 0.051972356
0002d0 45 a8 38 3d 92 63 92 be b0 a0 7e bd a7 fb 94 bd
       0.04508235 -0.2859159 -0.062164962 -0.072745614
0002e0 c8 34 19 bc b6 30 70 3d fb 4f 00 3d a3 cf 54 3e
       -0.009350963 0.058640204 0.031326275 0.20782332
0002f0 94 2c 34 3e 95 f5 01 be a5 6b 49 3d ac f6 c9 bd
       0.1759513 -0.12691338 0.049174923 -0.09861502
000300 e5 67 27 3e b3 39 9f 3d f3 f8 d7 bc a4 71 74 be
       0.16348226 0.07774677 -0.026363825 -0.23871475
000310 0e c8 9c bd cb 66 11 3c 0e 7f 9a bd 0e 13 22 3e
       -0.07655345 0.008874605 -0.07543765 0.15827581
000320 9d df aa bd 82 10 c0 3d b0 a9 02 bc 69 a2 b6 3d
       -0.08343432 0.093781486 -0.007975027 0.08917696
000330 ad ac 1c bd f9 07 d1 3d 6e b9 16 bd fd c3 cd 3d
       -0.038250614 0.10206599 -0.036797933 0.100471474
000340 61 f3 a8 bd 24 3e 2f 3e 20 a1 31 bd 06 56 ac bd
       -0.08249546 0.17113549 -0.04336655 -0.08414845
000350 ce 07 5f bc 29 7f 50 bd 81 68 2a be 0e c9 55 be
       -0.013612701 -0.05090252 -0.16641428 -0.20877478
000360 df 8b ee 3d 2b ac a9 bd 1c 01 8f 3c f4 52 0d 3e
       0.11647772 -0.082847916 0.017456584 0.13801175
000370 c3 e9 99 bd 6b 15 6e 3d 9c b7 0f 3e ad 1f 81 be
       -0.0751529 0.058125895 0.14034885 -0.2521948
000380 08 96 a2 bd 9e d5 62 be c8 17 14 be 7d 94 6f bb
       -0.079387724 -0.22151801 -0.14462197 -0.0036557012
000390 cf cd 8d bd 1b f9 a4 bd 57 f9 68 be cb d7 1d 3d
       -0.069240205 -0.080553256 -0.22751366 0.038535874
0003a0 a0 64 c8 bc 35 fa 8e bc 44 45 20 3e 85 83 5e bd
       -0.024462044 -0.017453292 0.15651423 -0.054324646
0003b0 a0 c1 5b 3d 95 3e ac be 33 87 fa bd 73 6b a2 bd
       0.053651452 -0.33641496 -0.122328185 -0.079306506
0003c0 fa 80 40 be 19 39 cc 3c 1f 9b c0 3d 71 9e de bd
       -0.187992 0.02492957 0.09404587 -0.10870064
0003d0 8d cc 9f bc a9 0f e8 3d b3 09 c3 3c 99 1c b1 3d
       -0.019506717 0.11331112 0.023808336 0.08648033
0003e0 d7 95 1d be 4b d0 07 3e 1a 7f b0 bd 70 4f 78 bc
       -0.1538919 0.13263051 -0.08617993 -0.015155658
0003f0 36 a1 6c 3d b4 00 39 be 10 c7 ff 3c 49 6e 26 bd
       0.05777093 -0.18066674 0.03122285 -0.04063252

conv2.bias f4 [64]
000000 90 f4 1e bd 1e 69 03 3d 6d de b7 bd d5 ef 21 bd
       -0.03880745 0.03208267 -0.08977971 -0.039535362
000010 a5 e9 84 bd 01 bd 80 3d 2d a6 0a 3d 1c 1f ab bc
       -0.06489877 0.0628605 0.033849884 -0.020888858
000020 e3 e3 c3 3b db 65 d9 bd 64 c2 2a bd f2 7f ac bc
       0.005978094 -0.106151305 -0.04168929 -0.021057103
000030 6f 36 90 3d b8 68 ce bc ef b2 4d 3d 9c 4c ad bc
       0.070416324 -0.025196418 0.050219472 -0.021154694
000040 5b 27 42 bd a0 06 b3 bc 33 8c 9c bb 4a 6d 11 3d
       -0.047400814 -0.021853745 -0.0047774552 0.035504617
000050 43 b2 5d 3d bf 69 1a 3d 42 40 6f bd 3d b6 a3 3d
       0.05412508 0.037698504 -0.05841089 0.079937436
000060 38 21 1e be 96 2f 9b 3d e4 dd 96 3d 01 af 41 bd
       -0.1544236 0.07577436 0.07366541 -0.047286037
000070 12 60 4e 3d 97 5a 75 3c 2a d9 85 3d cb 87 02 bc
       0.05038459 0.014975212 0.065355614 -0.007966946
000080 fd c1 2d be 80 04 31 bd c0 b9 fa bc 00 9b d6 bc
       -0.16968532 -0.043217182 -0.03060615 -0.026196957
000090 33 90 04 bd 53 ec ee bd 9c 6c b4 bd 9f a9 de 3a
       -0.03236408 -0.11666169 -0.08809778 0.0016987807
0000a0 99 d0 ab 3d 7e 46 a0 3d c2 84 b5 bc 55 2b 75 bd
       0.08389396 0.07825945 -0.02215803 -0.059855778
0000b0 e6 a4 a0 bd 17 a8 8f bc 7f ee 5e 3b 86 96 83 bc
       -0.07843952 -0.017536206 0.0034016666 -0.016062986
0000c0 c4 4e 2f bb b9 0d b5 bc 60 92 eb bb 70 e3 2b bc
       -0.0026749829 -0.02210127 -0.00718908 -0.010491237
0000d0 4e 3d c9 bd e3 db 44 bd 3d cf cd 3c 9b c0 bb 3b
       -0.09826146 -0.048061263 0.025123233 0.0057297475
0000e0 34 a0 11 3c dd 28 7f 3c e9 62 88 bd 6c ef 5b be
       0.008888293 0.015573707 -0.066594906 -0.21478051
0000f0 31 08 2a bc 85 a6 a5 bc 59 24 1b 3c 21 88 09 bd
       -0.01037793 -0.020221004 0.009469115 -0.03357709

conv3.weight f4 [128, 64, 3, 3]
000000 a5 0c 6c bc 9c 46 07 3c bc d2 48 3c 53 ba e2 bc
       -0.014407312 0.008256581 0.012257274 -0.027676737
000010 fd df 08 3e f2 fb 83 3d f2 1b e9 3c 3f 9e c0 bd
       0.13366695 0.06444539 0.028455708 -0.09405183
000020 d8 ab ca bd 00 df 09 bd e3 9d ac 3d ac 73 a3 bd
       -0.09896058 -0.033659935 0.08428552 -0.07981047
000030 2e 80 8e 3d 69 28 e3 bc 42 5a 35 bd 62 5e 03 3c
       0.06958042 -0.02772923 -0.04427553 0.008018108
000040 56 80 12 bc df 11 0f 3d 01 38 ee bd 55 d4 0b be
       -0.0089417305 0.034929153 -0.11631776 -0.13655217
000050 b3 a3 aa 3c 49 0e cd 3c 3a 54 17 be df c7 f5 bc
       0.020830011 0.025031226 -0.14778224 -0.030002533
000060 8d c7 a6 bd 6b 42 73 bc 3e a5 c0 bc 0e c2 7c 3d
       -0.0814353 -0.014847378 -0.023516294 0.061708502
000070 94 38 9e 3d 57 13 13 bd f9 b6 b7 3c 77 18 9c bd
       0.07725635 -0.035907116 0.022426115 -0.07621854
000080 f4 9e bb 3d c4 7f d5 bd c2 c4 cf 3c 80 d7 27 bd
       0.09161177 -0.1042476 0.025362376 -0.040977
000090 77 84 35 be 7e 20 15 3d 74 68 cc bd 17 2d 02 be
       -0.17726313 0.03640794 -0.0998086 -0.12712513
0000a0 7a c5 4d 3c 41 c1 77 bd 89 d1 42 bd 96 41 e6 bd
       0.012559289 -0.060487036 -0.04756311 -0.11242978
0000b0 cd 3d 53 3d eb 46 1f 3d 2f 93 89 3d 2e 9b fd bd
       0.05157261 0.038885992 0.06717526 -0.12383114
0000c0 b0 19 5b 3c 67 f0 fa bc 54 c6 56 3d c3 3e 33 bd
       0.013372824 -0.03063221 0.052435234 -0.043761026
0000d0 5e 15 0a 3e 79 df ec 3c f1 ce 58 bd a8 79 e5 bd
       0.13484713 0.028915154 -0.05293173 -0.11204845
0000e0 68 07 70 3b 64 e4 6a 3c a4 c4 a6 3c ef 2c ec bb
       0.0036625508 0.014336679 0.020357437 -0.007207505
0000f0 e9 58 99 bd 2e 8d 62 3c 03 c1 ee bc 96 1b 00 be
       -0.074876614 0.013827605 -0.02914477 -0.12510523
000100 b5 56 10 be 42 1a e6 bd 12 55 c0 bc fd 9f 9c bd
       -0.14095576 -0.11235477 -0.023478065 -0.07647703
000110 f8 6b 77 3d cb 63 84 b8 79 46 bc bd b0 6b b3 3d
       0.0604057 -6.3128384e-05 -0.09193129 0.08760774
000120 05 72 a9 bd b3 16 91 3d 76 e5 2a 3e df 4f d3 3d
       -0.082737006 0.07084408 0.16689095 0.103179686
000130 27 4a af 3d bd 13 96 3d 55 48 a2 3d 73 18 87 3d
       0.08559065 0.073279835 0.079239525 0.0659646
000140 70 60 c5 3c 81 64 3a 3d ca 60 cd bd d7 b9 8d bd
       0.024093837 0.045506004 -0.10028227 -0.06920212
000150 6d 58 c8 3c f0 67 0b 3e 28 59 7e 3d c0 83 72 bc
       0.024456227 0.13613868 0.062096745 -0.014801919
000160 7e ad f0 3d 4a b4 9c 3d 62 e2 98 3d 42 a6 fb 3c
       0.11751841 0.07651575 0.07465054 0.030718926
000170 3b 92 08 3d b2 16 b2 3c 09 6e dc bd 7f 6b 83 3b
       0.03334258 0.021739338 -0.10763175 0.0040106173
000180 d7 cd 4a 3d cd cf 20 bd f2 65 eb bc d1 29 ab 3c
       0.04951271 -0.039260674 -0.028735135 0.020893963
000190 9e 0a 17 be e2 f2 0d 3d 3d 34 e5 bd c0 3b 8d 3d
       -0.14750144 0.03465546 -0.11191604 0.06896162
0001a0 08 8f 5f bc ea 8a 2d bd 1b c1 35 bd ec 60 a0 3d
       -0.013644941 -0.042368807 -0.044373613 0.078309864
0001b0 b5 49 4e bc aa 0f b1 bd 51 22 9f bd 82 39 36 3d
       -0.012590815 -0.08645566 -0.07770217 0.044488437
0001c0 93 47 71 be 25 16 14 be d7 c4 22 bd bc d6 19 bd
       -0.2356246 -0.14461572 -0.039738502 -0.037558302
0001d0 e8 fb 48 bd 0b a0 50 ba e8 d1 a0 3d bb c3 cf bc
       -0.04906836 -0.00079584186 0.078525364 -0.025361886
0001e0 e3 28 42 3d a5 de 03 be 08 43 c2 3a 2d 14 04 be
       0.047402274 -0.12877901 0.0014821002 -0.12898321
0001f0 a8 1a 29 3d cd 77 70 be b6 d2 ef 3c cb 27 dc 3b
       0.041285187 -0.234832 0.02927528 0.006718611
000200 34 2e 8a bd b9 0f 8f bd 64 47 a8 bd e7 20 17 be
       -0.06747094 -0.06985421 -0.08216742 -0.14758645
000210 ab b3 c4 bd 8b 31 ef bd bf f8 00 bd 4c 98 d5 bd
       -0.096045814 -0.116793714 -0.031487223 -0.10429439
000220 10 2b 15 be c7 ca 0c be b4 0d e7 bc ab f9 f3 bd
       -0.14567208 -0.13749228 -0.028204776 -0.11912855
000230 a3 3a ca bd 8c 08 cb bc 81 88 b0 bb 8e c2 29 be
       -0.09874465 -0.024784349 -0.0053873663 -0.16578123
000240 be 82 e2 3c e8 17 63 3e 42 f9 84 3d 7d f3 3b 3e
       0.027650233 0.22177088 0.06492855 0.18354602
000250 5b 58 cc 3d b4 b0 b6 3d 8e b9 83 ba 94 bf a8 3d
       0.0997779 0.08920422 -0.0010049806 0.08239666
000260 73 c6 39 be 46 63 cc 3d 98 e2 23 bc 25 97 6b 3d
       -0.18142109 0.099798724 -0.010002755 0.05751719
000270 00 c3 a1 bd 78 eb ee bd 1f 50 43 3d e8 78 06 3e
       -0.078985214 -0.11666006 0.04768383 0.1313206
000280 b5 5d 5c 3d 08 37 91 3c bc f1 88 bc 43 cb 97 3c
       0.053800303 0.017726436 -0.01671683 0.01852954
000290 f3 99 27 be 79 49 5b bd a5 3e 28 bd 4b ab 62 bd
       -0.1636732 -0.053536866 -0.041075367 -0.05533914
0002a0 e1 1f ea bd 49 3a 27 be 05 27 e8 bc d4 41 d2 3c
       -0.11431862 -0.16330828 -0.028338918 0.025666155
0002b0 1d 6d 37 be 75 78 4a bd a2 62 b5 3c 1f 51 1a 3d
       -0.17912717 -0.049431283 0.022141758 0.03767502
0002c0 55 26 d7 3d c8 79 09 be bd 88 60 bd a4 78 8c bd
       0.10505358 -0.13425362 -0.054817904 -0.06858948
0002d0 6f 43 ac 3d 8f 6f 40 be eb 6d 22 be 8b 83 af 3d
       0.084112994 -0.18792556 -0.15862243 0.08570012
0002e0 be 8e 1d 3b 64 32 a1 bd 1d f0 31 3d 5e 63 49 bd
       0.002404138 -0.078709394 0.04344188 -0.04916703
0002f0 b9 dc 4b 3c 2d 24 d9 3d a3 ee f0 3c e5 9c 02 be
       0.012442761 0.10602603 0.029410666 -0.12755163
000300 65 bd b5 bd c1 db bb 3d 12 37 3d 3d 06 e8 55 3d
       -0.08874015 0.09172774 0.046195097 0.052223228
000310 8f 93 04 3e 05 c5 52 bd a2 f6 a7 bb 5c 53 f9 3c
       0.12946914 -0.051457424 -0.0051258365 0.030435257
000320 d5 4e c1 3d 76 1a 06 bd f4 f0 d7 3d 90 44 e2 bc
       0.09438864 -0.03274008 0.10544005 -0.027620584
000330 67 7f 83 3d 54 3b 0f be ea 46 1f bd 6a 81 42 bc
       0.064207844 -0.13987476 -0.03888599 -0.011871675
000340 e5 67 78 3d 2e 4d 54 3d 9b 9e 1e bd c3 2f e2 3b
       0.060645957 0.051831417 -0.038725477 0.0069026663
000350 5f 3b fb ba 2a 71 83 bd da e5 a6 bd 8e 9f 1a bd
       -0.0019167474 -0.06418069 -0.081493095 -0.03774982
000360 ea 72 9a 3c 91 49 29 3d c9 81 7b 3d 7c 0e 7e 3d
       0.018853623 0.041329924 0.06140307 0.062025532
000370 4e 8c 1c 3e f6 7b bf bd 94 79 5d bd 29 b9 8a bd
       0.15287897 -0.093498155 -0.054071024 -0.06773598
000380 76 87 27 bc 9c ec b5 3d 10 d8 07 be df 0d af bd
       -0.0102251675 0.0888302 -0.13266015 -0.085475676
000390 16 41 fe 3c b5 4f 01 bd 9b ae 32 be d0 1e 0c 3e
       0.031036895 -0.031570155 -0.17449419 0.13683629
0003a0 13 3f 0d 3e 44 79 db bc 3d 19 fb 3c 30 7f 9f bd
       0.13793592 -0.026791222 0.030651683 -0.07787931
0003b0 64 f2 14 be b6 3f a9 bd e3 62 33 be 44 2e f5 bd
       -0.1454559 -0.08264105 -0.17518191 -0.11971715
0003c0 a9 68 67 3c 1d a9 f3 3c d7 7b 67 bd 58 3b 13 3d
       0.014124074 0.029743725 -0.056514587 0.035945266
0003d0 f7 f1 32 3a 48 87 2a bd 97 6f 8a bc e2 11 68 bd
       0.00068262167 -0.04163292 -0.016898913 -0.05665768
0003e0 20 7b 15 3e 9f dd 8a 3d 5a da 12 3e 15 da 72 bc
       0.1459775 0.06780552 0.14341107 -0.014822503
0003f0 12 fd 23 3e 78 7a 91 bd dd 3a 6b 3d 67 0e 15 be
       0.16014507 -0.07103437 0.057429183 -0.14556275

conv3.bias f4 [128]
000000 97 13 09 bd c3 44 21 3c 44 45 16 be c9 d1 c4 bb
       -0.033465948 0.009843054 -0.1467486 -0.0060064537
000010 be 46 08 bd 2b 8c 64 3d 4e 80 1d bd b1 6f 57 bd
       -0.03327059 0.055797737 -0.03845244 -0.05259675
000020 9c 9f 8b 3c 16 77 8a bb c2 29 3f 3b 78 3f 9b 3d
       0.017043881 -0.004225622 0.0029169177 0.07580465
000030 41 b4 df 3c 35 7e 54 3d 2e 3d 05 be a0 87 8f 3c
       0.027307631 0.051878173 -0.1301162 0.017520726
000040 bf d2 9b bd 0b 39 3b 3d d5 a0 f8 3d c4 45 04 3d
       -0.07608556 0.045708697 0.12140051 0.032293096
000050 fd a0 50 3d 4f 38 4a 3b f0 8c be 3c 36 c7 98 bd
       0.05093478 0.0030856316 0.023260564 -0.074598715
000060 e2 2f 76 bb 8b 42 6e bc d4 9f 4c 3c 2d 5e db bc
       -0.0037565161 -0.014542232 0.012489278 -0.026778305
000070 51 00 88 bd 43 e0 b0 bd e0 83 19 bd 93 95 49 bd
       -0.06640685 -0.086365245 -0.03747928 -0.04921491
000080 72 01 65 3d 5d f9 01 3d 87 7c 4c 3c 53 35 71 3c
       0.05590958 0.031731952 0.0124808615 0.014722186
000090 8a b8 e4 bd fb a8 06 3b b8 e4 dc bc b4 5d 42 3b
       -0.111680105 0.0020547498 -0.02696453 0.0029657902
0000a0 61 f6 04 3c 53 ac ac bd 29 8b 19 be da e1 cc bd
       0.008115382 -0.08431306 -0.14994492 -0.10004015
0000b0 d3 f4 5f 3d ca 62 3f 3d f8 c4 55 3d ce 61 11 be
       0.054676842 0.046725072 0.052189797 -0.14197466
0000c0 11 a7 fc 3b 99 c2 a8 3d 52 85 7b 3d 6c e5 00 b9
       0.0077103456 0.082402416 0.06140644 -0.00012292498
0000d0 87 0e 43 3c 94 b9 99 bd 2a d3 cc 3c 7c 32 f1 bc
       0.011905319 -0.07506099 0.025003035 -0.029443018
0000e0 d8 d0 46 bd 49 9b 03 be f0 78 be bd ec 3f 59 bd
       -0.048539013 -0.12852205 -0.09300411 -0.053039476
0000f0 88 4e 0e bd 4d f4 ee bd 5c 74 c3 bc fe f8 68 bd
       -0.034742862 -0.116676904 -0.023859195 -0.056878082
000100 13 9b e7 bb 73 bb 74 3c 09 1c 2a 3c b1 04 2b bd
       -0.007068047 0.0149372695 0.010382661 -0.04175252
000110 bb f3 b1 bd f3 e7 d2 3b d6 b5 d7 3d ce 5c 84 bd
       -0.08689066 0.006436342 0.10532729 -0.064630136
000120 a4 7b db bc 66 5c 98 bc 72 b4 5f 3d bd bf 39 bd
       -0.026792355 -0.018598747 0.054615445 -0.04534887
000130 07 63 61 bd 47 1a 14 3d cb a9 96 bd 84 65 3e 3c
       -0.05502608 0.036157873 -0.07356604 0.011620883
000140 de 4d be bc 45 6e 25 bc 37 76 fa bb 9f c8 e6 bd
       -0.02323049 -0.010097091 -0.007643487 -0.11268734
000150 d4 d7 74 3c 2f ce ed bc a7 3b ec 3d ce ab 33 bc
       0.014944036 -0.02902898 0.11534815 -0.010966254
000160 27 82 f6 3d bf 38 be 3c 34 7f 09 bd 31 00 33 bd
       0.12036543 0.023220418 -0.033568576 -0.043701354
000170 a7 1b 8d bd ce 92 3f bd c4 f0 59 3d 60 c1 56 bd
       -0.0689004 -0.046770863 0.053208128 -0.05243051
000180 d2 bd ab bd b8 31 10 3e b6 be 0d bd 02 d0 19 3c
       -0.08385815 0.14081466 -0.034605704 0.009387972
000190 0e 0d dd bc be 3c 3b bd 43 c6 27 3c ea 41 8e 3d
       -0.026983764 -0.045712225 0.01024014 0.06946166
0001a0 cc d0 99 bb 27 a7 cb bd e7 0f 78 bd 10 2d 18 bc
       -0.00469408 -0.09943991 -0.06056204 -0.0092880875
0001b0 67 fa 9a bc 50 6b 70 3d 3b b4 72 3d 17 13 0e 3c
       -0.01891823 0.05869609 0.059253912 0.008671544
0001c0 c0 70 1a bd d7 eb 7e bb b1 06 71 bc 10 4a 0d 3d
       -0.037705183 -0.0038897896 -0.014711068 0.03449446
0001d0 29 88 07 3e 4d f9 30 bd 19 f1 93 bd a2 7d a3 bd
       0.13235535 -0.0432065 -0.0722372 -0.07982947
0001e0 3d 88 55 bc 19 1c b9 bc ff 2c e4 bd a0 e6 07 3e
       -0.01303297 -0.022596406 -0.11141395 0.1327157
0001f0 71 56 d4 bd 2c a1 af bd 48 9e 07 be 09 5a 40 bd
       -0.1036805 -0.08575663 -0.13243973 -0.046960864

act_conv1.weight f4 [4, 128, 1, 1]
000000 3a d3 2b bd 74 2e c9 3c e4 31 00 be b5 c6 8b bd
       -0.04194949 0.024558283 -0.12519032 -0.0682501
000010 b3 bf a1 3c b4 8c 9c 3e a9 a3 e7 bc c8 81 6d 3e
       0.01974473 0.30576098 -0.028276281 0.23194039
000020 d6 50 8a 3d 1d d2 8a bb c8 2d 6b bd fe 1c 48 3c
       0.067536995 -0.0042364732 -0.057416707 0.0122139435
000030 8e e5 a2 bc 3a bc 85 bd 52 bd 08 bc f7 26 b8 3c
       -0.01988485 -0.06530042 -0.008345919 0.022479517
000040 0b 4b 8b 3a 99 1a 95 3d 92 31 48 bd ec 4e 3f 3c
       0.0010627223 0.07280464 -0.0488754 0.011676531
000050 8e fc 25 bb 3c cd 4f bd 05 aa b5 3b 5a a8 a5 bc
       -0.0025327536 -0.050732836 0.0055439495 -0.020221878
000060 46 e7 90 3d b6 eb 94 3d b3 5f f3 3d 56 6e c4 bd
       0.07075362 0.07271521 0.118834876 -0.095913574
000070 d7 8f fd 3c af 97 51 bd 75 23 41 bd f0 9c 7f 3e
       0.030952377 -0.051170047 -0.047152955 0.2496221
000080 c7 b1 d2 3e a2 87 9e 3b 49 39 e6 bc d8 a2 c5 3d
       0.41151258 0.004837946 -0.028103488 0.096502006
000090 ab 91 74 be a8 40 84 3d 0f 8c f3 3c 6d 74 1e 3c
       -0.23883693 0.06457645 0.029729871 0.009671313
0000a0 c8 78 5b bd 90 64 9c 3e 2a 4c 15 be 8e 1c 41 be
       -0.053581983 0.30545473 -0.14579836 -0.18858549
0000b0 de 3f a1 bd 44 d1 10 be 79 1a 36 bd b0 4e dc bd
       -0.0787351 -0.14142329 -0.04445884 -0.10757196
0000c0 bc a8 87 bd 1f af 90 b9 a9 09 03 3d 98 df 2c bc
       -0.066239804 -0.00027596296 0.031991635 -0.010551356
0000d0 a1 92 ac 3d 6f f8 a6 3d fa d0 26 bc 4d 1e 21 be
       0.08426405 0.08152854 -0.01018166 -0.15734215
0000e0 71 cf 1e bd 2d f0 f9 bd 87 a0 d9 bc 7f ad a7 bc
       -0.03877205 -0.12204013 -0.026565803 -0.020468472
0000f0 18 34 4f bd 83 f1 07 3e b7 78 bb 3c a1 76 40 3c
       -0.05058679 0.13275723 0.02288471 0.011747033
000100 54 36 d8 3d c9 2c a3 3a 40 44 03 3f 62 ad e0 3c
       0.10557237 0.001244926 0.51276016 0.027426425
000110 db 52 0f 3f 88 c6 1c 3d 55 8f 46 bc 05 75 0d 3e
       0.559858 0.03827527 -0.012119134 0.1381417
000120 b2 55 12 bd 76 be d7 bc a2 6f b6 bc 3a 51 b1 bd
       -0.035726257 -0.026335936 -0.022270028 -0.08658071
000130 e7 d5 a8 3d 14 24 b5 bb 06 18 76 3d 7d 46 81 bd
       0.08243924 -0.0055279825 0.060081504 -0.06312273
000140 d3 f1 b9 bd c0 61 2c be 5d 73 b5 3d 90 e7 1b 3c
       -0.090793274 -0.16834164 0.088598944 0.009515658
000150 bf bb e6 3c 09 94 87 be ac ec 2b 3d db 93 89 bc
       0.028165696 -0.2648013 0.041973755 -0.016794136
000160 a9 da c7 3d 90 2a 6b bd cf ae c6 3d b6 43 b7 bc
       0.09758503 -0.057413638 0.09701311 -0.022371154
000170 3a 31 0a be 31 12 04 bd 0e 04 8e 3e 18 50 56 bb
       -0.13495341 -0.03224391 0.27737468 -0.0032701548
000180 04 45 31 3d e3 01 83 3c e8 ce b5 bd be 68 4f bb
       0.04327871 0.01599211 -0.08877355 -0.0031648125
000190 69 bc 22 3e 06 2c b5 3e 3b 11 68 3e 44 09 1f 3d
       0.15892185 0.3538515 0.22662823 0.038827196
0001a0 0f 79 55 bd 6a 06 5b 3d 00 22 3e 3e 47 a7 92 3d
       -0.052117404 0.053472914 0.18567657 0.07160812
0001b0 72 5f 69 3c e7 6a 4d 3e e2 50 9b 3b 60 07 0e 3e
       0.014243947 0.20060311 0.0047398666 0.13870001
0001c0 b1 18 64 bc b8 cb 9d 3d a2 ff 56 3d 98 66 d4 bc
       -0.0139219025 0.07704872 0.052489884 -0.025927827
0001d0 0f dd 0e 3e b3 1f 6b 3e 3a 72 cc 3d 75 60 cf bc
       0.13951515 0.22961311 0.099827245 -0.025314549
0001e0 40 c4 06 3d d5 36 2d bc be b1 38 be 37 f4 17 3e
       0.032902002 -0.010572155 -0.18036553 0.14839254
0001f0 d0 62 25 3d 10 07 91 3c f5 4d 0d bd de 24 c1 bd
       0.040377438 0.017703563 -0.034498174 -0.0943086
000200 45 c1 d3 ba a9 62 c9 bc a0 f3 ac 3d 93 9a 80 bc
       -0.0016155621 -0.024583178 0.08444905 -0.015698707
000210 a7 d7 17 3c 4d 66 db bd b9 51 81 3e c6 40 0b 3e
       0.009267724 -0.10712872 0.25257662 0.13598928
000220 f7 e7 3d 3e 96 ad f3 bb 51 5d ee bc 8f df 48 3c
       0.18545519 -0.0074364645 -0.029097231 0.012260332
000230 3c 32 a4 bc 16 07 88 3e 61 01 c5 bd 66 5f 3a 3c
       -0.020043485 0.26567906 -0.09619404 0.011375284
000240 11 88 93 3d 70 70 1e be d4 d2 69 3a 3b 23 b9 bd
       0.07203687 -0.15472579 0.00089196605 -0.09039923
000250 4a d6 0d bd fb 74 34 3c 62 9f cc bd 7d d3 62 3d
       -0.03462819 0.011014218 -0.09991337 0.055377472
000260 61 d0 9d bd e1 7c 3b be 22 ac a5 bd 20 ff 86 bc
       -0.07705761 -0.18309356 -0.08089472 -0.016479075
000270 0c cf 1f bd d2 f1 c3 3d 45 ea 80 3b 02 5e 8f be
       -0.039015815 0.09567608 0.003934177 -0.2800141
000280 4c b1 e0 3d eb 0e 08 bd 13 4c 29 3c 01 17 2f be
       0.10971317 -0.033217352 0.010333079 -0.17098619
000290 75 45 b0 3e 19 3c 35 3d 7d 2b a0 3d d6 2f fd 3c
       0.34427992 0.044246767 0.07820795 0.030906599
0002a0 60 e8 a4 3c 4a 4d ac bc 31 6d a3 3d 36 e3 01 3e
       0.020130336 -0.021032948 0.07979811 0.1268433
0002b0 62 57 68 3d 7d 52 67 3e b2 55 8b bb 10 a4 17 be
       0.05672396 0.2259006 -0.004252159 -0.14808679
0002c0 1b 45 a1 3e 64 b3 67 3d 6f cd e0 3d d1 d7 05 be
       0.31498036 0.056567565 0.10976683 -0.13070609
0002d0 1b 29 e3 bd 74 43 b9 3d 74 25 d4 bc f7 c5 e7 3c
       -0.110918246 0.09046069 -0.025896765 0.02829264
0002e0 d3 f3 73 3d 99 5d 0c 3d 08 51 15 3f ff fb 9e 3c
       0.0595587 0.03426895 0.5832677 0.01940727
0002f0 d6 bf 5f 3c 74 ae 3b 3d e3 89 94 bc 06 0f 98 3e
       0.013656577 0.04582067 -0.018132156 0.29698962
000300 10 df 52 3d b9 bf 31 bd 0e 6a a5 3d 8a b7 a4 bd
       0.05148226 -0.04339573 0.08076869 -0.0804282
000310 e9 83 36 be 62 cb f6 bc 12 36 1e be cb d7 84 bc
       -0.17823757 -0.030126277 -0.15450314 -0.01621618
000320 3a dd 83 bd b0 e0 9e ba e4 d7 e7 3b c0 fd 2e 3d
       -0.0643868 -0.0012121405 0.0070752967 0.042722464
000330 8d 56 43 bc 43 24 67 3e f1 dc cf 3c 88 81 0f 3d
       -0.011922491 0.22572426 0.025373908 0.03503564
000340 55 38 46 3e bf 7b 59 3e 59 ed 64 3d 1c 41 e9 bd
       0.19357426 0.21238612 0.055890415 -0.11389372
000350 e5 dd c5 3b 1a ae 33 3e de 5e 45 3e 50 b0 db 3d
       0.006038415 0.17546883 0.1927447 0.10726988
000360 56 48 c9 3d c3 40 92 3d 58 1c d5 3d 30 de 55 bc
       0.0982825 0.071412586 0.10405797 -0.013053462
000370 a8 05 fb 3d 03 37 3b 3d 50 d4 92 bd a4 14 e3 3d
       0.12256938 0.04570676 -0.07169402 0.11087921
000380 72 78 ce 3d 69 ca a4 3d 90 83 1c 3e 39 7a a4 3d
       0.10081567 0.08046419 0.15284562 0.080311246
000390 05 9e a7 be 20 cd 7b be c0 8f 90 be 96 e9 ce bd
       -0.32737747 -0.24589968 -0.28234673 -0.10103147
0003a0 8e ff 59 bc 39 e8 19 bd e8 d1 d7 3d e5 1a 23 be
       -0.013305558 -0.03757498 0.10538083 -0.15928228
0003b0 c1 96 55 3e 1f 80 30 3e 4f dd a2 bd a7 90 bd bc
       0.2085829 0.17236374 -0.079523675 -0.023140265
0003c0 f3 77 7c 3c 8f 50 d7 bd 08 06 e4 3b 85 64 6e 3e
       0.0154094575 -0.10513412 0.006958727 0.23280533
0003d0 33 54 b1 3d 12 e8 15 3c 5c 03 90 bd 3f 22 42 bc
       0.08658638 0.009149568 -0.07031891 -0.011848985
0003e0 64 af 37 3d 10 b2 42 bd 64 52 40 ba 22 19 24 3e
       0.044845 -0.047533095 -0.0007336496 0.16025212
0003f0 5f 6d a5 3c 0e 2e 9a 3c 11 4e 8f 3d 22 54 23 3e
       0.020193754 0.018820789 0.06997312 0.15950063

act_conv1.bias f4 [4]
000000 36 a6 47 3d 34 e5 67 3c ee ed 0b 3e cf 77 0c bd
       0.048742495 0.014153767 0.13664982 -0.034293946

act_fc1.weight f4 [81, 324]
000000 b5 77 9e 3c 72 63 bd bc 67 c6 a2 bc 7a 1f 1c bd
       0.01934419 -0.023118708 -0.019869996 -0.038115956
000010 41 87 38 ba 14 3b db 3b 67 2e 7f bc 48 b2 e4 bc
       -0.00070391974 0.0066903923 -0.015575028 -0.027917042
000020 f9 aa 8a 3c 2b 04 00 3d 3d ad 20 bd 0e d2 b7 bb
       0.01692723 0.031253975 -0.039227713 -0.0056097573
000030 2a e6 31 bb 7b aa 8d bd d6 a7 a2 bc 2e 91 f3 bc
       -0.0027145245 -0.06917282 -0.019855421 -0.029732313
000040 3e b2 2c bd 99 d6 da 3c 92 a4 4a 3c 3a 2e 38 bd
       -0.042162172 0.026713656 0.012368338 -0.04496596
000050 92 b0 67 bc 43 c0 b9 3c c7 46 66 bc e0 b0 27 3d
       -0.014141219 0.022674685 -0.014054961 0.040940166
000060 43 e4 b4 bb 78 cb fb 3b 17 37 dc 3b 50 09 d8 3c
       -0.005520375 0.0076841675 0.0067204344 0.026371628
000070 75 28 8e bc 19 82 ce bd 5f d2 93 bd d9 eb 98 bc
       -0.017353276 -0.10083408 -0.072178595 -0.018667148
000080 5a 2f 8e 3d da 00 e6 bd 89 8b a6 bb 16 f2 58 3c
       0.06942625 -0.11230631 -0.005082552 0.013241312
000090 96 20 02 bd 62 cc f5 bc 78 63 92 bd 2a 84 cd bd
       -0.031769358 -0.030004684 -0.071478784 -0.10034974
0000a0 d6 1e 7f bd fe 68 aa bb 9a 79 8c bd 21 4d 58 bd
       -0.062285267 -0.0052005043 -0.06859131 -0.05280793
0000b0 8b 7b 4a bd 41 4c bc bb 22 e0 41 bd 79 b4 62 be
       -0.049434226 -0.005746395 -0.04733289 -0.22139157
0000c0 6c 8c 95 bd 62 d0 32 bc 03 bf 94 bc 99 c7 3d bb
       -0.07302174 -0.01091394 -0.018157488 -0.002895808
0000d0 8b 51 2b bd 4f 4c 3d bd 9e 28 45 bc 64 5f d2 be
       -0.041825812 -0.04621535 -0.01203361 -0.41088402
0000e0 e7 01 e3 bd bb c4 a4 3d 89 ba 71 3c f4 c7 8d 3b
       -0.11084347 0.08045336 0.014753946 0.004326815
0000f0 2f d8 8a bc 68 25 7e bc 42 44 26 bc 42 3a 4b bd
       -0.016948787 -0.015511848 -0.01014811 -0.049616106
000100 49 30 d6 3d ad 55 21 3e 18 34 09 3d 80 de 6e bd
       0.104584284 0.15755339 0.033496946 -0.05831766
000110 65 2b 9c 3c b2 03 fa 3b a5 89 6c 3c b4 46 bf 3b
       0.01906366 0.007629835 0.014437114 0.005837286
000120 d7 23 17 3d 32 a5 e5 bd e2 b6 6f 3d 89 6b 8c bd
       0.036899414 -0.11213149 0.05852402 -0.06856448
000130 c8 ae 20 bd db 4e 76 bd 57 2f 3a 3c e1 c1 aa bc
       -0.039229184 -0.060133796 0.011363826 -0.020844402
000140 af dc af bc 20 68 05 bd 13 ba ce bc 9e 13 3b bb
       -0.021467535 -0.032570004 -0.025235211 -0.0028545628
000150 04 86 3d bd 71 e2 93 bb 5f 79 c8 3c 94 55 be bc
       -0.046270385 -0.004513078 0.024471937 -0.023234166
000160 b9 60 d1 bd 24 d2 c8 bc a0 f7 2d bb 1f 5b 4b bd
       -0.102235265 -0.024514265 -0.00265453 -0.049647447
000170 fb 8f b6 3a 3b 61 18 3c 91 11 1c bd b1 4b 46 bc
       0.0013928408 0.009300525 -0.03810269 -0.012103007
000180 ec ee 92 3d 02 25 78 bc 46 cb ea 3a 2a aa 8f bd
       0.07174477 -0.015145542 0.0017913363 -0.07014878
000190 c7 ac 78 3c d2 d1 a7 bb fc 46 1b bb e0 34 b5 3c
       0.015177912 -0.005121448 -0.0023693433 0.02211994
0001a0 3c 09 f5 3c 54 c4 2b 3b 4d c0 42 3a c4 7d 37 b9
       0.02991163 0.002620955 0.0007429168 -0.00017499091
0001b0 6c 2d 2b bd 62 4b ca bc 18 12 15 3d 3b eb 9d 3d
       -0.041791365 -0.024694148 0.03639421 0.07710882
0001c0 0a 83 98 3d 9a 2d 7d bc ad 3a 2c 3d e7 56 a1 3a
       0.07446869 -0.015452767 0.042048145 0.0012309224
0001d0 3a 88 15 3b 1a 10 b0 bc b3 03 c3 3b 62 fa 17 3d
       0.0022816793 -0.021492053 0.0059513687 0.037104018
0001e0 f6 5f b0 3d 84 f2 4a 3c 2d 5d 6f 3c 8b c8 95 3c
       0.08612053 0.012386922 0.014609617 0.018284103
0001f0 94 44 af 3a a5 24 35 bc 8c da d0 3d dd 0f ea 3b
       0.0013371878 -0.0110561 0.101979345 0.0071430043
000200 90 7d c5 3d d3 38 54 3d 6a 76 1b 3d 4a 67 27 3d
       0.0964309 0.051812004 0.037954725 0.04086999
000210 be a0 7c 3c 3e f6 b2 3c 2f 41 a3 bb b1 11 b3 3c
       0.015419183 0.021845933 -0.0049821357 0.021859022
000220 27 ad a6 3d 47 15 34 3e 0c 02 39 3c 07 01 97 3c
       0.08138495 0.17586242 0.011291992 0.018433107
000230 95 c0 54 bc 4d 59 b7 bb c9 99 12 bd 45 03 6e bd
       -0.012985368 -0.0055953623 -0.035791192 -0.058108587
000240 b3 d3 06 bf 5c 82 27 3e ca 5e 01 3d 26 58 37 3d
       -0.5266678 0.16358322 0.03158454 0.0447618
000250 34 db 45 3c b6 d2 6c 3c 4b 96 e2 3b fb 0b b2 bc
       0.012076188 0.014454534 0.006914889 -0.021734228
000260 bb 7b 48 bd 2b 63 a1 3d 1c c0 c2 3d 0e 8a e4 bc
       -0.048946124 0.07880243 0.09509298 -0.02789786
000270 1a 4a 66 bd 3f a4 62 bd 95 8b 2b 3b e3 5e e2 bc
       -0.056223013 -0.05533242 0.0026175727 -0.027633136
000280 49 78 89 3c c4 2d e0 bc 27 9f 23 bc b7 2a 14 3b
       0.01678099 -0.027365573 -0.009986675 0.0022608468
000290 f8 d1 65 bc 3f 31 16 bd a0 86 aa bc 54 b4 76 bd
       -0.014027111 -0.03666806 -0.020816147 -0.060230568
0002a0 14 38 bb bc de a9 02 bd 38 3d 34 bc 0d 70 d1 3b
       -0.022853889 -0.03190028 -0.011000924 0.0063915313
0002b0 fe 1d d6 bc 62 09 f0 bb f9 cb 13 bd ce ca 2a bd
       -0.026137348 -0.0073253373 -0.036083195 -0.041697316
0002c0 cd bb 83 bd c4 cd 7a bd 0c 60 d2 bc 18 e8 bf 3c
       -0.064323045 -0.06123139 -0.025680564 0.0234261
0002d0 af bd a6 bb e0 43 3a bd d4 9f 4c bd e8 ae 0f bd
       -0.00508853 -0.045474887 -0.04995711 -0.035078913
0002e0 a4 ce 09 bd db 8e eb 3c 2b b5 99 bd 1b 28 1f bd
       -0.033644333 0.028754642 -0.07505258 -0.038856607
0002f0 55 40 97 bd 84 4a 33 bd 8a 39 56 bd ec a3 27 bd
       -0.07385317 -0.043772236 -0.052300967 -0.040927812
000300 16 8d 1f bd ad 1b 8c bd 8a 28 5c bd 68 f3 34 bd
       -0.03895291 -0.06841216 -0.0537496 -0.044177443
000310 e4 29 2b bd 4a 63 04 bd 5c 65 e0 bb 85 3f 03 bd
       -0.041787997 -0.032321252 -0.0068480205 -0.032043
000320 42 9a 2b bd 4e 56 3d 3d 15 ba 37 bd 35 28 99 bd
       -0.04189516 0.046224885 -0.044855196 -0.07478372
000330 e4 05 8f bc 17 ba 3b bd 90 f7 a8 bc 59 6b f1 3d
       -0.017458864 -0.045831766 -0.02062586 0.11788053
000340 2c 03 a3 bd e3 ac b4 3d 1c 4d 0c be 06 02 b6 bd
       -0.07959589 0.08822038 -0.1370129 -0.08887105
000350 32 9e 81 bd 30 8c 35 bd c6 e8 49 bc 06 90 19 bd
       -0.063290015 -0.044323146 -0.012323564 -0.037490867
000360 15 6c 13 be fe 2c 5e 3c 0d 8b 62 be 03 5b d6 bc
       -0.14396699 0.013560532 -0.22123356 -0.026166445
000370 7e 9b 7d bd f2 3d 97 bd 96 6e b4 bd 3c dc 28 bd
       -0.061915867 -0.07384862 -0.08810155 -0.041225657
000380 f3 5c a4 bc 1e 59 5c bf 81 75 ad bc 8e 55 86 3d
       -0.020063853 -0.8607348 -0.021174194 0.06559287
000390 65 a7 4d bd ae b7 3d bd 76 be 54 bd 37 f3 96 bd
       -0.050208468 -0.04631775 -0.05193945 -0.07370608
0003a0 c3 f9 44 bd 89 6c 93 bc e8 ca 32 3d 49 25 b6 3d
       -0.048089754 -0.01799609 0.043650538 0.0889383
0003b0 14 37 d9 3c a1 29 05 3b 35 98 da bc 0f 6b 18 bc
       0.026515521 0.0020319002 -0.026683906 -0.0093028685
0003c0 78 c0 c1 3c f2 98 c4 bb 9b 1d 4e bc ea b2 b3 bb
       0.023651347 -0.005999678 -0.012580301 -0.0054839747
0003d0 01 0f 8d bc 94 7d 38 3d c8 6a 2c 3a 0c 1e ee 3c
       -0.017219068 0.045041636 0.0006577191 0.029067062
0003e0 fd 26 7d bb e8 d6 fc 3c 8a 9f 0d bc 0b 23 89 3c
       -0.0038627975 0.030864194 -0.008643994 0.016740343
0003f0 5d 22 5f 3c 7c fb 5d bc 01 0b 51 39 03 1c 92 3c
       0.013619033 -0.013548728 0.00019935892 0.017835623

act_fc1.bias f4 [81]
000000 07 ee 83 3c 89 13 1b bd c0 59 b1 bd f5 06 28 bd
       0.016104711 -0.037860427 -0.086596966 -0.04102226
000010 d8 5a 13 bd f6 4b 43 bd cf a8 ad bd c3 cc 6e bc
       -0.035975307 -0.047679864 -0.08479463 -0.014575186
000020 86 4c 4c 3c 14 26 21 bd 29 51 90 bc bb f1 d3 bd
       0.0124694165 -0.039342955 -0.017616825 -0.10348841
000030 8a ff ab 3d 57 20 3f 3b d1 3b c1 3d 9b 56 a3 bd
       0.083983496 0.0029163563 0.09435237 -0.07975503
000040 df 7a 1d bd 57 a0 8c bb 39 a4 b0 bd b3 bb c2 bd
       -0.038447257 -0.004291575 -0.08625073 -0.09508457
000050 17 a0 08 3e 7b e9 8a 3d 94 6a b7 3d aa e4 19 3d
       0.1334232 0.06782814 0.08955875 0.037571587
000060 1a f3 a2 3d bd c3 0e be 15 1d 46 bd a1 49 91 bc
       0.07956524 -0.13941856 -0.04836758 -0.017735304
000070 f6 4c a2 3d 71 37 ed 3c be ce 71 3d 3f 4e fb 3c
       0.079248354 0.0289571 0.059035055 0.03067696
000080 a2 5c 10 3d cb 1a 25 3c a9 2e 9f 3d ec 83 0b bd
       0.03524459 0.010077189 0.077725716 -0.034061357
000090 2b 81 90 bc bc 89 3b bd 62 59 da 3d 85 b9 1b 3c
       -0.017639717 -0.04578565 0.1066158 0.0095046805
0000a0 81 ec 69 3d 39 2e 40 3d 4b ae cd 3d a5 36 5f bd
       0.057110313 0.04691908 0.10043009 -0.054495472
0000b0 98 b9 18 ba c9 f2 0f bd 6b d2 97 3d c0 6e 59 3c
       -0.00058259955 -0.035143647 0.07413181 0.013271034
0000c0 75 fd 2c 3d be af 35 3d bc ea ae 3b 21 c1 52 3d
       0.042233903 0.044357054 0.005338041 0.051453713
0000d0 31 ae e1 3c fa be 0a bd 09 be a5 bd 1b da b5 bd
       0.027548881 -0.033873536 -0.08092887 -0.08879491
0000e0 d4 dd ec 3d 97 5f 3b 3d a4 38 00 3e 91 c5 9e 3d
       0.11565748 0.04574546 0.12521607 0.077525266
0000f0 bc 75 21 3e ae 0f a2 bd 80 ab 34 bd 31 83 0f bd
       0.15767568 -0.07913147 -0.044108868 -0.035037223
000100 bd 47 b5 bc be d8 e9 bd 19 5c 85 3d 85 48 10 bd
       -0.022128934 -0.114182934 0.06511707 -0.03522541
000110 5e cc 6f 3d 9d 54 b6 bd 4a 3e 0a bc 48 54 d6 3a
       0.05854451 -0.089028575 -0.008437702 0.0016352022
000120 39 2e 9b 3b 94 ee 10 3b 63 c7 85 bd a8 7a da bc
       0.004735735 0.002211486 -0.065321706 -0.026669815
000130 7e ff 17 bb 52 33 2b bd e8 27 8d bc 77 67 41 ba
       -0.0023193057 -0.04179699 -0.017230943 -0.0007377783
000140 7d e7 19 3c
       0.00939357
