best_policy99.model (torch, 529533 bytes, 15 tensors)

conv1.weight f4 [32, 4, 3, 3]
0	0x3efe5637	0.49675152
1	0xbd055e5f	-0.032560702
2	0xbd9a89b0	-0.07545793
3	0xbe192d48	-0.1495868
4	0x3c9aed39	0.018911945
5	0xbd0d6bbb	-0.034526568
6	0x3e626d5d	0.22112031
7	0xbe89d52f	-0.2692046
8	0x3d4a053b	0.049321394
9	0x3e6c276a	0.2306191
10	0xbeaa0cbf	-0.3321285
11	0xbd325491	-0.04353768
12	0xbe9366cb	-0.28789362
13	0x3b5814d9	0.003297141
14	0x3d9add16	0.075617
15	0xbdf05056	-0.11734073
16	0x3e888755	0.2666575
17	0xbe62cdb0	-0.22148776
18	0xbd85e4de	-0.065377936
19	0x3d4f7905	0.050652523
20	0x3d125dab	0.03573386
21	0x3d21684a	0.0394061
22	0x3db15f33	0.08660736
23	0xbdffd24d	-0.124912836
24	0x3da1d990	0.07902825
25	0xbbe48ee5	-0.006975042
26	0x3de1f2aa	0.110326126
27	0xbe0934cc	-0.13399047
28	0xbe1a11da	-0.15045872
29	0x3e08b36d	0.13349696
30	0xbd53ea8c	-0.051737353
31	0x3c967a3c	0.018368833
32	0xbccf4c50	-0.025304943
33	0xbe55d785	-0.20882995
34	0x3e2440e8	0.16040385
35	0x3deedb58	0.1166293
36	0xbee4fdbb	-0.4472483
37	0xbcab441d	-0.020906502
38	0x3b35cf66	0.0027742027
39	0xbe80cde8	-0.25157094
40	0xbd421950	-0.04738742
41	0xbe98b830	-0.29828024
42	0xbeafb040	-0.34314156
43	0x3e14664d	0.1449215
44	0xbe0ee827	-0.13955747
45	0xbe7a8794	-0.24465781
46	0xbd94e89b	-0.072709285
47	0xbd99df36	-0.07513277
48	0xbdf57bd0	-0.11986506
49	0x3e564a8f	0.2092688
50	0xbeb0a468	-0.34500432
51	0xbea8f3b0	-0.3299842
52	0x3dbb690a	0.09150894
53	0xbdb55a11	-0.088550694
54	0x3c5f68be	0.013635812
55	0x3d5f028c	0.05444579
56	0xbc6e4459	-0.014542663
57	0x3dc85532	0.09781875
58	0xbcfd51ef	-0.030922858
59	0xbde95ac8	-0.11394268
60	0x3d42bb5b	0.047541957
61	0xbd384a86	-0.044992946
62	0x3cf1ed6f	0.029532162
63	0xbddd74d8	-0.10813302
64	0xbdc77b6c	-0.09740338
65	0xbde0ddd2	-0.10979809
66	0xbcda1dca	-0.026625533
67	0x3e648f33	0.22320251
68	0x3e2c8f1b	0.16851465
69	0x3e17af1f	0.14812897
70	0x3d7d0c1f	0.061779138
71	0x3e598fe2	0.21246293
72	0x3e309430	0.17244029
73	0xbde51930	-0.11186445
74	0xbe5fdf12	-0.21862438
75	0x3e41f573	0.18941288
76	0x3e3c45b6	0.18385968
77	0x3e3afc1a	0.18260232
78	0x3e22c17c	0.15894121
79	0xbdee0a94	-0.11623111
80	0xbe447ae8	-0.1918751
81	0xbf010fd8	-0.504148
82	0x3e55ae8c	0.20867366
83	0x3e8391d0	0.25697184
84	0xbec994e8	-0.3937142
85	0x3e84cdde	0.25938314
86	0xbe26ec49	-0.16301073
87	0xbde3bbd3	-0.11119809
88	0xbdf19d62	-0.117975965
89	0x3e2724fb	0.163227
90	0xbc94f73d	-0.018184299
91	0xbd8adb71	-0.067801364
92	0xbd344df9	-0.044019673
93	0x3c960eaf	0.018317549
94	0x3e17c41b	0.14820902
95	0x3d6f1840	0.058372736
96	0xbb321f98	-0.0027179476
97	0x3da4b43d	0.0804219
98	0x3cb50481	0.022096874
99	0x3e0549d9	0.13016452
100	0xbe3f9012	-0.18707302
101	0x3d36cb2f	0.044627365
102	0x3e28bc80	0.16478157
103	0x3df996b0	0.121869445
104	0x3dbed827	0.093185715
105	0xbdb2205d	-0.08697579
106	0xbd8a5129	-0.06753761
107	0xbdaba99c	-0.0838196
108	0xbe7cf21e	-0.24701735
109	0xbe087976	-0.13327584
110	0xbceae32e	-0.02867278
111	0xbdd7bbaa	-0.10533841
112	0xbe5facf3	-0.21843319
113	0xbe1f904e	-0.15582392
114	0xbddec720	-0.10877824
115	0xbe4f8d0c	-0.20268649
116	0x3e63e110	0.22253823
117	0xbb5cefad	-0.0033712194
118	0x3ea51249	0.32240513
119	0xbd5b2f41	-0.05351186
120	0xbc82ac3b	-0.015951267
121	0x3efc1c93	0.4924055
122	0x3ea227e7	0.31671068
123	0xbe1f20b7	-0.15539823
124	0x3e9dd0b6	0.30823296
125	0xbec629cf	-0.38703772
126	0x3d70f037	0.058822837
127	0xbcdab63c	-0.026698224
128	0x3d8ec849	0.06971795
129	0xbcc1ff8f	-0.02368143
130	0xbcc76659	-0.024340795
131	0xbcba87a7	-0.022769762
132	0xbd605221	-0.054765824
133	0xbd2f8097	-0.042847242
134	0xbe0f78a6	-0.14010867
135	0x3e06cda0	0.13164377
136	0x3da9e6d5	0.08295981
137	0x3dfa1c5f	0.122124426
138	0x3d138002	0.03601075
139	0xbd0e896a	-0.034799017
140	0x3e4164eb	0.18886153
141	0xbdea1216	-0.11429231
142	0xbe104761	-0.14089729
143	0xbe31f041	-0.17376806
144	0xbe49d862	-0.1971145
145	0xbe64eeb7	-0.22356687
146	0x3c007270	0.007839784
147	0x3e8b37e7	0.27191088
148	0xbe34bc14	-0.17649871
149	0x3dd4ffc0	0.10400343
150	0x3d20bf1a	0.03924475
151	0x3e549fe8	0.20764124
152	0x3e27fd55	0.16405232
153	0xbe96e4b1	-0.29471353
154	0x3d27facd	0.041010667
155	0xbe8cd93a	-0.2750948
156	0x3d89a297	0.06720465
157	0x3e3a5fff	0.18200682
158	0x3e8193e4	0.25308144
159	0x3e0c2ca0	0.13688898
160	0x3ebab5fe	0.36466974
161	0xbde9d796	-0.11418073
162	0x3cac3737	0.021022422
163	0x3d9ba196	0.075991794
164	0xbd097788	-0.03356126
165	0xbc611ff5	-0.013740529
166	0xbc6c525c	-0.014423933
167	0xbe6d2dc5	-0.23161991
168	0xbc973e28	-0.018462256
169	0xbdb016e7	-0.08598118
170	0x3e77d07a	0.24200621
171	0xbde18939	-0.11012501
172	0xbdc7397f	-0.097277634
173	0xbd8f54a8	-0.06998569
174	0xbe6455fd	-0.22298427
175	0xbde75366	-0.11295204
176	0x3ce73f0b	0.028228303
177	0xbe62da3a	-0.2215356
178	0xbd766df6	-0.06016346
179	0x3d7b4d1d	0.061352838
180	0x3f002f2e	0.5007199
181	0x3e3eb0bb	0.18622105
182	0x3ebed571	0.37272218
183	0xbe045602	-0.12923434
184	0x3e92ce50	0.2867303
185	0x3e6ee532	0.23329619
186	0x3e906ae9	0.28206566
187	0x3e9f0be8	0.3106377
188	0x3ebc346a	0.3675874
189	0xbe99030c	-0.29885137
190	0xbdf274b1	-0.11838663
191	0xbe264d10	-0.16240335
192	0xbc967cf9	-0.018370138
193	0xbdae1ee1	-0.085019834
194	0xbcdc9156	-0.02692477
195	0xbba1c6b4	-0.0049370173
196	0xbd049f7a	-0.03237865
197	0xbdfac9fc	-0.12245557
198	0xbc1fb8e5	-0.009748672
199	0xbc99fc4b	-0.01879706
200	0x3e363833	0.17794876
201	0x3d6c18bf	0.057640787
202	0x3e0fe6c2	0.14052871
203	0x3c88cef0	0.016700238
204	0x3d26822a	0.040651478
205	0x3d6b568a	0.057455577
206	0x3dcd2cd3	0.10018315
207	0x3d2ad080	0.041702747
208	0x3de2e604	0.11079028
209	0xbe07b751	-0.13253523
210	0x3d15de42	0.036588915
211	0x3accb3c9	0.0015617545
212	0xbda718f2	-0.08159055
213	0xbd92fbd3	-0.07176938
214	0xbd8c8734	-0.068617254
215	0x3e284ae4	0.16434819
216	0x3e21e5a8	0.15810263
217	0x3e32f6cd	0.1747696
218	0xbf08723c	-0.5329931
219	0xbd81fe10	-0.06347287
220	0xbe0b6974	-0.13614446
221	0x3c9f3c24	0.019437857
222	0x3ea4c4e2	0.3218146
223	0xbd807900	-0.06273079
224	0xbcbc137a	-0.022958506
225	0x3da609a3	0.08107307
226	0xbdd5576b	-0.10417064
227	0x3ef6b241	0.48182872
228	0xbe86b70a	-0.26311523
229	0x3d5edb51	0.054408375
230	0xbd0b5015	-0.03401192
231	0x3ec664eb	0.3874887
232	0xbe05e2e1	-0.13074829
233	0x3d7d65fd	0.06186484
234	0xbd85b333	-0.0652832
235	0x3dba2358	0.090887725
236	0xbd805f6d	-0.06268201
237	0xbdcfabc2	-0.10140182
238	0xbd0edf74	-0.03488107
239	0x3d9cad4c	0.07650241
240	0xbd5df5a0	-0.054189324
241	0x3d4a8bcc	0.049449727
242	0xbd5d4b6f	-0.054027017
243	0xbe14419f	-0.14478157
244	0xbd055cfb	-0.032559376
245	0xbd8aebb9	-0.06783242
246	0x3d9ddb2d	0.0770782
247	0xbe1a949e	-0.15095755
248	0xba8fe78d	-0.0010979042
249	0x3dbb60ab	0.09149297
250	0xbda8e2a4	-0.08246353
251	0x3cbc3c0a	0.022977848
252	0xbe3a884c	-0.18216056
253	0x3e7a0c7b	0.24418823
254	0xbd9cff51	-0.07665885
255	0x3db2ae1f	0.08724617

conv1.bias f4 [32]
0	0x3c8294ee	0.015940156
1	0xbd5b0e47	-0.053480413
2	0x3db82974	0.089922816
3	0x3c8eda6b	0.017438134
4	0x3ca7ab45	0.02046741
5	0xbe2575ef	-0.1615827
6	0x3e49e2d3	0.19715433
7	0xbe1b7024	-0.15179497
8	0xbe53e2e8	-0.20692027
9	0x3e3c5220	0.18390703
10	0x3d7cfad3	0.061762642
11	0xbdde213e	-0.10846184
12	0xbc7345da	-0.014848197
13	0x3cc85805	0.024456033
14	0x3ca42e0e	0.020041492
15	0x3e22f923	0.1591535
16	0x3d5d21a9	0.05398718
17	0x3cd6d647	0.026225222
18	0xbe07ac6d	-0.13249369
19	0x3d4660ee	0.048432283
20	0xbe3f4886	-0.18680009
21	0xbdbc3094	-0.09188953
22	0xbc90ee71	-0.017691823
23	0x3dc26608	0.09492117
24	0x3e1c3d6a	0.15257803
25	0x3e61eb24	0.22062355
26	0x3da48879	0.080338426
27	0x3e235f5e	0.15954348
28	0x3dab4567	0.08362847
29	0xbe41661c	-0.18886608
30	0xbd30864d	-0.04309683
31	0xbe42aa86	-0.19010362

conv2.weight f4 [64, 32, 3, 3]
0	0xbdcc99e1	-0.099902876
1	0xbcd5bbe0	-0.026090562
2	0xbd9f3d8b	-0.0777541
3	0xbdd61eac	-0.10455069
4	0x3da6d7b8	0.08146614
5	0x3d2910ec	0.041275904
6	0xbc0e7c01	-0.008696557
7	0xbe114342	-0.14185813
8	0x3ca2bc8b	0.019865295
9	0xbe478beb	-0.19486968
10	0x3bd10c41	0.0063796346
11	0xbdaa8a01	-0.083271034
12	0x3d4563ec	0.048190996
13	0x3e574a68	0.21024477
14	0x3e0db94a	0.13840213
15	0xbcdacf56	-0.026710194
16	0xbddd7472	-0.10813226
17	0xbd60a1c4	-0.05484177
18	0xbdd8efda	-0.10592623
19	0x3df7a7a9	0.120925255
20	0xbd1ab7da	-0.03777299
21	0x3de4789d	0.11155818
22	0x3e029d7d	0.1275539
23	0xbdea4eed	-0.11440835
24	0xbd802338	-0.062567174
25	0x3e70b62c	0.23506993
26	0x3d275422	0.04085172
27	0x3e96f21d	0.29481593
28	0xbd924bcd	-0.07143364
29	0xbe355854	-0.17709476
30	0xbe7d563b	-0.24739926
31	0xbbfe434e	-0.007759488
32	0xbdd0551b	-0.101724826
33	0xbdbd5f42	-0.092466846
34	0x3e2cb565	0.16866072
35	0x3dc396da	0.09550257
36	0x3d27fe46	0.04101398
37	0x3deb4adb	0.11488887
38	0xbc475381	-0.012165905
39	0xbc95940d	-0.018259073
40	0x3d32f611	0.0436917
41	0x3e2bc64d	0.16774864
42	0xbd186c48	-0.03721264
43	0xbe083dc5	-0.13304813
44	0xbcccb662	-0.02498931
45	0x3d739a91	0.059473578
46	0x3dae7c57	0.0851981
47	0x3de2ed66	0.110804364
48	0x3e071a04	0.13193518
49	0x3c289196	0.010288617
50	0x3a1da507	0.00060136657
51	0x3e7aaea4	0.24480683
52	0x3e362a1f	0.17789505
53	0x3cc65ade	0.02421325
54	0x3da6e2fe	0.08148764
55	0xbe1c6cb2	-0.15275839
56	0x3ca281b1	0.019837232
57	0xbd114787	-0.035468604
58	0x3e293703	0.16524892
59	0xbd1cee0b	-0.038312953
60	0xbe003d7e	-0.12523457
61	0xbe663dbc	-0.22484487
62	0xbcf7acf6	-0.030233841
63	0x3d4bc2c6	0.049746297
64	0xbe02cd35	-0.12773593
65	0xbd26e235	-0.04074307
66	0x3e261bb6	0.16221508
67	0x3c6b9546	0.014378851
68	0xbc1c9981	-0.009558083
69	0xbdd1fee4	-0.10253695
70	0xbdb2eee7	-0.08736973
71	0xbdbf7710	-0.09348881
72	0xbc285bcc	-0.010275792
73	0xbce1917a	-0.027535189
74	0x3d86cc78	0.06581968
75	0xbd21fbc7	-0.039546754
76	0xbc2085f6	-0.009797564
77	0xbe1f39a8	-0.15549338
78	0x3d8e2c0e	0.069419965
79	0xbd89b246	-0.06723456
80	0x3ca62c7c	0.020284884
81	0xbc85e04c	-0.016342305
82	0x3d5ca0a0	0.05386412
83	0x3e1b215f	0.15149449
84	0x3d7c9374	0.06166406
85	0x3dcd1bea	0.1001509
86	0xbcdb9956	-0.026806515
87	0xbd8f8359	-0.070074745
88	0xbd1fd6ba	-0.03902314
89	0xbcc4e2e5	-0.024033973
90	0xbd6b386c	-0.057426855
91	0x3cd1dcbf	0.025617955
92	0xbd3e929e	-0.046526544
93	0xbc6e0df3	-0.014529693
94	0x3e1daf6d	0.15398951
95	0xbda38e25	-0.07986096
96	0xbe49bb97	-0.19700466
97	0xbde05521	-0.10953737
98	0x3e4c149c	0.19929737
99	0xbca51c1e	-0.020155009
100	0xbe3295c9	-0.17439951
101	0xbc4ad08b	-0.012378822
102	0xbe598055	-0.21240361
103	0x3d951e6b	0.072811924
104	0x3e2d0001	0.16894533
105	0xbd6e7f31	-0.058226768
106	0xbe00d318	-0.12580526
107	0x3e4a6f59	0.19769038
108	0x3e0aff9d	0.13574071
109	0x3d821366	0.06351356
110	0x3e9fd622	0.31218058
111	0xbe532308	-0.20618832
112	0x3d7bdf86	0.061492465
113	0xbcd3004e	-0.025756981
114	0xbd922724	-0.07136372
115	0xbd9a086a	-0.07521136
116	0xbda3eb7e	-0.08003901
117	0xbce03620	-0.027369559
118	0x3e3b5553	0.18294267
119	0xbcd12f4a	-0.025535244
120	0x3d86c91d	0.06581328
121	0xbe0024af	-0.12513994
122	0xbdd5c55a	-0.104380324
123	0xbb2f8d4d	-0.0026787103
124	0x3d659293	0.056047987
125	0xbe552eb5	-0.20818599
126	0xbe9404b9	-0.28909853
127	0xbe08f876	-0.1337603
128	0x3b5eb128	0.0033980105
129	0xbd7843b9	-0.06061146
130	0xbd18e9e2	-0.037332423
131	0x3d813c4a	0.06310327
132	0x3cb6ecce	0.022329714
133	0x3dedbf0a	0.116087034
134	0x3cb9ac93	0.022665298
135	0x3d33e2d7	0.043917503
136	0xbe3b1d5e	-0.18272921
137	0xbbdaf37d	-0.006681858
138	0xbe168682	-0.14699748
139	0xbd92005b	-0.07128974
140	0xbeb3d9bb	-0.35127053
141	0x3d0390ae	0.0321204
142	0x3e17af75	0.14813025
143	0xbc448c2c	-0.01199631
144	0xbd06fdca	-0.032956876
145	0xbe4e0cfc	-0.2012214
146	0x3c8ddcdd	0.01731723
147	0xbdebe5c4	-0.11518434
148	0x3bc9dbfe	0.0061602583
149	0x3da59d3c	0.08086631
150	0xbe6b6ccd	-0.22990723
151	0x3c949c60	0.018140972
152	0xbe07d373	-0.13264255
153	0xbdfebce2	-0.1243837
154	0xbd721ebb	-0.059111338
155	0x3dc99683	0.09843161
156	0x3dfc4b9b	0.12319108
157	0x3d89260c	0.0669671
158	0x3d23560c	0.039876983
159	0x3daa6449	0.08319909
160	0x3c801cd7	0.015638752
161	0x3e409df0	0.18810248
162	0x3d3ae818	0.045631498
163	0xbd542999	-0.051797483
164	0xbc9c3aaa	-0.019070942
165	0x3e99107f	0.29895398
166	0x3e0133eb	0.12617461
167	0x3e155c29	0.14585938
168	0x3e3f9a03	0.18711095
169	0xbda43969	-0.080187626
170	0xbe25faae	-0.16208908
171	0xbdf6a0f0	-0.12042415
172	0xbdc85941	-0.09782649
173	0xbdd4ffb4	-0.10400334
174	0xbe4ae670	-0.19814467
175	0xbd4c9622	-0.049947865
176	0xbe1f9dae	-0.15587494
177	0x3e6857ac	0.22689694
178	0x3d3d7ecd	0.046263505
179	0x3da95dae	0.08269821
180	0x3d74c40c	0.059757277
181	0xbe9b60ea	-0.30347377
182	0xbdf11690	-0.117718816
183	0xbd64cc2b	-0.055858772
184	0x3b9fa925	0.0048724585
185	0x3ca79b39	0.020459758
186	0x3d924e01	0.07143784
187	0x3e5cedd4	0.21575099
188	0x3e46f352	0.19428757
189	0xbe27370e	-0.16329595
190	0xbd815fe9	-0.063171215
191	0xbd59c3cc	-0.053165242
192	0x3e03e935	0.1288193
193	0x3dc80715	0.09766976
194	0xbd26f8f7	-0.040764775
195	0xbe82e6a2	-0.25566584
196	0xbdeca787	-0.11555391
197	0xbd86d1e7	-0.065830044
198	0xbdd8bc4d	-0.105827905
199	0x3e066929	0.13126053
200	0xbd982387	-0.07428651
201	0x3e0950b7	0.13409697
202	0x3ce58a98	0.028020188
203	0x3da3972b	0.079878174
204	0xbd4560b4	-0.048187926
205	0x3dc1c61e	0.09461616
206	0xbd197984	-0.037469402
207	0x3e061465	0.13093717
208	0xbd99178e	-0.07475196
209	0x3e1d0d63	0.15337138
210	0xbcc81b12	-0.02442697
211	0xbdb9d12c	-0.090730995
212	0x3a8a5657	0.0010554296
213	0xbdd2a302	-0.102849975
214	0xbe1f0aca	-0.1553146
215	0xbe447692	-0.19185856
216	0x3dc1efb9	0.094695516
217	0xbe1704b2	-0.14747885
218	0xbd27bd35	-0.040951926
219	0x3e394d19	0.18095817
220	0xbd8bac8a	-0.068200186
221	0x3d43b8b0	0.047783554
222	0x3e2dc89a	0.16971055
223	0xbe323fff	-0.17407225
224	0xbd991281	-0.074742325
225	0xbe8b16cc	-0.2716583
226	0xbe3a2935	-0.18179782
227	0xbd24f264	-0.040270224
228	0xbd72c3b1	-0.059268657
229	0xbd425e93	-0.047453474
230	0xbe4237e2	-0.1896663
231	0x3dda6c4f	0.106651895
232	0x3b54a4a3	0.0032446764
233	0xbccc96cf	-0.024974255
234	0x3dcc2dd5	0.09969679
235	0xbdb48cb1	-0.08815897
236	0x3d913c2d	0.07091556
237	0xbe94f97b	-0.29096588
238	0xbde63ba4	-0.11241844
239	0xbd0faff8	-0.035079926
240	0xbe1cc051	-0.15307738
241	0xbc90fc51	-0.017698439
242	0x3d87d60a	0.066326216
243	0xbe3d566b	-0.18489997
244	0xbdb858b3	-0.09001293
245	0x3d9a0dfc	0.075221986
246	0x3d17427a	0.03692863
247	0x3daaeba7	0.08345728
248	0xbe32fdb6	-0.17479596
249	0x3dd502b9	0.1040091
250	0xbc5c445e	-0.013444034
251	0x3c0dcf9c	0.008655455
252	0x3d752056	0.05984529
253	0xbe1648e9	-0.1467625
254	0x3da9c53d	0.08289573
255	0xbd2c16e1	-0.042014007

conv2.bias f4 [64]
0	0xbcd0fd13	-0.0255113
1	0x3d3f60c7	0.046723153
2	0xbd962c7d	-0.07332704
3	0xbd0d40b5	-0.034485538
4	0xbd33549b	-0.043781858
5	0x3dd69eee	0.10479532
6	0x3cff528a	0.031167287
7	0x3d252a1f	0.040323373
8	0xbb6d31d8	-0.003619304
9	0xbdd0f5ef	-0.10203158
10	0xbd41481e	-0.047187917
11	0xbd0f4a21	-0.034982804
12	0x3d5128f4	0.051064447
13	0xbd11ad30	-0.035565555
14	0x3dac4a6c	0.08412632
15	0xbd2968f6	-0.041359864
16	0xbd909716	-0.07060067
17	0xbcdba62b	-0.026812633
18	0xbb6108ad	-0.0034337447
19	0x3cdbe8da	0.02684443
20	0x3d369b32	0.0445816
21	0x3d0004d0	0.03125459
22	0xbdde6aab	-0.10860189
23	0x3dc85541	0.09781886
24	0xbe2a366d	-0.16622324
25	0x3da8c405	0.08240513
26	0x3d48ecdc	0.04905401
27	0xbd7bc18c	-0.061463878
28	0x3d0f4f28	0.0349876
29	0x3c1446a6	0.009050047
30	0x3dc3f5af	0.09568345
31	0xbc185d00	-0.009299517
32	0xbe372053	-0.17883424
33	0xbd3c7173	-0.04600663
34	0xbbef6c2e	-0.007306597
35	0xbd4ac003	-0.049499523
36	0xbcb507c1	-0.022098424
37	0xbdffe257	-0.12494343
38	0xbdb503b0	-0.08838594
39	0x3cfdb75c	0.030971222
40	0x3d5e6296	0.054293238
41	0x3dbe7e88	0.09301478
42	0xbbf65e89	-0.0075185937
43	0xbd2dc9a7	-0.04242864
44	0xbdf50378	-0.11963552
45	0xbcecb10e	-0.02889302
46	0xbce30999	-0.027714537
47	0xbd25d567	-0.04048672
48	0xb961e4f1	-0.0002154296
49	0x3bdcb70f	0.0067356895
50	0xbc4366f6	-0.011926403
51	0xbd0dc4f0	-0.034611642
52	0xbd906b49	-0.07051713
53	0xbd435bfd	-0.04769515
54	0x3d0759a8	0.033044487
55	0xbd3d8296	-0.046267115
56	0x3a11e68b	0.00055656646
57	0x3ac3a9e0	0.0014927946
58	0xbdfb0da3	-0.122584604
59	0xbe6f8ad4	-0.23392802
60	0xbc9666c0	-0.018359542
61	0xbc7ba639	-0.015359455
62	0xbd1a9092	-0.03773553
63	0xbd5e7908	-0.054314643

conv3.weight f4 [128, 64, 3, 3]
0	0xbdaf6712	-0.08564581
1	0x3d1c2518	0.038121313
2	0x3d372767	0.04471531
3	0xbde887ef	-0.11354052
4	0x3db86257	0.09003132
5	0x3c65d793	0.014028448
6	0x3c9fb4ad	0.019495333
7	0xbdb39f34	-0.087706
8	0xbe1ced81	-0.15324976
9	0xbd4015c9	-0.046895776
10	0x3dab0c74	0.083519846
11	0xbdd7092a	-0.10499795
12	0xbc48cb16	-0.012255451
13	0xbcad53cd	-0.021158123
14	0xbc2c59d9	-0.010519468
15	0xbcd53c06	-0.026029598
16	0xbbd10e1b	-0.0063798553
17	0x3c037475	0.008023371
18	0xbdf4188a	-0.11918743
19	0xbe219201	-0.15778352
20	0x3db11088	0.08645731
21	0xbd1df9f1	-0.03856844
22	0xbe0abaa5	-0.13547762
23	0xba96f380	-0.001151666
24	0xbde0759c	-0.10959932
25	0x3bfbce03	0.0076844706
26	0xbda822bc	-0.0820975
27	0x3d1e2f4e	0.038619332
28	0x3d9ca41f	0.07648491
29	0xbe07988b	-0.13241784
30	0x3c426107	0.011863953
31	0xbdac5e7d	-0.0841646
32	0x3d882120	0.06646943
33	0xbdcabeb4	-0.09899655
34	0xbcb50eb9	-0.022101747
35	0xbd96ccbf	-0.07363271
36	0xbdd9d43a	-0.10636182
37	0x3d6af473	0.05736203
38	0xbda5bb1b	-0.08092328
39	0xbdd594d8	-0.1042878
40	0x3c96c5a8	0.018404797
41	0xbda6f19e	-0.081515536
42	0xbdd5d0b3	-0.10440197
43	0xbdd32a7f	-0.1031084
44	0x3cdef9fe	0.027218815
45	0xbc9abee7	-0.018889857
46	0x3d99c1f3	0.07507696
47	0xbd1ded58	-0.038556427
48	0xbc51ad60	-0.0127976835
49	0xbb137aa6	-0.0022503524
50	0xbd8ada16	-0.06779878
51	0xbc67e71c	-0.014154222
52	0x3ce352d1	0.02774945
53	0x3d51b312	0.051196165
54	0xbdba7ef3	-0.09106245
55	0xbd6c7b82	-0.057734974
56	0xbc978b8f	-0.018499164
57	0x3a965dc1	0.0011472033
58	0x3d6a4069	0.057190333
59	0x3c48cd62	0.012255998
60	0xbd8254de	-0.063638434
61	0x3db0acc1	0.086267
62	0xbce3db0d	-0.027814412
63	0xbe1f68f2	-0.15567377
64	0xbdde73fe	-0.108619675
65	0xbdea93df	-0.114539854
66	0x3c8df0f9	0.017326819
67	0xbd58ad17	-0.052899446
68	0x3cdf1041	0.02722943
69	0x3d2319bb	0.03981946
70	0x3c56ce63	0.01311073
71	0x3d49aaf2	0.04923529
72	0xbd49c0ad	-0.049256016
73	0x3db1d003	0.08682253
74	0x3de2908c	0.110627264
75	0x3e2bd8c6	0.16781911
76	0x3db4ce5f	0.08828425
77	0x3d8b4ee2	0.06802155
78	0xbc12f1e9	-0.008968809
79	0x3c4a464b	0.012345861
80	0x3c073bb3	0.0082539795
81	0x3c15f6da	0.009153092
82	0xbd5b0765	-0.05347385
83	0xbd57b005	-0.0526581
84	0x3d696514	0.05698116
85	0x3d62d6b9	0.055380557
86	0x3db47345	0.088110484
87	0x3d86c8bd	0.065812565
88	0x3c95d6ab	0.018290838
89	0x3d3ff474	0.046863988
90	0x3da7f189	0.08200366
91	0xbbbc30ae	-0.0057431078
92	0xbd1669c5	-0.036721963
93	0x39f23aaa	0.00046201545
94	0xbe0a10d0	-0.13482976
95	0x3d15da2b	0.036585014
96	0x3df5e4a1	0.12006498
97	0x3d120608	0.035650283
98	0x3d2a0b48	0.041514665
99	0xbbe91956	-0.007113616
100	0xbdca34e7	-0.098733716
101	0x3de66436	0.112495825
102	0x3b72cf7a	0.0037049935
103	0x3dbcbeb4	0.09216061
104	0xbda4bbe4	-0.0804365
105	0x3d24659e	0.040135972
106	0xbdbe9f68	-0.09307748
107	0x3e0d6063	0.138063
108	0x3bd6cae0	0.0065549463
109	0xbde67f8f	-0.112547986
110	0xbe06644d	-0.13124199
111	0xbc6b120c	-0.014347564
112	0xbe564d58	-0.20927942
113	0xbe3c0cbe	-0.18364236
114	0xbc0f8e2d	-0.008761925
115	0xbd94e75d	-0.072706915
116	0xbd897012	-0.06710829
117	0xbc35b7f7	-0.011091224
118	0x3beba774	0.007191593
119	0xbccbe945	-0.024891505
120	0x3d214faa	0.039382614
121	0xbe18093d	-0.14847274
122	0x3d3a01dd	0.045411933
123	0xbcc7affc	-0.024375908
124	0x3ccee642	0.02525628
125	0xbe46421d	-0.19361158
126	0x3cef1233	0.029183483
127	0x3ad5d9f8	0.001631557
128	0xbdde072b	-0.10841211
129	0xbd675dc1	-0.056485895
130	0xbdffbed8	-0.124875724
131	0xbe3e5d00	-0.18590164
132	0xbdf1ddd2	-0.11809887
133	0xbe0abf63	-0.1354957
134	0xbdbb9064	-0.091584
135	0xbdba07e4	-0.09083536
136	0xbe0db9e9	-0.1384045
137	0xbde5bcc8	-0.11217648
138	0x3da86cdf	0.082238905
139	0xbd5fa9ce	-0.054605298
140	0x3c8e07d7	0.017337723
141	0xbd3ed6a6	-0.046591423
142	0x3d821de4	0.063533574
143	0xbe37b72b	-0.17940967
144	0x3d093309	0.033495937
145	0x3e45a541	0.1930132
146	0x3da650bd	0.08120868
147	0x3dd79f57	0.105284385
148	0x3ccd9f05	0.02510024
149	0x3bf39de3	0.007434593
150	0xbb9dbca5	-0.004813748
151	0x3e15a225	0.14612634
152	0xbe4766ff	-0.19472884
153	0x3de2d916	0.11076562
154	0xbdac2c03	-0.08406832
155	0x3d90fc8d	0.0707942
156	0xbd942a6d	-0.072346546
157	0xbe33dad9	-0.17563953
158	0x3d97cad8	0.07411736
159	0x3d4c41de	0.049867503
160	0x3d9a942a	0.07547791
161	0x3d159aa4	0.03652443
162	0xbd81481c	-0.06312582
163	0xbcff593e	-0.031170484
164	0xbe252280	-0.16126442
165	0xbd870dcf	-0.06594431
166	0xbd950923	-0.07277133
167	0xbdbfe194	-0.093691975
168	0xbd92012f	-0.07129132
169	0xbe277a2d	-0.163552
170	0xbac5256c	-0.001504106
171	0x3c24b1fa	0.010052199
172	0xbe352c72	-0.17692736
173	0xbd1daf57	-0.038497295
174	0x3d36ef83	0.04466201
175	0x3d61ece5	0.05515756
176	0x3e23f769	0.16012348
177	0xbe50dd81	-0.20396997
178	0xbc9d28d6	-0.019184511
179	0xbc4143b2	-0.011795925
180	0x3db40aa3	0.08791091
181	0xbe24ca21	-0.16092731
182	0xbddb66cf	-0.107129686
183	0x3dfdd0f2	0.12393369
184	0xbd98f835	-0.07469217
185	0xbd3ae63a	-0.045629717
186	0x3dcef1ab	0.10104688
187	0xbd0058ba	-0.031334616
188	0xbccd0fa6	-0.025031876
189	0x3e00236b	0.12513511
190	0x3cefe903	0.029285913
191	0xbe397596	-0.18111262
192	0xbd20594c	-0.03914766
193	0x3d0eb621	0.03484166
194	0x3c626b39	0.013819509
195	0x3cdf3504	0.02724696
196	0x3dd9973d	0.106245495
197	0xbd260482	-0.040531643
198	0xbd86ff33	-0.06591644
199	0x3e0e4cb5	0.13896449
200	0x3de6908e	0.1125804
201	0xbd46cce1	-0.04853523
202	0x3db07e52	0.08617844
203	0x3d9c47e4	0.076308995
204	0x3ca375e8	0.019953683
205	0xbd8f16ae	-0.06986748
206	0xbc3620ba	-0.011116201
207	0xbc8aae79	-0.016928898
208	0x3d18b141	0.037278417
209	0xbcc045dc	-0.023470812
210	0x3d9e595e	0.07731889
211	0x3c536c0e	0.01290418
212	0x3c06dad0	0.00823088
213	0xbd9fceb7	-0.078030996
214	0xbd8a4bd7	-0.067527466
215	0x3cfd3ff0	0.030914277
216	0xbd108574	-0.03528352
217	0x3dcc2b73	0.09969225
218	0x3e1a752a	0.15083757
219	0xbba13a02	-0.004920245
220	0x3d79472a	0.060858883
221	0xbd20224c	-0.039095208
222	0xbe36c4b7	-0.17848478
223	0xbdf183c0	-0.117927074
224	0xbc4dd267	-0.012562371
225	0x3d08d461	0.033405665
226	0xbe30bb14	-0.17258865
227	0xbe2ae3f4	-0.1668852
228	0x3b53f51d	0.0032342144
229	0xbd9f1d4d	-0.077692606
230	0xbe369b58	-0.17832696
231	0x3e045524	0.12923104
232	0x3e252acf	0.16129611
233	0xbcbc7681	-0.023005726
234	0xbc269fc3	-0.010169926
235	0xbdf177be	-0.11790417
236	0xbdac91c9	-0.08426244
237	0xbcf0f7da	-0.02941506
238	0xbe15ca4a	-0.14627948
239	0xbe0da302	-0.13831714
240	0xbc80e001	-0.015731813
241	0x3d2d641b	0.042331796
242	0xbdecf06a	-0.11569293
243	0x3d5d329d	0.054003347
244	0x3b47e037	0.0030498633
245	0xbd39e153	-0.0453809
246	0x3ca680c0	0.020325065
247	0xbdb20cf5	-0.086938776
248	0x3dafa977	0.08577245
249	0x3dd704c5	0.104989566
250	0x3d901d58	0.07036847
251	0xbd9d8506	-0.07691388
252	0x3e367863	0.17819361
253	0xbe17de1f	-0.14830826
254	0xbd0e0b7b	-0.034678917
255	0xbd672ede	-0.05644118

conv3.bias f4 [128]
0	0xbd7ede55	-0.06222375
1	0x3c51c215	0.01280262
2	0xbe1e73ca	-0.15473858
3	0xbbe2f230	-0.0069258437
4	0xbd96b129	-0.07358009
5	0x3d9632f0	0.07333934
6	0xbd15fd90	-0.03661877
7	0xbd8b0e6e	-0.067898616
8	0x3c38681d	0.011255291
9	0x3c1bd4e5	0.009511207
10	0xbd07147a	-0.032978512
11	0x3d5847ca	0.05280284
12	0x3cbf1b43	0.02332843
13	0x3cfe5757	0.031047506
14	0xbe283411	-0.16426112
15	0xbc2ba4be	-0.010476289
16	0xbde750c1	-0.112946995
17	0x3d1dc082	0.038513668
18	0x3df2270f	0.11823856
19	0x3c129c77	0.008948437
20	0xbbc627a7	-0.0060472074
21	0x3c736473	0.014855492
22	0x3d41710e	0.047226958
23	0xbdb46ed8	-0.08810204
24	0xbc89309d	-0.016746813
25	0xbd787492	-0.060658045
26	0xbcb025cb	-0.021502396
27	0x3cdfe928	0.027332857
28	0xbdc68a83	-0.09694388
29	0xbd93c51a	-0.072153285
30	0xbd6e0f99	-0.058120344
31	0xbd06e23f	-0.03293061
32	0x3d70db27	0.05880275
33	0xbbc9c69c	-0.0061577093
34	0xbc9a6169	-0.018845277
35	0xbb91e790	-0.004452653
36	0xbdca717b	-0.09884926
37	0x3b486dd3	0.0030583038
38	0xbd61d4fb	-0.055134755
39	0x3c867e3e	0.016417619
40	0x3c850360	0.01623696
41	0xbdb79af0	-0.08965099
42	0xbe449b45	-0.19199856
43	0xbdd0cf3f	-0.10195779
44	0x3d84de03	0.06487658
45	0x3cc7eb11	0.02440408
46	0x3d07a8d5	0.033119995
47	0xbdfdc4ae	-0.12391029
48	0x3ba23570	0.004950218
49	0x3daef29c	0.08542368
50	0x3d8a4686	0.067517325
51	0x3c4e2e67	0.012584305
52	0xbd01d5da	-0.031698085
53	0xbd908ee7	-0.070585065
54	0x3c07729a	0.008267069
55	0xbcb948eb	-0.022617778
56	0xbd9a74f6	-0.0754184
57	0xbdbbd239	-0.09170956
58	0xbdab40ad	-0.08361945
59	0xbd4fb444	-0.050709024
60	0xbd28aa58	-0.041178077
61	0xbdef1bd6	-0.11675231
62	0x3addab2b	0.0016911974
63	0xbd864984	-0.06556991
64	0xbba12d3e	-0.0049187234
65	0x3cc8f5f2	0.024531338
66	0x3c6bae28	0.014384784
67	0xbd333f54	-0.043761566
68	0xbe003d36	-0.1252335
69	0x3d8e87af	0.06959473
70	0x3db6ab94	0.08919445
71	0xbd20416a	-0.039124884
72	0xbd18c48b	-0.037296813
73	0xbd20e20e	-0.039278083
74	0x3bb5617a	0.0055353018
75	0xbd87f34a	-0.066382006
76	0xbd6e0671	-0.05811161
77	0x3c27970b	0.010228883
78	0xbd429c92	-0.0475126
79	0xbc99d7a3	-0.018779581
80	0xbd203576	-0.039113484
81	0xbce2e62e	-0.027697649
82	0x3cb6aab3	0.022298193
83	0xbddd312c	-0.108003944
84	0xbb76de37	-0.0037669071
85	0xbd21fd84	-0.039548412
86	0x3de7e6a6	0.113232896
87	0xbc43659a	-0.011926079
88	0x3de9734a	0.11398943
89	0x3d14e753	0.03635342
90	0xbc821d28	-0.015883043
91	0xbd9a9038	-0.07547039
92	0xbda173d1	-0.07883418
93	0xbd8d8ff9	-0.06912226
94	0x3d88ce6a	0.06679995
95	0xbdc1a6c4	-0.09455636
96	0xbd97bf7b	-0.07409569
97	0x3e041bf8	0.12901294
98	0xbd71b518	-0.059010595
99	0x3ca8c3d3	0.020601189
100	0xbc967b02	-0.018369202
101	0xbd702804	-0.058631912
102	0x3c722731	0.014779852
103	0x3d7033c5	0.05864312
104	0xbcd03332	-0.025415037
105	0xbdec75dc	-0.115459174
106	0xbd5c2f02	-0.053755768
107	0xbbba7fb7	-0.0056914943
108	0xbce7880a	-0.02826311
109	0x3d3c1174	0.045915082
110	0x3d21e222	0.039522298
111	0x3d46b634	0.048513606
112	0xbd1c07ef	-0.038093504
113	0x3c35b497	0.011090419
114	0xbd17fa24	-0.037103787
115	0x3c9d927d	0.01923489
116	0x3e0590bc	0.13043493
117	0xbd8d715d	-0.06906388
118	0xbd2ca93f	-0.042153593
119	0xbd901cae	-0.0703672
120	0xbd0712d9	-0.03297696
121	0xbcabff90	-0.020995885
122	0xbe12a5fe	-0.14321133
123	0x3df409c9	0.11915929
124	0xbdc5baae	-0.09654747
125	0xbd70788d	-0.058708716
126	0xbe1e4039	-0.15454186
127	0xbd48d03a	-0.049026705

act_conv1.weight f4 [4, 128, 1, 1]
0	0xbd95a0f0	-0.07306087
1	0x3d818b9c	0.063254565
2	0xbd587f54	-0.052855805
3	0xbd6a6896	-0.057228647
4	0x3d1f1f6c	0.038848326
5	0x3e964be9	0.2935479
6	0xbb163e39	-0.0022925271
7	0x3e67acfd	0.22624584
8	0x3d360f7c	0.04444836
9	0x3c4b2511	0.012398974
10	0xbd27e136	-0.040986262
11	0x3ccaecc9	0.024771111
12	0x3c7e0e51	0.015506343
13	0xbda37f4f	-0.079832666
14	0x3ce27198	0.027642056
15	0xbc2ab813	-0.010419863
16	0x3d5d4be4	0.054027453
17	0x3d879e85	0.06622032
18	0xbdb3330f	-0.08749973
19	0xbd46efc0	-0.048568487
20	0xbd233431	-0.039844695
21	0xb997298c	-0.0002883192
22	0x3c98a213	0.01863197
23	0x3d3fc041	0.046814207
24	0x3d8ee571	0.06977356
25	0x3dd35e58	0.10320729
26	0x3d633503	0.055470478
27	0xbdc1bafa	-0.09459491
28	0x3d481c39	0.04885504
29	0xbdb8f88c	-0.090317816
30	0xbb462b72	-0.0030238298
31	0x3e69ff00	0.22851181
32	0x3eebbe6f	0.46043727
33	0x3d81d1f8	0.063388765
34	0x3c12ec00	0.0089674
35	0x3dd0fa61	0.10204006
36	0xbe8d9562	-0.27653033
37	0x3d73bd75	0.059506852
38	0xbcadba4f	-0.021207003
39	0x3c1ffb7e	0.00976455
40	0xbd1f0b83	-0.038829338
41	0x3e306a65	0.17228086
42	0xbde132ce	-0.10996018
43	0xbe72a166	-0.23694381
44	0xbda85237	-0.08218806
45	0xbde9ae10	-0.11410153
46	0xbd63453f	-0.05548596
47	0xbdac3eb0	-0.08410394
48	0xbdf50239	-0.119633146
49	0x3d0945b8	0.033513755
50	0xbb605643	-0.0034231103
51	0xbdb11903	-0.08647349
52	0x3dcac696	0.099011585
53	0x3dd69dc2	0.10479309
54	0xba029726	-0.00049816293
55	0xbd43b03a	-0.047775485
56	0xbc88c686	-0.016696226
57	0xbcc7bdb9	-0.024382459
58	0xbc5ed98c	-0.013601672
59	0xbd76e51a	-0.060277082
60	0xbda85307	-0.08218961
61	0x3dd2ea6d	0.102986194
62	0x3c4e31cf	0.0125851175
63	0x3dac2a93	0.08406558
64	0x3db1a2cd	0.0867363
65	0xbc18a226	-0.009316003
66	0x3ee71fdb	0.4514149
67	0x3d8b6516	0.0680639
68	0x3f0597f8	0.5218501
69	0x3d1dfa46	0.038568757
70	0x3c9839b7	0.018582208
71	0x3dea7943	0.1144891
72	0xbbb97c50	-0.005660571
73	0x3c8e8af2	0.017400239
74	0xbc35701a	-0.01107409
75	0xbcb93e41	-0.022612693
76	0x3dca792d	0.09886394
77	0x3be9ef73	0.0071391403
78	0x3dbc9682	0.092083946
79	0x3a889189	0.001041935
80	0xbdb73392	-0.08945383
81	0xbe222fb7	-0.15838514
82	0x3dbbbda8	0.091670334
83	0x3d9487eb	0.07252487
84	0x3d819997	0.06328123
85	0xbe81beb8	-0.2534082
86	0x3d25fd98	0.04052505
87	0xbc9a71f1	-0.01885316
88	0x3db5ef15	0.08883492
89	0xbbb13b3c	-0.0054086726
90	0x3d25363d	0.04033493
91	0xbc595a86	-0.013266211
92	0xbd11d686	-0.035604976
93	0x3d51ae30	0.05119151
94	0x3e66a997	0.22525631
95	0x3dcd9dfe	0.100399
96	0x3d061f22	0.032744534
97	0xbbbe0fc7	-0.0058002206
98	0xbd1abec1	-0.037779573
99	0xbc153bbb	-0.009108479
100	0x3e584e2b	0.21123569
101	0x3ec0951f	0.3761377
102	0x3e83d69d	0.25749674
103	0x3d3dc4c8	0.046330243
104	0xbd9f38b2	-0.07774486
105	0x3a60be6e	0.0008573298
106	0x3e860074	0.2617222
107	0x3d531b26	0.051539563
108	0x3b453750	0.0030092783
109	0x3e5968f1	0.21231438
110	0x3d6a8c22	0.057262547
111	0x3e01474e	0.12624857
112	0x3c447f61	0.01199326
113	0x3d973133	0.07382431
114	0x3d76b646	0.060232423
115	0xbd426b21	-0.047465447
116	0x3e09d968	0.1346184
117	0x3e617001	0.22015382
118	0x3d723e68	0.059141546
119	0xbcb4c6b7	-0.02206741
120	0x3cc97d27	0.02459581
121	0xbc8e743b	-0.017389407
122	0xbe238d1a	-0.15971795
123	0x3e294e7a	0.16533843
124	0xbd6be4fb	-0.05759142
125	0xbd38eba0	-0.045146585
126	0x3bfb99d1	0.0076782485
127	0xbdea40fa	-0.114381745
128	0xbc1c4ae4	-0.00953934
129	0xbc895d6b	-0.016768178
130	0x3d78e14e	0.060761742
131	0x3ce33bfe	0.027738567
132	0xbd183434	-0.03715916
133	0xbdc61645	-0.09672216
134	0x3e7e202d	0.24816962
135	0x3e11f1e4	0.1425243
136	0x3e734d12	0.23759869
137	0xbd6af516	-0.05736264
138	0x3d3df1c0	0.04637313
139	0x3d1ee193	0.038789343
140	0xbd0cac6d	-0.034344126
141	0x3e918362	0.2842055
142	0xbda3403b	-0.07971235
143	0x3d0a1a23	0.033716332
144	0x3d2ba647	0.04190662
145	0xbdf43a53	-0.11925187
146	0xbcd85f50	-0.026412636
147	0xbd54cd37	-0.05195352
148	0xbdab8b54	-0.08376184
149	0x3d74bd9d	0.05975114
150	0xbda9b6f0	-0.08286846
151	0x3b68cc12	0.0035522026
152	0xbd3ed88c	-0.046593234
153	0xbe1b12ad	-0.15143843
154	0xbd1baee6	-0.038008593
155	0xbd2b23ab	-0.041782063
156	0xbcd5756e	-0.026056971
157	0x3d7f8f77	0.062392678
158	0xbc345667	-0.011006928
159	0xbe6dddb1	-0.232291
160	0x3dfbbd1e	0.122919306
161	0xbcc66490	-0.024217874
162	0xbbde3efb	-0.00678241
163	0xbdd3288b	-0.10310467
164	0x3ec0302b	0.3753675
165	0x3d33c7c7	0.043891694
166	0x3dc7c92d	0.09755168
167	0x3d8bc912	0.068254605
168	0x3c7c1857	0.015386662
169	0x3cb43460	0.02199763
170	0x3e076eaf	0.13225816
171	0x3e15e91b	0.14639704
172	0x3bcb27da	0.006199819
173	0x3e42195c	0.18954986
174	0x3b13bf40	0.0022544414
175	0xbe00e9b8	-0.12589157
176	0x3eba82fd	0.3642806
177	0x3c2510c2	0.010074796
178	0x3cd383ae	0.025819626
179	0xbdca1504	-0.0986729
180	0xbd6863ce	-0.056735806
181	0x3d153f00	0.036437035
182	0xba2ff322	-0.000671195
183	0x3d394f43	0.045241605
184	0x3df357a4	0.118819505
185	0x3c554a83	0.013018253
186	0x3f17b131	0.5925475
187	0x3d01b317	0.031664934
188	0x3d1c4a44	0.038156763
189	0x3ce15d1d	0.02751022
190	0xbcc71485	-0.024301777
191	0x3eb96961	0.3621321
192	0x3d8348c4	0.06410363
193	0xbc84488a	-0.01614787
194	0x3dd75c11	0.10515607
195	0xbd80f314	-0.062963635
196	0xbddef243	-0.108860515
197	0xbc44842a	-0.011994401
198	0xbdb0c3f2	-0.086311236
199	0xbb0cb8a8	-0.0021472368
200	0xbce0b43c	-0.027429692
201	0x3b53d423	0.0032322488
202	0xbc5bde88	-0.013419755
203	0x3d27eab0	0.0409953
204	0x3bdbc346	0.006706628
205	0x3e4c63b7	0.19959913
206	0xbc7935c9	-0.015210577
207	0x3d3d313b	0.046189528
208	0x3e151b1a	0.1456112
209	0x3e21d507	0.1580392
210	0x3d5f27c3	0.05448128
211	0xbdd6bd96	-0.104853794
212	0x3c00bff6	0.007858267
213	0x3e65d37b	0.22443955
214	0x3e603f06	0.21899042
215	0x3d9e068e	0.07716094
216	0x3dc8f9ef	0.09813296
217	0x3d7b39c5	0.06133439
218	0x3de29c21	0.110649355
219	0xb9251526	-0.00015743505
220	0x3e0a4f28	0.13506758
221	0x3ca8dae5	0.02061219
222	0x3caedeb8	0.021346435
223	0x3da175e4	0.07883814
224	0x3ca3e06b	0.020004472
225	0x3da1d43f	0.07901811
226	0x3dd940b0	0.10608041
227	0x3d7219c1	0.059106592
228	0xbe329622	-0.17440084
229	0xbe97d7fc	-0.2965697
230	0xbe8f2974	-0.27961314
231	0xbe1088c0	-0.14114666
232	0xbcbca109	-0.023026006
233	0x3c3b1d78	0.0114206
234	0x3daae11a	0.08343716
235	0xbe5ad89f	-0.21371697
236	0x3df57862	0.11985852
237	0x3e862e5e	0.2620725
238	0xbda965ba	-0.08271356
239	0xbda54689	-0.08070094
240	0xbc44fcd6	-0.012023171
241	0xbdac40da	-0.08410807
242	0x3d4530c0	0.048142195
243	0x3e67466b	0.22585456
244	0x3dacf4ad	0.08445106
245	0x3d1e94df	0.038716193
246	0xbcd77f59	-0.026305841
247	0xbc9e9b3b	-0.019361129
248	0x3cb360e9	0.021896796
249	0x3af7f878	0.0018918654
250	0xbdb9269f	-0.090405695
251	0x3e400907	0.18753444
252	0x3deacce7	0.11464863
253	0x3c83eb01	0.01610327
254	0x3d779e2b	0.060453575
255	0x3e369252	0.17829254

act_conv1.bias f4 [4]
0	0x3d76f44a	0.060291566
1	0xbbd438d7	-0.0064765024
2	0x3e17bdc0	0.14818478
3	0xbcbe2800	-0.023212433

act_fc1.weight f4 [81, 324]
0	0xbce62f15	-0.028098622
1	0xbbf88d76	-0.007585223
2	0x3d04070b	0.03223328
3	0xbc71720e	-0.014736665
4	0x3aa31212	0.0012441298
5	0x3cc968e5	0.02458615
6	0xbd33ea11	-0.043924395
7	0xbd273536	-0.04082223
8	0x3cb10400	0.021608353
9	0x3cec2ac0	0.028828979
10	0xbcd3fc1e	-0.025877055
11	0xbc92fef7	-0.017943842
12	0xbc148d15	-0.00906684
13	0xbd52f878	-0.05150649
14	0xbbc04e56	-0.0058687134
15	0xbcce46b8	-0.025180206
16	0xbd20a03d	-0.039215315
17	0x3cf220af	0.0295566
18	0x3c5ca510	0.013467088
19	0xbd93cca7	-0.07216769
20	0xbcbdbaab	-0.0231603
21	0x3d3326c8	0.043738157
22	0xbcc866c2	-0.024463061
23	0x3d047680	0.032339573
24	0xbc7a001e	-0.015258817
25	0xbd1efc40	-0.038814783
26	0x3c6ac788	0.0143297985
27	0x3d3bcb3c	0.045848116
28	0xbcdee455	-0.027208487
29	0xbdc57dae	-0.09643112
30	0xbd1b5c29	-0.037929688
31	0xbc0a55a5	-0.008443271
32	0x3cd7b5eb	0.026331862
33	0xbdc71b81	-0.09722043
34	0x3c995d12	0.018721137
35	0x3cbac437	0.02279864
36	0xbc1d506e	-0.009601695
37	0xbb486009	-0.003057482
38	0xbd72be7b	-0.059263688
39	0xbda03254	-0.07822099
40	0xbd8b326e	-0.06796728
41	0x3ce10f1b	0.027473023
42	0xbd4dbd43	-0.050229322
43	0xbd233f2a	-0.03985516
44	0xbd01d4ae	-0.031696968
45	0x3cc8373e	0.024440404
46	0x3c82a690	0.015948564
47	0xbe65bfdd	-0.22436471
48	0xbd772e90	-0.06034714
49	0x3981b79e	0.00024741603
50	0xbd280941	-0.04102445
51	0x3c0cd4a3	0.008595618
52	0xbca4015c	-0.02002018
53	0xbc1b2e15	-0.009471436
54	0x3bb92286	0.0056498675
55	0xbea94a59	-0.33064535
56	0xbd6702bd	-0.056399096
57	0x3e0469be	0.12930962
58	0x3b154aba	0.0022780136
59	0xbc838274	-0.016053416
60	0xbc1490b7	-0.009067706
61	0x3c0a3953	0.008436519
62	0x3d0b4340	0.03399968
63	0xbd70303c	-0.05863975
64	0x3e070242	0.13184455
65	0x3e478fb2	0.19488409
66	0x3d2b5035	0.04182454
67	0xbd9b70cf	-0.07589876
68	0xbbde50a1	-0.006784514
69	0xbb1e218a	-0.0024128878
70	0xb962b94d	-0.0002162207
71	0xbd09361e	-0.033498876
72	0x3c71fb13	0.014769333
73	0xbdc1a50b	-0.094553076
74	0x3d1467ad	0.036231685
75	0xbd88219b	-0.06647035
76	0xbd8a87ad	-0.06764159
77	0x3bf04c31	0.0073333015
78	0x3c9128e7	0.0177197
79	0xbb9f071f	-0.004853144
80	0xbaecf531	-0.0018078444
81	0xbbaf16ed	-0.005343309
82	0xbd16acac	-0.036785766
83	0xbcf1cc13	-0.029516255
84	0xbcc457ac	-0.023967586
85	0xbc7bc1d7	-0.015366039
86	0x3b989d65	0.0046574348
87	0xbc68fc16	-0.014220258
88	0xbd70a1f7	-0.05874821
89	0xbc8f8c4a	-0.01752295
90	0xbc668f23	-0.014072212
91	0xbd0c5972	-0.03426499
92	0xbc6af7a6	-0.014341271
93	0x3c707d24	0.014678273
94	0xbc9dbd9d	-0.019255454
95	0x3b079bfb	0.0020692337
96	0x3d4b8acc	0.049692914
97	0xbc507fe2	-0.012725802
98	0xbca04747	-0.019565238
99	0xbbdbac03	-0.006703855
100	0x3c9e27ec	0.019306146
101	0xbc13d215	-0.009022255
102	0xbd07f56f	-0.033193048
103	0x3c87b2ab	0.016564688
104	0x3d02bea0	0.031920075
105	0x3cdd41eb	0.027008971
106	0x3c754c13	0.014971751
107	0x3af332ab	0.0018554529
108	0xbb8322be	-0.0040019443
109	0x3c609931	0.013708399
110	0x3ccbd415	0.024881402
111	0x3d8a7d49	0.067621775
112	0x3db68ffb	0.08914181
113	0xbb51b647	-0.0031999515
114	0x3d8e7974	0.06956759
115	0x3c1df933	0.009641933
116	0x3c8f06ac	0.017459236
117	0xbc96a999	-0.018391417
118	0x395a370f	0.00020810611
119	0x3d3c5dec	0.04598801
120	0x3d8db4ee	0.06919275
121	0x3be0f57f	0.006865203
122	0x3cd93292	0.026513372
123	0x3cc55f22	0.024093214
124	0xbb4e2547	-0.0031455324
125	0xbb245b60	-0.0025078878
126	0x3da8f273	0.082493685
127	0x3cb0d7e0	0.021587312
128	0x3d92995b	0.071581565
129	0x3da37f9f	0.07983326
130	0x3c92612b	0.017868599
131	0x3d23e5eb	0.04001419
132	0x3c24df97	0.010063074
133	0xbc017420	-0.0079012215
134	0xbc9b5cb9	-0.018965112
135	0x3caeee79	0.021353947
136	0x3d83f8f6	0.0644397
137	0x3e5becc1	0.21477033
138	0xbd202cce	-0.03910523
139	0x3a43ca98	0.00074688485
140	0xbca19de4	-0.019728608
141	0x3cd23358	0.025659248
142	0xbcfe63a0	-0.031053364
143	0xbc5dbc4a	-0.013533661
144	0xbf09dd11	-0.53852946
145	0x3e31d54a	0.1736652
146	0x3bd747e6	0.0065698503
147	0x3d2e2d0a	0.04252342
148	0xbb510a3f	-0.0031896976
149	0x3d4f9131	0.050675575
150	0xbc787ebc	-0.015166935
151	0xbc974a30	-0.018467993
152	0xbc80b597	-0.015711589
153	0x3dadaa1f	0.08479714
154	0x3da31b24	0.07964161
155	0x3c229ec7	0.009925551
156	0xbd892ae0	-0.06697631
157	0xbd1b4562	-0.037907965
158	0x3d127767	0.035758402
159	0x3cdcd7b7	0.02695833
160	0x3c8d959b	0.017283252
161	0xbce7345e	-0.028223213
162	0xbc8d41a3	-0.017243212
163	0xbcbee1bd	-0.023301
164	0xbd3b89b5	-0.045785625
165	0xbd170a2c	-0.036874935
166	0xbd2f4707	-0.042792346
167	0xbda36532	-0.07978286
168	0xbd75719c	-0.0599228
169	0xbd2378d6	-0.03991016
170	0xbcb6eebb	-0.022330632
171	0x3c2b5bed	0.0104589285
172	0xbb8b66da	-0.004254204
173	0xbd07bf95	-0.03314169
174	0xbd4986ce	-0.049200825
175	0xbd7d39a2	-0.06182254
176	0xbd4f3c21	-0.050594453
177	0xbdab28d7	-0.08357399
178	0xbd376345	-0.044772405
179	0xbbedc378	-0.0072559677
180	0x3c743c17	0.014906905
181	0xbd2c5186	-0.042069934
182	0xbd4079e2	-0.046991237
183	0xbd1ccad1	-0.03827936
184	0xbd355a1b	-0.044275384
185	0x3c4de3a4	0.012566481
186	0xbd8f9c5d	-0.07012246
187	0xbda30bfb	-0.079612695
188	0xbdc646a6	-0.09681444
189	0xbcc4af24	-0.024009295
190	0xbd51236f	-0.051059183
191	0xbd969ee3	-0.07354524
192	0xbd04a363	-0.03238238
193	0xbd402e63	-0.046919238
194	0xbd9c7ac3	-0.076406024
195	0xbd89738e	-0.067114934
196	0xbd632bd5	-0.055461723
197	0xbda243e1	-0.07923103
198	0xbd0d758d	-0.034535933
199	0xbd917790	-0.07102883
200	0xbd4af54b	-0.049550336
201	0x3d41fc05	0.047359485
202	0xbca90c62	-0.020635787
203	0xbd945df3	-0.07244482
204	0xbd240418	-0.040042967
205	0xbdab8633	-0.08375206
206	0xbc9e1113	-0.019295251
207	0x3dea0f6f	0.11428725
208	0xbdd2e65f	-0.10297846
209	0x3d90712a	0.07052834
210	0xbe0ef6c0	-0.13961315
211	0xbd971296	-0.07376592
212	0xbd7d078f	-0.061774787
213	0xbd89ac1d	-0.06722281
214	0xbd43c784	-0.047797695
215	0xbd1a8a5b	-0.037729602
216	0xbdef5c31	-0.11687506
217	0x3c9cfb7e	0.01916289
218	0xbe5d4a35	-0.21610339
219	0xbbaeb1a1	-0.0053312336
220	0xbd33b123	-0.043870103
221	0xbd8ee5a2	-0.06977393
222	0xbd82c14e	-0.06384526
223	0xbd556c02	-0.052104957
224	0xbd033876	-0.032036267
225	0xbf6244ac	-0.88386035
226	0xbdaa480e	-0.083145246
227	0x3db0fbd0	0.086417794
228	0xbd6c6879	-0.05771682
229	0xbd4b2a20	-0.04960072
230	0xbd098b2f	-0.03358
231	0xbdaa1702	-0.0830517
232	0xbd0708ca	-0.032967366
233	0xbd25ad12	-0.040448256
234	0x3c8b90cc	0.017036818
235	0x3d89d581	0.06730176
236	0x3d2b99b9	0.04189465
237	0xbbee1a71	-0.0072663357
238	0xbc9d994c	-0.019238137
239	0xbc842d14	-0.016134776
240	0x3c94e896	0.018177312
241	0xbbc5cdb1	-0.006036483
242	0xbbedfc07	-0.00726271
243	0xbd0eb1c4	-0.0348375
244	0x3bb18a6d	0.005418113
245	0xbba5ad6a	-0.005056073
246	0xbbc662ea	-0.006054272
247	0x3c99d3ff	0.018777845
248	0x3b4108e2	0.0029454757
249	0x3d20f656	0.039297424
250	0x3d3e5fef	0.04647821
251	0x3cb0a679	0.021563755
252	0x3cce4cdc	0.025183134
253	0x3d08d4c3	0.03340603
254	0x3ca3cc25	0.019994805
255	0x3cc531d1	0.024071606

act_fc1.bias f4 [81]
0	0x3c87f071	0.016594144
1	0xbd745697	-0.05965289
2	0xbdb4f33c	-0.08835456
3	0xbd6162c8	-0.055025846
4	0xbcebd062	-0.028785888
5	0xbd5d300a	-0.05400089
6	0xbd975d52	-0.07390846
7	0xbd13d8a2	-0.03609527
8	0x3c022c08	0.007945068
9	0xbd556bca	-0.05210475
10	0xbc346120	-0.0110094845
11	0xbdbbedaa	-0.0917619
12	0x3ddd5e4d	0.10809002
13	0xbc828821	-0.015934052
14	0x3dee40a1	0.11633421
15	0xbd7e7d4c	-0.06213121
16	0xbcbe8037	-0.023254497
17	0xbcc05bf7	-0.023481352
18	0xbda2238b	-0.079169355
19	0xbda7d295	-0.08194462
20	0x3df44415	0.11927048
21	0x3d8089c0	0.06276274
22	0x3db05265	0.086094655
23	0x3d0c3466	0.03422966
24	0x3dab6eed	0.08370767
25	0xbdf9009c	-0.12158319
26	0xbd57ef85	-0.052718658
27	0xbcceb699	-0.025233554
28	0x3dbf67ca	0.09345968
29	0x3d0731c3	0.03300644
30	0x3d7fc623	0.062444817
31	0x3d22ba75	0.0397286
32	0x3d087539	0.033314917
33	0x3bd16b09	0.0063909334
34	0x3dca4fc1	0.09878493
35	0xbd16827a	-0.036745526
36	0xbc33c007	-0.010971076
37	0xbd67d82b	-0.05660264
38	0x3dd8dc62	0.1058891
39	0x3cb5492b	0.022129616
40	0x3c963b55	0.018338839
41	0x3d5f54b3	0.054524135
42	0x3dd5854d	0.10425816
43	0xbd8334f5	-0.06406585
44	0x3b7042c7	0.0036660896
45	0xbd58653f	-0.05283093
46	0x3db0eb01	0.086385734
47	0xbaebe493	-0.0017997198
48	0x3d3218d6	0.043480717
49	0x3d36ba75	0.044611413
50	0xbaafd269	-0.0013414148
51	0x3d6948e7	0.05695429
52	0x3d47710f	0.048691805
53	0xbd2cbe92	-0.04217393
54	0xbdb59e2a	-0.08868058
55	0xbdaae7af	-0.083449714
56	0x3ddc02ed	0.107427455
57	0x3d4dda54	0.050257042
58	0x3df3e5fd	0.11909101
59	0x3db1ed79	0.086878724
60	0x3e05d6ee	0.1307027
61	0xbd924241	-0.07141543
62	0xbd7f3a33	-0.062311362
63	0xbd599e29	-0.05312935
64	0xbbfb7a62	-0.0076745013
65	0xbdd09c85	-0.10186104
66	0x3da3412d	0.07971416
67	0xbd7d603e	-0.06185936
68	0x3d9c16d1	0.076215394
69	0xbdb43dbd	-0.08800838
70	0xbc0547a6	-0.008134758
71	0xbce50539	-0.027956592
72	0x3ba5cfe4	0.005060183
73	0xbca09a7f	-0.01960492
74	0xbd89ef3e	-0.06735085
75	0xbd3d3d3c	-0.046200976
76	0x3c17d6c9	0.009267517
77	0xbd2b88da	-0.04187856
78	0xbcb79dac	-0.022414051
79	0xbca28965	-0.019840905
80	0x3c3c26d8	0.01148387

val_conv1.weight f4 [2, 128, 1, 1]
0	0x3e787838	0.2426461
1	0xbe1bde4b	-0.15221517
2	0xbe285b39	-0.16441049
3	0xbd692fb2	-0.05693025
4	0x3e92c0ef	0.28662822
5	0xbd18261a	-0.03714571
6	0x3d05fc39	0.03271124
7	0x3e3d195a	0.18466702
8	0x3e66f4bf	0.225543
9	0x3ea09016	0.3135993
10	0xbefaf6e7	-0.49016497
11	0xbda3b024	-0.079925805
12	0xbea2a2eb	-0.31764922
13	0xbd2d851c	-0.04236327
14	0x3ec7bfbd	0.39013472
15	0xbd89abed	-0.06722245
16	0xbe32ab19	-0.17448081
17	0x3e0b7f36	0.13622746
18	0x3c81ab11	0.015828641
19	0x3e38facd	0.18064423
20	0xbe8a5893	-0.27020702
21	0xbe58c12b	-0.21167438
22	0x3dfbc1a1	0.12292791
23	0xbcd35433	-0.025796985
24	0xbdb6be4f	-0.08923017
25	0xbec0013c	-0.37500942
26	0x3e01625d	0.12635179
27	0x3db60fa7	0.08889704
28	0xbc12f5d9	-0.008969747
29	0x3defeaed	0.117147304
30	0xbe1391be	-0.14411065
31	0x3ded70c8	0.11593777
32	0x3ca70480	0.020387888
33	0x3e3dcc34	0.18534929
34	0x3e0f6708	0.14004147
35	0x3e504d47	0.20341979
36	0x3d90c1b2	0.070681944
37	0xbe4be9bc	-0.19913381
38	0x3e6e739f	0.23286293
39	0xbe6ebc41	-0.23314
40	0xbe654557	-0.22389732
41	0x3e832286	0.25612277
42	0xbdd4fcf4	-0.103998095
43	0x3bccb287	0.006246868
44	0xbe911698	-0.2833755
45	0x3e3c4b95	0.18388207
46	0xbf01c190	-0.5068598
47	0x3dcf7bed	0.10131059
48	0xbcad5409	-0.021158235
49	0xbe89eb34	-0.26937258
50	0xbec01b97	-0.3752105
51	0x3e8cbe9b	0.2748917
52	0xbdc90bb6	-0.09816687
53	0xbc035178	-0.008015029
54	0x3ecd1fcc	0.40063322
55	0x3ea2e959	0.31818655
56	0x3e656a35	0.22403796
57	0x3ed9ac5a	0.42514306
58	0x3c2b404c	0.010452341
59	0x3e3a82ce	0.1821396
60	0x3ea4f8a1	0.3222094
61	0xbd2fa4cb	-0.04288177
62	0xbe7f4578	-0.24928844
63	0xbd05469e	-0.03253805
64	0x3bfa8de1	0.007646308
65	0x3d796a9a	0.06089268
66	0x3e5a4b78	0.21317852
67	0x3e0716ef	0.13192342
68	0x3ede1ec8	0.4338286
69	0xbe2c67a1	-0.16836406
70	0xbe79bec2	-0.24389175
71	0xbe41f196	-0.18939814
72	0xbe8b5e88	-0.2722056
73	0x3e63db64	0.2225166
74	0xbe113932	-0.14181975
75	0x3ecec190	0.4038205
76	0xbe90f774	-0.28313792
77	0xbdb217d1	-0.08695949
78	0x3e14f0b9	0.14544953
79	0x3e22a26a	0.15882269
80	0x3bf687e9	0.007523526
81	0x3e633a20	0.22190142
82	0xbea7ee71	-0.32799104
83	0x3df9e3ed	0.122016765
84	0x3e435b02	0.19077685
85	0x3d43de93	0.047819685
86	0xbc0606e5	-0.008180355
87	0xbe3ebc85	-0.18626602
88	0x3c3c40ba	0.011490041
89	0xbe580dab	-0.21098964
90	0xbe7e65f1	-0.24843575
91	0x3e07388a	0.13205162
92	0x3dcecb63	0.10097387
93	0xbeb179d3	-0.34663257
94	0x3e23927b	0.15973847
95	0xbdd403e0	-0.103523016
96	0x3e978c5a	0.29599267
97	0x3c615cab	0.013755004
98	0x3e2509ee	0.16117069
99	0xbdf6469a	-0.12025185
100	0x3d5d0506	0.05395987
101	0x3bb90c64	0.005647229
102	0x3999ab90	0.00029310258
103	0xbc37a92e	-0.011209769
104	0xbda40d1a	-0.080103114
105	0xbd2812b4	-0.04103346
106	0x3d9c4114	0.076296
107	0x396df6fa	0.00022694087
108	0xbe02f189	-0.12787451
109	0xbe0fd5ce	-0.14046404
110	0x3d2d26f2	0.04227347
111	0x3d8deb27	0.069296174
112	0xbe9c0602	-0.30473334
113	0x3ba51e08	0.0050389804
114	0x3db1425b	0.086552344
115	0x3caad4aa	0.02085336
116	0x3c287f2e	0.010284228
117	0x3e72ced0	0.23711705
118	0xbdab78e8	-0.083726704
119	0x3ea52669	0.32255867
120	0x3e7c8c1a	0.2466282
121	0xbedc217e	-0.42994303
122	0x3e538f6b	0.20660178
123	0x3c13ac2a	0.009013215
124	0x3ebe4ad1	0.37166455
125	0xb96dbc1c	-0.00022672158
126	0x3de6720d	0.11252222
127	0x3dabf1fa	0.08395763
128	0x3e4ac816	0.19802889
129	0xbe6a036c	-0.22852868
130	0x3e2cdc33	0.16880874
131	0xbeee2214	-0.46510375
132	0x3ed2ac8a	0.41147262
133	0xbe139a67	-0.14414369
134	0x3de1167a	0.10990615
135	0xbee41fcd	-0.44555512
136	0xbdd3960e	-0.10331355
137	0x3e82eb47	0.25570127
138	0x3e9e4a5a	0.309161
139	0xbed0a40d	-0.4075016
140	0x3e1905b0	0.14943576
141	0x3d33ca96	0.043894373
142	0xbd2eca7c	-0.042673573
143	0x3e9debc1	0.30843928
144	0x3e8b264e	0.27177662
145	0xbe76ec62	-0.2411361
146	0x3d06feea	0.03295795
147	0x3dd09fef	0.10186755
148	0x3e11922a	0.14215913
149	0xbe1b8a59	-0.15189494
150	0xbe8f8642	-0.28032118
151	0xbebe2967	-0.37140962
152	0xbe0a484e	-0.13504145
153	0xbbcbf366	-0.0062240837
154	0x3e827519	0.25479963
155	0xbf00c585	-0.5030139
156	0x3e9bf4c5	0.30460182
157	0xbf1cc45a	-0.6123711
158	0xbf143bac	-0.5790355
159	0x3de7a7be	0.11311291
160	0x3d0535b5	0.032521922
161	0xbeba14a8	-0.36343884
162	0x3e25d5a6	0.16194782
163	0x3e062af0	0.13102317
164	0x3d985ea0	0.07439923
165	0x3da83799	0.082137294
166	0xbeca04d9	-0.39456823
167	0xbba79b93	-0.0051149814
168	0x3ed2bc9e	0.41159528
169	0xbea41c05	-0.32052627
170	0x3eb0fdcc	0.34568632
171	0xbce17523	-0.027521675
172	0x3bce3d5f	0.006293937
173	0x3e149ec4	0.1451369
174	0x3e39fede	0.1816363
175	0x3e3c4247	0.18384658
176	0xbd83e827	-0.06440764
177	0x3e77ab60	0.24186468
178	0xbd4d895b	-0.05017982
179	0xbdcd7829	-0.10032684
180	0x3e7585cb	0.23976819
181	0xbf07bfc3	-0.5302698
182	0x3e9813aa	0.29702502
183	0xbe796eae	-0.24358627
184	0xbdf4bf48	-0.119505465
185	0xbe935570	-0.2877612
186	0xbd54e868	-0.051979452
187	0xbf100717	-0.5626082
188	0x3efc14b1	0.49234536
189	0x3ecbab07	0.3977892
190	0xbe3203df	-0.17384289
191	0xbdc08874	-0.09401026
192	0xbe8f4b53	-0.27987155
193	0x3eb481f3	0.35255393
194	0xbc538b0a	-0.012911567
195	0x3eb865e3	0.36015233
196	0x3d34ae94	0.044111803
197	0xbebfb692	-0.37443978
198	0x3e11de76	0.14245018
199	0xbe45e928	-0.19327223
200	0xbe029d64	-0.12755352
201	0xbe8a71d4	-0.2703997
202	0xbf1cc34e	-0.6123551
203	0x3e939463	0.28824148
204	0x3e7b2a65	0.24527891
205	0x3e0a38bd	0.13498206
206	0x3dcf9948	0.10136658
207	0xbeec6f2d	-0.4617857
208	0x3e32c65a	0.17458478
209	0xbdac0f1e	-0.08401321
210	0xbcfb4a8e	-0.030675199
211	0xbe1cc998	-0.15311277
212	0xbf03f27b	-0.5154187
213	0x3c93058c	0.01794698
214	0xbd1e35fd	-0.038625706
215	0x3dfc449b	0.12317773
216	0x3ba3735b	0.0049881167
217	0x3d98c8c4	0.07460168
218	0xbe45344d	-0.19258232
219	0x3e3a753c	0.18208784
220	0x3e37e1d4	0.1795724
221	0xbdcb909f	-0.09939694
222	0x3e178b9c	0.1479935
223	0x3ee0c235	0.43898168
224	0x3e7da477	0.2476977
225	0x3b87e155	0.0041467347
226	0xbe71cbc8	-0.23612893
227	0xbc834987	-0.016026272
228	0xbf02f6b4	-0.5115769
229	0xbd5b10d2	-0.053482838
230	0x3da95fde	0.08270238
231	0xbdcce9fd	-0.10005567
232	0x3efcd403	0.49380502
233	0xbef96c3d	-0.48715392
234	0x3d00f78a	0.03148607
235	0xbd7cda14	-0.061731413
236	0xbe03c421	-0.12867786
237	0x3ce31217	0.027718587
238	0xbede9655	-0.4347407
239	0xbe686bf9	-0.22697438
240	0xbe91c206	-0.2846834
241	0xbe04a185	-0.1295224
242	0x3e6e3c38	0.23265159
243	0x3d9a353f	0.07529687
244	0x3bd4b5d4	0.006491402
245	0x3e9f98c9	0.31171253
246	0x3f222ba1	0.6334782
247	0xbeaa34d2	-0.33243424
248	0xbd36ffde	-0.044677608
249	0x3e86e78b	0.26348528
250	0xbef14a3d	-0.47126952
251	0x39057a8b	0.00012729519
252	0xbe920560	-0.28519726
253	0xbedad968	-0.42743993
254	0x3ed3269e	0.412404
255	0x3dedacdd	0.11605237

val_conv1.bias f4 [2]
0	0xbc3fabd9	-0.0116986865
1	0x3d4a6841	0.04941583
