best_policy66.model (torch, 422077 bytes, 15 tensors)

conv1.weight f4 [32, 4, 3, 3]
-0.13781811 0.48884916 0.2967942 -0.23328963 0.42804545 0.1562617 -0.2625429 0.42146242
-0.25834283 -0.24762446 -0.17824993 -0.1198437 0.027668908 -0.008273835 -0.21911205 0.19430086
-0.70447636 0.27516636 -0.04423881 0.088202745 0.050622836 0.1612199 0.025739934 0.015437652
-0.07592729 -0.09736471 0.07535325 -0.0075867153 0.15544339 -0.03687816 -0.09713183 0.11930781
-0.03377438 0.014195293 -0.03445274 -0.1408156 0.105813585 -0.19355306 -0.13385147 -0.010759041
-0.23084679 0.033237886 -0.048655897 0.021168841 0.60072917 0.09365532 0.24206878 -0.50584614
0.34913468 0.25323918 0.44367483 -0.03675571 -0.47620353 -0.08131005 -0.025969803 0.060145505
-0.10911034 0.07023218 0.13249916 -0.06108297 0.10227209 0.08871069 0.062133584 -0.03200262
-0.02765657 0.114915274 -0.04421711 0.03398738 -0.13051043 0.16479589 -0.03236613 0.10207263
0.49074826 -0.102747664 -0.33123332 -0.3141007 0.21646869 -0.07225885 0.0753708 -0.21550597
0.5869488 -0.8108903 0.41730222 0.27275229 0.17091852 -0.36756063 -0.18247344 0.24164513
-0.17773591 -0.1948878 0.06217172 -0.07297196 0.091329955 0.00091798947 0.073370814 0.07955408
0.059074514 0.20368588 -0.02461229 -0.114579976 0.14245215 0.011678524 0.051193707 0.012066464
0.14780919 -0.028380707 -0.03167065 -0.038929503 0.31422493 0.0021316619 0.14575621 0.082742825
0.027497122 -0.1284418 -0.45663345 0.3217965 0.36614653 0.06831203 -0.25324684 0.374873
-0.117360875 -0.19004457 -0.023725523 0.51732755 0.0693829 -0.23692812 -0.13744196 0.017124923
-0.07048101 0.011797516 0.068458214 0.022792961 -0.04927312 -0.02051747 0.05463398 0.005269023
-0.10746919 -0.091779895 0.0311273 0.01891111 -0.1343926 0.060480684 0.10614611 0.012278169
0.3452737 -0.48366427 -0.070223756 0.4846168 0.07235385 0.36962223 -0.13873266 0.031717632
-0.26869142 -0.23137921 -0.28664377 0.092225306 -0.32476723 0.09871592 -0.1330054 -0.17496397
-0.04346736 -0.12370858 -0.12586547 0.12305244 0.091322444 -0.074958704 0.01492617 0.011494773
-0.08996893 -0.03211855 -0.087503895 0.14639121 0.16302118 -0.13329394 0.016241333 0.13157293
-0.029611629 0.01158041 0.1445682 -0.11157762 -0.26195443 0.07957689 -0.23209192 0.100979194
-0.14228779 -0.28015807 -0.012228582 -0.42764157 0.1512135 0.099181525 0.12212874 -0.44879124
0.20198394 -0.112110145 0.13353981 0.25077876 -0.4504864 0.23932096 -0.14243384 0.053433742
-0.10740349 0.004820859 -0.0150770005 0.08228335 0.17074105 -0.31084302 -0.13060507 -0.06529384
0.120257236 -0.11617951 0.059568893 0.1318933 0.026910424 -0.00086111657 -0.06818888 -0.16460964
-0.14856118 0.45701903 -0.2165491 0.15891661 0.06450015 0.3223519 -0.18228677 0.28515223
-0.30573604 0.3326092 0.10713474 0.5763495 -0.0015451997 0.12488982 0.07502456 -0.022020563
-0.105292335 0.3711229 -0.07573094 0.037759077 -0.16576578 0.016174482 0.029636862 -0.022500994
0.11957509 0.03362669 -0.15376902 -0.049728394 0.14431553 0.13377424 -0.042410016 -0.035166956
-0.13274227 -0.11274877 0.04990135 -0.054020423 0.26211214 -0.11998153 -0.18077865 0.0800551
00000000: 3120 0dbe 704a fa3e 69f5 973e 7ae3 6ebe
00000010: c628 db3e 1103 203e 066c 86be ecc9 d73e
00000020: 8345 84be 4491 7dbe 2687 36be 9d70 f5bd
00000030: e8a9 e23c fb8e 07bc e95e 60be cef6 463e
00000040: 9058 34bf 9be2 8c3e c133 35bd a4a3 b43d
00000050: e459 4f3d d416 253e 8edc d23c 35ee 7c3c
00000060: c47f 9bbd 2667 c7bd ce52 9a3d fb99 f8bb
00000070: 8d2c 1f3e 8e0d 17bd 0eed c6bd a757 f43d
00000080: 0157 0abd 6093 683c 511e 0dbd f731 10be
00000090: cbb4 d83d c632 46be 5c10 09be b046 30bc
000000a0: 1a63 6cbe 7324 083d 684b 47bd 476a ad3c
000000b0: 63c9 193f 5cce bf3d e1e0 773e 227f 01bf
000000c0: c8c1 b23e 91a8 813e 5929 e33e 288d 16bd
000000d0: f3d0 f3be e285 a6bd a0be d4bc 225b 763d
000000e0: 3e75 dfbd e4d5 8f3d dcad 073e 2332 7abd
000000f0: 0874 d13d f3ad b53d c97f 7e3d 2e15 03bd
00000100: 0890 e2bc b358 eb3d 001d 35bd 5a36 0b3d
00000110: 87a4 05be 41c0 283e 5992 04bd 740b d13d
00000120: 5b43 fb3e 5e6d d2bd 6a97 a9be cfd1 a0be
00000130: f8a9 5d3e 73fc 93bd 025c 9a3d 99ad 5cbe
00000140: 4742 163f 8296 4fbf a3a8 d53e 30a6 8b3e
00000150: 4405 2f3e e830 bcbe 51da 3abe d271 773e
00000160: 6700 36be ab90 47be c6a7 7e3d 5372 95bd
00000170: 330b bb3d 3ba5 703a 7043 963d 40ed a23d
00000180: 1ef8 713d 0893 503e b79f c9bc e8a8 eabd
00000190: fade 113e 4857 3f3c 7eb0 513d 6bb2 453c
000001a0: 4b5b 173e a87e e8bc 15b9 01bd 8b74 1fbd
000001b0: 17e2 a03e 5ab3 0b3b 1e41 153e 1275 a93d
000001c0: a541 e13c 3f86 03be dccb e9be 83c2 a43e
000001d0: 8f77 bb3e 2de7 8b3d 92a9 81be 5bef bf3e
000001e0: e65a f0bd 0b9b 42be 075c c2bc 946f 043f
000001f0: 9f18 8e3d 499d 72be 96bd 0cbe 9149 8c3c
00000200: 5958 90bd 5e4a 413c d233 8c3d 4eb8 ba3c
00000210: 9cd2 49bd 4114 a8bc e1c7 5f3d c5a7 ac3b
00000220: cf18 dcbd 19f7 bbbd aefe fe3c 79eb 9a3c
00000230: 379e 09be 98ba 773d 2263 d93d 602a 493c
00000240: b7c7 b03e d8a2 f7be 79d1 8fbd b11f f83e
00000250: 412e 943d 203f bd3e ef0f 0ebe 59ea 013d
00000260: ec91 89be acee 6cbe f9c2 92be 9fe0 bc3d
00000270: e447 a6be 922b ca3d 9132 08be c129 33be
00000280: d50a 32bd ed5a fdbd e1e2 00be eb02 fc3d
00000290: 4307 bb3d f383 99bd e58c 743c 9354 3c3c
000002a0: a141 b8bd be8e 03bd 3e35 b3bd 94e7 153e
000002b0: 06ef 263e 357e 08be 8b0c 853c 0ebb 063e
000002c0: 1694 f2bc c3bb 3d3c b009 143e cf82 e4bd
000002d0: e41e 86be 35f9 a23d 81a9 6dbe 2ece ce3d
000002e0: e4b3 11be e170 8fbe 645a 48bc d6f3 dabe
000002f0: b6d7 1a3e af1f cb3d a21e fa3d f7c7 e5be
00000300: e1d4 4e3e 019a e5bd a9be 083e 1366 803e
00000310: 27a6 e6be 8e10 753e 2dda 11be 57dd 5a3d
00000320: 5cf6 dbbd 4cf8 9d3b 8605 77bc 2c84 a83d
00000330: bed6 2e3e d126 9fbe 56bd 05be c7b8 85bd
00000340: 6d49 f63d 86ef edbd 83fe 733d 0a0f 073e
00000350: 4073 dc3c 8ebc 61ba 9da6 8bbd 6e8f 28be
00000360: 6c20 18be 66fe e93e 0cbf 5dbe 09bb 223e
00000370: a818 843d 4f0b a53e 62a9 3abe 79ff 913e
00000380: 6f89 9cbe c14b aa3e 7569 db3d a48b 133f
00000390: 4c88 caba 3cc6 ff3d 7aa6 993d 7864 b4bc
000003a0: 82a3 d7bd d203 be3e d318 9bbd 43a9 1a3d
000003b0: 81be 29be 5980 843c 01c9 f23c 0154 b8bc
000003c0: c9e3 f43d 24bc 093d a075 1dbe 00b0 4bbd
000003d0: 73c7 133e 1dfc 083e 20b6 2dbd 3a0b 10bd
000003e0: 97ed 07be d4e8 e6bd 5c65 4c3d 8544 5dbd
000003f0: 9033 863e e0b8 f5bd 0a1e 39be eef3 a33d

conv1.bias f4 [32]
-0.09986766 -0.06931407 -0.12992084 -0.07659583 -0.035393097 0.1390071 -0.11497643 0.015015295
-0.017578892 0.27196202 -0.11519254 -0.22269398 0.037314765 -0.028497772 -0.11707535 -0.032361057
0.10968523 -0.067748554 0.10236815 -0.0448897 -0.13852952 -0.19339153 -0.18215 0.093815334
0.0150287 0.07256057 -0.003228123 -0.23632286 0.09247512 -0.112353064 -0.1742955 -0.12527494
00000000: 6a87 ccbd 89f4 8dbd f809 05be 46de 9cbd
00000010: 5af8 10bd e157 0e3e c378 ebbd b602 763c
00000020: 9c01 90bc 9b3e 8b3e 11ea ebbd e409 64be
00000030: 5ed7 183d 2974 e9bc 33c5 efbd 078d 04bd
00000040: a6a2 e03d c1bf 8abd 65a6 d13d 43de 37bd
00000050: afda 0dbe 6e08 46be 8885 3abe 4122 c03d
00000060: f03a 763c a39a 943d eb8e 53bb 9ffe 71be
00000070: 9963 bd3d 5d19 e6bd 857a 32be 1348 00be

conv2.weight f4 [64, 32, 3, 3]
-0.14650811 0.44361195 -0.01584052 0.06766228 0.33441028 0.17185667 -0.057922788 0.087736994
-0.065118626 0.21261406 0.12093266 -0.102296665 0.1890976 -0.18807766 -0.244437 0.012814306
-0.053321388 -0.031319216 0.2240713 -0.4588623 -0.16266233 0.1463049 -0.06393538 0.017535776
-0.020007584 -0.11085634 0.024244986 0.07712282 0.060157605 -0.39097285 -0.04294724 0.24655893
-0.067383766 0.1162847 -0.0117776925 -0.13327613 0.066725574 0.110750794 0.1509133 0.0339998
-0.028021652 0.020234028 -0.014346321 -0.11220669 -0.11204623 0.09031417 -0.04117196 -0.084989876
-0.28207156 0.068050735 -0.0070826216 0.030080955 -0.13688812 -0.042089477 -0.19270599 0.026670666
-0.18588626 -0.3021328 0.0897698 -0.14833938 -0.1398 0.19011217 0.1265771 -0.25534883
-0.021846723 0.024077332 -0.029235393 -0.11183301 -0.016478892 -0.11243921 -0.08991401 0.1475572
-0.060538884 -0.01868128 0.13239661 0.08794476 -0.15682575 0.09228417 -0.22684917 -0.10914024
0.073808 -0.24546458 0.37365896 -0.006607329 -0.15347333 -0.1114395 -0.026980232 -0.027369175
-0.06401087 0.16295254 -0.06776648 0.11642524 0.07160301 -0.10515866 -0.20594293 -0.18235709
0.0595362 -0.0018329462 -0.28736925 0.02098417 0.053780064 -0.10160766 0.47928038 0.03501341
0.28252658 0.016416652 -0.26397938 -0.1333827 0.22678328 0.1116263 -0.13378209 -0.17124873
-0.052626345 -0.012480947 -0.094331555 0.13436279 -0.35175368 -0.021685544 0.024646733 -0.15618896
0.17221303 0.055263918 0.009842265 0.063407905 0.15935466 -0.19406217 0.073568195 0.14441176
-0.15377587 -0.003053691 0.14627531 0.040693007 0.07439633 0.07340137 0.10690439 -0.07244771
-0.28905326 -0.15047148 -0.2922279 -0.21363144 -0.15418538 -0.08369459 -0.10830711 -0.02787877
-0.14418377 0.025970655 -0.06897545 0.02185335 0.06269114 0.07335733 0.057407357 -0.037049077
0.028045816 -0.015983451 0.2291964 -0.24390195 -0.15214503 0.111598715 -0.043336146 -0.18882495
0.05372292 -0.09829399 0.080357514 0.06842778 -0.10950191 0.12083511 -0.17935295 -0.07904913
-0.03816114 0.010539337 -0.06180046 0.05352768 0.18972778 -0.045528766 -0.006441536 0.22293362
-0.17714246 0.18881227 0.06181135 -0.054935895 0.3690397 0.19817933 0.23065263 0.050127015
0.10869519 -0.18163103 0.0217146 0.067169875 -0.032269977 0.21057269 -0.04009713 0.085342266
0.088485256 -0.09585403 -0.124236695 -0.16801193 -0.130588 -0.1922763 0.14170441 0.14503683
0.16492961 0.2005495 0.12616493 -0.11146527 -0.15873815 -0.07926732 -0.18933156 -0.095338
-0.2195574 -0.16917591 0.47844216 -0.016410828 0.18611713 -0.111987256 -0.13733599 -0.08897373
-0.15950713 0.06535177 -0.32243004 0.08980765 -0.03418448 -0.041572545 0.086308576 -0.105347596
-0.10377513 0.045298103 0.03391287 0.020808337 0.04623599 -0.14100885 0.038956527 -0.13411106
0.0235848 -0.34981325 0.17348206 0.19990435 0.030851396 -0.37063348 0.12316353 -0.16345106
-0.18463066 0.113085784 -0.037162818 0.2342075 -0.03354514 0.20265828 0.17600808 -0.017158195
0.1015131 -0.1731857 0.13443547 -0.028667714 0.010714804 0.037162773 0.101407036 -0.091973424
00000000: 3906 16be 1b21 e33e fac3 81bc 8592 8a3d
00000010: d337 ab3e 32fb 2f3e 7240 6dbd 74af b33d
00000020: ea5c 85bd 80b7 593e 8bab f73d ea80 d1bd
00000030: cda2 413e 6e97 40be b14d 7abe 18f3 513c
00000040: 8767 5abd 9448 00bd f272 653e 00f0 eabe
00000050: f490 26be f4d0 153e 8df0 82bd 30a7 8f3c
00000060: f2e6 a3bc a608 e3bd 6c9d c63c 92f2 9d3d
00000070: d267 763d 982d c8be 72e9 2fbd f279 7c3e
00000080: 8000 8abd ac26 ee3d 39f7 40bc 8a79 08be
00000090: 6ba7 883d 50d1 e23d 0489 1a3e 6043 0b3d
000000a0: aa8d e5bc d5c1 a53c d50c 6bbc 9fcc e5bd
000000b0: 7e78 e5bd a3f6 b83d eea3 28bd 2c0f aebd
000000c0: af6b 90be 2f5e 8b3d 5615 e8bb 566c f63c
000000d0: 662c 0cbe 0466 2cbd b854 45be 717c da3c
000000e0: f858 3ebe 26b1 9abe 3bd9 b73d 47e6 17be
000000f0: bb27 0fbe c4ac 423e 6d9d 013e 15bd 82be
00000100: e6f7 b2bc d33d c53c 107f efbc b508 e5bd
00000110: befe 86bc 8746 e6bd d624 b8bd 3c19 173e
00000120: 9ff7 77bd 7c09 99bc fa92 073e 621c b43d
00000130: ee96 20be 7cff bc3d 264b 68be eb84 dfbd
00000140: a628 973d 115b 7bbe 3a50 bf3e 4b82 d8bb
00000150: 1d28 1dbe 643a e4bd a605 ddbc 5235 e0bc
00000160: 2218 83bd 08dd 263e 27c9 8abd 5b70 ee3d
00000170: 99a4 923d 6c5d d7bd b4e2 52be d1bb 3abe
00000180: 3bdc 733d 783f f0ba 1022 93be fee6 ab3c
00000190: 7c48 5c3d ad17 d0bd 3d64 f53e 396a 0f3d
000001a0: 53a7 903e 377c 863c 4e28 87be 7995 08be
000001b0: e039 683e 549c e43d 2cfe 08be d45b 2fbe
000001c0: b98e 57bd e37c 4cbc e730 c1bd 6696 093e
000001d0: 0f19 b4be e2a5 b1bc f2e7 c93c 00f0 1fbe
000001e0: 9d58 303e 6b5c 623d 7441 213c 01dc 813d
000001f0: de2d 233e 3cb8 46be ecaa 963d ade0 133e
00000200: 6c77 1dbe 6f20 48bb 32c9 153e b6ad 263d
00000210: 1a5d 983d 7553 963d b0f0 da3d 775f 94bd
00000220: cafe 93be 3215 1abe e59e 95be 33c2 5abe
00000230: c6e2 1dbe 1268 abbd 1ed0 ddbd 0562 e4bc
00000240: e9a4 13be 69c0 d43c 0043 8dbd cc05 b33c
00000250: 3664 803d 5e3c 963d fa23 6b3d c6c0 17bd
00000260: 57c0 e53c baef 82bc 76b2 6a3e 6fc1 79be
00000270: e8cb 1bbe de8d e43d 3e81 31bd 545b 41be
00000280: 910c 5c3d 5c4e c9bd 7b92 a43d dd23 8c3d
00000290: 8a42 e0bd 6678 f73d 4da8 37be 83e4 a1bd
000002a0: db4e 1cbd 2fad 2c3c 7b22 7dbd d73f 5b3d
000002b0: 0048 423e 5f7c 3abd 8513 d3bb b648 643e
000002c0: d564 35be 0158 413e e62d 7d3d 7604 61bd
000002d0: c6f2 bc3e 86ef 4a3e 3430 6c3e fc51 4d3d
000002e0: 959b de3d 7cfd 39be d1e2 b13c 5c90 893d
000002f0: 862d 04bd 5ea0 573e e33c 24bd edc7 ae3d
00000300: c237 b53d 1e4f c4bd cf6f febd 520b 2cbe
00000310: dcb8 05be 14e4 44be f61a 113e 8984 143e
00000320: 4fe3 283e d95c 4d3e 6131 013e e747 e4bd
00000330: 418c 22be e856 a2bd 22e0 41be 9240 c3bd
00000340: a8d3 60be 733c 2dbe 5ff6 f43e 0070 86bc
00000350: 7d95 3e3e 9359 e5bd cea1 0cbe dc37 b6bd
00000360: d655 23be 26d7 853d 8d15 a5be 13ed b73d
00000370: 0605 0cbd f947 2abd 8dc2 b03d 7bc0 d7bd
00000380: 0e88 d4bd 818a 393d 39e8 0a3d 3f76 aa3c
00000390: f361 3d3d a064 10be e190 1f3d 6954 09be
000003a0: e934 c13c b91a b3be 48a5 313e bab3 4c3e
000003b0: 11bc fc3c acc3 bdbe 293d fc3d b75f 27be
000003c0: d20f 3dbe 8599 e73d 0a38 18bd 17d4 6f3e
000003d0: a166 09bd a785 4f3e 763b 343e 588f 8cbc
000003e0: 1ae6 cf3d 9857 31be 74a9 093e 8ed8 eabc
000003f0: 258d 2f3c fe37 183d 7eae cf3d 905c bcbd

conv2.bias f4 [64]
0.025444672 -0.056934353 -0.015053653 0.012430525 -1.360646e-22 -8.0816216e-07 -3.8867593e-11 -0.12879948
-0.08013817 -0.07805317 -3.7839857e-18 -9.05509e-05 -0.006254998 -4.605336e-08 -0.020290362 -0.030800113
0.0589752 -0.02064214 -0.03835783 -0.14167933 -4.2047788e-16 0.06343514 0.0142348595 0.08410066
-0.023893474 -0.118808076 -0.057294358 -0.16959968 -0.036599018 -1.4333493e-09 -0.065350905 0.021604557
0.05994292 -0.044224616 -0.022151431 -0.05637761 -0.014170768 -0.022667915 -0.06414966 -0.00012608051
-0.046638083 -0.06712536 -0.036289748 -7.827237e-08 -0.056144476 -0.13566837 0.05037004 -0.13644192
-0.112729356 -0.20661177 -0.023619935 -0.0067836996 -8.0555964e-08 0.0077640004 -0.058552656 -0.086501665
0.020550858 -0.031677574 0.019594679 -2.9779683e-09 -0.08885588 -4.0912855e-06 -7.3630596e-10 -0.10569899
00000000: 5871 d03c ff33 69bd 99a3 76bc 67a9 4b3c
00000010: f47d 249b 7bf0 58b5 05f1 2aae 03e4 03be
00000020: 7b1f a4bd 57da 9fbd bc9a 8ba2 25e6 bdb8
00000030: baf6 ccbb 34cc 45b3 f937 a6bc 8550 fcbc
00000040: fb8f 713d b519 a9bc 1a1d 1dbd 6314 11be
00000050: 9563 f2a5 48ea 813d 5439 693c f83c ac3d
00000060: 3fbc c3bc a651 f3bd 7dad 6abd 8aab 2dbe
00000070: dae8 15bd 7fff c4b0 b2d6 85bd 0afc b03c
00000080: b586 753d df24 35bd eb76 b5bc 35ec 66bd
00000090: 822c 68bc 10b2 b9bc e660 83bd 7b34 04b9
000000a0: 9307 3fbd 0579 89bd 8fa4 14bd b116 a8b3
000000b0: c0f7 65bd a6ec 0abe d150 4e3d 6eb7 0bbe
000000c0: a6de e6bd 0992 53be 987e c1bc cc49 debb
000000d0: 1cfe acb3 2869 fe3b e9d4 6fbd c927 b1bd
000000e0: 465a a83c 58c0 01bd 0585 a03c f9a4 4cb1
000000f0: 12fa b5bd e047 89b6 ed64 4ab0 b678 d8bd

conv3.weight f4 [128, 64, 3, 3]
0.11475875 0.043897852 -0.10280563 -0.07645742 0.044479173 0.11714313 -0.12681608 -0.12996681
0.12566409 0.08331898 -0.0050287135 -0.29066545 0.02774195 0.047915623 0.06851809 -0.09294435
-0.08684137 -0.04906754 -0.087379776 -0.07565737 -0.114683785 -0.23265801 -0.1469094 0.06452337
-0.030684065 0.022215115 -0.14051744 -0.110936545 0.16571848 0.22999318 -0.032492846 0.033335757
-0.04958755 -0.02902694 -0.15859225 -0.24819855 -1.6046e-39 2.796885e-39 -1.01622e-39 -2.554994e-39
-4.696225e-39 -2.791693e-39 9.62105e-40 -1.05941e-39 -2.530688e-39 2.46432e-40 7.791863e-39 -4.668246e-39
5.150765e-39 3.026573e-39 -1.47148e-39 2.522035e-39 1.783802e-39 8.67439e-40 2.00324e-40 7.085796e-39
2.115065e-39 1.693122e-39 -1.909744e-39 6.998234e-39 7.374912e-39 3.494181e-39 -4.187937e-39 0.062369484
-0.231409 -0.19118829 -0.43100768 0.059276603 -0.07196054 -0.030554865 -0.044525135 -0.02136723
0.29608384 0.09327602 0.043982923 -0.020227024 0.0108217355 -0.08237011 -0.045409266 0.074880145
0.2065768 0.10737571 0.09128813 -0.04766354 -0.28835705 0.24101341 -0.08335243 0.009443063
0.17791724 -0.026513096 5.011134e-39 -3.482698e-39 -2.589775e-39 6.90345e-39 -5.980759e-39 -2.808672e-39
-3.670522e-39 2.418631e-39 -3.024795e-39 2.172932e-39 6.06227e-40 -2.590798e-39 4.248129e-39 7.375266e-39
2.742275e-39 5.816162e-39 7.695046e-39 2.562912e-39 -0.023331694 -0.15534073 -0.31582054 -0.03328068
-0.01617874 0.116198085 -0.037956383 0.035335757 0.28941375 4.224653e-39 2.424748e-39 2.048802e-39
5.874704e-39 2.628689e-39 -5.581286e-39 4.773928e-39 2.761434e-39 5.226601e-39 -4.288275e-07 1.0353682e-06
-3.1253478e-06 -2.3970592e-06 -6.663868e-06 1.5134794e-06 1.1737675e-05 3.5541125e-06 1.7449231e-06 -0.033607285
-0.013368408 0.0035026057 -0.047385104 -0.024409883 -0.021638157 -0.05063106 -0.040789 -0.045790154
0.06825949 -0.037093706 -0.0018437075 -0.11435841 -0.001555277 0.117692344 -0.24628429 -0.19124886
-0.0835539 -0.24313053 -0.32774198 -0.01697792 0.044523574 -0.17343503 0.070826925 -0.23565622
-0.060894404 0.024643406 0.1833365 0.15919183 -0.13866177 0.039528146 0.16162992 -0.3055163
0.07676889 -0.07200394 0.11456965 0.13563725 -0.1568561 -0.34389898 -0.013723759 -0.06644555
0.065282695 -0.040964305 0.08364271 0.21059324 3.460016e-39 4.825562e-39 5.852432e-39 3.01599e-40
3.364816e-39 -3.336325e-39 1.794975e-39 -7.13205e-40 3.276977e-39 -0.14063707 0.4577222 0.07964363
0.07432578 -0.08135844 -0.19721538 0.18405183 0.120878436 -0.24975486 -0.09903131 -0.06397363
0.062040374 -0.08085721 -0.17966482 -0.082462266 -0.014440382 -0.0864379 0.19697973 -0.08516362
-0.19832158 0.09664524 -0.23730767 -0.1129825 0.03289629 0.24930842 0.07857455 -0.20411807
0.0007127585 0.0036180676 0.008753327 -4.8931e-05 0.0030889094 0.005007997 0.000636545 0.0039622476
0.0038442793 -0.1930137 -0.16560496 -0.054722127 -0.024677372 -0.09927168 -0.04030692 -0.14158034
-0.21519724 -0.12249436 0.04723109 0.038186617 0.012588956 0.050045177 0.020592349 -0.011502169
0.028418072 -0.026507562 -0.015612258 -0.026087873 -0.12766457 -0.061194573 0.030865561 0.08504428
0.0018864825 -0.2100554 -0.0931649 -0.19216235 -0.002865514 0.0043765707 0.0058934414 0.0006277148
00000000: a306 eb3d 3cce 333d c28b d2bd b595 9cbd
00000010: cb2f 363d bde8 ef3d 13dc 01be 0516 05be
00000020: 16ae 003e 24a3 aa3d e8c7 a4bb 1ad2 94be
00000030: 1643 e33c 2c43 443d 3653 8c3d 9b59 bebd
00000040: e3d9 b1bd 0bfb 48bd 2bf4 b2bd 40f2 9abd
00000050: 55df eabd e73d 6ebe 6b6f 16be d424 843d
00000060: 265d fbbc 79fc b53c cee3 0fbe b332 e3bd
00000070: 1bb2 293e 5583 6b3e 3817 05bd 138b 083d
00000080: 511c 4bbd e8c9 edbc 0266 22be c327 7ebe
00000090: f978 1180 9474 1e00 cf10 0b80 49d2 1b80
000000a0: 2a23 3380 1b66 1e80 f579 0a00 3489 0b80
000000b0: 878e 1b80 f4ae 0200 8bd8 5400 2cd5 3280
000000c0: 3d16 3800 dbf4 2000 e305 1080 6876 1b00
000000d0: 846c 1300 1172 0900 6c2e 0200 5128 4d00
000000e0: f107 1700 bc6f 1200 97cb 1480 3b34 4c00
000000f0: 414e 5000 5b0c 2600 449a 2d80 2577 7f3d
00000100: 7bf6 6cbe ddc6 43be 0aad dcbe 06cc 723d
00000110: 0c60 93bd 324e fabc fd5f 36bd 540a afbc
00000120: 4d98 973e 7f07 bf3d 7027 343d 25b3 a5bc
00000130: a64d 313c a9b1 a8bd 11ff 39bd c35a 993d
00000140: de88 533e cce7 db3d 45f5 ba3d d83a 43bd
00000150: 89a3 93be 38cc 763e aeb4 aabd 14b7 1a3c
00000160: f02f 363e fe31 d9bc 0191 3600 58ec 2580
00000170: 3d33 1c80 032c 4b00 ec1f 4180 6f95 1e80
00000180: ecf7 2780 2956 1a00 e6ef 2080 40a9 1700
00000190: ea99 0600 1736 1c80 0e42 2e00 3e4f 5000
000001a0: 59dc 1d00 1855 3f00 a8ca 5300 5be8 1b00
000001b0: 1c22 bfbc a411 1fbe 3bb3 a1be 5351 08bd
000001c0: 4789 84bc 43f9 ed3d 2778 1bbd 3abc 103d
000001d0: 0a2e 943e 9d00 2e00 3667 1a00 3a4f 1600
000001e0: 49f8 3f00 b79f 1c00 5bc6 3c80 c5fb 3300
000001f0: c111 1e00 a3e9 3800 9a39 e6b4 fbf6 8a35
00000200: 11bd 51b6 2add 20b6 319a dfb6 c222 cb35
00000210: eeec 4437 3083 6e36 1a33 ea35 cba7 09bd
00000220: 2b07 5bbc f98b 653b e216 42bd 3cf7 c7bc
00000230: 8142 b1bc 8462 4fbd 5e12 27bd 758e 3bbd
00000240: a2cb 8b3d 92ef 17bd 8fa8 f1ba be34 eabd
00000250: 70da cbba af08 f13d f331 7cbe bed6 43be
00000260: 4f1e abbd 36f7 78be cccd a7be 4715 8bbc
00000270: 5a5e 363d f498 31be b50d 913d dd4f 71be
00000280: 696c 79bd f8e0 c93c 90bc 3b3e 2f03 233e
00000290: 5afd 0dbe 44e8 213d 5082 253e a26c 9cbe
000002a0: 0239 9d3d cd76 93bd 7ea3 ea3d 7ee4 0a3e
000002b0: e39e 20be 8713 b0be 9ed9 60bc 9b14 88bd
000002c0: efb2 853d 30ca 27bd de4c ab3d c1a5 573e
000002d0: 1ead 2500 b48b 3400 33ba 3f00 bc48 0300
000002e0: bda3 2400 5154 2480 a98b 1300 20c4 0780
000002f0: e1ae 2300 2a03 10be 905a ea3e 331c a33d
00000300: 1d38 983d 419f a6bd d4f2 49be 1578 3c3e
00000310: 1d8f f73d bdbf 7fbe edd0 cabd 9b04 83bd
00000320: 0c1e 7e3d 7798 a5bd 0efa 37be fae1 a8bd
00000330: 5a97 6cbc 5b06 b1bd 0eb5 493e 446a aebd
00000340: d014 4bbe f1ed c53d c800 73be 5e63 e7bd
00000350: 43be 063d b54a 7f3e b2eb a03d 5404 51be
00000360: 6ad8 3a3a 1a1d 6d3b 1d6a 0f3c 433b 4db8
00000370: 4d6f 4a3b 201a a43b d0dd 263a bed5 813b
00000380: 4ef0 7b3b 62a5 45be 5994 29be 4f24 60bd
00000390: 3328 cabc f34e cbbd de18 25bd 70fa 10be
000003a0: aa5c 5cbe 53de fabd 6375 413d 9269 1c3d
000003b0: e941 4e3c 2cfc 4c3d 49b1 a83c 9873 3cbc
000003c0: 04cd e83c 6326 d9bc 8eca 7fbc 3cb6 d5bc
000003d0: 80ba 02be 29a7 7abd c6d9 fc3c b22b ae3d
000003e0: d943 f73a c318 57be 3dcd bebd 35c6 44be
000003f0: 59cb 3bbb 5669 8f3b c51d c13b 3a8d 243a

conv3.bias f4 [128]
0.01748808 -0.08907205 -0.1319733 -0.2830578 -0.046463802 -0.10097011 0.08207919 -0.33196512
-0.1492128 -0.08908538 -0.012342962 0.01951172 -0.15466571 -0.14574893 0.086293064 0.038618155
0.10665192 0.14434199 0.004484812 -0.054436844 -1.4173024e-10 -0.045689687 -0.061034188 0.18682675
-0.25108638 -0.010082571 0.17423542 -0.0128144175 -0.022207404 -0.044986498 0.022109028 -0.14171463
0.078101985 -0.14834374 -0.17555422 -0.092985295 0.10081683 0.081474565 0.08972989 -0.17063501
0.12947127 0.23704405 -0.056253828 -0.12704027 -0.2193768 0.24578552 0.074828625 -0.019253794
-0.0059186304 -0.072675444 0.13765694 -0.19627932 -0.017662987 -4.0394802e-06 0.0071088737 0.01739059
-0.1082621 -0.06936319 -0.23675178 0.1589923 0.015740653 0.19977514 -0.19572927 0.04053321
-0.15415916 -0.07385582 -0.067415126 0.074382894 0.24503268 -0.010781603 0.043590076 -0.021479506
0.04401698 -0.06782701 -0.0063473517 0.08458807 -0.00647046 -0.07459832 0.034948617 0.116321355
-0.09524062 -0.06694932 -0.12351764 0.13854617 0.016323399 -0.052398656 0.05493531 -0.018619962
0.2031509 -0.012387413 -0.031605944 -0.0064288327 -0.0012851679 0.1346688 -0.010300404 -0.026557483
-0.101599686 0.03750079 -0.06359154 -0.087696075 -0.026304126 -0.12841956 0.024739612 0.033121154
-0.10309011 -0.15800177 -0.013868489 -0.12053098 0.07400085 -0.076771505 -0.17634393 -0.059540298
0.22112307 0.058087062 0.11471449 -0.0443542 0.04978997 -0.10747119 0.05370205 0.03413284
-0.015858606 -7.6949624e-07 -0.13207944 -0.054618556 0.0092735225 0.14029562 0.06820367 -0.05482726
00000000: 2943 8f3c 686b b6bd 0224 07be f4ec 90be
00000010: d450 3ebd 6bc9 cebd 2219 a83d 55f7 a9be
00000020: 3ecb 18be 6572 b6bd 233a 4abc 0bd7 9f3c
00000030: b060 1ebe 353f 15be 6bba b03d 122e 1e3d
00000040: 526c da3d 63ce 133e 54f5 923b 2bf9 5ebd
00000050: 84d5 1baf 1c25 3bbd fcfe 79bd 834f 3f3e
00000060: 658e 80be 5e31 25bc c56a 323e 90f3 51bc
00000070: 4dec b5bc c343 38bd fe1d b53c a41d 11be
00000080: eff3 9f3d 6ce7 17be 7cc4 33be 136f bebd
00000090: 0e79 ce3d 23dc a63d 4ec4 b73d f2ba 2ebe
000000a0: 1e94 043e adbb 723e 6a6a 66bd d816 02be
000000b0: 50a4 60be 33af 7b3e c03f 993d 22ba 9dbc
000000c0: 12f1 c1bb ddd6 94bd f1f5 0c3e 72fd 48be
000000d0: f8b1 90bc df8a 87b6 8ef1 e83b b676 8e3c
000000e0: 85b8 ddbd 4a0e 8ebd 0f6f 72be e1ce 223e
000000f0: 8bf2 803c db91 4c3e 416d 48be 2706 263d
00000100: e6db 1dbe b841 97bd f110 8abd 0f56 983d
00000110: d9e9 7a3e 52a5 30bc 828b 323d caf5 afbc
00000120: 264b 343d e3e8 8abd 72fd cfbb 833c ad3d
00000130: 2706 d4bb 01c7 98bd 4826 0f3d e439 ee3d
00000140: 840d c3bd ba1c 89bd d1f6 fcbd 0cdf 0d3e
00000150: a6b8 853c f99f 56bd d903 613d e488 98bc
00000160: ca06 503e 93f4 4abc 3c75 01bd f5a8 d2bb
00000170: 1473 a8ba 9ee6 093e 07c3 28bc 148f d9bc
00000180: 7f13 d0bd 6e9a 193d 483c 82bd 009a b3bd
00000190: c07b d7bc 6b80 03be baaa ca3c 0caa 073d
000001a0: e820 d3bd 37cb 21be a938 63bc f2d8 f6bd
000001b0: c28d 973d 613a 9dbd 8193 34be 87e0 73bd
000001c0: 166e 623e b3ec 6d3d 6eef ea3d c0ac 35bd
000001d0: 91f0 4b3d db19 dcbd aef6 5b3d e0ce 0b3d
000001e0: e8e9 81bc 618f 4eb5 d53f 07be b5b7 5fbd
000001f0: f9ef 173c a8a9 0f3e 5eae 8b3d 8d92 60bd

act_conv1.weight f4 [4, 128, 1, 1]
0.12611496 0.027503258 -0.004977751 -0.04498327 -0.03153103 -0.054015424 -0.16983506 0.2237082
0.056142952 -0.04344158 0.01641422 0.482829 -0.34885317 -0.018980347 0.11212646 -0.09020182
0.0022308584 -0.1068339 -0.14310163 -0.012191878 4.8998545e-31 0.18229619 -0.032351684 0.1067514
0.05171756 -0.034052275 -0.62618226 -0.033658247 -0.021519376 0.061189838 0.09249622 0.27884874
0.12426927 -0.061711702 0.043838684 -0.0754775 0.09062802 -0.061039217 0.03997639 -0.16219842
0.11130076 -0.231883 0.0054320763 -0.102040194 -0.21378121 0.025086043 0.10703555 0.24239269
-0.019688621 -0.10144382 0.15095453 -0.14176743 0.4306682 -1.24123835e-05 0.16090553 0.086700104
0.1737709 -0.005540231 0.01033043 0.18192399 -0.20154667 0.3589239 -0.12917759 0.083812036
0.22737646 0.13866952 0.101540625 -0.06584046 0.3477908 0.0037650522 -0.09699662 -0.027505107
0.11027183 0.041873302 -0.03780129 -0.12867525 -0.006122515 0.20245826 0.081964366 -0.7507501
-0.08989669 -0.048916083 -0.19206157 -0.57684225 0.01537067 -0.021525545 0.087622076 -0.11846206
0.021398935 -0.04804853 0.003826089 0.035031725 0.045248784 -0.42018208 -0.22844045 -0.049125366
0.23031574 -0.32770017 -0.00231546 0.01881627 -0.017693125 -0.20537779 0.08289806 0.1270203
-0.024390746 0.09813008 0.1537733 0.014026515 0.0974591 -0.01756574 0.11488624 0.08295951
0.11105823 -0.25566941 0.09223003 -0.17041096 -0.06008267 0.23980938 0.08853071 0.20162784
0.17429416 4.6683644e-09 0.36745745 -0.30080312 0.2248187 -0.14519444 0.048769403 -0.04519905
-0.33142754 -0.15591642 -0.20666926 -0.24416354 0.009920117 -0.10559096 -0.049208056 -0.24652074
0.027065435 0.020510169 0.107979916 0.057826098 0.0034893614 -0.037883177 0.062397692 0.11090742
-0.028529113 -0.42089385 0.021428641 0.15618387 -5.5764743e-10 -0.03922519 -0.49687243 0.49077904
0.06328628 -0.14175905 0.07170926 0.040323358 -0.002261616 0.32510313 -0.033020094 -0.07402325
-0.2904143 -0.06466508 0.22084682 -0.23388669 0.02255053 0.021921607 -0.1048691 0.011338579
0.2992195 0.16333151 0.046875373 -0.16331339 -0.0657465 0.28224233 0.16404237 -0.05476385
-0.041218128 -0.029130142 -0.37294623 0.0280005 0.14377996 0.00044070225 -0.074007034 -0.047661286
-0.07027328 -0.027871927 -0.04175101 0.47041827 0.09249136 0.20359135 0.24280812 -0.024132024
-0.5879961 -0.028069168 0.0332063 0.44972458 0.25415644 -0.020339994 0.21796198 0.1258331
-0.14322773 -0.24423814 -0.13786322 -0.08430847 -0.028294839 -0.12276874 0.124100104 0.26929286
0.07359681 0.47622326 0.02293083 0.34225628 0.10795788 0.063496396 -0.15030976 0.036346905
-0.06912621 -0.2718933 0.0575877 -0.0126149645 0.16527168 0.13888307 0.011478868 0.029764542
-0.03567045 0.061745163 -0.12149681 -0.04312283 0.50040823 0.22874916 -0.46779576 0.29676303
-0.02570905 -0.14914809 0.28469002 -0.044951923 -0.011301619 -0.009305478 0.05114723 0.032865368
0.1811594 0.14407861 -0.04095274 -0.0005154833 0.23333217 -0.1119331 0.24384418 0.036099445
-0.11494488 -3.2292575e-14 -0.08633824 0.36458603 -0.33649692 0.11812857 0.5358139 0.34790754
00000000: 4824 013e 834e e13c 671c a3bb 6140 38bd
00000010: ae26 01bd 473f 5dbd 3ee9 2dbe c313 653e
00000020: 27f6 653d ccef 31bd 1d77 863c 5d35 f73e
00000030: e29c b2be ac7c 9bbc 8fa2 e53d bbbb b8bd
00000040: 9833 123b bbcb dabd 3c89 12be 71c0 47bc
00000050: 6602 1f0d daab 3a3e 3383 04bd 7aa0 da3d
00000060: cbd5 533d 667a 0bbd 7b4d 20bf 3bdd 09bd
00000070: 6749 b0bc 32a2 7a3d a86e bd3d 43c5 8e3e
00000080: e380 fe3d 69c5 7cbd 3190 333d f393 9abd
00000090: 2f9b b93d 4204 7abd 48be 233d 5817 26be
000000a0: a7f1 e33d bd72 6dbe 8fff b13b 73fa d0bd
000000b0: 76e9 5abe 3f81 cd3c 7435 db3d ca35 783e
000000c0: 084a a1bc c7c1 cfbd d393 1a3e 7b2b 11be
000000d0: 8b80 dc3e c83e 50b7 6bc4 243e d38f b13d
000000e0: 00f1 313e d38a b5bb f740 293c 484a 3a3e
000000f0: 4062 4ebe e0c4 b73e 2147 04be a5a5 ab3d
00000100: 60d5 683e 62ff 0d3e 88f4 cf3d 5dd7 86bd
00000110: a311 b23e 18bf 763b 2aa6 c6bd 6452 e1bc
00000120: 32d6 e13d 5783 2b3d 87d5 1abd 72c3 03be
00000130: 619f c8bb 3851 4f3e efdc a73d 2931 40bf
00000140: c11b b8bd 3b5c 48bd caab 44be efab 13bf
00000150: 43d5 7b3c 5756 b0bc 3473 b33d 3d9c f2bd
00000160: d24c af3c 89ce 44bd 1fbf 7a3b 6d7d 0f3d
00000170: ca56 393d 1b22 d7be 4bec 69be ae37 49bd
00000180: e4d7 6b3e 51c8 a7be f9be 17bb 9424 9a3c
00000190: 2cf1 90bc 8e4e 52be 75c6 a93d 9c11 023e
000001a0: 1acf c7bc 6cf8 c83d bf76 1d3e 78cf 653c
000001b0: a398 c73d 07e6 8fbc 7a49 eb3d ade6 a93d
000001c0: 7f72 e33d 1ae7 82be 19e3 bc3d 3680 2ebe
000001d0: 3f19 76bd 9790 753e 974f b53d 8777 4e3e
000001e0: 2b7a 323e 5e67 a031 6223 bc3e de02 9abe
000001f0: e036 663e daad 14be 6dc2 473d a422 39bd
00000200: dfb0 a9be 8ea8 1fbe 1ba1 53be 0206 7abe
00000210: fd87 223c 1340 d8bd 638e 49bd ef6f 7cbe
00000220: 55b8 dd3c f104 a83c 9324 dd3d 0fdb 6c3d
00000230: c5ad 643b 642b 1bbd b994 7f3d 6e23 e33d
00000240: e3b5 e9bc 667f d7be 1e8b af3c aaee 1f3e
00000250: f348 19b0 98aa 20bd 1066 febe 6447 fb3e
00000260: 3d9c 813d 4929 11be 4edc 923d 1b2a 253d
00000270: 9f37 14bb eb73 a63e 1440 07bd 8099 97bd
00000280: 2fb1 94be 206f 84bd ab25 623e fe7f 6fbe
00000290: e4bb b83c f194 b33c 9cc5 d6bd 72c5 393c
000002a0: 4c33 993e 6040 273e 6400 403d a03b 27be
000002b0: 1aa6 86bd 1182 903e b9fa 273e 0f50 60bd
000002c0: 57d4 28bd 56a2 eebc cff2 bebe 4e61 e53c
000002d0: 0e3b 133e 0e0e e739 0091 97bd 7b38 43bd
000002e0: 70eb 8fbd ab53 e4bc 1b03 2bbd aada f03e
000002f0: 1c6c bd3d 407a 503e b1a2 783e 86b0 c5bc
00000300: ea86 16bf 50f1 e5bc 5403 083d 4d42 e63e
00000310: cb20 823e 0fa0 a6bc 6d31 5f3e 64da 003e
00000320: 4aaa 12be 9019 7abe 042c 0dbe eba9 acbd
00000330: 94ca e7bc 2d6e fbbd 3228 fe3d c1e0 893e
00000340: edb9 963d 89d3 f33e 70d9 bb3c 373c af3e
00000350: 0519 dd3d 660a 823d cdea 19be 7ee0 143d
00000360: 0b92 8dbd 9935 8bbe 15e1 6b3d ffae 4ebc
00000370: fb3c 293e 5d37 0e3e dd11 3c3c c5d4 f33c
00000380: 2e1b 12bd 7fe8 7c3d 52d3 f8bd 91a1 30bd
00000390: c11a 003f 383d 6a3e ed82 efbe 53f1 973e
000003a0: c99b d2bc 47ba 18be e4c2 913e 821f 38bd
000003b0: 6d2a 39bc 0176 18bc c27f 513d d69d 063d
000003c0: da81 393e 5889 133e 0fbe 27bd 8021 07ba
000003d0: a1ee 6e3e 2e3d e5bd 4ab2 793e 03dd 133d
000003e0: 3968 ebbd ce6e 11a9 1ad2 b0bd 05ab ba3e
000003f0: 5349 acbe 64ed f13d 1a2b 093f f020 b23e

act_conv1.bias f4 [4]
-0.03349686 0.31482345 0.35038018 0.29024458
00000000: 0134 09bd 8a30 a13e 0865 b33e f09a 943e

act_fc1.weight f4 [36, 144]
0.08566289 0.0011480113 0.075979814 0.07447017 -0.019386273 0.021768214 0.05592213 0.06679333
0.13483222 0.13957705 0.16572207 -0.094792426 0.15600252 0.03560097 0.05391213 0.04614096
0.23903055 0.02295016 0.0017439768 -0.15601957 0.05116234 0.041396108 0.0667387 0.04496016
0.167788 -0.051434517 0.003353512 -0.0007521697 0.057364896 0.00019235993 0.4598939 0.25407344
-0.052092835 -0.0212655 0.11171052 -0.06474104 -0.18028666 0.022218307 0.007943908 -0.065468006
-0.012013812 -0.09987417 0.03959968 -0.02121178 -0.092616804 -0.13408315 0.016254958 0.06343781
0.07935392 0.1039914 -0.11177929 0.00016524963 -0.00679702 0.021164145 -0.057646345 -0.08367278
0.06708299 0.048612025 0.08007898 -0.095196836 -0.18944035 0.049314633 0.1091038 0.01651224
-0.055408735 0.010192632 -0.8030035 -0.9912558 0.36863896 0.046443995 -0.05063461 0.15488222
-0.06816228 -0.14078677 -0.11941702 -0.23258457 -0.23457234 -0.13321024 0.07281381 -0.04418423
0.03310002 -0.018969037 -0.1574017 -0.0084327245 -0.112511545 0.017790016 0.025026854 -0.033064213
-0.034022067 -0.0547421 -0.021365905 0.010475659 -0.007928061 0.030178268 -0.08748013 -0.018756593
-0.08110117 0.29343873 -0.049331844 -0.024917692 0.022967821 0.14202003 0.006617962 0.2324614
0.07391973 -0.0949003 0.006532644 -0.035036676 -0.123505846 0.046204805 -0.20522864 -0.07557986
0.13683476 -0.19400257 -0.03906165 -0.09168921 -0.04723698 0.275181 -0.040819995 0.16217785
-0.050269224 -0.061295424 -0.18770638 -0.17239884 -0.053943124 -0.19277261 -0.14407586 -0.2559778
-0.043480407 -0.00281141 -0.14854458 -0.061755773 -0.27315497 0.39194375 -0.16742189 -0.07141415
-0.047138 -0.11856294 0.16171645 0.057472043 0.14837229 0.08617622 -0.015872242 -0.0031902706
0.110449515 0.11851908 -0.18717317 0.06302281 0.07158091 0.019872855 0.12690857 0.03185377
0.07169421 0.029174121 0.15997544 -0.12483384 -0.059625674 0.13801338 0.050169867 0.10610101
0.07360808 0.30545992 -0.15977192 -0.17247133 -0.22166188 -0.10138759 0.07548169 0.0048361886
0.008558891 0.02792022 -0.011696118 0.06293927 -0.06570817 -0.052309684 0.017757496 0.31229103
0.10191209 -0.04744298 -0.0024955252 -0.07089106 -0.020412544 -0.021362431 0.05818719 -0.06323829
-0.0076135006 -0.13909927 -0.035077285 -0.05039712 -0.00969855 -0.08273212 -0.1538426 0.06176071
0.018769098 0.061528534 -0.01162669 -0.06852111 -0.048272513 0.17847845 0.19232802 0.088460654
-0.083138704 -0.029444402 0.12390884 0.05827255 0.32324588 -0.11799452 -0.018509403 0.09435584
0.052799173 -0.054539565 -0.4642966 -0.14754157 -0.7088863 0.2559455 0.16807334 -0.26196197
-0.041839793 0.010424646 -0.025299547 -0.1309651 -0.20393637 -0.084949255 -0.052730188 0.033689257
0.034458507 0.019563612 -0.0021401069 0.044367652 -0.037137087 -0.06617597 -0.009936444 0.053516388
0.031615596 -0.19603857 -0.078916535 0.04167792 0.092398494 0.09401004 -0.054760516 -0.02481674
-0.17333446 -0.21346231 0.23746887 -0.004083593 -0.124572136 -0.020180218 0.010363437 0.042340137
0.109637104 0.033282895 -0.09008104 0.058925208 -0.12436654 -0.15223585 -0.045337293 -0.1540999
00000000: 0670 af3d de78 963a 4e9b 9b3d d183 983d
00000010: f6cf 9ebc 4153 b23c 9a0e 653d f1ca 883d
00000020: 7511 0a3e 49ed 0e3e 0cb3 293e 8822 c2bd
00000030: 20bf 1f3e 53d2 113d f7d2 5c3d 4efe 3c3d
00000040: 6dc4 743e f901 bc3c 2796 e43a 98c3 1fbe
00000050: 9a8f 513d f78e 293d 4dae 883d 2528 383d
00000060: 9ed0 2b3e 00ad 52bd 98c6 5b3b 412d 45ba
00000070: 74f7 6a3d 3ab4 4939 3777 eb3e ea15 823e
00000080: 4c5f 55bd fc34 aebc 7cc8 e43d f396 84bd
00000090: 119d 38be 2b03 b63c 2a27 023c 1714 86bd
000000a0: 94d5 44bc d48a ccbd 4633 223d 54c4 adbc
000000b0: e1ad bdbd 184d 09be 1e29 853c afeb 813d
000000c0: 4f84 a23d 71f9 d43d 8aec e4bd dc46 2d39
000000d0: 89b9 debb 6e60 ad3c 931e 6cbd a25c abbd
000000e0: cf62 893d 671d 473d 7300 a43d 8ff6 c2bd
000000f0: a7fc 41be 24fe 493d d071 df3d ad44 873c
00000100: 45f4 62bd fffe 263c a391 4dbf f1c2 7dbf
00000110: 3fbe bc3e 0f3c 3e3d 3d66 4fbd 7299 1e3e
00000120: aa98 8bbd 682a 10be e990 f4bd a62a 6ebe
00000130: bb33 70be 4468 08be 681f 953d 86fa 34bd
00000140: e393 073d f464 9bbc e92d 21be 6929 0abc
00000150: 746c e6bd 5ebc 913c 1e05 cd3c 576e 07bd
00000160: b95a 0bbd 4139 60bd 8d07 afbc 19a2 2b3c
00000170: b3e4 01bc 6a38 f73c c828 b3bd 6da7 99bc
00000180: 5f18 a6bd 9a3d 963e 3010 4abd 3020 ccbc
00000190: 0327 bc3c b36d 113e 7ddb d83b 5c0a 6e3e
000001a0: 3a63 973d 175b c2bd ca0f d63b 9e82 0fbd
000001b0: a2f0 fcbd 4041 3d3d 7527 52be 9dc9 9abd
000001c0: 691e 0c3e 9ca8 46be 1cff 1fbd 8dc7 bbbd
000001d0: 907b 41bd 86e4 8c3e de32 27bd f311 263e
000001e0: 1ae7 4dbd e910 7bbd 1a36 40be 5289 30be
000001f0: 77f3 5cbd 2f66 45be 9f88 13be 860f 83be
00000200: 8318 32bd a23f 38bb 121c 18be 9ff3 7cbd
00000210: f8da 8bbe daac c83e a570 2bbe 9541 92bd
00000220: c713 41bd 20d1 f2bd ff98 253e ce67 6b3d
00000230: e8ee 173e 287d b03d 8106 82bc dc13 51bb
00000240: 5b33 e23d 22ba f23d 53aa 3fbe 1a12 813d
00000250: 0399 923d 66cc a23c 52f4 013e 1979 023d
00000260: 6ad4 923d 91fe ee3c 9ad0 233e e2a8 ffbd
00000270: 0d3a 74bd 6153 0d3e eb7e 4d3d 7d4b d93d
00000280: d5bf 963d 3e65 9c3e 409b 23be 539c 30be
00000290: 55fb 62be 4ca4 cfbd 2596 9a3d e478 9e3b
000002a0: 973a 0c3c f2b8 e43c 13a1 3fbc 4ee6 803d
000002b0: 0192 86bd ae42 56bd 2b78 913c 9ce4 9f3e
000002c0: 49b7 d03d 9253 42bd f78b 23bb 552f 91bd
000002d0: 3538 a7bc 4400 afbc b155 6e3d 1483 81bd
000002e0: ac7a f9bb 0a70 0ebe 33ad 0fbd 366d 4ebd
000002f0: abe6 1ebc 756f a9bd ea88 1dbe ccf8 7c3d
00000300: a7c1 993c 5805 7c3d df7d 3ebc cc54 8cbd
00000310: 66b9 45bd 0ec3 363e a3f1 443e dc2a b53d
00000320: a044 aabd 6335 f1bc ebc3 fd3d 33af 6e3d
00000330: 7c80 a53e 1ca7 f1bd 08a1 97bc a23d c13d
00000340: f243 583d e164 5fbd 49b8 edbe 2315 17be
00000350: 9379 35bf 4a0b 833e 6b1b 2c3e e11f 86be
00000360: 3460 2bbd 22cc 2a3c ff40 cfbc b71b 06be
00000370: b2d4 50be e0f9 adbd 9cfb 57bd bffd 093d
00000380: 5d24 0d3d de43 a03c 0941 0cbb dbba 353d
00000390: 0f1d 18bd 4487 87bd 78cc 22bc 0034 5b3d
000003a0: 5b7f 013d 56be 48be fe9e a1bd 77b6 2a3d
000003b0: 6c3b bd3d 5688 c03d 904c 60bd 7a4c cbbc
000003c0: 977e 31be dd95 5abe 0a2b 733e a9cf 85bb
000003d0: ad1f ffbd fc50 a5bc 68cb 293c da6c 2d3d
000003e0: 6b89 e03d a553 083d 697c b8bd 8f5b 713d
000003f0: e2b3 febd b7e3 1bbe 99b3 39bd 5dcc 1dbe

act_fc1.bias f4 [36]
-0.3570179 -0.24720134 -0.0022782173 -0.029966002 -0.103698306 -0.2771216 -0.14422925 -0.01537538
-0.03128027 0.048359163 -0.052164108 -0.19059153 0.020310724 -0.018371725 0.21559283 0.16574928
0.0050217356 0.035417177 0.03208199 0.03353229 0.16542874 0.13540469 -0.031108797 -0.012145085
-0.16848968 -0.0112026185 -0.04388743 -0.040401798 0.0284391 -0.08313937 -0.23708643 0.036939148
0.11871811 0.085699186 -0.07278615 -0.29311556
00000000: 0dcb b6be 5922 7dbe 254e 15bb 437b f5bc
00000010: c75f d4bd e2e2 8dbe d5b0 13be 05e9 7bbc
00000020: be1f 00bd 4214 463d 08aa 55bd 6d2a 43be
00000030: ad62 a63c 4d80 96bc 5ec4 5c3e 2eba 293e
00000040: 5f8d a43b 9a11 113d 6868 033d 2859 093d
00000050: 2766 293e 87a7 0a3e e0d7 febc 2efc 46bc
00000060: 8f88 2cbe 308b 37bc 4ec3 33bd 5b7c 25bd
00000070: 1ef9 e83c f944 aabd c9c6 72be 814d 173d
00000080: 7b22 f33d 0e83 af3d e810 95bd 3e13 96be

val_conv1.weight f4 [2, 128, 1, 1]
-0.33063987 -0.20484152 0.26950988 0.13395189 0.004145542 0.028289678 -0.60122764 0.024001734
-0.53188807 0.14473483 -0.19732086 -0.04914132 -0.18636574 -0.6672734 -0.3543542 -0.2863935
0.23892233 -0.0936251 0.19966316 -0.28486022 -9.671976e-05 -0.045269795 0.19195205 0.004157524
0.2545324 0.102044895 -0.03556046 -0.001344526 0.01064912 0.1347513 -0.48747253 0.12498536
0.14278871 0.4827382 -0.0052161585 0.1276841 0.01143144 0.3807618 -0.0062900838 -0.23282546
0.017312648 -0.00041700897 0.019879166 -0.2718256 0.37355837 -0.07946625 0.047480334 0.09811511
-0.30795988 -0.25417554 0.10456331 0.2487392 -0.052719325 -0.00487538 0.3046528 -0.25371698
-0.082123704 0.24419184 0.27237883 0.21106343 0.24782042 0.00022169072 0.46675345 -0.27109128
0.11552419 -0.5798095 0.0054627564 -0.004649829 0.060462575 0.009755587 -0.18570054 0.119595885
-0.37004068 -0.032843444 -0.656468 -0.64259475 -0.008338037 -0.2553775 0.40274248 0.0036324223
-0.3148596 0.15616481 0.1049598 0.03620928 0.3903279 0.3484271 -0.17640673 0.015376838
-0.011234777 0.14141804 0.01723101 -0.3153926 -0.31234288 -0.19755326 0.09930833 -0.40982443
-0.38245025 0.016729651 0.14896588 -0.44554636 -0.041105587 0.06846557 -0.024766106 -0.16059238
-0.41222444 0.26998428 0.19872373 -0.6264053 -0.2262519 0.03766796 0.27306196 0.35974768
-0.038565516 0.04420209 -0.0013884562 0.25995377 0.16467172 -0.10228755 -0.1825492 0.37552828
-0.5333747 -0.0014544635 0.24328785 -0.07518835 0.022883402 -0.040486384 -0.056011308 0.07060542
-0.0030886491 -5.19491e-39 -0.0013341996 0.00027003323 4.810772e-38 -0.0021104447 -0.006850989 -0.021504683
-0.004191149 5.97079e-39 -0.020408232 -0.0024819179 -0.0076679806 -0.00058501546 0.008124592 -0.00032738506
-3.847439e-05 -0.012759953 -0.0050997105 -0.007220538 -6.966054e-39 -0.0002773208 -0.014847124 -0.0016202196
-0.013868501 -0.0021658198 -0.008159038 -4.001076e-39 3.205397e-39 3.8428817e-38 -0.0103731165 -0.0009412208
-0.0029638058 -0.00426544 -0.0001865884 -0.0016948468 -0.015635494 -0.004200435 -0.0038059559 -0.009743799
-0.01532344 -0.0075520827 -7.009727e-39 -0.0014191781 -0.0006800736 -0.008108083 -0.009249781 -0.006486181
-0.0017265975 -6.733818e-39 -0.017937867 0.00014046986 -0.003549582 6.55915e-39 -0.00033070595 -0.00038157904
-0.014043721 -0.0014133711 -0.005601989 -0.009275298 -0.005125674 -0.015816776 -7.627348e-05 -0.008600903
-0.010123378 -0.0107915355 -5.464981e-39 -0.00034824133 -0.018272823 2.005915e-39 -0.018386057 -0.0027337256
-0.013047378 5.532174e-39 -0.00010113163 -0.0068014814 3.498536e-39 7.438748e-39 0.00019382629 -0.018777749
0.00013949806 -0.022655975 -0.007388676 -0.004225741 -0.00034710352 -8.531095e-05 -0.01209955 -1.519005e-39
-0.011425404 -4.092114e-39 -0.01383445 -4.14714e-39 -0.013132788 -0.011954999 1.52337e-40 -0.0048500975
-0.0023684702 -0.00547029 -0.003916161 -0.0015970612 -0.009983616 0.0070839925 -0.0059692557 -0.011933503
-0.0031731776 -0.008085033 -0.00023393815 -0.0012095121 0.0036367176 6.459427e-39 -2.0211182e-06 -2.3584703e-06
-0.017249994 -0.0048363 -0.02050628 -0.00012687339 -0.0037406117 6.965717e-39 -0.0013034886 0.000522949
-0.0035412926 5.232666e-39 0.0002831698 -0.008136712 -0.0018442131 -0.003157533 3.755997e-39 -9.8151e-08
00000000: a149 a9be fac1 51be 33fd 893e af2a 093e
00000010: 54d7 873b c1bf e73c 0eea 19bf 499f c43c
00000020: d129 08bf 5e35 143e 7b0e 4abe 6948 49bd
00000030: a9d6 3ebe 6ed2 2abf ea6d b5be 2ba2 92be
00000040: 0ea8 743e 84be bfbd 8074 4c3e 33d9 91be
00000050: 07d6 cab8 d26c 39bd 148f 443e d73b 883b
00000060: 1252 823e eafc d03d d8a7 11bd ce3a b0ba
00000070: a679 2e3c 3ffc 093e 0096 f9be 53f8 ff3d
00000080: 3437 123e 7629 f73e 4fec aabb 9fbf 023e
00000090: ef4a 3b3c 36f3 c23e 0c1d cebb cc69 6ebe
000000a0: 41d3 8d3c ffa1 dab9 a2d9 a23c ba2c 8bbe
000000b0: 0b43 bf3e 34bf a2bd bd7a 423d 93f0 c83d
000000c0: ebac 9dbe 4c23 82be 4a25 d63d 7db5 7e3e
000000d0: 38f0 57bd a7c1 9fbb 74fb 9b3e 31e7 81be
000000e0: 7930 a8bd 6d0d 7a3e 3d75 8b3e 0321 583e
000000f0: a3c4 7d3e a675 6839 4ffa ee3e 7acc 8abe
00000100: f297 ec3d 656e 14bf ec00 b33b 985d 98bb
00000110: 9ba7 773d e6d5 1f3c 4828 3ebe b0ee f43d
00000120: f975 bdbe d986 06bd 490e 28bf 1781 24bf
00000130: 439c 08bc d7c0 82be 4334 ce3e ef0d 6e3b
00000140: 4735 a1be abe9 1f3e 2af5 d63d 2f50 143d
00000150: 0fd9 c73e 0965 b23e f7a3 34be 22ef 7b3c
00000160: 1212 38bc e4cf 103e 0c28 8d3c 247b a1be
00000170: 68eb 9fbe 674b 4abe 2a62 cb3d 82d4 d1be
00000180: 85d0 c3be 9f0c 893c 838a 183e a71e e4be
00000190: 555e 28bd ad37 8c3d 4ae2 cabc 5472 24be
000001a0: 150f d3be 613b 8a3e 3c7e 4b3e 195c 20bf
000001b0: 94ae 67be b849 1a3d c7ce 8b3e d930 b83e
000001c0: e0f6 1dbd 400d 353d dcfc b5ba a918 853e
000001d0: b49f 283e 237c d1bd 2dee 3abe 3e45 c03e
000001e0: 3f8b 08bf b2a3 beba 7320 793e 5afc 99bd
000001f0: f975 bb3c 0dd5 25bd 1d6c 65bd 9399 903d
00000200: ef6a 4abb 4c91 3880 4fe0 aeba 3f93 8d39
00000210: 30f6 8201 634f 0abb 437e e0bb 972a b0bc
00000220: e855 89bb 2204 4100 2a2f a7bc aca7 22bb
00000230: af43 fbbb b95b 19ba 021d 053c e1a4 abb9
00000240: 905f 21b8 1f0f 51bc 791b a7bb 439a ecbb
00000250: 86da 4b80 5e65 91b9 5a41 73bc 8c5d d4ba
00000260: b638 63bc 6df0 0dbb 7cad 05bc 5f91 2b80
00000270: 58e7 2200 f439 5101 01f4 29bc 42bc 76ba
00000280: 693c 42bb 1bc5 8bbb f1a6 43b9 9f25 deba
00000290: 0216 80bc cda3 89bb 586d 79bb 75a4 1fbc
000002a0: 2a0f 7bbc 7677 f7bb 4454 4c80 b703 baba
000002b0: f746 32ba c4d7 04bc 658c 17bc 088a d4bb
000002c0: 004f e2ba 2553 4980 6ff2 92bc 174b 1339
000002d0: 1ba0 68bb 3e6c 4700 9a62 adb9 ac0e c8b9
000002e0: a317 66bc dd40 b9ba e490 b7bb 6bf7 17bc
000002f0: 45f5 a7bb 2f92 81bc 03f5 9fb8 cdea 0cbc
00000300: 86dc 25bc fbce 30bc 2582 3b80 2994 b6b9
00000310: e3b0 95bc add7 1500 5b9e 96bc 4e28 33bb
00000320: abc4 55bc 733d 3c00 a116 d4b8 f6de debb
00000330: 7f18 2600 3400 5100 d93d 4b39 cbd3 99bc
00000340: 3a46 1239 0699 b9bc b51c f2bb 1678 8abb
00000350: 72fb b5b9 f8e8 b2b8 313d 46bc 5e8a 1080
00000360: 9e31 3bbc 268f 2c80 e4a9 62bc 8a28 2d80
00000370: e82a 57bc e6de 43bc a7a8 0100 91ed 9ebb
00000380: 5638 1bbb 1e40 b3bb 2453 80bb 7b54 d1ba
00000390: 5292 23bc d620 e83b bf99 c3bb bd84 43bc
000003a0: 16f5 4fbb 1677 04bc 4b4d 75b9 7e88 9eba
000003b0: ff55 6e3b 4156 4600 8ca2 07b6 3646 1eb6
000003c0: dc4f 8dbc d379 9ebb c9fc a7bc 5109 05b9
000003d0: 0d25 75bb 96d9 4b00 d2d9 aaba 8316 093a
000003e0: 0815 68bb 8bfa 3800 6876 9439 d84f 05bc
000003f0: 86b9 f1ba 9dee 4ebb 31e6 2800 15c7 d2b3

val_conv1.bias f4 [2]
-0.022186235 -0.015243848
00000000: e8bf b5bc 55c1 79bc
