best_policy.model (torch, 529533 bytes, 15 tensors)

conv1.weight f4 [32, 4, 3, 3]
00000000: 2a5d ba3e bd25 eb3b cfab 703c f5e7 eebd
00000010: cd6d f03d 5935 e5bd 0a72 493e 0de2 9bbe
00000020: ca7a 1f3e 992a 493e de0b 8cbe 30e7 b23d
00000030: 8b1a 8fbe a7c2 203d 3c9f b73d 9c7c d7bd
00000040: ff1f bf3d b264 76be bf0c b5bb ee31 3d3e
00000050: d3fa c6bc cd92 963d dc94 363d 8e48 b7bd
00000060: 7b11 fd3d 82b1 de3d 008c 1cbd aee5 46bd
00000070: 4feb 15be 4add 193e b0a5 eb3c f95b 853b
00000080: 6add fabc 1e1c 01be e111 1f3e 093d 013e
00000090: bfa1 5bbe 9cc5 ecbb dd16 d23b 0347 56be
000000a0: 4da5 fbbd 1e83 52be bdeb 7bbe fb6a afbc
000000b0: 6d66 d3bd c439 cdbe e1e3 6abe 67c2 28be
000000c0: d335 44be 1467 f63d 2f53 a8be 17fc c4be
000000d0: 1266 073e 99a8 373d edab e1bd ed86 1b3d
000000e0: 1664 94bc 8219 2a3d fcd8 b93d 4299 95bd
000000f0: dcd8 e93c ba45 24bd 27d8 18bd 119d e0bd
00000100: 1325 d2bd 4bb2 11be 1419 95bc 47e5 5d3e
00000110: 1189 083e 514b 1a3e 802a 313d be5d 2b3e
00000120: 637b 1f3e a8cd 79be bb41 8bbe ddae fe3d
00000130: 16b2 183e e465 ed3d c075 1b3e 21cd 83be
00000140: 9d31 edbd 20a8 d0be a62a 6d3e dee8 623e
00000150: 0589 cfbe be90 a73d 9349 75be 1083 fbbd
00000160: e0a8 02be 7b06 db3c 70ab a93d f749 4cbd
00000170: 75d9 b93d ef69 09be 0119 533d 2b84 c1bc
00000180: 03f5 d3bd 1019 333e b48a 923c 1127 053e
00000190: 578f 36be 648e 943d 7cd3 183e 687c e13d
000001a0: 073c bd3d d658 d4bd 201e b8bd 157d babd
000001b0: 11a4 60be 4bea 3cbd 279e 20bd ef23 47be
000001c0: 8e09 47be ad99 24be 1ab2 d5bb 4eef e8bd
000001d0: 37dd 523e 936b b6bd f26f c53e b3a5 47be
000001e0: 50b9 d83c 69fb b53e 2200 9e3e 0ecf 57be
000001f0: 5cdd 853e 3ae4 8dbe b102 c53c 76f1 86bc
00000200: 4357 523d 428f 5a3d 61e9 d1bc 00ad 193c
00000210: da7c 8abd 7a10 67bd c352 9bbd 68e8 0d3e
00000220: bb1e b93d 5e4a 093e 0cc3 da3c c581 3bbd
00000230: 91c4 3f3e 04dc bcbd 877b e5bd cab9 1fbe
00000240: c2e9 78be 638b 8ebe 70b1 c6bd 1167 f03d
00000250: 57ce c4bd 5120 ca3d e0fe 8f3d 633e ed3d
00000260: 9814 0a3e c190 e1bd a6e4 c4bd f60c 40be
00000270: 03e6 483d bd3b df3d a958 233e bc4f bc3d
00000280: 1a76 8d3e e977 6ebe 37da 903c 5ecd 513b
00000290: ce53 96bc 9e6c 07bd f1ef 06be 80c3 7fbd
000002a0: e0ef 2ebd de3b dc3b 18cc ec3d 814b 61bd
000002b0: cf95 c9bd 5fe9 6cbd d352 f3bd c3cc 19be
000002c0: 748f 283d 4b6c dcbd e37b 93bd dec6 be3d
000002d0: 4c4f dd3e 1d81 233e 8bb6 d43e cf7f c0bd
000002e0: 2c44 843e 4c83 2d3e a380 4b3e 85bb 733e
000002f0: e0f4 b93e e83d 19be bd77 28be dd8d 21be
00000300: 1a10 11be dfbb f7bd 38d9 183c adae 2d3d
00000310: fdd3 b4bd 843c 27be cfcb 093a be02 f9bc
00000320: dad5 593c bffc 9e3c 1e6c 02be 915a 9cbd
00000330: 05ee d1bd 4292 e53c 591c 043d 935d 003d
00000340: 6523 e23d 64a3 1abe 5174 153d a6ae bc3b
00000350: ca08 bfbd af51 75bd 36d9 55bd 2dd7 2a3e
00000360: 22dd ed3d b4f6 5c3e 21e7 a2be 2bc8 23be
00000370: 1130 47be 43b6 6c3b 892f af3e 4bfe 9ebd
00000380: 26a4 11bd 1211 5b3e ef67 28be acba a33e
00000390: 57a2 26be 17d6 013d 7a1a 88bd b5b6 a03e
000003a0: 1154 4dbe d6d2 803d 2e6b 4e3c 4313 113e
000003b0: 68cb da3c 8f87 b33c b4c8 9e3c 8b2d f7bc
000003c0: 4f04 c9bd 08a8 a33d c12c f8bc 1c71 f0bd
000003d0: 4d98 493c 47be 1bbd 5d48 c23d 4421 f4bd
000003e0: 1db1 8d3c f947 d13d a132 82bd 4671 e93c
000003f0: bdce 3bbe 0cb5 7e3e 130b 95bd 554d 453c
0.36399204 0.0071761296 0.0146894 -0.11665336 0.11739693 -0.11191816 0.19672409 -0.304459
0.15574184 0.19645156 -0.27352804 0.08735502 -0.27949938 0.039248135 0.089659184 -0.10521814
0.09332275 -0.2406185 -0.005525201 0.18476078 -0.024289524 0.07352219 0.044575557 -0.089493856
0.1235685 0.10873701 -0.038219452 -0.048558883 -0.14640544 0.15025821 0.02876553 0.004069802
-0.030623157 -0.12608382 0.15534164 0.1262094 -0.2144842 -0.0072257053 0.006411417 -0.20925526
-0.12287388 -0.2055783 -0.24601646 -0.021413317 -0.103222705 -0.40083134 -0.22938491 -0.16480409
-0.19161157 0.12031379 -0.32875964 -0.3847358 0.1322253 0.04483852 -0.1101912 0.037970472
-0.018114131 0.041528232 0.090745896 -0.07304622 0.02854579 -0.04010556 -0.037315514 -0.10967458
-0.102609776 -0.1422817 -0.018200435 0.21669494 0.13333537 0.15067793 0.04325342 0.16734979
0.15574412 -0.24394858 -0.27198586 0.12435696 0.14911684 0.115917 0.15181637 -0.25742438
-0.115817286 -0.4075327 0.231608 0.22159144 -0.40534225 0.08181904 -0.23953848 -0.122808576
-0.12759733 0.026736489 0.08284652 -0.049875226 0.0907468 -0.13419317 0.051537517 -0.023622593
-0.10349467 0.1749003 0.017888404 0.13003184 -0.17828117 0.07253721 0.14924425 0.11010057
0.09239965 -0.103685066 -0.08990121 -0.09105889 -0.21937586 -0.046121877 -0.039213326 -0.19447301
-0.19437239 -0.16074248 -0.0065214755 -0.11373769 0.205922 -0.08907237 0.3856197 -0.19496803
0.026455551 0.35543373 0.30859476 -0.21075079 0.26145446 -0.27713186 0.024049135 -0.01647256
0.05135275 0.053359278 -0.025623979 0.009379625 -0.06762095 -0.056412198 -0.07584145 0.13858187
0.090390645 0.13407275 0.026704334 -0.045778055 0.18727328 -0.09221652 -0.112052016 -0.15598217
-0.24307922 -0.2784072 -0.09701812 0.11738408 -0.09609669 0.09869445 0.070310354 0.11584165
0.13484418 -0.11013938 -0.09613924 -0.18754944 0.04904748 0.10900066 0.1595179 0.091948956
0.27629167 -0.2328793 0.017682178 0.0032013278 -0.018350508 -0.03306257 -0.13177468 -0.062442303
-0.04270923 0.006721004 0.11562365 -0.055003647 -0.09843027 -0.057839748 -0.11881032 -0.15019517
0.041152433 -0.10762843 -0.07201364 0.09315275 0.4322456 0.15967222 0.4154552 -0.093993776
0.2583326 0.16944617 0.1987329 0.23802002 0.36319637 -0.14965022 -0.16451927 -0.15776773
-0.14166299 -0.120963804 0.009329133 0.042402912 -0.08829496 -0.16331679 0.0005256505 -0.030396815
0.013295615 0.019407628 -0.12736556 -0.07634462 -0.10250477 0.028023843 0.032253597 0.03133924
0.11041907 -0.15101391 0.03648788 0.0057581244 -0.09327848 -0.059892353 -0.0522091 0.16683646
0.11614443 0.21578485 -0.31816962 -0.15994327 -0.1945193 0.0036119379 0.34215954 -0.07763346
-0.035556935 0.2139323 -0.16445898 0.31978357 -0.16272865 0.031698313 -0.06645675 0.31389394
-0.200516 0.06290214 0.012598796 0.14167504 0.02670832 0.021915225 0.019382812 -0.030173084
-0.09815275 0.07991034 -0.030294778 -0.11740324 0.012304378 -0.03802326 0.094864585 -0.119204074
0.017296368 0.10218806 -0.06357313 0.028496396 -0.18340583 0.24873751 -0.07277503 0.012042363

conv1.bias f4 [32]
00000000: 1374 30bc f67b 65bd 9d80 843d bd55 473d
00000010: 375e adbc 1ae6 03be c1ad 313e f3e0 10be
00000020: 44a7 1ebe b9ee 093e 23a9 b03d 35a3 b3bd
00000030: 2184 55bd dc1c 3b3d 53f3 22bc ae79 173e
00000040: 82d3 963d 7b1a d2bb d5eb 3cbe 18a2 c63c
00000050: 0a96 06be 1cc7 00bd f742 0ebd ac0f 0d3e
00000060: 0881 173e 364d 1f3e e7f3 733d 516f 8e3d
00000070: d1e2 733d 70c6 12be 43a2 99bd 178d 4fbe
-0.010769862 -0.05602642 0.064698435 0.04866575 -0.02116309 -0.12880746 0.17351438 -0.14148311
-0.15493494 0.13469972 0.0862601 -0.08771364 -0.05212796 0.04568182 -0.009945708 0.14792511
0.07364561 -0.006411848 -0.18449338 0.024247214 -0.13143173 -0.031439885 -0.03473183 0.1377551
0.14795315 0.15556797 0.059558775 0.06954826 0.05954248 -0.1433351 -0.07501652 -0.20268665

conv2.weight f4 [64, 32, 3, 3]
00000000: 85b9 aabd 693f c13c 1708 15bd 98a0 23be
00000010: 368b 093e 05bf 33bd 2dea 933d d4b2 22be
00000020: 8d6c 313d cb7d c6bd 6b02 703c 430a 56bd
00000030: 245e 6eba a7fc a93c 023f f53d 5262 2b3e
00000040: bd58 25be c14d debc 675d d3bd 00b6 563d
00000050: 360b 10bd 48b1 313d 0947 cf3d 289c d23a
00000060: b162 e9bc 429d 323e 2ff5 deba 5ad2 343e
00000070: 510e bebd 8200 15be 3189 59be eafc 7a3c
00000080: cfcb 1bbe e706 0ebe 2b16 2b3d feb2 bfbc
00000090: 9843 0fbe bb4a bd3d f499 92bd c28a 09be
000000a0: a770 443d a89c 803d d4e9 663d f20f 4fbd
000000b0: ea82 90bd 7527 fe3c ef67 023e 25d1 003e
000000c0: f434 543e cb0c 933d f9fd d93d a415 823e
000000d0: 4783 1e3e 203c 633d 4025 1abc 23f3 38be
000000e0: e0d5 b4bc bb44 1bbd 21e4 523e b8ec 0f3c
000000f0: e1d6 87bd 26f8 60be f5bc 8dbd 09de 923d
00000100: a7d6 b3bd 293b eb3c 20ff 893d a03a 263d
00000110: cd3f a03c 147e b6bd a727 aabb 6b2b 83bd
00000120: 380a fcbc 4fcd 22bd fbf6 523d 5557 06bb
00000130: 6f7d 923c fe73 16be 2658 e43d 0320 9fbd
00000140: f4bd 31bd 1e81 89bd 87a6 00bd 41c1 b63d
00000150: 1685 7e3d 0b22 973d e4f1 2e3c aa30 28bd
00000160: 33e5 f43a 5810 01bd 6f10 c4bd f394 cabd
00000170: d9d4 d2bd 76ec bdbd 1234 85bd ea48 eabd
00000180: 30f9 08be 2f54 10be 9f1e bf3d 557d fbbd
00000190: 6e68 72be c96b 83bd e118 90be 1d83 0d3e
000001a0: 9dfb 923d 99b8 8fbd b905 dcbd 672b 423e
000001b0: ca40 af3d 8117 5cbc ffb9 8f3e 8e82 35be
000001c0: 1f5f 963d 4633 a43d 73c4 7bbd 7734 ec3c
000001d0: bafa cfbc c484 81bc 8e9b 0a3e 852b c9b9
000001e0: 9e3f cb3c d027 c3bd 231c d4bd 4dee 1a3d
000001f0: 3e6a 3e3d 24d7 21be d086 9cbe 21ed 28be
00000200: 98df 26bd e641 053d b815 a5bc 4ebe caba
00000210: 96d7 4c3c 96a7 cdbb 80c2 753d de64 773d
00000220: 8830 30be bfed c03d e0ac c0bd 785d 03be
00000230: d8ed 8abe 83dc ec3c 8725 123e 12bf 573d
00000240: b39c 0fbc b34a 08be 146a c2bc 08cc 55be
00000250: 708a b6bb cf46 063e 13bc 30be 3297 2dbd
00000260: 19c7 83bc e348 42bd 7eb6 92bb 987f c33d
00000270: 648d 053e b27a 40bd 388c b73c 469a 503e
00000280: 246e 383c 3a52 da3d 32a8 653d 1304 023c
00000290: 63d6 febb 7dfd 813e 16ac 293e ce32 483e
000002a0: 2a75 873e 7c9d 353d 203c 2ebe f59d b2bd
000002b0: d3a8 84bc f1b6 d4bd 241f 63be ef81 dc3c
000002c0: c77e 70be 7cc9 6b3e 137f c93c d849 bf3d
000002d0: d381 a73d 1776 9dbe dc0a e0bd 162b e4bd
000002e0: 3a55 bd3b be3e ef3d 1859 d53d 13f2 583e
000002f0: bb6a 313e dc74 1fbe 6cda 643c af1c 74be
00000300: 6c5f 4d3e c805 c23c 40cc 403c 056f 00be
00000310: 0565 aa3c 576e f3bd 8b4a 58bd 4c10 f23d
00000320: b42c 9abd 1261 b93d 40a3 f63b 3993 da3d
00000330: 185b a53c 6ade 2b3e 8229 98bc 0342 cc3d
00000340: c7d5 68bd 1260 453e 96aa bdbb b3f0 a0bc
00000350: 1487 84ba dd3f 36bd 66a6 0bbe d28c babd
00000360: 6300 143e 968b 9dbd 1b15 183d 8847 493e
00000370: 2a17 9bbc 3257 be3d 99c9 4f3e 679c 18be
00000380: b54a 57bc 348b 77be d4b5 34be 8f37 483b
00000390: faf8 bfbd 5ae0 0abe 5588 57be 64bf e4bc
000003a0: 8fd5 123d 2bf0 56bc 4439 9e3d 611e 9fbd
000003b0: 12a8 be3c 4e69 adbe 22c5 39be d59d dcbd
000003c0: 96e4 10be 69bf cb3d 4e76 833d 4841 d9bd
000003d0: f8f2 13bc 4361 683d e69b 023d 2eeb c73d
000003e0: 7b39 02be 964d 2a3e c08d 8fbc 9924 44bd
000003f0: f64c 8c3d 7f4f 1bbe 531a 563d 0a25 763c
-0.08336166 0.023589807 -0.03638467 -0.1597923 0.13432011 -0.043883342 0.072224 -0.1588853
0.043316413 -0.09691962 0.014649014 -0.05225588 -0.00090930075 0.020750357 0.119749084 0.16736725
-0.16147132 -0.027136685 -0.103205495 0.052419662 -0.03516694 0.04338196 0.10120971 0.0016068267
-0.028489443 0.17442802 -0.0017010326 0.17658368 -0.092800744 -0.14550975 -0.2124374 0.0153190885
-0.15214466 -0.1386982 0.041769188 -0.02340078 -0.13990629 0.09242769 -0.071582705 -0.13431838
0.047958996 0.0627988 0.05637534 -0.050552316 -0.0705622 0.031024674 0.1273496 0.12579782
0.20723325 0.071801744 0.106441446 0.25407135 0.15479766 0.05547726 -0.009408295 -0.180615
-0.02207464 -0.037907343 0.20594837 0.0087844655 -0.06632782 -0.21969661 -0.06920806 0.07171256
-0.08781176 0.028714733 0.06738114 0.040583253 0.019561673 -0.08910766 -0.005192715 -0.06404766
-0.030766591 -0.03974658 0.05150507 -0.0020498831 0.017882077 -0.14692685 0.111496255 -0.077697776
-0.043394044 -0.0671408 -0.031408813 0.08923579 0.06213864 0.0737954 0.010677788 -0.041062035
0.0018684029 -0.031509727 -0.09573447 -0.09891691 -0.10294504 -0.09273617 -0.06504072 -0.114396885
-0.13376307 -0.14094613 0.093320124 -0.122797646 -0.2367265 -0.06417043 -0.2814398 0.13819547
0.07176898 -0.07017631 -0.10743279 0.18961869 0.085572794 -0.013433338 0.2807159 -0.17725584
0.07342362 0.08017592 -0.061466645 0.028833611 -0.02538811 -0.015810378 0.13535902 -0.00038370132
0.024810608 -0.09529078 -0.10356929 0.037824918 0.04648804 -0.15804726 -0.30571604 -0.16496707
-0.04074058 0.03253355 -0.020151958 -0.0015468092 0.012502572 -0.0062760813 0.059999943 0.06039893
-0.17206013 0.094203465 -0.09407973 -0.12828624 -0.27134585 0.028913742 0.14272128 0.052672453
-0.008765387 -0.13309745 -0.023732223 -0.20878613 -0.0055707023 0.13112949 -0.17259245 -0.04238052
-0.016086148 -0.04743279 -0.004477321 0.09545821 0.13042217 -0.04699201 0.022405729 0.2037135
0.011256728 0.10660215 0.056068607 0.007935542 -0.0077770217 0.2538871 0.16569552 0.1955063
0.26456577 0.044339642 -0.17015123 -0.08721534 -0.016193783 -0.10386456 -0.22179848 0.026917426
-0.23485862 0.23026079 0.024596727 0.093402565 0.08179059 -0.30754158 -0.10939571 -0.111410305
0.005777982 0.11681889 0.10417384 0.21186094 0.1732587 -0.15571922 0.013968091 -0.23839067
0.20055932 0.023684397 0.011767447 -0.1254235 0.020800123 -0.1188628 -0.052805465 0.11819515
-0.07528058 0.09051718 0.007526785 0.10672612 0.020185038 0.16784063 -0.01857448 0.09973528
-0.0568445 0.19274929 -0.0057881577 -0.019646024 -0.0010111057 -0.0444945 -0.13637695 -0.091088906
0.14453273 -0.076926395 0.037129503 0.19656193 -0.018931944 0.09293975 0.20291747 -0.14903413
-0.01314037 -0.24174196 -0.17647487 0.0030550694 -0.093736604 -0.13562146 -0.210481 -0.027923293
0.035848197 -0.013118784 0.07725766 -0.07769466 0.023273502 -0.33869404 -0.18141606 -0.107722916
-0.14149699 0.09948618 0.06419049 -0.106081545 -0.009030096 0.05673338 0.031886958 0.09761654
-0.1271724 0.16631159 -0.017523646 -0.047886465 0.06850617 -0.15167044 0.0522712 0.015023479

conv2.bias f4 [64]
00000000: 7644 94bc d012 693c 7542 88bd ba09 49bd
00000010: 54cf a7bd c53d 853d 3f24 db3c 2a54 67bc
00000020: 9415 87bc 8fff b6bd 3f1e 18bd 4671 62bd
00000030: 0bf0 653d 93e7 063c 19b1 783d 0386 953c
00000040: e090 52bd 0a9d 93bc c8f0 27bd 6598 ea3c
00000050: f569 1f3d da79 693d 3390 0ebd a592 c23d
00000060: 11bf ecbd 5acd 1e3d 0e19 8b3d 0a51 0cbd
00000070: 701d 1b3c 4e63 da3b 855b 4d3d beb4 f339
00000080: e358 e2bd 5ae8 27bd a545 96bb 503f 39bd
00000090: 94f2 953c a25f bcbd a23d a9bd c424 193d
000000a0: 5477 583d c57b 453d c755 233d 26c5 0bbd
000000b0: 1738 42bd 1640 f63c 33ac 9fbc ddef 9e3c
000000c0: 7173 48bb d263 81bd 0edb 843c 2a90 b3bc
000000d0: 30c6 a1bd 8dc5 dc3a 282b 0a3d 4cb3 973b
000000e0: eb20 d33c 7db9 2cbd b5f4 bfbd da1f 12be
000000f0: 9f4e 3d3c 6b3d cfbc ecdf 76bc 9d7f 5abd
-0.018099051 0.014225677 -0.06653301 -0.04908154 -0.081938416 0.06505922 0.026750682 -0.014119187
-0.016489781 -0.08935463 -0.03713822 -0.055283807 0.056137126 0.0082339225 0.06071577 0.018252378
-0.051407695 -0.018019218 -0.04100111 0.02863712 0.038919408 0.057000972 -0.034805488 0.095006265
-0.115598805 0.038770057 0.06791888 -0.034256972 0.009467468 0.00666467 0.050136108 0.00046483235
-0.1105211 -0.040993072 -0.004585939 -0.045226395 0.018304147 -0.09197928 -0.08263709 0.037388578
0.052848175 0.04821374 0.039876726 -0.034123562 -0.047416773 0.030059855 -0.01949129 0.019401485
-0.0030586387 -0.06317867 0.016217735 -0.021919329 -0.078991294 0.0016843543 0.033732563 0.004629528
0.025772532 -0.042169083 -0.09372846 -0.14269963 0.011554389 -0.025297841 -0.015068036 -0.053344358

conv3.weight f4 [128, 64, 3, 3]
00000000: f566 acbd fec8 edbd 808a 19be 3930 34bd
00000010: eb80 61bc 84ea 713d d666 933d 77db 6dbd
00000020: 3948 bcbd 9e6b 2bbb 7746 82bb ba48 7cbc
00000030: 5f04 933d 54ac f43c 16cc c03d 2882 b13c
00000040: 5fde 2f3d b1c9 cd3d 9ec2 09bd 6209 fabc
00000050: 12f4 d33d b1c2 7fbd 8cbc b6bd b29f 23bc
00000060: 590a 543b 323e 4abc 4f1a a6bc cd9c ed3d
00000070: 3735 bd3d 97d1 403d a84c 473d 43a0 14be
00000080: 79d0 333e e2f9 933c a17d 993c bafa 12bd
00000090: 5153 cabd e0da 8a3d a991 29bd 214f d8bd
000000a0: a72a fabd bdcc 9b3d ba89 883d 4d81 1abd
000000b0: 54e7 8d3d 0daf 16bb 4901 96bd ba36 cabd
000000c0: 0c94 7c3b 6980 11bb 7dc2 ce3c 6c2d 053d
000000d0: 0a01 503a 420f 7abc 4776 a13d d48a 57bd
000000e0: ea7c 443b f5af 413d 0148 853d 7da3 ac3d
000000f0: 818d 6f3d 6bd5 f03d 0b67 533d 4e4c a2bd
00000100: ca63 06be d218 fabd 26c7 023d 5efd fdbd
00000110: 1815 9d3d 3994 06bd 7470 49bc de87 49bd
00000120: 01eb 393d 756e 723d 3d5c b83d d894 b73d
00000130: 8aeb 763d 5109 613d 918f cf3d e689 783c
00000140: ecfe 373d f2f0 373d d0d2 f5bc 1a70 7abd
00000150: 229d 703d fb30 113e 85b6 d63d 50a8 d83c
00000160: d113 d13d a5bd 90bb 9167 52bd 28b1 053b
00000170: beb7 0b3d 14da d23c 7ec8 b83b 6e1c 8a3d
00000180: e70f 433e 4bfb 2bbc 6332 12bd c698 25bd
00000190: 8cf1 15bd 01c7 6d3d 3eee 2fbd 37c0 213e
000001a0: df19 97bd 69a6 56bd e988 4a3d 5dd1 0c3e
000001b0: 9379 5dbd ffa6 3bbd 592c babd 64b9 d3ba
000001c0: d6ac 2ebe 480d c3bd b749 51bd 4353 80bd
000001d0: 5e63 a9bd e21a bf3c 819e 9e3d 166d 00bb
000001e0: 082f 1cbd 83db 7cbd e92a 573d 25d6 3c3d
000001f0: 84c5 143e 2b90 8fbd ddd0 fbbd 303d d93c
00000200: 190e d9bd 1bea 923c c638 0bbe 5a19 9abd
00000210: d852 f7bd 0f71 8ebd 64f0 933d 85c4 aabd
00000220: e5fb 1abe c60b 053d 3334 8c3c 37af 85bd
00000230: 75dd 3ebd 091e b6bc 1d57 2abd d958 e4bd
00000240: 426d 8ebd 4b5f a1bd b46e 96bd 8c31 ca3d
00000250: 1fd1 243e cff4 2fbd d4fe bebd d271 ca3b
00000260: 3d6e 15be ee40 553c 3f85 803d 338f 06bd
00000270: 4b63 9abd 38d6 1dbe 9ac2 92bd 9574 293d
00000280: 817f 863d ad32 a1bc 0037 ecbb 714c 8b3d
00000290: 281c d8bd 49a6 b5bd caf2 14bd fc8d f03b
000002a0: aeeb 34bd 6749 44bd df69 8e3c ab28 903b
000002b0: be52 b2bd cb0d 5b3b 9f70 c23b 5ffe 9d3d
000002c0: 4cd0 fc3d ca45 fdbd 8fdd abbd 85db 9dbd
000002d0: f3ce 8ebc e98d 31be d194 d3bd a1cd 403d
000002e0: e9fe 523a 4f39 c7bb 1f53 30bd abbc 26bd
000002f0: ac79 41bd e164 773d 44de f339 22d1 99bd
00000300: 7c00 54bd d557 2e3d 0125 133e 156d 733d
00000310: 8f9b 273e 91a2 5cbd e499 3cbd ad00 a13c
00000320: aa3a e73d 1cac c53d 02e4 a03d 249b a53d
00000330: c70a b03d 6180 0ebe 7dce d4bd 533c d3bd
00000340: 6e7f e33c 4144 963d b17b ba3b fc40 1a3d
00000350: 69d3 e23c b8b1 bdbc 24e0 063c c0f0 5a3d
00000360: 9be5 b9bd 0eb9 09bd 15f9 7ebd d788 51bd
00000370: 69cb 183e f06e ff3c ee23 51bd a115 f8bd
00000380: 8d68 de3c 9823 ae3d 922f edbd d57d b9bc
00000390: 6e63 48bd 4ead d53c 4d8f 09be de11 df3c
000003a0: dd75 8a3d 8a05 8f3c d981 703d 875f a0bd
000003b0: d5fa 91bd 0f60 d1bd db5d ebbd c713 02be
000003c0: 8dd9 ab3d aca8 633d c507 823b 293b 9b3d
000003d0: 1fcf 33bc b51d 933b ade6 8cbd 674c f0bc
000003e0: 91d3 a33d 81c0 c9ba 91c3 943d db3d 583d
000003f0: 1e97 283e fb02 f4bc e297 94bc ee0a efbd
-0.08418075 -0.11610602 -0.1499424 -0.0439913 -0.013763647 0.059061542 0.07197349 -0.058070626
-0.09193463 -0.0026156674 -0.003975685 -0.015398199 0.07178568 0.029867329 0.09413926 0.021668509
0.04293668 0.10048235 -0.033632867 -0.030522052 0.10349287 -0.06244153 -0.08922681 -0.009986805
0.00323548 -0.01234393 -0.020276217 0.11602173 0.092386656 0.04707488 0.04865709 -0.1451426
0.17559995 0.01806349 0.018736662 -0.035883643 -0.098791726 0.06780028 -0.041398678 -0.10561968
-0.122151665 0.0760741 0.06666894 -0.037720967 0.06928888 -0.0022992522 -0.07324464 -0.098737195
0.0038540391 -0.0022201783 0.025239224 0.03251402 0.0007934725 -0.015262427 0.07883888 -0.05262263
0.002998168 0.047286946 0.06507874 0.084296204 0.058484558 0.11759456 0.05161194 -0.0792471
-0.13124004 -0.12211765 0.031928204 -0.124018416 0.07670039 -0.0328562 -0.012294877 -0.04920184
0.045390133 0.05918737 0.09001968 0.089639366 0.06028322 0.054940525 0.10134805 0.015169596
0.044920847 0.044907518 -0.03000775 -0.061142065 0.058743604 0.14178841 0.104840316 0.026447445
0.10208858 -0.0044171386 -0.0513683 0.0020399783 0.034110777 0.025738753 0.005639135 0.06743704
0.19049035 -0.010496925 -0.035692584 -0.0404289 -0.03660731 0.058051113 -0.042951815 0.1579598
-0.073779814 -0.052404795 0.049446974 0.13751741 -0.05407102 -0.045813557 -0.0909049 -0.0016153273
-0.17058119 -0.095240176 -0.05109569 -0.06265881 -0.08270906 0.023328248 0.07745076 -0.001959627
-0.03813079 -0.06173278 0.052531157 0.04610266 0.14528471 -0.0700992 -0.12295697 0.026518434
-0.10598392 0.017933896 -0.13595876 -0.07524367 -0.12076348 -0.06955158 0.07223585 -0.083382644
-0.15135153 0.03248193 0.017114734 -0.0652756 -0.046597917 -0.022231119 -0.041586984 -0.11149759
-0.06954433 -0.07879504 -0.07345334 0.098727316 0.16095398 -0.042958077 -0.09325948 0.006178119
-0.14592834 0.013015969 0.06275415 -0.03285141 -0.0753847 -0.15413749 -0.071660236 0.041370947
0.06567288 -0.019677484 -0.007208705 0.068016894 -0.105522454 -0.08869607 -0.036364354 0.0073411446
-0.044170074 -0.047921564 0.017384468 0.0043993792 -0.08707188 0.003342497 0.0059338356 0.07714533
0.12344417 -0.12366827 -0.08391868 -0.07707886 -0.017432665 -0.1733929 -0.10331119 0.047071103
0.0008048849 -0.0060798298 -0.04304802 -0.04070727 -0.047235176 0.06039894 0.00046514173 -0.07510592
-0.051758274 0.042564232 0.14369585 0.0594302 0.16367935 -0.053865973 -0.0460452 0.019653643
0.11290486 0.09651968 0.07855989 0.08086231 0.085958056 -0.1391616 -0.10390947 -0.1031424
0.027770724 0.07337237 0.0056910147 0.03765963 0.027688699 -0.023156032 0.00823215 0.053452253
-0.09076997 -0.033623748 -0.062249262 -0.05115589 0.14921345 0.031180829 -0.051059656 -0.121135004
0.027149463 0.08502883 -0.11581339 -0.02264301 -0.04892295 0.026083615 -0.13433571 0.0272302
0.06760762 0.017458696 0.058717582 -0.078307204 -0.071279205 -0.102234 -0.11492511 -0.12702857
0.08391104 0.05558078 0.0039682114 0.07579643 -0.0109746745 0.0044896253 -0.068799354 -0.029333306
0.079993375 -0.0015392454 0.07263864 0.052793365 0.16463897 -0.029786577 -0.01813883 -0.116720065

conv3.bias f4 [128]
00000000: 9c9f 873c 7387 cdbb 3855 b6bd 714e e93c
00000010: 9307 cfbd 7ca6 993d 2e35 1fbc 1536 97bd
00000020: 5723 fc3c 37c9 073d dc53 0bbd ce73 c73d
00000030: 8965 a33c 1e5d 463d 2b93 ddbd a4d3 493d
00000040: def5 52bd dbf5 963d 3326 0e3e 735a 71bb
00000050: 6e7a 4b3d 7d6f d9ba dcab bc3c b796 65bd
00000060: 5e34 d6b9 e19b 44bd 0ac3 423d ddcb 9b3c
00000070: 5dc9 76bd 36fb 03be dba9 10bd 2df9 1b3b
00000080: ce12 983d 34af 2b3b a60d c6bb 1a76 2e3c
00000090: 30b4 77bd d683 c53b bbe5 0abd 2461 03b4
000000a0: fa31 043d ccac 0dbd 5941 ddbd 5efc c8bd
000000b0: 6f4b 2f3c a00c 8f3d 54e4 a63c 61d5 d4bd
000000c0: 2106 c03c 5166 4d3d 4606 883d 8c0e bbbb
000000d0: 4e60 c63c 8331 7bbd 19ef c93c c0c4 53ba
000000e0: 78d3 debc 15bd 14bd c3c8 88bd 5654 ad3b
000000f0: f68b 20bd e391 57bd 41e4 aabb 3d4d adbc
00000100: 2286 0dbb 2337 253d 133f 063d 3bc6 27bd
00000110: 8668 31bc 78de 743c 0f6d 7e3d 546b 94bd
00000120: 6acc 00bd a848 bdbc fe19 d93c 92f9 913c
00000130: e733 1dbd fe8c ca3d d6c0 61bd d504 fabc
00000140: ffdb 5abc ec87 9d3b c587 463b df0f edbd
00000150: a637 50bc ea12 42bd bc85 123e 8b3a 363c
00000160: b5c6 f83d 2128 ad3b 7403 cebc 89fc f6bb
00000170: 30e9 97bd bc42 4b3c f5f1 963d f7fa 59bd
00000180: 16a5 86bd 1309 0f3e f0fe 6cbd e8bd 4fbb
00000190: 871f 90bc 6456 26bd c46c 73bc a294 893d
000001a0: c04d 813b 9bf4 acbd d0d7 b33c 2164 d33a
000001b0: b0ef 8cba 5edf c63d 7da3 f63c fdcc 203c
000001c0: 5411 abbc 0e22 4dbc efaa 173c 3fff 313d
000001d0: e5e6 0c3e 726c 31bd 4f85 b73c 17e9 f4bc
000001e0: de88 56ba bd08 0e3b ec25 fdbd 37cc 2a3e
000001f0: 61ee 29bd e36d e0bd 8ade aebd 0b07 04bd
0.0165556 -0.0062722503 -0.08902973 0.028479787 -0.101088665 0.075024575 -0.009717269 -0.07383362
0.03077857 0.033150878 -0.03401552 0.09738885 0.019945877 0.048428647 -0.10819086 0.0492741
-0.05150401 0.07371112 0.1388176 -0.0036827594 0.049677305 -0.0016589012 0.023031168 -0.056051936
-0.00040856277 -0.04800022 0.047549285 0.019018108 -0.06025063 -0.12888798 -0.035318237 0.0023799643
0.07425462 0.0026196958 -0.0060441075 0.010648275 -0.060474575 0.006027679 -0.033910494 -1.2235665e-07
0.032274224 -0.03458862 -0.1080348 -0.0981376 0.010699137 0.0698483 0.020372547 -0.10392261
0.023440422 0.050146405 0.066418216 -0.005708521 0.024215844 -0.061326515 0.024650143 -0.0008078329
-0.027200446 -0.036313135 -0.06678917 0.0052895946 -0.039195977 -0.052629363 -0.0052151983 -0.021154994
-0.0021594842 0.040335786 0.032774996 -0.04096053 -0.010828143 0.014945619 0.062115725 -0.07247034
-0.031444944 -0.023105934 0.026501652 0.0178192 -0.038379576 0.098901734 -0.055115543 -0.030519882
-0.013358115 0.004807463 0.0030293327 -0.11575293 -0.01270858 -0.04738132 0.14308828 0.011122356
0.12147275 0.0052843248 -0.025148131 -0.0075374288 -0.07417524 0.012406047 0.073703684 -0.053217854
-0.065744564 0.13968305 -0.057860315 -0.0031698886 -0.017593158 -0.040609732 -0.014857475 0.067178026
0.003946036 -0.08445092 0.021953493 0.0016127863 -0.0010752585 0.09710573 0.030107254 0.009814498
-0.020882286 -0.012520326 0.009257062 0.043456312 0.13759954 -0.043316312 0.022402434 -0.029896302
-0.0008183847 0.002167269 -0.12360749 0.16679464 -0.0414871 -0.10958459 -0.0853854 -0.03223328

act_conv1.weight f4 [4, 128, 1, 1]
00000000: c769 ad3c 3a24 b3bc da64 a6bd 0dfa f6bb
00000010: 35e4 74bc a3ae af3e 9379 b3bd f416 143e
00000020: 93c2 af3b 650b 21bc fca3 d8bd 7397 563d
00000030: 1cdc 853c 66ef a2bd bc19 143d f0ae b43d
00000040: e711 63bd 14aa 1c3d 287d 65bd 78c3 193c
00000050: e8a6 2c3d e924 4fbd ade5 06bd 6f6b eb3c
00000060: 5c3d 553d 20e2 203e f1a0 3a3e ae8d bcbd
00000070: f9db 333d 9c21 0ebe aee1 b1bc f379 7b3e
00000080: 00a1 bf3e 7b30 e53c 792f af3a 1a78 913c
00000090: 5e02 6ebe 56e5 5fbb dd7e 0bbd 29e5 8e27
000000a0: d5b4 6dbd 26f5 3f3e aa4f 51be 8e38 24be
000000b0: c18c 153c 79cd 37be c24e a6bd 32d8 93bd
000000c0: 8d7f b3bd 467d 7c3d a581 193d d8f7 3f3c
000000d0: 10dc 373e 17b5 1a3e 730b 753d ca78 4abd
000000e0: 7e33 eebb 95b3 cfbd f5ef 8ebd 4ecd 0dbd
000000f0: b40b 20bd 4862 5d3e f8b7 723d 54d5 053d
00000100: b680 9b3d f0fd 253d 66ac e23e f42b debc
00000110: 3e51 d63e 90f4 2e3d 334e 273d abd8 313e
00000120: 3699 0fbc 1763 433c 039e 44bd 7b36 8fbd
00000130: dfa1 dabc d9f4 38bd 7e1c 603d 24a3 83bd
00000140: 672a debd 037c 8abe fedb 7f3d 3383 313d
00000150: 2413 8f3c 53d2 5ebe 4d10 c13c 5e69 a1bd
00000160: ffe7 ca3d ca92 25bd ab96 aa3d 07c3 c53c
00000170: c5b3 60be ed81 cbbc 3848 893e 85e3 0bbd
00000180: 64b1 bb3d 8dd7 0a3d 61aa 30be ce09 d7ba
00000190: 1d2a 4c3e 628e 8e3d 1a7f 253e 0e49 f13c
000001a0: 7da8 cabd a3f8 933d 5032 833d a2b4 1b3d
000001b0: 9c91 67bd 7e12 5f3d 1c8a 653b ee9f a83d
000001c0: ca56 653c 3b1e 473d 76ab b53c 15b8 99bd
000001d0: 54b4 0a3e 2f4b 8a3e f1ed 04bd d905 53bc
000001e0: 35e9 833b 0f95 3bbd 7f53 b03c 07d3 023e
000001f0: 8477 26be 3bd3 9cbd 54e2 d0bc 20af 95bd
00000200: f820 8bba 1e3a 073c a91b b73d f184 853d
00000210: dd49 83bc c036 09be 6acb 803e 9e6a 4e3d
00000220: b626 973e 39b0 c7bc ebd5 8dbd 29ff 393d
00000230: f40f cdbc ae88 973e 7418 84be 140a 8d3c
00000240: 2059 ab3d 02ac 14be 577b 353d c57d 0ebc
00000250: db2c 0cbd d03e 813d 85b6 f6bd 3b17 573c
00000260: 5929 94bd 0702 9cbe 736b 5e3c 5291 823c
00000270: 7fad c4bd 2cc5 a53c 8c6c c6b7 3d46 8bbe
00000280: c827 0b3e 7871 31bd 1fd8 89ba 681a 92bc
00000290: 225d 9c3e f0af 5a3c d7ac 003e 7750 1025
000002a0: 4056 95bd 1d96 943d 19f2 873d 784d db3d
000002b0: 5505 493c 3649 783e 2b65 4e3c 80cc 39be
000002c0: 5eaa a23e c011 513d 4309 0e3e ebbb 79bc
000002d0: bc71 64be 0cea 823d 52a4 66bd 67e8 0e3e
000002e0: 97f0 47bc ac4c ea3d 3b49 123f 4cf8 7f3c
000002f0: 9201 a03d d78a 00bd 9d54 65bd af3c 563e
00000300: 41a0 79bc 08f5 883d 3b76 c83d 24dc e2bb
00000310: b856 95be 5ca3 7b3c 23c2 0cbe 099b 32bd
00000320: 948f f8bd eb13 aebc 5664 ab3c ef6d bb3c
00000330: 8367 e9bd c746 8a3e 5779 4a3d c373 d73d
00000340: e848 453e f091 9f3e 9676 5bbd 8891 09be
00000350: b05c aebd 35ea d23d b245 413e 813f 143e
00000360: 1d03 d63d cb99 d63d 463b c83d 10e2 023a
00000370: 83ec 433e 7eba 0dbd 84c2 1cbd 8a62 b03d
00000380: 4f1f 483d 1a82 ab3d da91 113e bbc8 9d3a
00000390: a556 12be 2283 26bc 8a7e 89be c4c8 5ebd
000003a0: 15c8 7fbd 6ea4 c0bc 0974 c43d 75ba 8fbd
000003b0: 9845 3c3e 52e8 f53d faf7 21be fb29 b3bd
000003c0: 4626 7abb 3922 f6bd 8387 973c 3010 713e
000003d0: 087a c83d c39d cc3b 3090 a1bd e257 933c
000003e0: fee5 91bb 9332 4fbd 04e0 3ebc 3872 193e
000003f0: 4cbd 6f3d 484a e13d 0d1b 633d 8669 4f3e
0.021168603 -0.02186786 -0.08124705 -0.0075371326 -0.014946987 0.34312925 -0.08763423 0.14461881
0.005363771 -0.009829377 -0.105781525 0.052390527 0.016340308 -0.07955818 0.036157355 0.08822429
-0.055436995 0.038248137 -0.05602756 0.009384982 0.04215136 -0.05057231 -0.03293388 0.028737752
0.05206047 0.1571126 0.18225457 -0.09206711 0.043910954 -0.13880008 -0.021714058 0.24558239
0.3742752 0.027977219 0.0013365588 0.017757464 -0.2324309 -0.0034163794 -0.034056533 3.9661373e-15
-0.058033783 0.1874586 -0.20440546 -0.16037199 0.009127797 -0.17949475 -0.081204906 -0.0721897
-0.08764563 0.061642908 0.037477154 0.011716805 0.17955041 0.15108143 0.059825372 -0.0494316
-0.007269322 -0.101416744 -0.06979362 -0.034619622 -0.03907366 0.21619523 0.059257478 0.03267415
0.07592909 0.040525377 0.44272155 -0.027120568 0.41858858 0.0427137 0.04084606 0.17367809
-0.008764556 0.01192548 -0.048002254 -0.06992813 -0.026688514 -0.04515538 0.054714672 -0.06427601
-0.10847931 -0.27047738 0.06246566 0.043338012 0.017465182 -0.2175992 0.023567343 -0.07881425
0.09907531 -0.040423192 0.08329519 0.024140848 -0.21943577 -0.024842227 0.2681291 -0.034152526
0.09164694 0.03389697 -0.17252494 -0.001640612 0.1993794 0.06960751 0.16161767 0.02945378
-0.09895418 0.07225158 0.06406081 0.03801406 -0.05653535 0.054460995 0.0035024947 0.08233629
0.013997743 0.048612814 0.022176486 -0.07505814 0.13545352 0.27010486 -0.03245348 -0.012879812
0.004025603 -0.04579645 0.021524189 0.12775813 -0.16256529 -0.076574765 -0.025498547 -0.07308793
-0.0010614684 0.008253602 0.08940823 0.06519497 -0.016026432 -0.13399792 0.25155193 0.050394647
0.29521722 -0.024376022 -0.06925567 0.045409355 -0.025032021 0.29596466 -0.25799906 0.01721672
0.083666086 -0.14518741 0.04430708 -0.008696978 -0.034222465 0.06310809 -0.120465316 0.013128097
-0.07234449 -0.30470297 0.013575423 0.015938435 -0.09603404 0.02023562 -2.3653985e-05 -0.27202025
0.13589394 -0.043321103 -0.001051668 -0.017834857 0.30539805 0.013347611 0.12565933 1.2517272e-16
-0.072918415 0.07255194 0.06637973 0.10708135 0.012269338 0.24246678 0.0125973625 -0.18144417
0.31770605 0.05104232 0.1387072 -0.015242557 -0.22309011 0.06392297 -0.05630905 0.13955842
-0.012203357 0.11440405 0.5714299 0.015623163 0.078127995 -0.031382408 -0.055988897 0.20921586
-0.015235961 0.06687361 0.09788176 -0.0069232155 -0.29167724 0.015358772 -0.13745932 -0.043604884
-0.1213676 -0.021249732 0.020921867 0.022879569 -0.113966964 0.27007124 0.049432125 0.10520127
0.19266093 0.3116603 -0.05357989 -0.13434422 -0.085137725 0.10298578 0.18874243 0.1447735
0.104498126 0.104785524 0.097769305 0.00049927924 0.19133191 -0.03460168 -0.038271442 0.08612545
0.048857983 0.08374424 0.14215794 0.0012037972 -0.14290865 -0.0101631 -0.26854354 -0.054390684
-0.062446672 -0.023515906 0.095924444 -0.07017986 0.18385923 0.12007202 -0.15817252 -0.087482415
-0.0038169785 -0.12018246 0.018497234 0.23541331 0.097889006 0.0062443926 -0.0788883 0.017986242
-0.004452466 -0.05058534 -0.011650089 0.14984977 0.058530137 0.11000496 0.05544572 0.20255098

act_conv1.bias f4 [4]
00000000: 0a70 903d 524c 9d3c 962c d63d 7416 9f3c
0.0705262 0.019201431 0.10457723 0.019419886

act_fc1.weight f4 [81, 324]
00000000: 09d8 8abc ec30 8bbc d10d 19bc 316d 81bd
00000010: 1efe 90bc a8c3 d1bc aaa7 63bd f9e2 74bd
00000020: d160 14bd 668a 47ba 9acb 70bd da85 acbc
00000030: 31e4 b4bc d7dd 0bbd 135a 50bd b7fa d83b
00000040: 2bf4 04bd 9132 cdbb af35 4dbb 04d5 d6bc
00000050: 26e3 a9bc 607e b8bc 7f8c 2abd d889 12bd
00000060: 7746 b6bc f489 6dbc 8d8c 10bd a339 57bc
00000070: daa9 0dbd c8e4 02bd 6349 36bd a98c 1ebc
00000080: b6d3 bbbb 1048 c1bd 39b3 36bd f3a4 f539
00000090: 5294 c6bc e677 87ba 045a e4bc 7284 85bd
000000a0: a658 2dbd cf01 09bc b821 3fbd fd1e 7dbd
000000b0: e465 1abd 05fb 34bd 8d61 b1bd d0fb f9bd
000000c0: 55b8 23bd 78ad 5dbc 2a9f 253c e97d 55bc
000000d0: c32d afbc 3f7a aabb 83ab 8cbd a037 19be
000000e0: a286 00bd 891d 003b e767 34bc 8746 c1bc
000000f0: 1120 9dbd ef31 89bc 6789 e7bc be59 ae3d
00000100: 9f7d a63d c8cc 9a3d 4466 90ba 3fb9 b1bb
00000110: 69fd 7439 8da7 0abc 75ca d83c 5d21 92bc
00000120: cfd7 cb3c aba6 65bd a941 9abc 0346 a63c
00000130: 36c5 2bbd 19a8 84bd 15b4 0ebd a29d d83c
00000140: c4d3 babb 4387 f2bc fd0a 42bd a6e3 9bbc
00000150: d11b e6bc 343e a8bc e2c9 153d 5fe3 b0bc
00000160: f6fa 23bd c437 01bd d458 b8bc b1d0 eabc
00000170: b025 8bbc 9d35 b43c 6f42 0fbd 5ac0 9f3c
00000180: 04ce f03c 448f e7bc 9472 bcbc 2d8d 54bc
00000190: 7fab 0d3d 269c 3b3c 9bd9 82bc 21b0 263c
000001a0: 8fcc 9c3b 01c9 273c 4727 4e3c f037 be3c
000001b0: dffb 493c d1b0 be3c c43b 133d b4d4 8b3d
000001c0: b310 8c3d 202a f43c 4232 bebc 5e34 513c
000001d0: c602 34bd 6f59 56bc 86c7 523a 1c5f ca3c
000001e0: 7874 5e3d 44d1 443c 0901 643d d64c 4d3d
000001f0: b96a ee3c 4c19 193c 52ee a63d 209b 223c
00000200: 6bcc 363d de02 023c 60a6 ad3d 002a 603d
00000210: 6606 27b9 76df b63c b371 0ebd ce25 f23c
00000220: 114d 453d 8588 8c3d 3d0f 053d 06ea 083d
00000230: a3d1 4b3c e8cb 043c b141 8ebc e50c 24bd
00000240: 5d62 3ebe 8343 b23b 652d 563a b62e 2e3d
00000250: a428 cc3c 0083 023d 4ed8 22ba 1783 5dbc
00000260: 4489 5dbd 3477 a23b 42cc 893d eef3 aaba
00000270: 2142 f7bc 80e3 063c 167a 483c 468b 553d
00000280: ee2d 533d 7cfe ffbc 0046 9abc 38fc e53b
00000290: d31a 35bd e7ff 5abd 60d4 17bd 1738 87bd
000002a0: 39cb 96bc 2e4b 86bc 6ae9 26bd e414 3bbd
000002b0: 3b27 bbbb 8604 debc d74f 91ba c0de bcbc
000002c0: de4c 08bc 36e7 23bd 4d56 04bc 07e7 f4bc
000002d0: dda1 53bd 3d02 1bbd 8cd1 7abc 4f8e 2bbd
000002e0: 7cc0 debc 6a4b 1dbb 4bfc 5bbc 290d 8abd
000002f0: 2f0b 82bd 9e26 afbd bb22 0cbd a9e0 08bd
00000300: 2637 41bd 2702 a9bd f551 a2bd 1b95 55bc
00000310: 7c7d 4bbd 16fd 8cbd 671d ddbc c5ad d6bc
00000320: aa9a f4bb ecb6 1abd 862f 58bd 06fa 8bbd
00000330: 4a63 79bc a12a 1cbd 2b28 3abc dbd2 8e3b
00000340: c265 68bd 4b22 b83c 2222 29bd 2449 8ebd
00000350: 724f 9bbd cc22 70bd b332 6fbd e97b f9bc
00000360: b0ff 76bd a0c4 9b3c 9eea e0bd 9450 69bd
00000370: 0fd6 79bd fbbd 75bd 4c6d 9dbd 7c20 cbbc
00000380: cc31 15bd 9f6a bbbe 61a7 743c d023 153d
00000390: 80b4 afbd 8b7d 82bd 274e 66bd e3c4 75bd
000003a0: 605f 71bd b2bb c3bc 850c 3a3d fb81 393b
000003b0: ec0a 68bc c949 50bc 0ae2 7cbd e241 1ebd
000003c0: ad37 cdbc 85e0 2d3c 610c a3bc 0926 823b
000003d0: 430e 86bc 3f78 c6bc c416 36bd 41d6 74bc
000003e0: 2003 553c f182 a4bc 8881 e93c bccd 62ba
000003f0: 7adb 49bc 296a 1abc e95c e2bc 9bdc 0cbd
-0.016948717 -0.016991101 -0.009341673 -0.06319655 -0.017699298 -0.025605991 -0.05557982 -0.05978677
-0.036225144 -0.00076118705 -0.05878792 -0.02105992 -0.022081466 -0.03414711 -0.05086715 0.0066216844
-0.03245942 -0.0062621315 -0.0031312515 -0.02622462 -0.020738196 -0.022521198 -0.041637894 -0.03577599
-0.022250397 -0.014498223 -0.03529029 -0.0131363 -0.03458581 -0.031956464 -0.04450358 -0.009677091
-0.005732025 -0.09437573 -0.044604514 0.00046852938 -0.024240647 -0.0010335415 -0.027874954 -0.065194026
-0.04232087 -0.008362248 -0.046663016 -0.06179713 -0.037694827 -0.044184703 -0.086611845 -0.122062325
-0.039970715 -0.013530128 0.010108748 -0.013030508 -0.021384126 -0.005202561 -0.06868651 -0.14962626
-0.031378396 0.0019548854 -0.0110111 -0.0235932 -0.07672132 -0.016747443 -0.02826376 0.08513211
0.08129429 0.0755859 -0.0011016806 -0.0054236944 0.00023364056 -0.008462799 0.026463727 -0.017838174
0.024883179 -0.05606715 -0.018830137 0.020297056 -0.041936122 -0.064773746 -0.03483971 0.026442353
-0.005701514 -0.029605513 -0.04737376 -0.01902945 -0.028089436 -0.020537473 0.036569484 -0.021592794
-0.040034257 -0.031547323 -0.022503294 -0.028663965 -0.016985744 0.021998221 -0.034975465 0.0195009
0.02939511 -0.028266557 -0.023003854 -0.012973112 0.03458738 0.011450803 -0.015972903 0.010173828
0.0047851275 0.010240794 0.012582607 0.023220032 0.012328117 0.023277672 0.03594567 0.06827679
0.068391226 0.029805243 -0.023217324 0.012768833 -0.043947957 -0.013082846 0.00080405956 0.024703555
0.054310292 0.012012783 0.05566505 0.050122105 0.029103624 0.00934441 0.08150925 0.00992468
0.044628542 0.007935254 0.08478999 0.054727554 -0.00015928745 0.022323351 -0.0347764 0.029559042
0.0481692 0.068619765 0.032485235 0.033426307 0.012440118 0.008105256 -0.017365308 -0.04005136
-0.1859221 0.005440177 0.00081702165 0.042525016 0.024921723 0.031863213 -0.00062120415 -0.013520024
-0.054085985 0.004958058 0.06728412 -0.0013042667 -0.0301829 0.008232951 0.012236139 0.052134775
0.051557474 -0.031249277 -0.018832207 0.007018592 -0.044215035 -0.053466704 -0.03706777 -0.06602495
-0.018407451 -0.01639327 -0.040749945 -0.04567422 -0.0057114637 -0.027101766 -0.0011086416 -0.023055434
-0.008319108 -0.04001542 -0.008077216 -0.029895319 -0.051668037 -0.03784393 -0.015308749 -0.041883763
-0.027191393 -0.002400125 -0.013426851 -0.06740791 -0.06349789 -0.085522875 -0.03421281 -0.033417378
-0.047171734 -0.08252364 -0.07925788 -0.013036038 -0.049680218 -0.0688421 -0.02699156 -0.026205907
-0.0074647265 -0.037772104 -0.052779697 -0.068347976 -0.015221426 -0.03812659 -0.011362116 0.004358632
-0.05673767 0.02247729 -0.041292317 -0.06947544 -0.07583512 -0.058626935 -0.05839796 -0.030454593
-0.060302436 0.019014657 -0.1098225 -0.05696161 -0.060995158 -0.059995633 -0.07686862 -0.024795763
-0.036424443 -0.36604783 0.014932484 0.036411107 -0.085793495 -0.06371602 -0.056226876 -0.06000222
-0.058928847 -0.023893211 0.045422096 0.0028306234 -0.01416276 -0.012712904 -0.061739005 -0.03863705
-0.025050962 0.010612612 -0.019903364 0.0039718193 -0.016364222 -0.02422726 -0.044455305 -0.01494366
0.013001233 -0.020081969 0.028504148 -0.00086518726 -0.012320394 -0.009424725 -0.027632194 -0.034390073

act_fc1.bias f4 [81]
00000000: e6eb aa3c 8222 84bd 57e3 04be 8868 51bd
00000010: a132 44bd fb18 92bd 7c4e 0bbe 5c69 53bd
00000020: c7ca d13c 8ff2 40bd 43dc 863b 6fd3 f7bd
00000030: 5f44 8e3d 8608 ed3b ff91 d83d b3bd cebd
00000040: 3598 60bd 2bfa fcbc 523f 19be 38d4 dcbd
00000050: 3aee 423e cc0b 893d 72ea e33d 7e68 e83c
00000060: 1f03 fa3d d1c2 1cbe 87f5 cebd 288b 12bd
00000070: aae0 b53d 200a 0a3d 4d67 a03c 7a85 173d
00000080: 7408 1e3a 8b55 c53b c0a3 983d d329 4cbd
00000090: fb53 a1bc 2301 eabc fd8f 173e eed8 f63b
000000a0: 0241 e6bc 6617 2c3d 1f01 f43d bdec 2cbd
000000b0: 02c9 9dbb 86d9 19bd 696c b83d 0677 23bc
000000c0: 8f3a b83c 9787 693d 2879 b3bb 27d4 ed3c
000000d0: fa01 113d f786 5bbd 2b0a dfbd f195 dabd
000000e0: f79b 3d3e 84d4 113d 9568 233e 5f99 913d
000000f0: 77f1 6a3e 5f50 b5bd 3343 acbd 8bef 7abd
00000100: 4aaf 773c cc0d f6bd 71d5 963d c9be 28bc
00000110: 1332 a53d 063b d9bd 34b7 953c 270c 15bd
00000120: 0d8a 733c 0050 c2bc f99b f7bd ebdb 7bbd
00000130: 9134 85bc 1104 a1bd be9b 7abd c38d 18bd
00000140: 354e 8b3c
0.020864438 -0.06451894 -0.12977348 -0.05112508 -0.047899846 -0.07133671 -0.13604158 -0.05161415
0.025609387 -0.047106322 0.0041156127 -0.12100875 0.069466345 0.007233682 0.105747215 -0.10094776
-0.054832656 -0.030881008 -0.14965561 -0.10782665 0.19036189 0.06691703 0.11128701 0.028370138
0.122076266 -0.15308692 -0.101054244 -0.03577724 0.08880742 0.033701062 0.019580508 0.036992528
0.00060284813 0.0060221604 0.07453108 -0.049844574 -0.019693365 -0.028564995 0.14801021 0.0075331843
-0.02810717 0.042014502 0.11914276 -0.04221796 -0.0048152218 -0.037560962 0.090050526 -0.009977108
0.02248886 0.057014074 -0.0054770894 0.029031826 0.035402276 -0.05359551 -0.10890611 -0.1067313
0.18516527 0.03560306 0.15957864 0.07109331 0.22943674 -0.0885322 -0.08411255 -0.061263602
0.015117476 -0.1201435 0.073649295 -0.010299393 0.080661915 -0.10606961 0.018275835 -0.036388543
0.014864457 -0.023719788 -0.12090296 -0.061489027 -0.016260417 -0.07862104 -0.061183684 -0.03724457
0.017005065

val_conv1.weight f4 [2, 128, 1, 1]
00000000: 941a 753e a108 06be 45ae 08be f584 4a3d
00000010: 02e4 a73e c8a3 3cbd 744e 003b daba 563e
00000020: b93f 2f3e 2582 843e 7ca7 a1be 4d55 3cbd
00000030: 4692 acbe 78b1 0d3d 9dee c93e 2053 14bd
00000040: 1469 02be 922c ba3d e49e 613c 5da3 513c
00000050: fe51 4ebe 4393 1abe 9524 913d d4cf 173d
00000060: 9570 fe3c 587b a0be e096 86bc 2444 b53d
00000070: d261 fd3c 4e69 4bbd 27cc 27bc ffff f83d
00000080: 4d95 6f3b 91aa a23d e5f0 1b3b 9da2 48bd
00000090: aab8 a63d 5b4b 13bb 6c24 153e b0b0 1712
000000a0: 3eca 2dbe 42c3 1c3e 40bf c0bc f4af 013d
000000b0: 41e3 8cbd 0426 273d da45 a8be fa25 7f3d
000000c0: 0713 09bd 21cf 74be 1a98 dcbd b4d8 6d3c
000000d0: 25ff c3bd 3614 aaba 4232 833e 434d 2c3e
000000e0: c757 0d3e 5bad 6f3e bb89 cb3c 2dee cc3d
000000f0: d17f 603e b523 103d ab00 81be 3841 10bd
00000100: 4d66 293d 1e3f de3c 650a 533d c320 133d
00000110: 6783 5d3e d3b5 b73c 2c8e 36be 60e9 54bd
00000120: a43c 7abe 7de6 223e 4ee1 d7bc 2d26 c33e
00000130: 5136 13be 08fd 3cbd 0d8a 993d c57d 713e
00000140: 347a 443d 9100 123e ac4e 74be 7491 fb3d
00000150: 3b66 0f3e 3203 103c 3dbf a93b 59ab bebc
00000160: f232 5f3c 7b19 3abe 2bb4 11bd 73e6 343d
00000170: 72b7 6a3d 2400 63be cd5d 2c3d f34f 0bbd
00000180: 9315 f63d d56a 8b3c 33b1 dc3d 1ff3 81ba
00000190: 69fc 943d 650d b03c 7e20 21bd e646 3a3c
000001a0: 0c6e 8abc 9b58 d2bb 5988 963d 158b 033d
000001b0: 54b5 67bd caba c43b 9432 d93d 32cf d33d
000001c0: edb4 5bbe f7b5 823d 4b00 db3c aef4 6fbb
000001d0: 30db 013c 97bb 783e b5d8 473d 1ce8 6e3e
000001e0: cfda 8239 a226 b5be 3a27 023d ae89 5cbb
000001f0: 2d25 673e 007f 013d be46 4f3d cad5 043e
00000200: e1b4 1f3e 8bea 12be 8815 113e 46cc d8be
00000210: 6b2b 843e ac6b 46be 8677 1c3e 1c11 a7be
00000220: 95db 99bd d18b 6b3d 59a2 d13e c020 d1be
00000230: bbdd 5a3e f53e 3f3d 6316 e9bd 4a37 563e
00000240: 6e42 b63e a209 a1bd 954d cd3c a343 ae3b
00000250: 08c2 193e 645e d0bd 7f49 19be eaa0 a6be
00000260: d4b2 8dbd 3355 9c3c ea89 2f3e c01f b9be
00000270: 3f65 9f3e 3961 c0be 6dc0 e0be e992 ca3d
00000280: 5e47 f83c f815 8fbe 6bdd 9db9 fc7a a2bc
00000290: cd85 713d f583 a13a 0d38 84be 24ec 98a7
000002a0: 98ff de3e 255e 8ebe a195 953e c7d4 d03c
000002b0: 6d07 dbbb 922e f53d 518a 673e 9671 0f3e
000002c0: 3e22 0dbd ae9c 883e 200c 00bd 66f4 e1bc
000002d0: 3daa 393e 9b56 c7be 9c79 a33e 941e d8bd
000002e0: 93ab f3bc 9024 3abe 7ae0 27bd 8e57 c7be
000002f0: 6358 033f ee02 c13e 75cb 13be fd93 fbbc
00000300: 80fe 29be 67a7 813e 854b 1ebd b508 c23e
00000310: d7fb 2b3e 9e1d aabe 05d8 5a3e 66bb 34be
00000320: 5214 60be e824 6abe c71d ffbe 261c 913e
00000330: b83b a63e 56a2 283d 1ea4 1e3e e8cf cabe
00000340: f22f 323e 50f6 12bd af06 d33c ab5a ddbd
00000350: f559 c0be 9080 773c b1c5 c9bd 7912 1a3e
00000360: d538 823c 99b6 273e c243 45bd 139b 3f3e
00000370: b6cd 433e 8a89 acbd 4bb2 3f3d 6231 ec3e
00000380: 65da 663e cf50 e23c 3dc1 27be ef48 053b
00000390: 05ed c2be c22f 0e3d eb74 8e3d b12a 44bd
000003a0: d498 f03e a638 c7be f6bf 233d 5452 09bd
000003b0: 0752 a9bd 7a98 dabb f993 69be 3436 41be
000003c0: 2298 23be 169e 48bd a4e1 543e 4196 143d
000003d0: f90b 203c bc67 823e ea92 db3e 8114 c7be
000003e0: b760 213b 625b 1d3e 4e17 b0be 54c1 a1bb
000003f0: 1d75 acbe 734d c8be 7ae9 b13e 2fa8 e03c
0.2393592 -0.13089229 -0.13347729 0.049443204 0.32791144 -0.04605463 0.0019578012 0.20969716
0.17114152 0.25880542 -0.31573093 -0.045979787 -0.33705348 0.034593076 0.3943986 -0.036212087
-0.12735397 0.09090532 0.013770793 0.0127952965 -0.20148465 -0.15095238 0.070870556 0.037063435
0.031059543 -0.31344104 -0.016429365 0.088508874 0.030930433 -0.049660973 -0.010241545 0.121582024
0.0036557496 0.07942689 0.0023794707 -0.048983205 0.081406906 -0.0022475335 0.14564675 4.7864983e-28
-0.1697168 0.1530886 -0.023528695 0.031661943 -0.06879283 0.04080774 -0.32865793 0.062292077
-0.03346541 -0.23907138 -0.107711986 0.014516998 -0.09570149 -0.0012975994 0.2562428 0.16826348
0.13803016 0.23405974 0.024845948 0.10006366 0.21923758 0.035190303 -0.25195822 -0.035218447
0.041357327 0.027129706 0.051523585 0.035919916 0.21632157 0.022425568 -0.17827672 -0.051980376
-0.24437195 0.15908237 -0.02635255 0.38115063 -0.14376189 -0.046139747 0.07497034 0.23583134
0.047968104 0.14258029 -0.23858136 0.12283602 0.14003842 0.008789824 0.005180268 -0.023275064
0.013622986 -0.18173783 -0.035572212 0.044165086 0.057303853 -0.22168022 0.042081643 -0.034011792
0.12015834 0.017018715 0.107759856 -0.0009914375 0.07274706 0.021490762 -0.039337628 0.011369443
-0.016898178 -0.006419254 0.07350225 0.03211506 -0.056569412 0.0060037123 0.1060535 0.10342254
-0.21455736 0.06382363 0.026733538 -0.0036614346 0.0079257935 0.2429031 0.048790652 0.2333073
0.00024958557 -0.35381037 0.03177569 -0.00336514 0.22572775 0.031615257 0.050604574 0.12972179
0.15596344 -0.14347284 0.1416837 -0.42343348 0.25814375 -0.19377011 0.1527997 -0.3263024
-0.07512585 0.057506386 0.40944174 -0.408453 0.21373646 0.0466909 -0.11381223 0.20919529
0.35597557 -0.078631654 0.025061408 0.0053181215 0.15015423 -0.101742536 -0.14969443 -0.32544643
-0.069188744 0.019083595 0.17142454 -0.36157036 0.31131932 -0.37574175 -0.4389681 0.09891302
0.030307468 -0.27946448 -0.00030110343 -0.019834034 0.058965493 0.0012322651 -0.25824013 -4.24445e-15
0.43554378 -0.27806202 0.2921572 0.025492085 -0.006684235 0.11971773 0.22611357 0.14008173
-0.034456484 0.26682037 -0.031261563 -0.027582359 0.18131347 -0.38933262 0.31928718 -0.10552707
-0.029744899 -0.1817801 -0.040985562 -0.38933986 0.5130674 0.37697548 -0.14433081 -0.030710215
-0.1660099 0.2532303 -0.03864624 0.37897268 0.16795288 -0.3322572 0.21371467 -0.17649612
-0.21882752 -0.22865641 -0.49827406 0.28341788 0.32467437 0.04117044 0.15492293 -0.39611745
0.17401102 -0.035879433 0.025760023 -0.10808309 -0.37568632 0.015106335 -0.0985216 0.1504611
0.01589624 0.16378249 -0.048160322 0.187115 0.19121441 -0.08424671 0.046800893 0.46131426
0.22544248 0.027626423 -0.16382308 0.0020337661 -0.38071457 0.034713514 0.06955894 -0.047892276
0.469916 -0.38910407 0.03997799 -0.03352578 -0.082675986 -0.0066710087 -0.22810353 -0.18868333
-0.15976003 -0.048978887 0.207892 0.036276106 0.0097684795 0.25469768 0.42885524 -0.3888283
0.0024624297 0.15366891 -0.3439278 -0.0049363766 -0.336831 -0.3912159 0.3474844 0.027423946

val_conv1.bias f4 [2]
00000000: 9509 f63b 177f 323d
0.0075084665 0.043578234
