best_policy99.model (torch, 529533 bytes, 15 tensors)

conv1.weight f4 [32, 4, 3, 3]
00000000: 3797 ce3e 4117 d1bc 70be dabb 0eed c5bd
00000010: 8ee5 033e 7815 24be 5243 243e dc21 75be
00000020: d73e 6a3d b951 263e e31e 7cbe da36 b5bb
00000030: d892 9bbe e447 673d 8670 d03d dbcd 03be
00000040: 2eac 153e d6ef 7abe 31ca f13c 5bc9 fe3d
00000050: b3a5 a93c 2239 4a3d d2c2 833d ee5e 0dbe
00000060: e855 813d b662 d23c 7cb1 a83c 9efe b8bd
00000070: 85f3 2fbe 143d fa3d 8a26 1d3c 1c32 c43b
00000080: a412 dbbc b951 1dbe b680 1a3e 9d62 ff3d
00000090: 628a 85be 9f9d 24bd 9080 8e3d de7e 42be
000000a0: 57a4 f0bc fd75 9abe e83c 6dbe 7222 2f3d
000000b0: 0fac 23be 6f69 9ebe 3156 21be 15a6 afbd
000000c0: f2aa 64be d035 333e 8919 b1be ed48 c2be
000000d0: ec8d 003e fabd 4cbd fe7d e2bc fba9 753c
000000e0: b542 e4bc 0af7 23bd d45e c23d c3c0 e4bd
000000f0: 3370 163d 02b4 dbbb 0df1 2b3d 2581 bfbd
00000100: d3c3 c8bd bf01 09be b5e6 15bc 5749 623e
00000110: b547 103e a75d 263e a40c 4b3d 1201 363e
00000120: 0d48 3f3e 9d30 5ebe d3b9 8ebe 9a6a 433e
00000130: 4e4f 9a3d 621c 263e 0888 2e3e b7d3 38be
00000140: 5162 0abe 11f1 dfbe 0f62 833e 02a6 813e
00000150: ff86 f3be 70c7 223e ebff 33be 43a4 25be
00000160: 129e 22be 9be7 fe3d 0067 053d e1cc 82bd
00000170: 5866 3b3d af09 80bd 0c90 953d ad30 c2bd
00000180: 3b31 64bd b830 ab3d 1ecd 633d 05c8 0e3e
00000190: 16b2 2cbe 7604 a53d 9a18 2f3e 85fb 053e
000001a0: dc50 ea3d df6b c2bd 3ac8 9bbd 96e8 9fbd
000001b0: 5c28 8cbe b3d8 dbbd fc8f 6ebd 1a68 d8bd
000001c0: 7793 55be 6981 05be 6b70 a1bd 017a 2ebe
000001d0: 7773 593e f653 46bd 9658 bb3e 397b d6bd
000001e0: 9f3f 203b d7e2 d83e 4be0 b53e f362 93be
000001f0: 5658 983e 00b0 a1be 3da9 3ebc 86db 92bc
00000200: 674a e63d f9d7 c03c f099 a8bc ff7f 593d
00000210: bb48 04be ddce bc3b 0e99 3cbe ac31 e93d
00000220: 8334 b43d 72c7 0b3e f5d8 8a3c 4581 08bd
00000230: b9c5 4e3e 8e4d edbd 6152 f0bd b5d9 18be
00000240: 1e7c 7abe cfcc 89be 19fd 46be f286 5b3e
00000250: 2bd0 ebbd c9e0 a13d ab51 6abd 7dcb e83d
00000260: c283 3f3e 0026 32be 0119 f9bd fe87 5bbe
00000270: 4bad 2f3d 4d1a d63d 4b9c 7c3e 1d68 aa3d
00000280: 9b78 983e d1c1 51be 2625 383d 8b9b a83c
00000290: 099c b8bc 2d3c ff3b af4d 95bd dc59 20be
000002a0: e9a8 e13c 1c12 f8bc 228f 283e a690 b1bd
000002b0: e86b 36bd b983 7abc 5c65 51be fe31 c4bd
000002c0: e8c4 5b3d e1ca 4dbe 17fb 3bbd 2158 a93d
000002d0: 5d5c e33e e047 3b3e c9c7 c03e 0791 eabd
000002e0: 498b 843e 3997 163e 1624 863e 45f2 823e
000002f0: c064 b53e 9b01 5dbe 7cf3 1dbe a51d e4bd
00000300: 54c0 8fbd 1b27 a4bd 98a6 adba 6283 3b3c
00000310: ee16 9bbc c766 eabd 770e 5fbd 88e0 6fbd
00000320: dc04 1d3e 3bb7 c13d ccf5 403d 98f8 543d
00000330: 7b4e 3abc 3802 36bc 7828 563d 3f15 993c
00000340: b716 bd3d de25 22be 6467 653c 3fc0 acbc
00000350: ddde e1bd 7fc2 afbd 9499 a7bd c24a 133e
00000360: 67a9 083e 9c4e 4c3e b117 bcbe 4a27 1bbd
00000370: 6454 35be 0b87 1dbd 4488 8e3e 1c5e e5bd
00000380: 345f 023d ea7c e23d a10a 1fbe 6885 c23e
00000390: cea2 69be 4c54 aa3c 5478 efbc e930 9c3e
000003a0: 4ac2 e2bd 32ef e63c 7a09 acbd 5740 023d
000003b0: 4f94 8d3c ef41 abbd 6366 1a3c 7400 6bbd
000003c0: 6767 42bd 15c2 bc3d b078 99bd 73c5 eabd
000003d0: 1586 a53b a183 febc a84a c53d 0e3e 01be
000003e0: 706d e73c 7cd3 d73d 8365 89bd 68a7 293d
000003f0: 048a 43be e4ab 813e 3063 cdbd 78b2 283d
0.40349743 -0.025523784 -0.006675534 -0.09664355 0.12880537 -0.16023815 0.16041306 -0.23938698
0.057188835 0.16242112 -0.24621157 -0.0055302205 -0.3038547 0.056465045 0.10177712 -0.12871496
0.14616463 -0.24505553 0.029515358 0.12440749 0.020708894 0.049370892 0.064336434 -0.13805744
0.063152134 0.025681835 0.020592444 -0.090329394 -0.17182739 0.12218681 0.009591708 0.005987419
-0.026742287 -0.15363206 0.15088162 0.12469981 -0.2608214 -0.04018938 0.06958115 -0.18993708
-0.029375238 -0.30168143 -0.23167765 0.04275746 -0.15983604 -0.30939814 -0.15755536 -0.085765995
-0.22330835 0.17500997 -0.34589794 -0.37946263 0.12554139 -0.049985863 -0.027647968 0.01499414
-0.02786384 -0.040030517 0.09490743 -0.11169579 0.036728095 -0.006704808 0.04197793 -0.09350804
-0.098029755 -0.13379572 -0.009149243 0.2209829 0.14089854 0.16246663 0.049572602 0.17773846
0.18679829 -0.21698232 -0.27876148 0.19083634 0.075346574 0.16221765 0.1704408 -0.18049513
-0.13514067 -0.43738607 0.2566075 0.25321966 -0.4756393 0.15896392 -0.17578094 -0.16175942
-0.15880612 0.12446519 0.03256893 -0.06386734 0.0457519 -0.06251847 0.073028654 -0.094819404
-0.055711012 0.08358902 0.055615537 0.13943489 -0.1686481 0.080574915 0.17099229 0.13084228
0.11441204 -0.09493231 -0.076065496 -0.07808034 -0.27374542 -0.107346915 -0.058242783 -0.10566731
-0.20857035 -0.13037647 -0.0788277 -0.17038728 0.21235453 -0.048419915 0.36591023 -0.104727216
0.0024451984 0.42360565 0.35522684 -0.2878643 0.29754895 -0.3157959 -0.011637029 -0.017926943
0.1124466 0.023540484 -0.020581216 0.053100582 -0.1291837 0.0057619647 -0.1841776 0.11386427
0.08799078 0.13650301 0.016949156 -0.033326406 0.20192613 -0.11587058 -0.117344625 -0.14926799
-0.2446141 -0.2691407 -0.19432487 0.21438196 -0.11514314 0.079042025 -0.05720679 0.11366937
0.18702605 -0.17397308 -0.12162972 -0.21438596 0.042889874 0.10454235 0.24668996 0.08320639
0.29779515 -0.20484091 0.044957303 0.020581981 -0.02253534 0.007789156 -0.072902076 -0.15659279
0.027546363 -0.030282073 0.16460851 -0.086701676 -0.0445365 -0.015290194 -0.20448822 -0.09579848
0.05365458 -0.20096923 -0.045893755 0.082687624 0.44406405 0.18289137 0.37652424 -0.11453443
0.25887516 0.14706124 0.26199406 0.25575462 0.3542843 -0.21582644 -0.15424913 -0.11138467
-0.070191056 -0.08015271 -0.0013248501 0.011444898 -0.018931832 -0.114453845 -0.054457154 -0.05856374
0.15333885 0.094587766 0.04710941 0.05199489 -0.01137125 -0.011108927 0.052284688 0.018686889
0.09232848 -0.15834758 0.014001701 -0.021087764 -0.11028836 -0.08582019 -0.081835896 0.14383987
0.13345872 0.19951862 -0.36736825 -0.037879266 -0.17707974 -0.038458865 0.27838337 -0.111995906
0.031829074 0.11058982 -0.15531398 0.37992406 -0.22816011 0.020792149 -0.029232182 0.30506065
-0.11072214 0.02819023 -0.08400245 0.03179964 0.017282633 -0.08362185 0.009423825 -0.05737348
-0.047461893 0.09216706 -0.074937224 -0.11463442 0.005051384 -0.031068625 0.0963338 -0.12621328
0.028250426 0.10538384 -0.06708815 0.041419417 -0.19095618 0.25326455 -0.10028684 0.041185826

conv1.bias f4 [32]
00000000: 1a73 b23b 56af 88bd 5ed7 403d 9bb1 fa3c
00000010: 7a39 c73c ea11 3abe 0b3d 3e3e 754d 2abe
00000020: 214d 57be 2d73 0b3e 1b8e 7d3d 8c07 b5bd
00000030: b719 17bc 6ec9 a93d 74a1 003d 23a1 e33d
00000040: 958f a43d ec71 46bd f80c 24be 7242 5a3d
00000050: 70a0 0ebe 51eb 7abd 19bf a4bc 9855 0f3e
00000060: 5466 fa3d 5a54 463e 0023 723d 7f10 a23d
00000070: 1a73 a13d a3aa 1ebe 93be aebd 21df 43be
0.00544585 -0.06674068 0.04708039 0.030602267 0.0243194 -0.18170896 0.18577974 -0.1663111
-0.21025516 0.13618155 0.0619031 -0.0883933 -0.0092224395 0.08290373 0.031403974 0.11114719
0.080351986 -0.048448488 -0.16020572 0.053286023 -0.1392839 -0.06125957 -0.020110654 0.13997495
0.12226549 0.19368115 0.05911541 0.07913303 0.07883282 -0.1549478 -0.08532443 -0.19128086

conv2.weight f4 [64, 32, 3, 3]
00000000: 380d 9bbd 6a58 cabc a328 30bd 1323 21be
00000010: 8f73 eb3d 84a2 90bd 5bc6 043d 011b 38be
00000020: 5a1d a53c 50c6 e8bd a7b1 193d 5c31 60bd
00000030: e889 8b3c 1379 f53d 4eef a13d 68e8 ab3d
00000040: cc4d 22be 7e1b 38bd deaa 37bd 5ae2 063e
00000050: 2b69 e2bb c0c5 043e 9794 9c3d 7ba6 8fbd
00000060: a946 163c 5c23 833e edd4 8a3c 3291 743e
00000070: 9da8 cebd 8aaf 3dbe a7b1 32be d8ba 3e3d
00000080: 2e79 dabd 610b 36bd fcc1 043e 7a79 5b3d
00000090: fda0 fdbd f214 5c3d e790 21be 5ab6 8ebd
000000a0: 3564 613d 71e4 883d 5ddd 2a3d 63da 27be
000000b0: c5a7 e0bd 0f5b 2a3d 67f2 c63d 1a18 103e
000000c0: c913 103e 9beb 323d c98f 133d a29c 583e
000000d0: 7d95 083e 4574 5e3c 5409 433d 86a4 4fbe
000000e0: f2c8 83bc 0d9b 9fbd 815f 1b3e 20af a4bc
000000f0: b0d5 4bbd 11c3 33be 1a57 b0bd ce74 ae3d
00000100: d0c4 c1bd d9e0 963c 2a82 ca3d 0238 973d
00000110: 99fa b93b 6a8f b7bd 342a 98bc 6513 f5bd
00000120: af16 b1bd e584 b1bc 37b5 b73d dfc5 4e3d
00000130: 9a61 9c3b 2977 29be 6ff7 5f3d a89f d7bd
00000140: 51fc 99bc 7965 84bd db12 dbbc a310 113e
00000150: 9b59 483d a36e c63d 6e26 8a3a c2f9 6bbd
00000160: 6faa 0fbd 09a2 ccbc a3e1 84bd b0d8 2abd
00000170: 3538 dfbd 2261 b8bd da8d af3d 06f2 16be
00000180: daa4 09be 098b 00be a0f9 163e 805d 01be
00000190: 3f01 2ebe 5461 71bc 8998 9cbe ac64 113e
000001a0: c980 063e 788d 74bd 38f1 a8bd d9f0 493e
000001b0: e103 b33d ead3 1d3d 767b 983e b4e8 81be
000001c0: fc6b 313d 85f5 a43d 9167 b2bd c525 3ebc
000001d0: dac0 0abc c661 69bd e5f7 0c3e c9a9 5cbc
000001e0: 3764 2f3d 79c8 c2bd ad20 c1bd 3924 8f3b
000001f0: bff8 4b3d e217 64be bf50 9dbe e60b 09be
00000200: a6f5 2ebd 951a e7bc 1c40 e4bd f603 003d
00000210: 8f66 8c3d a088 c03d 26d7 993c 0de4 d53d
00000220: 5117 5ebe 8c88 3f3d 00ea 03be 54dd 86bd
00000230: 1356 a0be 1266 8c3c 751c ec3d 4b48 bd3c
00000240: b9f1 dcbb d8bf 5dbe 8c0d 513d fd65 67be
00000250: 25ae 283d 1a47 943d 72a6 56be cf93 48bd
00000260: ba44 4cbd f010 9fbb e574 23bd 61e2 083e
00000270: b973 123e 2741 083c 1729 1f3c d25b 303e
00000280: 5c2d 48bd 32fd 163e 052c 663d 6bc5 bcbc
00000290: e2b2 0ebc 63b0 7e3e 58df d93d b466 303e
000002a0: ce0c 593e 1bf3 32bc f01c 5abe b39e f8bd
000002b0: 6810 c9bd 4ba1 06be 8599 35be 2468 92bc
000002c0: 3ae7 83be 3e93 663e 8f43 a0ba 6582 353d
000002d0: 49b6 5d3d 1966 88be 7d36 f6bd 828e bbbd
000002e0: fa3a bf3b 1774 db3d 7cab 873d 0da2 743e
000002f0: b432 213e 8568 2ebe 6a55 0a3d 1315 27be
00000300: 38ce 2a3e ee6e 033a 41f3 753c cf09 3ebe
00000310: 5531 36bc e1f5 b0bd 3d02 7ebd adc1 223e
00000320: f159 a4bd 9e36 d63d 65a7 863b e0ab 093e
00000330: 0f4c 16bd f38f d23d 51d9 96bd 7a7f e63d
00000340: 0c3e b6bd d695 583e 2b7f 2abd bc8e 51bd
00000350: 1163 08bd 7d2f bfbd e552 42be b876 0abe
00000360: da04 133e ed59 fabd 7dbe 533d fffc 173e
00000370: 0edc 79bc 34e3 ca3d fdd4 183e 0d86 83be
00000380: 8c12 52bd 24f8 87be 59e2 2bbe 99f6 363c
00000390: e089 adbd 14a9 d3bd 2729 4abe 3afc fa3c
000003a0: 48b8 113d 68f0 6f3c caf8 b33d 7030 50bd
000003b0: b22a b13d 083e 92be bf06 d1bd 50a7 b1bd
000003c0: 70cc 3bbe e373 af3d 9186 c63d 8c8a c1bd
000003d0: 4703 6fbc f2f1 ad3d 6a3e 043d 8444 c23d
000003e0: 6d5f 12be 6edf 373e ad1b 94bd 1bb5 2fbd
000003f0: 52d9 ad3d e434 20be f183 383d 19fa 8cbd
-0.07570881 -0.024700362 -0.043007504 -0.15736036 0.114966504 -0.070622474 0.03241573 -0.17979051
0.020155597 -0.1136595 0.037522938 -0.054734573 0.017033532 0.11985984 0.07906972 0.08393937
-0.1584999 -0.044948094 -0.044840686 0.13172284 -0.0069095097 0.1296606 0.07645529 -0.070141755
0.00917212 0.25612915 0.016947234 0.23883513 -0.10090754 -0.18523994 -0.17450581 0.046564907
-0.106676444 -0.044444446 0.12964624 0.053582646 -0.12384222 0.053730913 -0.15777932 -0.069683746
0.055027205 0.06684197 0.041715015 -0.16391902 -0.109694995 0.041590746 0.09714203 0.14071694
0.14070047 0.043681722 0.036025796 0.211535 0.13338275 0.0135775255 0.047616318 -0.20277604
-0.01608703 -0.077932455 0.1517315 -0.020103037 -0.049764335 -0.1755488 -0.08610363 0.085183725
-0.09461367 0.018417763 0.09888108 0.073837295 0.0056756255 -0.08962901 -0.018574812 -0.1196659
-0.08646905 -0.021669814 0.08970111 0.050481673 0.004772377 -0.16549362 0.05467933 -0.10528499
-0.018797072 -0.06464667 -0.02674239 0.14166503 0.04891358 0.09689071 0.0010540017 -0.057611234
-0.035074648 -0.024979608 -0.06488349 -0.041710556 -0.108993925 -0.090029016 0.08571978 -0.14740762
-0.13441792 -0.12553038 0.14743662 -0.12633324 -0.16992663 -0.0147326775 -0.30585125 0.1419856
0.13135065 -0.059705228 -0.08249134 0.19720782 0.08740974 0.038532175 0.29781693 -0.2537285
0.043315873 0.08054642 -0.0871116 -0.011605685 -0.008468831 -0.05697801 0.1376644 -0.013468214
0.04282018 -0.095108934 -0.094300605 0.0043683317 0.04979777 -0.22274736 -0.30725667 -0.13383445
-0.042714737 -0.028210917 -0.111450404 0.031253777 0.06855499 0.09401059 0.018779349 0.10443888
-0.21688582 0.04676108 -0.12882233 -0.06585184 -0.3131567 0.017138515 0.11528865 0.023105761
-0.006742683 -0.21655214 0.05103831 -0.22597499 0.041181702 0.07240124 -0.20961931 -0.048969086
-0.04987023 -0.004854314 -0.0399064 0.13367607 0.14301957 0.008316315 0.009714386 0.17222527
-0.048871383 0.14745024 0.056194324 -0.023043355 -0.008709641 0.24871974 0.106383026 0.17226678
0.21196291 -0.010922219 -0.21300101 -0.121396445 -0.09817582 -0.13147466 -0.17734344 -0.017871924
-0.2576235 0.22517106 -0.0012227165 0.044313807 0.05412892 -0.26640394 -0.120221116 -0.091580406
0.005835888 0.10715502 0.06624505 0.23889942 0.15741998 -0.17032059 0.033772863 -0.16316633
0.16680229 0.0005013783 0.0150116095 -0.18558429 -0.01112016 -0.08640648 -0.062013853 0.15894194
-0.080249675 0.10459636 0.0041093105 0.13444471 -0.03669363 0.102813624 -0.073656686 0.11254783
-0.08898553 0.21150908 -0.041625183 -0.051161513 -0.033297602 -0.093352295 -0.18976934 -0.1352185
0.1435732 -0.12224183 0.051695336 0.14842604 -0.015250219 0.09906617 0.14924999 -0.2568821
-0.05128722 -0.26556504 -0.16785564 0.011167192 -0.08473563 -0.103349835 -0.19742261 0.03063785
0.035576135 0.01464472 0.08787687 -0.050827444 0.086507216 -0.2856295 -0.10206365 -0.086744905
-0.18339705 0.085670255 0.09693635 -0.09450254 -0.014588184 0.08493413 0.032286085 0.094857246
-0.14294215 0.17956325 -0.07231841 -0.042897325 0.08488716 -0.15645176 0.045047704 -0.0688364

conv2.bias f4 [64]
00000000: d6b3 6ebc 5c93 b23c c37b 8abd ed79 0fbd
00000010: 4784 a6bd c20c a93d 7564 8d3c 5376 d53c
00000020: 6194 d438 ffa7 bdbd bb85 17bd 8aba 13bd
00000030: 7960 6b3d 68db 06bc 3f6d 753d 395f 81b9
00000040: 1619 0ebd fb81 18bd 67d6 9ebc 42df 253d
00000050: 37c6 133d e7f4 863d e20d 4abd 9f85 c23d
00000060: 623a fdbd 589f 693d 6e8b 843d 06af 71bd
00000070: e984 4c3c ab3b 3f3c 4756 3a3d eb8e 54bc
00000080: fd9e 0dbe ce7f 86bc 0ce4 34bc 1c55 3abd
00000090: d71b 13bd 92e5 c6bd 7fd6 b8bd e86d fb3c
000000a0: 5517 903d 3f77 8b3d 2082 d536 e41a 79bd
000000b0: f62a 98bd 6fbf c43c 79ff 95bb 4aab d4bc
000000c0: 88bd 0fb9 0b55 59bd 7ca3 4dbb fbbe 86bc
000000d0: afa8 98bd f624 8339 2c08 973c 49a5 94bc
000000e0: 8c16 aa3c 3e97 14bd 784e a8bd f4c4 45be
000000f0: 79d4 35ba 987f a2bc 283a 9dba 2c37 85bd
-0.014569243 0.021798782 -0.06761887 -0.035028387 -0.08130699 0.082543865 0.017259816 0.026057398
0.000101365855 -0.09260558 -0.03699277 -0.03606657 0.05746505 -0.008231021 0.05991864 -0.00024675744
-0.034691893 -0.037233334 -0.019389344 0.04049612 0.036077704 0.0658968 -0.049329646 0.094981425
-0.12364651 0.057036728 0.064719066 -0.059004806 0.01248286 0.011671941 0.045492437 -0.012973527
-0.1383018 -0.016418364 -0.011040699 -0.045491323 -0.035915222 -0.09711756 -0.09025287 0.030692056
0.070357 0.06809854 6.363043e-06 -0.06081666 -0.07430069 0.024017064 -0.004577574 -0.025960583
-0.00013708149 -0.05305962 -0.0031377962 -0.016448488 -0.07454049 0.00025013805 0.018436514 -0.01814522
0.020762704 -0.03627705 -0.08218092 -0.19313413 -0.0006936263 -0.019836232 -0.0011995481 -0.06504664

conv3.weight f4 [128, 64, 3, 3]
00000000: 4084 ff3c 2e41 2bbc 5c4d 92bd ab60 b13b
00000010: c1e3 183e 46a6 983d bbc3 033e 0f25 88bd
00000020: fe25 cbbd fc04 03bc cb1c d9bb 7446 5abd
00000030: 2c60 8c3d 6673 21bd 28cf 893c b9e2 8e3c
00000040: a500 18bd 2260 d33c c53e 6fbd 8ba9 f9bd
00000050: 3467 9f3b fd6d 80bc 780f d9bd 47a3 0ebc
00000060: d701 8abd de17 74bd 80f9 a1bb b794 603d
00000070: 3fa5 a13d c8c6 6bbc da49 703c 1e55 d2bd
00000080: 1690 e63d 972a 9d3b 96a6 a83d d7d5 73bc
00000090: 7947 f9bd d47b c43d 395d 93bd eaf1 09be
000000a0: 0625 84bd 1055 3ebc 0f8c d4bc 981d 58bd
000000b0: eb31 be3d 401f 383d d745 793c 65f7 3dbd
000000c0: 6a17 5d3d 9343 963d 14d1 353d 5a2b c8bc
000000d0: 1e2a 003e cc51 a63c 73fc 06bd 4e50 79bd
000000e0: 78f3 8cbc c130 923c be51 213d d6ee 463d
000000f0: 2c2d bd3b 2a65 d33d 7e52 01bb 2b60 27be
00000100: a2f6 29be b056 ebbd a565 39bc f7ba 58bd
00000110: 86e2 af3d 5426 27bb 2a7a 9ebc b3e8 513d
00000120: f021 9fbc 0ad8 c83d 7b77 2e3e dded 133e
00000130: 190e e33d 0838 843d ff1f e63d 71b0 b83d
00000140: bfc0 a93c 10b4 853d 8e56 6cbd e040 7cbd
00000150: b2d0 83bc d2b9 003e 6811 113d 1f6d 38bc
00000160: 0c7d f23d e9aa 853d 67ad 543c 7de3 973a
00000170: 825e 273d 1ebd fc3c 9a57 8e3c 16da c03c
00000180: 4982 c83d b12c 343c a8b6 983c 22ee 2a3d
00000190: b814 ebbd d3b0 8cbb 0cfc b4bc 83a6 c43d
000001a0: 2ec0 dd3b 2c9f d33b 0874 ad3c c3c4 063e
000001b0: 5b4f bebc c9bd c5bd 08f3 17bd 161c 2d3d
000001c0: b227 54be ce3d cbbd 7b5f 77bd c081 91bd
000001d0: 4046 85bd 8886 5dbb a0da d03d 6e0c 99bb
000001e0: fd84 8c3c b6d6 dabd a318 b03c 9faa 103c
000001f0: 799d ad3d 774c 1bbe fa96 e2bc ff93 8cbc
00000200: 9b2b 07be bb79 78bd feee 88bd a1f0 e7bd
00000210: 860e 0cbd 9ede bcbd c8f5 853c cfde f9bd
00000220: 80cd bfbd 55c5 bdbd 2f62 d73c 2256 aabd
00000230: 8d34 10bd 12ac 53bb c7a5 8e3c 0c14 d5bd
00000240: ef09 cdbd b991 9d3d b8c3 c2bc 8051 3b3e
00000250: 3081 003e cdb9 7e3d 5cf6 cdbc f9e7 bb3d
00000260: 48d1 1ebe d1f8 963d 0d7b 3bbc 48f4 c53c
00000270: 49c1 98bd 6ec5 49be 491c bcba f92d 9d3d
00000280: 61e2 233b 872d cabc ac8d 733c 80f9 913d
00000290: 4374 0fbe 7273 68bd 8cec 05bd 6ac5 49bd
000002a0: 0528 3cbd e260 e3bd 9792 163d 9c70 3c3c
000002b0: ef25 09be 3793 09bd e72c 833d bf94 fd3d
000002c0: ec16 ca3d 30e1 7ebd e767 1ebd c49f 52bd
000002d0: b264 b2b9 3bc5 63be d4c3 04be e50c 7f3d
000002e0: 9207 ccbc f6ab 1abd 3faa 20bc c4e3 993b
000002f0: 2e19 69bb 7a09 303d 278e 903d 2d03 2fbe
00000300: 79c9 d3bc 2dfe b33d c968 e73d 8887 d83d
00000310: d64b 373e 4aa6 19bd 8261 1fbd ce92 a3bc
00000320: cb7d 953d 0e74 363a 385c c83d 4190 2e3d
00000330: 10e0 063e 8e51 0ebe ae41 abbb 9263 c8bd
00000340: 65a9 323d 3e55 6b3d 7744 37bd 4349 0d3d
00000350: a11a ff3c f319 9dbd de8e 37bd bed9 ca3c
00000360: 9de2 acbc b5ff e03b 98f8 3c3c 1b29 893d
00000370: 0b62 403e 03b9 b73b 9e44 96bd 6a06 cbbd
00000380: e8a4 873c 9311 b23d 9ebe fabd 6ca9 e8bd
00000390: 73f3 d53c c0f1 1ebd c7b0 26be 679c 4f3d
000003a0: 4827 f13d 9aa5 bdbd e612 233d 9088 d9bd
000003b0: dd25 05be 7aca 0abe 028e fdbd c78d 0ebe
000003c0: 229c 7a3d 834a 003d b21a 3ebd 614f 203e
000003d0: a028 0bbd 3f53 3bbb ab45 b6bd 703c 66bd
000003e0: 7748 c53d 1853 833d d343 0f3e bcfa a03d
000003f0: 13c7 073e fac5 0cbe d26e e13c f206 1ebe
0.031190991 -0.010452552 -0.071436614 0.005413135 0.14930631 0.07453589 0.12867634 -0.06647693
-0.09919356 -0.007996794 -0.006625747 -0.053289846 0.06854281 -0.039416693 0.016822413 0.017442094
-0.03710999 0.025802676 -0.05840947 -0.12190541 0.0048645977 -0.015677446 -0.105986536 -0.008705921
-0.06738632 -0.059593074 -0.004943073 0.054829326 0.07892846 -0.014390655 0.014666045 -0.10270141
0.11257951 0.004796337 0.08234899 -0.014882526 -0.121718355 0.09593931 -0.07195515 -0.13471189
-0.06452374 -0.01161696 -0.025945691 -0.052762598 0.09286865 0.044951677 0.015214405 -0.046378512
0.053977408 0.073371075 0.044388846 -0.024434734 0.12516066 0.020302676 -0.032955598 -0.0608676
-0.017205939 0.017845513 0.039384596 0.048567615 0.005773207 0.1032203 -0.0019733007 -0.16345279
-0.16597989 -0.11491144 -0.011315738 -0.05291268 0.08588128 -0.0025505023 -0.019345362 0.05124731
-0.019425362 0.09806831 0.17037766 0.14446206 0.11086673 0.064559996 0.112365715 0.090180285
0.020721791 0.06528485 -0.057699732 -0.061585307 -0.016090725 0.12570885 0.03541699 -0.011256485
0.11840257 0.06526739 0.012980795 0.0011588183 0.040861614 0.030851897 0.017375756 0.023541491
0.09790475 0.010996983 0.018641785 0.041731007 -0.11478561 -0.00429354 -0.022092842 0.09602072
0.0067672944 0.0064581838 0.021173492 0.13160996 -0.023231199 -0.09655339 -0.037097007 0.042263113
-0.20718268 -0.09923898 -0.06039379 -0.07104826 -0.0650754 -0.003380211 0.101979494 -0.004670671
0.017153258 -0.10685484 0.021496123 0.008829742 0.08477301 -0.15165888 -0.027659882 -0.017160414
-0.13200228 -0.060662966 -0.06686209 -0.11325193 -0.034193538 -0.09222148 0.01635255 -0.122007005
-0.09365368 -0.09266154 0.026291935 -0.0831721 -0.035206366 -0.0032298607 0.017413033 -0.10404214
-0.1001166 0.0769381 -0.023774967 0.18292809 0.12549281 0.062188912 -0.025141887 0.09175105
-0.15509522 0.07371677 -0.011442912 0.024164334 -0.07458741 -0.1970422 -0.0014351691 0.07674784
0.0025006759 -0.024679912 0.01486532 0.071276665 -0.14009194 -0.056750722 -0.03269629 -0.049260534
-0.045936603 -0.11102463 0.036760893 0.011501458 -0.13393377 -0.03358766 0.06405049 0.12381887
0.09867653 -0.062226474 -0.038673308 -0.051421896 -0.0003402583 -0.22243206 -0.12965328 0.062268157
-0.024905954 -0.03776165 -0.009806215 0.004696341 -0.0035567987 0.042977788 0.070583634 -0.17091055
-0.025852906 0.087887146 0.11299283 0.105727255 0.17900023 -0.0375121 -0.03891135 -0.019967463
0.07299384 0.00069600425 0.09783214 0.04261804 0.1317141 -0.13898298 -0.0052263355 -0.097846165
0.04361858 0.05745434 -0.044743028 0.034493696 0.031140627 -0.07670965 -0.044813983 0.02476203
-0.021104151 0.00686642 0.011533879 0.06697293 0.187874 0.005606772 -0.073373064 -0.09913333
0.016558126 0.08694758 -0.122433886 -0.1136044 0.026117062 -0.03880477 -0.16278373 0.050686266
0.117750704 -0.092601016 0.039812945 -0.1062175 -0.13002725 -0.13553801 -0.123806015 -0.13921271
0.061184056 0.03132106 -0.046412177 0.1565528 -0.03397429 -0.0028583554 -0.08900007 -0.05620998
0.09632962 0.06412333 0.13990717 0.07860324 0.13259535 -0.13747397 0.027518664 -0.15432337

conv3.bias f4 [128]
00000000: fb7d 65ba bd0d 86bc d644 1cbe db3f 5cbb
00000010: 6bef bebd 3924 8f3d 0c4d 1dbd 6c4f 9ebd
00000020: 891a 143d b233 6ebc af0c d1bc 28c8 9e3d
00000030: 14ab dd3c afa3 083d d0c6 e2bd 5611 aa3b
00000040: 5ff2 abbd 1144 523d 49a7 ec3d 432e 1c3c
00000050: 1fc6 323d 23e6 333c 3610 fd3c e638 b1bd
00000060: a832 c8bb 88d7 28bd 3392 e63c db19 1cbc
00000070: 1591 3bbd a5ae a3bd 5080 3ebd 4269 1bbd
00000080: 5726 ad3d 6f5b cd3c 516c 41bc 0f66 2c3d
00000090: 8b34 93bd 7b7a 913c 1da4 42bd f3a3 6ebc
000000a0: ee6b d53c 9639 99bd 70b1 1bbe f136 c9bd
000000b0: 561d 293d 895c 293d f11d 603c 01ca e0bd
000000c0: 65a2 8a3c 1144 b73d b4fa 123d 26c6 28bc
000000d0: 3261 ebbb 41a2 9abd 6721 943d 5dd1 a6bc
000000e0: a639 12bd 313d afbd ed9a a8bd 2de7 4dbd
000000f0: 86b6 1dbc 3778 a7bd a7fb 87bc 39ca 20bd
00000100: ecd0 87bc b659 bd3b 1263 d33c 0ace aabc
00000110: 4f26 80bd d555 b23c 34cd be3d 94de 5abd
00000120: b7a1 32bc 35ec b9bc fed3 96bb 7994 41bd
00000130: c4b7 31bd ba41 163d 40d8 19bd db08 423c
00000140: a094 cfbc 5275 383c cee9 f63b c1d2 e2bd
00000150: 028c a8bc 86f8 1cbd a320 f73d 9c93 343a
00000160: e3b7 fb3d f140 46bb be3a 54bd 1f37 413c
00000170: a262 91bd f7c1 18bd d3b5 9b3d 0c95 18bd
00000180: dcd4 1abd 4e7e 063e d2a9 20bd 0295 e3bc
00000190: 9b2c f5bc cb74 d2bc 3791 283c 7efc 853d
000001a0: c3b2 5d3c cc29 08be 8e28 b9bc f533 bbbc
000001b0: 2ee6 1abc d501 c93d 0d8a bd3c 30ae 643c
000001c0: c7c5 a8bc 5927 81bc 1d39 5ebb 8f4c b83c
000001d0: c7a9 0a3e c101 dabc 6936 45bd 1780 30bd
000001e0: 3e42 06bc 0b2a 02bc cb50 f8bd 4fed 203e
000001f0: f33b 9ebd 8ba0 a5bd 4b40 0ebe 3db1 e5bb
-0.0008754429 -0.016363973 -0.15260634 -0.0033607397 -0.09323009 0.06989331 -0.038403556 -0.07729992
0.03615812 -0.014538692 -0.025518743 0.077530205 0.027059115 0.033359226 -0.11073077 0.005190055
-0.08395838 0.051334444 0.115553446 0.009532514 0.043645974 0.010980162 0.030891519 -0.08653431
-0.0061095543 -0.04122117 0.028145885 -0.009527649 -0.045792658 -0.07992295 -0.046509087 -0.03794218
0.08454578 0.025068013 -0.01180561 0.04208952 -0.07187756 0.017758599 -0.047519792 -0.014565456
0.026052441 -0.07481687 -0.15204406 -0.09824932 0.041287743 0.041348014 0.013679014 -0.10976029
0.016923139 0.089485295 0.03588362 -0.0103011485 -0.0071832174 -0.07550479 0.072329335 -0.020363504
-0.03569951 -0.08556593 -0.08232675 -0.050269295 -0.0096260365 -0.08177226 -0.01659949 -0.039255355
-0.016579114 0.0057785166 0.025804076 -0.0208502 -0.06257307 0.021769444 0.09316483 -0.053434923
-0.010902814 -0.02269564 -0.004602908 -0.047260735 -0.043388143 0.036683775 -0.037559748 0.011842932
-0.025339425 0.01125844 0.007535196 -0.11075354 -0.020574573 -0.038322948 0.12066772 0.00068884506
0.12290933 -0.003025111 -0.051813833 0.011792927 -0.07098891 -0.037294354 0.076030396 -0.037251517
-0.037800655 0.13134119 -0.039224453 -0.027781013 -0.029928496 -0.025690457 0.010288528 0.065423
0.01353139 -0.13297194 -0.022602346 -0.022851923 -0.009454293 0.098148026 0.023137117 0.013957545
-0.02060212 -0.015765833 -0.0033908554 0.022497443 0.13541327 -0.026612164 -0.048147593 -0.043090906
-0.008194504 -0.007944594 -0.12124785 0.15715526 -0.07726278 -0.08087262 -0.13891713 -0.007009654

act_conv1.weight f4 [4, 128, 1, 1]
00000000: 02a1 4c3c e0af cb3c 5fbc 8cbd 94ef 96bd
00000010: 1f1b dcbb 1ae7 b13e 6941 55bd 78db 5a3e
00000020: 141a 8f3d 266e abbd 03ac 9dbd 1f7d 373d
00000030: 8648 20bd ce31 84bd d2a8 083d 3ef9 9e3d
00000040: b015 75bc 11e4 e23d 7829 51bd bb50 0d3c
00000050: 6472 973c 053c babc 2b11 07bc cdad 8d3d
00000060: 1b88 6e3d 0631 a73d ff08 103e fca9 cdbd
00000070: 89db 803d 34b5 68bd f174 d2bd 787b 763e
00000080: 868e d03e 3c6f 913c ad35 af3c 06f6 d03d
00000090: 53d3 7bbe defa d13d 4861 f3bc d093 3cb9
000000a0: 566d 0cbd 19bb 6f3e be0c 06be e7cb 3dbe
000000b0: 8d01 b6bc a01f 0fbe 031c a4bd 77ff 15be
000000c0: b8ff 75bd 426f 5a3d 6b75 613d 8d51 81bc
000000d0: d170 083e 949a 933d 7bb3 87bb 0630 edbd
000000e0: 73d9 74bd cb2a 16bd 3d0d e9bc 2fd8 6e3d
000000f0: 3a16 ccbd aee0 2f3e e8ed 5a3d 92ae a1ba
00000100: 22b5 e73d 119c c63c 9bc0 003f 5ab8 7ebd
00000110: 59e6 fb3e 4fb3 483d d169 233d e0f3 363e
00000120: b76e 15bd f5de abbc 3558 86bd e0c6 cfbd
00000130: 3162 c23c 995f 51bb a43f 853d f373 29bd
00000140: 5f2e c3bd f266 5ebe 5bb5 403d 7ce2 9339
00000150: 8618 1d3c eca4 86be 8c0b 6e3d 3bb3 18bd
00000160: 0624 d73d fa7e c0bd e0f0 f23d 8980 e9bc
00000170: 6bd9 2abe b23f d3bc 5124 8b3e 6c53 98bc
00000180: bd9c 803d 2bce ec3c b7ab a1bd a685 353c
00000190: 393c 913e ae30 a33e 5a90 373e da9c 343d
000001a0: c874 eabd 4b59 903d 2dff fb3d 852b a53d
000001b0: 2ff9 e0bc f947 fc3d bec2 f93b 1807 3f3e
000001c0: 1b53 903c b9c4 a43d 8344 403d 3e66 61bd
000001d0: fdc3 153e 16a5 7c3e 3676 4d3c 7fbe 9cbd
000001e0: 5df6 8b3c da0f 91bd 43f4 0bbd 4e93 1a3e
000001f0: f406 82bd b22e d2bc a520 febc a4a7 a6bd
00000200: ec9d e8bc 4540 d3bc 53d5 443d 55e5 b13b
00000210: ee35 843c b64e cdbd a04a 863e ed34 373e
00000220: 69a1 783e 0610 323c c0d6 44bd fe3b de3b
00000230: 0978 75bd cd18 a03e 3e4f 00be b737 973d
00000240: 26ff 8c3d 3133 41be 7fd7 353c 0f6a 80bc
00000250: 5c3a d2bc c835 903d 5dd1 03be a7fc 253d
00000260: 80f8 b5bd 01ed 28be 60f8 94bc a203 d23a
00000270: 4679 94bd 3a2f a43d 605e 7abb 7952 aabe
00000280: 3ff6 013e c461 5cbd 5413 b0bc d6ba 2bbe
00000290: e5b5 ba3e 2d62 233b a2a2 a03d 74be fe3a
000002a0: 75bf 2dbd e095 063d 69b2 ce3d 823f fb3d
000002b0: e868 f23c 0bf9 953e e978 3f3c f915 fabd
000002c0: 659c a13e b72a 5c3d e37a 193e 7be0 fdbd
000002d0: 2c5a 0dbe 2279 a53d acf5 6a3b 67f6 013e
000002e0: a4c3 ac3d 1658 493d 5783 183f c014 173d
000002f0: 6d43 993d ce04 953c df5a 8abc d36d 883e
00000300: 9199 663d 28d6 3dbc 207e 8b3d bfad 95bd
00000310: 383a 6abe af9d e03b b457 02be a71c 67bb
00000320: 9e53 aabd 96d8 85bc 8ed3 243d 289c 20bc
00000330: 3ae9 90bd 4bb5 523e 1f60 1b3d f2e0 1d3d
00000340: 9f86 533e f739 683e 5248 1b3d ac73 07be
00000350: 5bb0 b3bd 23d8 3c3e 09b2 423e 322e 233e
00000360: e050 cd3d 4d0f 9e3d 0b57 d03d 6605 903b
00000370: 9900 473e d4d7 bebb 99f0 0ebd 6934 a93d
00000380: 37fe 8e3d 6de3 a43d 4ef2 fb3d 82f7 c03c
00000390: e501 b4be 13b2 34be d8d4 8fbe 4366 b1bd
000003a0: eb4d 33bd 6cfa dabc b77b ee3d 936d 07be
000003b0: c802 353e 0e44 173e 2dcb 8fbd f365 a4bc
000003c0: daa4 503c ea69 17be 6e0d 143d 434b 7f3e
000003d0: fcd8 ba3d f3eb 6e3d eec1 d1bc ad1b 2b3c
000003e0: 24df 213c 4b60 5bbc 4625 9abb 0ecd 223e
000003f0: ca06 913d b845 5d3d 13c1 303d c534 503e
0.012489559 0.024864137 -0.068718664 -0.07369915 -0.0067171003 0.3474663 -0.052064333 0.21372783
0.06987396 -0.083706185 -0.07698824 0.04479706 -0.039131664 -0.06454812 0.033364125 0.07762383
-0.014958784 0.110786565 -0.05106494 0.008625205 0.018487163 -0.022733698 -0.008243839 0.069179155
0.05823527 0.08163647 0.14065932 -0.100421876 0.06291873 -0.056813434 -0.10276211 0.24070537
0.40733737 0.017753236 0.0213879 0.10203175 -0.24592333 0.10252927 -0.029709473 -0.00017984142
-0.03428396 0.23411216 -0.13090798 -0.18534814 -0.022217536 -0.13976908 -0.08013155 -0.14648233
-0.060058326 0.05332876 0.05504362 -0.015785957 0.13324286 0.07207218 -0.004141269 -0.11581425
-0.05977769 -0.036661904 -0.028448695 0.058311637 -0.09965177 0.17175552 0.05344954 -0.0012335351
0.11313845 0.02424434 0.5029389 -0.06218753 0.4919918 0.048999127 0.039895836 0.17866468
-0.03648254 -0.020980338 -0.06559793 -0.10145354 0.023728462 -0.003194785 0.06506279 -0.041370343
-0.09530329 -0.21718958 0.047047954 0.0002820677 0.009588366 -0.262977 0.05811648 -0.037280302
0.10504918 -0.09399219 0.118623495 -0.028503673 -0.16684501 -0.025787208 0.27176145 -0.018594466
0.062798955 0.028906902 -0.0789408 0.011079228 0.2836626 0.31873077 0.1792616 0.044094898
-0.114480555 0.07048281 0.1230453 0.08064941 -0.02746257 0.12318415 0.007622092 0.1865505
0.017617753 0.08045334 0.046940338 -0.055029146 0.14625545 0.2467235 0.012540391 -0.07653522
0.017085249 -0.070831016 -0.034168493 0.15095255 -0.063489825 -0.025657032 -0.031021426 -0.08137444
-0.028395616 -0.025787482 0.048055004 0.00542895 0.016138997 -0.100247785 0.2622881 0.17891283
0.24280323 0.010868078 -0.048056364 0.006782054 -0.059928928 0.31268921 -0.12530228 0.07383674
0.06884603 -0.18867184 0.011098742 -0.015675573 -0.025662594 0.07041508 -0.12872835 0.04052415
-0.08885288 -0.1649666 -0.01818484 0.0016022811 -0.072496936 0.0801682 -0.0038203225 -0.33266047
0.12691592 -0.053804174 -0.021493591 -0.16770491 0.364669 0.0024930343 0.0784352 0.0019435422
-0.042418916 0.032857776 0.10092623 0.122679725 0.029591039 0.29291567 0.011686542 -0.12211222
0.31564632 0.053751674 0.14988284 -0.12396332 -0.13803929 0.08079745 0.0035851998 0.12691651
0.08435753 0.04915627 0.5957541 0.036885023 0.074835636 0.018190768 -0.016889034 0.2664629
0.056298796 -0.011586703 0.06811166 -0.0730853 -0.22873771 0.006854735 -0.12728769 -0.003526488
-0.0831673 -0.016338628 0.040240817 -0.009802856 -0.070757344 0.2057697 0.037933465 0.038544603
0.20656823 0.22678362 0.037910767 -0.13227719 -0.087738715 0.18441825 0.19013228 0.15935591
0.10025191 0.07717762 0.10172852 0.004395175 0.19433822 -0.0058240686 -0.03489742 0.082619496
0.069820814 0.080511905 0.12302075 0.02355552 -0.35157695 -0.17646055 -0.28092074 -0.08662083
-0.04377548 -0.026730739 0.116446905 -0.13225393 0.17676842 0.14772055 -0.070211746 -0.020068144
0.012734616 -0.14786497 0.03614562 0.24931054 0.09123418 0.058330487 -0.025605168 0.01044361
0.009879861 -0.013389657 -0.0047041504 0.15898535 0.07081373 0.054021567 0.04315288 0.2033263

act_conv1.bias f4 [4]
00000000: 72ed 973d 8105 943c 7118 e43d bfd9 33bc
0.07418336 0.01806903 0.11137474 -0.010977208

act_fc1.weight f4 [81, 324]
00000000: cc4b 24bc a280 f1bc d1d1 c2bc dc6e 6fbd
00000010: ceb0 81bd c596 b0bc d8e6 80bd e3c2 23bd
00000020: 4da7 673b e52c cd3c 2b97 6cbd 8e08 a2bc
00000030: 46dd 8ebc af59 04be 6207 3ebd 98c3 75bd
00000040: c1d4 90bd 757d c6bc 623a 853c caf9 75bd
00000050: dc8e 2bbc 7f6a 64bc 3f42 01bd a831 703c
00000060: 51d0 6fbd 9baf a3bc 1970 82ba deed 973c
00000070: 6794 5dbd fa4e 8bbd 1bda 2ebd 16c1 a3bc
00000080: 58f5 bb3c e740 1ebe 68f7 c6bd 5f4c fdbc
00000090: 8203 fbba 7775 523b 676a 8ebd 784b 01be
000000a0: 8b6e a6bd ce7b 06bc 6e44 c0bd 758e 83bd
000000b0: fe03 65bd b78c 323d 90eb c9bd a680 6abe
000000c0: aed2 9fbd 2519 8c3c 01d5 933b f513 81bc
000000d0: cab9 9dbc beb9 7bbc 570b a9bc 4307 95be
000000e0: 111e 3ebd 7248 5e3d 8f4c c93b d12a 72bd
000000f0: 8186 5ebd 0d77 cbbc 2bd5 f5bc 9b63 4b3d
00000100: f42d 0b3e e51c 013e 0a54 873d d1eb 4cbd
00000110: 4c1f a4bb 8f20 81bc cfdb a13c efe3 38bc
00000120: 39a4 653d 398f c0bd 49c1 483d 1915 05bd
00000130: b416 acbc c88d 87bd 2102 80bc 2258 56bb
00000140: 1d74 22bd f2cf 2cbd 6ec6 2ebd 7435 25bc
00000150: 1a45 32bc 2762 c9bb b649 a03c 7879 f4bc
00000160: 5316 95bd fe25 82bc b22f e7bc ddbc 89bc
00000170: 78ff 8e3b 2947 17ba 66ba a2bc 3957 ccbc
00000180: ad97 0e3d 5d61 4cbc 2d06 033c 1e8a 13bd
00000190: 3470 0e3d 4409 f73b ad97 09bc 67db 0e3d
000001a0: fa6e 973b cf41 653b f32c f3bb 9ba7 093c
000001b0: b08e a4bc 615f 8a3c f061 423c 0000 7d3d
000001c0: 2216 9f3d 9462 803c 742f af3a c8b4 a93c
000001d0: 75a2 50bc ed2d 09bd 9aac fd3c 1e1a 8c3c
000001e0: d9b8 c03d 251b f23c 34f4 d93c cf89 ef3c
000001f0: 1abd f93c ef79 84bc ea59 a03d 9cfd 813c
00000200: ab1f c53d f034 2e3d 8848 4c3d 412c 8c3d
00000210: e385 903c 00fa fa3c 1194 53bb 2ec4 b33c
00000220: 969c 913d 04ef 003e 7f08 3f3d 9c3b 6b3c
00000230: 4a4d 28ba fd34 383c 8aeb 3cbc 932c f6bc
00000240: d8cd acbe de58 943d fdf2 793d 7cf9 c33c
00000250: 6290 fcbb a17c b23c 0c1c 04bc e712 16bd
00000260: 0a3e 02bd 2f9d 763c 030f c83d 138d f3bc
00000270: 416c abbc b657 5cbc e6a0 ed3b 0f98 983c
00000280: a32f 833c b74c ddbc 6ec3 26bd 3918 0abc
00000290: 5d93 ddbc 0a2a c93b 41c2 5ebd 70be 3ebd
000002a0: 3230 a8bc 1ccf d6bc fbd5 d23b 45e3 8dbc
000002b0: f603 6fbc 4306 2abc 083f 1ebd a581 41bd
000002c0: 22e0 61bd c4ff a5bd be65 ccbc c439 343b
000002d0: a81d 52bc 0828 2ebd 92e8 40bc 7581 6dbd
000002e0: 95a3 54bc b5c6 8f3c ccb8 84bd c4c2 75bd
000002f0: 7b51 bdbd 24ff 52bd ad44 10bd 3329 37bd
00000300: a493 bfbc e4c1 7bbd 49f2 76bd deda 0ebd
00000310: 9b40 8bbd 1601 30bd bd8a 683c 5df6 033b
00000320: fa32 55bd 3488 a73c b424 97bd 0589 b6bd
00000330: d263 6ebd 499b caba 2a9a 79bc d650 b93d
00000340: dcbc d1bd 7e83 c93d 7e4b edbd cc0a d7bd
00000350: b48e 71bd 9f16 88bd 1298 c8bc 8c83 3d3c
00000360: 4590 5cbd 8168 333c 7cf0 20be da44 39bb
00000370: 3d60 31bd c1cb abbd da59 8cbd 9360 3dbd
00000380: aa62 c0ba 6a5f f8be 0603 a63c 801c b43d
00000390: a8dc e0bc 5923 59bd e7ff 3dbd 763b acbd
000003a0: e023 9cbd 0132 d4bc 6a55 873d f169 053d
000003b0: 85d8 913c af18 a83b a2c1 14bd 5448 71bd
000003c0: ebc6 a3bc 7fc8 d8bb 2a3d bfbc 4d2e d8bc
000003d0: eb89 203c 2e66 acbc aefd 68bb 0540 edbb
000003e0: 2c5d 003c fb81 b3b9 d00e 8e3d 6be2 413d
000003f0: 5568 153c 27cd c6bc c596 593c c871 5ebc
-0.010027837 -0.029480282 -0.023781689 -0.058455333 -0.06332551 -0.021556268 -0.0629403 -0.03998078
0.0035347522 0.025045821 -0.057761353 -0.01977947 -0.017439496 -0.12924837 -0.04639376 -0.060000986
-0.070718296 -0.024229744 0.01626319 -0.06005267 -0.010471072 -0.013941406 -0.031557318 0.0146602765
-0.058548275 -0.019981196 -0.0009951621 0.018546041 -0.054096606 -0.06802173 -0.04268847 -0.019989531
0.022944137 -0.15454446 -0.09715158 -0.030920206 -0.0019150826 0.0032113472 -0.069538884 -0.12626445
-0.08126553 -0.008208228 -0.09388052 -0.06423656 -0.05591201 0.043591227 -0.09859383 -0.22900638
-0.07803856 0.017101834 0.004511476 -0.015756587 -0.01925363 -0.015364109 -0.02063529 -0.29107103
-0.046415392 0.054268308 0.0061431597 -0.059122864 -0.05432749 -0.024837041 -0.030008873 0.049655538
0.13591748 0.12608679 0.06607826 -0.05002958 -0.0050086137 -0.015762595 0.019758133 -0.011284812
0.056064818 -0.094023176 0.049012456 -0.032490823 -0.02100692 -0.066188395 -0.015626015 -0.003270634
-0.039661516 -0.0421905 -0.042669706 -0.010083545 -0.010880733 -0.006145734 0.019566398 -0.029843077
-0.07279649 -0.015887257 -0.028220985 -0.01681369 0.0043639503 -0.00057707966 -0.019864272 -0.024943935
0.034812618 -0.012474385 0.007997078 -0.03602039 0.034774974 0.0075389463 -0.008397979 0.034877207
0.0046213837 0.0034981852 -0.00742113 0.008401777 -0.02008757 0.016891183 0.01186417 0.061767578
0.077678934 0.015672006 0.0013365583 0.020716086 -0.012734045 -0.033491064 0.030966092 0.017102297
0.09410257 0.02955396 0.026605703 0.029240517 0.030485678 -0.016171424 0.0782965 0.015868
0.09625181 0.042530954 0.04987386 0.06844378 0.017641967 0.030636787 -0.00322843 0.021944132
0.071099445 0.12591177 0.046638962 0.014357474 -0.00064202084 0.011243102 -0.011530766 -0.030050552
-0.33750796 0.072435126 0.061022747 0.023922674 -0.0077076415 0.021787943 -0.0080633275 -0.03663912
-0.031797446 0.015052124 0.09768488 -0.029730355 -0.020925643 -0.013448646 0.0072518466 0.018627195
0.016013926 -0.02701412 -0.04071372 -0.008428627 -0.027047807 0.0061390446 -0.054384474 -0.046568334
-0.020530794 -0.026221804 0.0064342 -0.017320285 -0.014588347 -0.0103774695 -0.03863433 -0.04724278
-0.05514539 -0.08105424 -0.024950858 0.0027500251 -0.012824453 -0.042518646 -0.011774199 -0.057984788
-0.012978454 0.017550806 -0.0648056 -0.060000196 -0.09244057 -0.051512852 -0.035221744 -0.044717025
-0.02338583 -0.061464205 -0.060289655 -0.034876697 -0.06799432 -0.042969786 0.014193234 0.0020135858
-0.05205057 0.020450689 -0.073800474 -0.08912853 -0.058200665 -0.0015457656 -0.0152345095 0.09048621
-0.102411 0.09839533 -0.115866646 -0.10500106 -0.058973983 -0.0664494 -0.024486575 0.011567008
-0.053848524 0.010950209 -0.15716738 -0.0028269798 -0.04330467 -0.08388472 -0.06853075 -0.04623468
-0.0014677842 -0.48510295 0.020265114 0.087944984 -0.027448967 -0.053012226 -0.046386626 -0.08409779
-0.0762403 -0.02590275 0.06608088 0.032571737 0.01780344 0.0051298956 -0.036317475 -0.058906868
-0.019992312 -0.006615698 -0.023344595 -0.026389265 0.009798507 -0.021044817 -0.0035551596 -0.0072402977
0.007834714 -0.00034238384 0.06936419 0.04733507 0.009119113 -0.024267746 0.013280575 -0.013576932

act_fc1.bias f4 [81]
00000000: db70 7b3c ab92 56bd 3431 e7bd 61ac 8ebd
00000010: 1b48 01bd c55a acbd 7cb3 f9bd c4b7 0bbd
00000020: a850 8e3c 87c9 2fbd bac5 99bc 5487 e1bd
00000030: c57a 9c3d eb2e ed3c b9fc c63d 8454 c7bd
00000040: 96d9 70bd 5b20 b5bb 6ab0 fabd 366a cdbd
00000050: 53f3 2d3e 9916 6b3d 0892 9f3d 0dc1 f63c
00000060: b1da ec3d 9ea9 1ebe f338 91bd 60a5 09bd
00000070: db6f b63d 9ea7 e13c 074a 103d cfbf 393d
00000080: f359 8c3c 3f06 283a da85 9e3d d3ad 53bd
00000090: 410d adba acab b5bc cb02 cd3d 8b59 993c
000000a0: eb1f 913c fe93 713d 2679 b93d 6324 03bd
000000b0: 988f 853c a7ab 5bbd 2cec 923d 746f 613b
000000c0: e25a 023d a7ca 703d e7d6 92ba 372c 173d
000000d0: 47ee 993c 0bf4 77bd 66e0 c3bd bd59 ccbd
000000e0: 117f 203e 8d0d 0a3d 455f 013e 5bdb 933d
000000f0: 916d 503e c8b1 a6bd 2bbb 7cbd 4b97 29bd
00000100: 9f52 b8bb 6391 dfbd 7609 973d a462 a0bb
00000110: 3619 893d 8cee b6bd 3b51 2fbc 49b3 f7ba
00000120: d334 493c 0a63 08bb dc63 c3bd 2069 7dbd
00000130: 2609 a23b 2151 9ebd f487 27bd 61cf fdbb
00000140: ec6c 5e3c
0.015346731 -0.052385967 -0.112886816 -0.069664724 -0.031562906 -0.084157504 -0.12192437 -0.0341108
0.017372444 -0.0429168 -0.018771041 -0.1101214 0.07640604 0.028953036 0.09716172 -0.09732917
-0.058801256 -0.0055275387 -0.122406796 -0.10030024 0.16987352 0.057394598 0.07791525 0.03012135
0.115651496 -0.15494391 -0.0709094 -0.03360498 0.089080535 0.027545746 0.035226848 0.04534894
0.017132735 0.0006409622 0.07740374 -0.051679444 -0.0013202803 -0.022176586 0.10010298 0.018719455
0.017715415 0.058979027 0.0905631 -0.032017123 0.016303822 -0.053630497 0.071739525 0.0034398707
0.031824954 0.058787014 -0.0011202962 0.0369074 0.018790377 -0.060535472 -0.09564285 -0.09978054
0.15673472 0.03370433 0.12633999 0.07219573 0.20354296 -0.08139378 -0.061701935 -0.04140405
-0.0056250836 -0.10916402 0.073748514 -0.0048945714 0.06694262 -0.08932218 -0.010700519 -0.0018898036
0.012280661 -0.0020810985 -0.09540531 -0.061867833 0.0049449382 -0.07730318 -0.04090114 -0.0077456688
0.013575774

val_conv1.weight f4 [2, 128, 1, 1]
00000000: e5ff 823e 85a8 2bbe 6b81 20be dd0a 27bc
00000010: fc9f a23e 2775 22bd bef7 3e3c 008b 5a3e
00000020: 5c53 1c3e 895d 9c3e b039 d3be 9b9d a9bd
00000030: ccd7 b4be 9e49 6dbc 11ad d23e 22cc 87bd
00000040: a83f 14be 68a6 f13d e9de 8b3c 1c8d c93d
00000050: d80c 45be 1c8c 37be eea0 fd3d b228 1e3d
00000060: 1f72 87bc df8a bebe 5551 a03d 6fa7 2b3e
00000070: 39f0 073d fec8 3b3d 86c7 99bd 34e6 a83d
00000080: 1d14 cb3c 4065 d13d f51a fb3d 0949 7a3d
00000090: 6ff5 9f3d a12f 19be 5d0e 373e 6c92 15bd
000000a0: 5c8b 58be ed82 413e e4cc dd3b 2ab1 2c3c
000000b0: 81f6 2dbe 2121 6b3d d8da e4be 04e4 de3d
000000c0: bbe1 8bbc 0081 89be b739 3ebe f2d4 243e
000000d0: 4639 99bd 0138 553c 42a7 9d3e 8e71 473e
000000e0: d741 313e 6ac9 993e 50fb a53b 50dc 3b3e
000000f0: bba2 b43e 6726 b33c 32de 80be 3566 3abd
00000100: 35c4 da3c 3cf6 fe3c 7df4 a03d 1780 213e
00000110: 283b 8b3e 9d58 5cbd 9fd6 42be b806 35be
00000120: bff8 81be 3aa2 183e 00c3 b2bd f60e d63e
00000130: aaa3 82be 6331 eebb 211d b53d cf4c 7b3e
00000140: d4fa 0e3d 8f43 5e3e 8e05 a9be ef05 173e
00000150: c260 333e 5229 333c a387 05bc b988 99bd
00000160: be2a 6a3c b94f 41be 66a2 83bd b78b 8c3d
00000170: e234 a73d d66b 94be 70fd 013e 32b6 d5bd
00000180: 418c 753e b19a 903c 7a85 0a3e 7c53 2cbd
00000190: d83a 363d a9c9 92bb 6c5d a8bc e4e6 eebc
000001a0: f267 403c 5416 19bd 39c1 983d df57 d63c
000001b0: 6a98 9fbd cb5e b2ba 45e4 653d 661a 8f3d
000001c0: fb4f 4abe d878 263d 4606 bb3d 7885 2c3d
000001d0: 8f5d 453c 30df 423e 43fc 8dbd c8b5 563e
000001e0: c8ae ce3d 4b2f cabe 8e2f 0c3e b1f8 c73b
000001f0: 9ff9 853e dd73 6f3c 3973 ae3d 6ea7 ef3d
00000200: 61e8 353e 6978 19be cbd3 313e 6728 fbbe
00000210: 9ec0 933e 8ce0 1cbe ae80 f53d e8b9 b6be
00000220: 153c 2fbd d4fc 173e fe84 af3e 0a7d bebe
00000230: a9fe 2b3e 82d0 363d eecf 8bbd dde3 883e
00000240: e1d2 993e ba83 11be 343e 8b3c 1c4a 663c
00000250: 4b3e 0b3e b697 b6bd a655 64be 7ef5 b9be
00000260: de13 b1bd 53ee 093d 7098 983e 3eba b7be
00000270: f411 973e 495f d5be cbf3 f5be 8d9e d73d
00000280: 918b 483d 95a1 bbbe 4a44 933d e826 203d
00000290: 331a 813d 1794 163d c8fc 94be e3b8 28bb
000002a0: ec8f d43e 24e9 8fbe e3a3 9e3e 3252 ccbb
000002b0: 02d5 f43b 6058 ee3d 86a7 163e 08de 2e3e
000002c0: 0b70 26bd 1bc6 473e 7647 eabc 8473 a6bd
000002d0: b17a 743e 6408 e9be a6c8 b23e b36c 0dbe
000002e0: caac 7abd 59bf 6dbe 4dd2 42bd 06e7 e5be
000002f0: 6ec0 083f 6c87 df3e c689 2ebe af76 76bd
00000300: cc08 7fbe 5b24 a13e 587e d53c 7d94 b93e
00000310: 2c80 433e c22e c2be b2aa 413e a424 34be
00000320: 234b 10be a648 4cbe 9fb0 0ebf 3122 863e
00000330: bce6 8b3e 3fcc 743d 10d3 f53d f42c eebe
00000340: 0a43 253e c57c b2bd 2cde d23c f6d3 f0bd
00000350: 4b3e d6be bae9 813c 6958 42bd 97e3 233e
00000360: 4625 d63b 09a3 103e 11c4 97bd a18d 433e
00000370: dfc6 213e 2a4b 05bd 8f3d 8f3d f5f6 e83e
00000380: cb1e 613e 92ae 353c c59d 43be 0fc9 6ebc
00000390: 9bf7 d6be f73f d0bc 820c 983d f437 adbd
000003a0: 2b08 e33e 457d c4be e0b2 e33c 0996 92bd
000003b0: ed35 00be a08d 913b 40ea b2be 9c93 56be
000003c0: aaf0 a6be ba27 0bbe 9096 5e3e 20f9 563d
000003d0: 4d4b a33b 63e5 8d3e c8c0 0d3f 49d3 b9be
000003e0: c606 2abd cd10 553e 9a3d c6be f175 cf3a
000003f0: 804b adbe 4730 d7be 9012 ae3e 4ad0 6b3d
0.25585857 -0.16763504 -0.15674369 -0.010195461 0.31762683 -0.039662506 0.011655746 0.21342087
0.15266174 0.30540112 -0.4125495 -0.08282014 -0.3532089 -0.014482884 0.41147664 -0.06630732
-0.14477408 0.117993176 0.017074065 0.098413676 -0.19243181 -0.17924541 0.123842105 0.03861303
-0.01653391 -0.37215325 0.07828013 0.1676309 0.03318808 0.045845978 -0.07508759 0.08247033
0.024789864 0.1022439 0.12261001 0.061104808 0.078104846 -0.14959575 0.17876573 -0.036516592
-0.21146911 0.188976 0.0067688096 0.010540286 -0.16988565 0.05740464 -0.44698215 0.10883334
-0.01707541 -0.26856232 -0.18576704 0.16096857 -0.07481627 0.013013841 0.3079167 0.19476911
0.17310272 0.3003648 0.005065359 0.18345761 0.35280403 0.021868898 -0.25169522 -0.04550763
0.026704887 0.031123273 0.078591324 0.15771519 0.2719357 -0.053795446 -0.19027184 -0.17678344
-0.2538509 0.14905635 -0.087285995 0.4180829 -0.2551549 -0.007269071 0.088434465 0.24541019
0.034907177 0.21705459 -0.3301205 0.14748357 0.17517379 0.0109351445 -0.008150014 -0.07496781
0.014292417 -0.18878068 -0.064274594 0.06862586 0.081643835 -0.28988522 0.12694335 -0.104351416
0.23979284 0.017651888 0.1352748 -0.042071804 0.04448971 -0.004479606 -0.02055236 -0.029162832
0.0117435325 -0.03737481 0.07458729 0.026164947 -0.077927426 -0.0013608573 0.056125898 0.06987457
-0.19757073 0.04064259 0.09132056 0.042119473 0.012046232 0.19030452 -0.06932881 0.20967782
0.10091931 -0.39489207 0.13690016 0.0061026444 0.26167008 0.014615026 0.08518071 0.117018566
0.17764427 -0.14987339 0.17365949 -0.49054262 0.28857893 -0.15320033 0.11987434 -0.3568871
-0.042781908 0.1484254 0.34281152 -0.37204772 0.16796364 0.044632442 -0.06826769 0.26736346
0.300437 -0.14210406 0.016997434 0.014055755 0.13597982 -0.08915655 -0.22298297 -0.36320108
-0.086463675 0.03367455 0.298038 -0.3588428 0.29505885 -0.4167426 -0.48037562 0.10528288
0.048961226 -0.36646715 0.071907595 0.039099604 0.06303825 0.036762323 -0.29099107 -0.0025744967
0.41516054 -0.2810756 0.3098441 -0.0062353844 0.0074716816 0.1163795 0.14712343 0.17076886
-0.040634196 0.19509165 -0.028598528 -0.081275016 0.23874928 -0.45514214 0.34918708 -0.13810997
-0.06119994 -0.23217525 -0.04756384 -0.4490282 0.53418624 0.43658006 -0.17044744 -0.06017178
-0.249057 0.3147305 0.026061222 0.362461 0.19091862 -0.37926298 0.18912771 -0.17592102
-0.14091162 -0.19949588 -0.5573825 0.2619796 0.27324474 0.059765097 0.120031476 -0.46518672
0.16138855 -0.08715204 0.025740705 -0.11759178 -0.418444 0.01585852 -0.047447596 0.16004787
0.006535205 0.14124693 -0.074104436 0.19096996 0.1579852 -0.032542385 0.06994163 0.45500913
0.21984403 0.011088984 -0.19103153 -0.014574303 -0.41985783 -0.025421126 0.07424261 -0.08457938
0.4434217 -0.38376823 0.027795255 -0.07157523 -0.12520571 0.004441932 -0.34944344 -0.20954746
-0.32605487 -0.13589373 0.21737123 0.052483678 0.004983342 0.2771407 0.55372286 -0.3629401
-0.041510366 0.2080719 -0.38718873 0.0015827996 -0.33846664 -0.4202902 0.33998537 0.057571687

val_conv1.bias f4 [2]
00000000: 7933 ce3b 3eaf 443d
0.006292757 0.048018686
