best_policy.model (torch, 529533 bytes, 15 tensors)

conv1.weight f4 [32, 4, 3, 3]
0.5188844 0.0019939656 -0.048120674 -0.12079024 0.08807732 -0.05488904 0.32503784 -0.17335115
0.052125193 0.19398935 -0.29284713 -0.09548534 -0.26045012 0.042171832 0.13333495 -0.13403383
0.31935835 -0.19416046 0.012372873 0.054100893 0.10082334 0.111076705 0.076385185 -0.045941032
0.04754857 0.0005534118 0.022608416 -0.14170237 -0.1378575 0.15225548 -0.06656201 0.032940537
0.00018448009 -0.22823113 0.15554278 0.12755756 -0.3651875 -0.0018035594 0.011415951 -0.18982702
-0.05187339 -0.33876586 -0.32247362 0.16024695 -0.10025466 -0.2358098 -0.1033441 -0.11779395
-0.12584688 0.19779705 -0.40232527 -0.29393598 0.045044683 -0.1690689 0.05267177 0.04600044
0.037728954 0.109910086 -0.0043703523 -0.09755321 0.00880844 -0.05900855 0.0769541 -0.096491784
-0.10006943 -0.10647246 -0.010468085 0.22579588 0.17575447 0.1693702 0.06941959 0.22331384
0.164985 -0.062428284 -0.2372221 0.16141728 0.22999717 0.20232022 0.15809926 -0.090756595
-0.1926334 -0.41707772 0.16334398 0.23459439 -0.35414267 0.29616928 -0.18313266 -0.16415748
-0.10046377 0.14407592 -0.0030215683 -0.06453744 -0.04735474 0.053264767 0.16573688 0.10225234
-0.021051668 0.035738938 -0.0036884164 0.1228764 -0.18531194 0.03531291 0.13832027 0.10496838
0.06788917 -0.09533887 -0.06834008 -0.09717045 -0.19526976 -0.14861417 -0.032803696 -0.111601494
-0.2070575 -0.12746882 -0.121250704 -0.30005047 0.22085653 0.013719957 0.33757064 0.054130957
0.014912053 0.4890329 0.31624866 -0.06985092 0.32438996 -0.26764533 0.0231608 -0.013283675
0.05153287 -0.034631692 -0.040278863 -0.01595016 -0.008748646 0.0026526598 -0.13556297 0.12359283
0.08646837 0.13084236 0.02833159 -0.03093725 0.19599855 -0.10154728 -0.1212955 -0.14746007
-0.18871292 -0.3104406 -0.11644571 0.19808494 -0.1651984 0.1560882 -0.0409404 0.16316523
0.15504503 -0.20313583 0.037986547 -0.23160969 0.06458834 0.29927608 0.3007984 0.055888463
0.35604906 -0.14950822 0.10870738 0.08681371 -0.013641318 -0.047365326 -0.032148592 -0.18249397
-0.01435339 -0.116063476 0.17797323 -0.19879515 -0.08932822 -0.06489461 -0.25138742 -0.06319818
0.07139416 -0.24764377 -0.017133692 0.099077776 0.5138242 0.18605483 0.41019404 -0.07638226
0.3209024 0.23404972 0.29160863 0.35758528 0.38531998 -0.26035812 -0.098916866 -0.18836433
-0.0064975987 -0.065501496 0.0029046978 -0.035006635 -0.0008711343 -0.114162035 0.09347436 0.051358864
0.14681344 0.046394635 0.14430916 0.022401286 0.07253404 0.064846024 0.09295142 0.051615123
0.114558235 -0.12832186 0.039389588 0.0013444393 -0.082135126 -0.07330389 -0.07261904 0.164662
0.16620483 0.16184215 -0.41077206 -0.037714202 -0.04578621 0.022162264 0.34782043 -0.06740888
-0.02020497 0.025482498 -0.11372369 0.49091542 -0.2762807 0.07951742 -0.05340261 0.40440223
-0.087708846 0.05853448 -0.17036188 0.028877692 -0.01817573 -0.08127312 0.016773611 0.039134987
-0.03764124 0.039536227 -0.14540827 -0.17497408 -0.056406256 -0.10145341 0.070363164 -0.14688006
-0.009391967 0.08472502 -0.07536187 0.020428933 -0.17318885 0.24107045 -0.092985295 0.08565337
00000000: 9cd5 043f 31ad 023b 2f1a 45bd e060 f7bd
00000010: e261 b43d 54d3 60bd 5c6b a63e f782 31be
00000020: 3a81 553d 25a5 463e 0ff0 95be d18d c3bd
00000030: b859 85be 5fbc 2c3d f588 083e 2a40 09be
00000040: f082 a33e 00d2 46be 97b7 4a3c e698 5d3d
00000050: 787c ce3d 2f7c e33d d66f 9c3d aa2c 3cbd
00000060: 4ac2 423d d612 113a 4935 b93c 6d1a 11be
00000070: 842a 0dbe dce8 1b3e aa51 88bd a8ec 063d
00000080: ff70 4139 6cb5 69be 9b46 1f3e 739e 023e
00000090: dbf9 babe 6965 ecba f809 3b3c 0462 42be
000000a0: 3179 54bd b872 adbe 431b a5be c717 243e
000000b0: 5152 cdbd 2078 71be 12a6 d3bd f43d f1bd
000000c0: 01de 00be 4f8b 4a3e 94fd cdbe c77e 96be
000000d0: c680 383d 6620 2dbe 5bbe 573d f56a 3c3d
000000e0: ad89 1a3d 8a18 e13d 2c35 8fbb fac9 c7bd
000000f0: 4651 103c f3b2 71bd 1c9a 9d3d 7c9d c5bd
00000100: 34f1 ccbd 3c0e dabd 5582 2bbc 0937 673e
00000110: fbf8 333e 626f 2d3e dc2b 8e3d 62ac 643e
00000120: d4f1 283e cdb4 7fbd 5aea 72be 924a 253e
00000130: 6184 6b3e 082d 4f3e c6e4 213e 98de b9bd
00000140: b141 45be 368b d5be a543 273e 8339 703e
00000150: 3052 b5be 80a3 973e 2187 3bbe e618 28be
00000160: f3bf cdbd a388 133e 8105 46bb 352c 84bd
00000170: 0bf7 41bd 282c 5a3d eeb6 293e ad69 d13d
00000180: 8c74 acbc fe62 123d 5cb9 71bb 9fa6 fb3d
00000190: 6ac2 3dbe 45a4 103d d4a3 0d3e a9f9 d63d
000001a0: 7a09 8b3d 0741 c3bd e2f5 8bbd 4d01 c7bd
000001b0: ccf4 47be 502e 18be 2b5d 06bd 538f e4bd
000001c0: e206 54be 3087 02be 4a52 f8bd 37a0 99be
000001d0: 3728 623e acc9 603c 0fd6 ac3e 6cb8 5d3d
000001e0: af51 743c 8562 fa3e 58eb a13e 000e 8fbd
000001f0: 7116 a63e cf08 89be b8bb bd3c c5a3 59bc
00000200: 2114 533d f6d9 0dbd 73fb 24bd e9a9 82bc
00000210: 7b56 0fbc 3fd8 2d3b 05d1 0abe 3d1e fd3d
00000220: 5416 b13d 8afb 053e a717 e83c 1e70 fdbc
00000230: d8b3 483e 05f8 cfbd c669 f8bd c6ff 16be
00000240: f63d 41be 12f2 9ebe 177b eebd c7d6 4a3e
00000250: c529 29be 96d5 1f3e 1fb1 27bd c914 273e
00000260: 20c4 1e3e d702 50be c897 1b3d 172b 6dbe
00000270: e446 843d b73a 993e 3f02 9a3e 4deb 643d
00000280: 104c b63e af18 19be faa1 de3d 63cb b13d
00000290: d67f 5fbc 2502 42bd 3eae 03bd b3df 3abe
000002a0: 7b2a 6bbc b0b2 edbd 9d3e 363e f590 4bbe
000002b0: b7f1 b6bd 77e7 84bd dab5 80be 0c6e 81bd
000002c0: 1a37 923d 5496 7dbe f55b 8cbc 4ae9 ca3d
000002d0: fc89 033f 2885 3e3e f404 d23e 4d6e 9cbd
000002e0: 524d a43e bbaa 6f3e ba4d 953e 6b15 b73e
000002f0: a948 c53e a94d 85be ed94 cabd 94e2 40be
00000300: cfe9 d4bb a625 86bd be5c 3e3b 1e63 0fbd
00000310: d55c 64ba c9cd e9bd 7c6f bf3d ac5d 523d
00000320: 4356 163e 4d08 3e3d c8c5 133e e782 b73c
00000330: ba8c 943d fecd 843d 505d be3d 616a 533d
00000340: 829d ea3d ce66 03be fa56 213d e637 b03a
00000350: 7636 a8bd 5a20 96bd 4bb9 94bd 289d 283e
00000360: 9931 2a3e f3b9 253e b750 d2be 357a 1abd
00000370: 528a 3bbd a38d b53c 8515 b23e ab0d 8abd
00000380: e584 a5bc acc0 d03c f7e7 e8bd 4459 fb3e
00000390: aa74 8dbe 07da a23d b2bc 5abd cf0d cf3e
000003a0: b2a0 b3bd dac1 6f3d 5873 2ebe e990 ec3c
000003b0: 45e5 94bc 8672 a6bd d068 893c 024c 203d
000003c0: b32d 1abd bdf0 213d e8e5 14be 682c 33be
000003d0: 3f0a 67bd cec6 cfbd 901a 903d ba67 16be
000003e0: c4e0 19bc 5084 ad3d 5357 9abd 945a a73c
000003f0: 6b58 31be 2cdb 763e 136f bebd 096b af3d

conv1.bias f4 [32]
0.1069374 -0.043391 0.1308652 0.047667246 0.08179909 -0.13704604 0.21788117 -0.1530429
-0.1847884 0.18811364 0.103984125 -0.097586654 0.0627944 0.05112205 -0.00056616345 0.16779195
0.035515465 0.06531962 -0.106506184 0.083105326 -0.1953912 -0.08047244 0.012774473 0.108681485
0.1554286 0.2801414 0.10650643 0.16875057 0.07854044 -0.18294393 -0.043753035 -0.19893005
00000000: ff01 db3d c3ba 31bd 8701 063e bb3e 433d
00000010: 4886 a73d cc55 0cbe 3e1c 5f3e 47b7 1cbe
00000020: 2c39 3dbe dda0 403e a1f5 d43d 83db c7bd
00000030: 5a9a 803d 5b65 513d 966a 14ba a7d1 2b3e
00000040: aa78 113d 4bc6 853d ea1f dabd 2033 aa3d
00000050: a114 48be bcce a4bd 064c 513c 6694 de3d
00000060: ad28 1f3e b26e 8f3e 0b20 da3d f3cc 2c3e
00000070: cfd9 a03d a755 3bbe 6236 33bd 52b4 4bbe

conv2.weight f4 [64, 32, 3, 3]
-0.07026037 -0.04629615 -0.112431794 -0.062972076 0.08488653 0.09251268 -0.09098063 -0.17128283
0.0013199433 -0.20864643 -0.015677428 -0.094060205 0.051909883 0.14055157 0.094093904 -0.054903373
-0.13242422 -0.028256891 -0.1710981 0.10582898 -0.06951211 0.11853152 0.12303104 -0.10604752
-0.05899433 0.20942454 0.01752378 0.3331528 -0.07270754 -0.16496384 -0.15665199 -0.033825655
-0.07886435 -0.07532206 0.18792225 0.08388581 0.005640086 0.040869407 -0.11302291 -0.05733381
0.0044333367 0.14538133 -0.09241064 -0.14304934 -0.01601434 0.068705656 0.13329157 0.12645474
0.15982832 0.03820727 0.024754623 0.24278519 0.15546519 0.035437267 0.014998599 -0.17272155
-0.013661893 -0.012718616 0.15613906 0.011421285 -0.18704861 -0.25027582 -0.037643325 -0.002425957
-0.11654329 -0.026121378 0.18151027 0.009748798 0.008488007 -0.033813544 -0.10673305 -0.078650616
0.006619111 0.05508433 0.044349756 -0.029701669 -0.00886285 -0.15073028 0.065755546 -0.057852555
0.014093961 -0.018066429 0.032321256 0.12931077 0.030563386 0.083971865 -0.01990928 -0.114750646
-0.079266265 -0.025612736 -0.052551053 -0.05380567 -0.099463105 -0.0029193433 0.13003641 -0.06547683
-0.16397417 -0.10759032 0.19924901 -0.03221756 -0.17238185 0.01228749 -0.19157593 0.055443477
0.12906387 -0.07541383 -0.18741444 0.12702909 0.1232431 0.09981646 0.32884455 -0.18986735
0.078570224 -0.040657233 -0.087308854 -0.094053075 -0.05109691 -0.00013176238 0.21089263 -0.016855638
0.026515912 -0.13060579 -0.06758865 -0.030439869 0.004926575 -0.19968505 -0.29934388 -0.18143906
-0.009318297 -0.059985608 -0.07911549 0.04979398 -0.0137966145 0.11619145 -0.02063031 0.028521221
-0.17603372 -0.008944694 -0.1546857 -0.07221401 -0.36996183 0.05025041 0.15746315 -0.024743682
-0.041028466 -0.20052882 -0.023028152 -0.097337216 0.013428631 0.09651972 -0.28487724 0.0011244081
-0.21524702 -0.16556478 -0.10500422 0.08464653 0.11426878 0.04879391 0.020142404 0.11218419
0.03131502 0.103052214 0.033289228 -0.06725441 -0.040869612 0.32780305 0.15054892 0.19990847
0.19335304 -0.118872166 -0.11969893 -0.09199767 -0.07197999 -0.08990518 -0.22093047 -0.08724114
-0.15067735 0.22780284 0.071366236 0.09414816 0.075004704 -0.22168112 -0.05852378 -0.026815608
0.02662734 -0.0072430084 0.10227533 0.20283408 0.18347871 -0.116979346 -0.24218763 -0.04542712
0.14138594 0.112553835 -0.0613278 -0.21120521 -0.060058687 -0.1094946 -0.020278536 0.099207334
-0.029333552 0.11954451 0.014410622 0.074857436 -0.079721674 0.11117132 -0.012735431 0.12514102
-0.08581615 0.13798682 -0.021306958 -0.08895206 0.010375239 -0.09273323 -0.15838721 -0.13708209
0.09332409 -0.087063536 -0.021158146 0.1557369 -0.08222144 0.06317907 0.14159718 -0.18288897
-0.03445358 -0.3103792 -0.18358839 -0.07850124 -0.03624675 -0.06881015 -0.1963971 0.12856083
0.0014293323 -0.027566353 0.03615008 -0.19235754 0.062516935 -0.3311243 -0.086055376 -0.04884217
-0.14443082 -0.00082335016 0.015307199 -0.15622482 -0.051633447 0.0640605 0.055718567 0.008828095
-0.17033674 0.08301097 -0.02955117 -0.0046084533 0.04026843 -0.17590469 0.09349347 -0.012313045
00000000: abe4 8fbd 08a1 3dbd a442 e6bd 81f7 80bd
00000010: fdd8 ad3d 4a77 bd3d 0d54 babd c464 2fbe
00000020: f301 ad3a 69a7 55be f36d 80bc a3a2 c0bd
00000030: 759f 543d c0ec 0f3e 4eb4 c03d 5ce2 60bd
00000040: 379a 07be ff7a e7bc 5734 2fbe ddbc d83d
00000050: 5d5c 8ebd a7c0 f23d b3f7 fb3d 712f d9bd
00000060: 0aa4 71bd 6373 563e 088e 8f3c 0193 aa3e
00000070: b1e7 94bd 48ec 28be 6169 20be c58c 0abd
00000080: a283 a1bd 7442 9abd b16e 403e 53cc ab3d
00000090: 78d0 b83b ae66 273d 8e78 e7bd dbd6 6abd
000000a0: 8645 913b d8de 143e ca41 bdbd 877b 12be
000000b0: 8130 83bc 8db5 8c3d 967d 083e 5a7d 013e
000000c0: 09aa 233e 3a7f 1c3d 35ca ca3c ae9c 783e
000000d0: 4432 1f3e ab26 113d afbc 753c ebdd 30be
000000e0: 22d6 5fbc be61 50bc ebe2 1f3e 5720 3b3c
000000f0: ac89 3fbe 2724 80be e32f 1abd cefc 1ebb
00000100: 40ae eebd 80fc d5bc d4dd 393e 6cb9 1f3c
00000110: 4811 0b3c 1280 0abd db96 dabd 9313 a1bd
00000120: 21e5 d83b 1ba0 613d 17a8 353d ea50 f3bc
00000130: 7d35 11bc 0a59 1abe d8aa 863d cdf6 6cbd
00000140: 5bea 663c 0c00 94bc 4b63 043d 0b6a 043e
00000150: 1160 fa3c 71f9 ab3d c918 a3bc 6302 ebbd
00000160: 5a56 a2bd cdd1 d1bc c63f 57bd 5663 5cbd
00000170: 50b3 cbbd 7452 3fbb 4428 053e b718 86bd
00000180: d8e8 27be 5058 dcbd ef07 4c3e 8ff6 03bd
00000190: de84 30be 7851 493c 7b2c 44be b318 633d
000001a0: 5229 043e 9172 9abd 92e9 3fbe ea13 023e
000001b0: e166 fc3d 926c cc3d 505e a83e 966c 42be
000001c0: 6de9 a03d 3388 26bd fcce b2bd e69e c0bd
000001d0: fe4a 51bd b229 0ab9 3df4 573e d614 8abc
000001e0: e637 d93c 86bd 05be eb6b 8abd 085d f9bc
000001f0: 1b6f a13b 3d7a 4cbe 9a43 99be 29cb 39be
00000200: c5ab 18bc 78b3 75bd 4d07 a2bd c6f4 4b3d
00000210: 320b 62bc c8f5 ed3d e500 a9bc 56a5 e93c
00000220: 2f42 34be c48c 12bc ee65 1ebe f0e4 93bd
00000230: a36b bdbe 60d3 4d3d 053e 213e 43b3 cabc
00000240: 770d 28bd 6d57 4dbe 89a5 bcbc bc58 c7bd
00000250: c303 5c3c 22ac c53d 6edb 91be e060 933a
00000260: b769 5cbe d089 29be 740c d7bd 295b ad3d
00000270: c005 ea3d 1fdc 473d af01 a53c d3c0 e53d
00000280: 2e44 003d 0a0d d33d 495a 083d aebc 89bd
00000290: e566 27bd cdd5 a73e 7f29 1a3e ceb4 4c3e
000002a0: 57fe 453e 4073 f3bd b624 f5bd 4669 bcbd
000002b0: 3f6a 93bd 3520 b8bd 993b 62be 7cab b2bd
000002c0: 2a4b 1abe 2645 693e 7628 923d c0d0 c03d
000002d0: 119c 993d 6000 63be a2b6 6fbd 68ac dbbc
000002e0: 9421 da3c c256 edbb ba75 d13d bdb3 4f3e
000002f0: d8e1 3b3e de92 efbd 0900 78be ca11 3abd
00000300: 7ac7 103e a082 e63d dc32 7bbd 2e46 58be
00000310: 1900 76bd b43e e0bd 2c1f a6bc 372d cb3d
00000320: eb4c f0bc c1d3 f43d 881a 6c3c db4e 993d
00000330: 1e45 a3bd caad e33d 45a8 50bc f824 003e
00000340: 61c0 afbd 6b4c 0d3e ee8b aebc 7f2c b6bd
00000350: e8fc 293c ebea bdbd 4230 22be 3f5f 0cbe
00000360: b320 bf3d 5e4e b2bd d953 adbc 7e79 1f3e
00000370: b763 a8bd 0764 813d dafe 103e 3f47 3bbe
00000380: 321f 0dbd 06ea 9ebe 98fe 3bbe 42c5 a0bd
00000390: 7977 14bd 56ec 8cbd 521c 49be 73a5 033e
000003a0: 6f58 bb3a d5d2 e1bc 1b12 143d 60f9 44be
000003b0: e108 803d 2089 a9be cd3d b0bd ba0e 48bd
000003c0: ace5 13be 18d6 57ba 0ccb 7a3c 66f9 1fbe
000003d0: 987d 53bd 2732 833d 2739 643d b7a3 103c
000003e0: c16c 2ebe a801 aa3d 4c15 f2bc 8202 97bb
000003f0: 82f0 243d 5c20 34be 8179 bf3d a7bc 49bc

conv2.bias f4 [64]
-0.045334373 0.03809818 -0.062993504 -0.07962585 -0.015565449 0.12154929 0.036396716 0.011679849
0.006146081 -0.07330277 -0.048317663 -0.0063810837 0.0717464 -0.017688185 0.07802974 -0.004753456
-0.08343606 -0.063127324 -0.0068101417 0.059494592 0.034759372 0.034612373 -0.12997647 0.112410836
-0.1402479 0.10766035 0.06627778 -0.048865076 0.07583385 0.030024828 0.085098915 -4.5854355e-05
-0.18206553 -0.031625956 0.018148594 -0.05696833 -0.02956539 -0.13514896 -0.093529 0.05622424
0.042728167 0.09714196 -0.020511195 -0.09491224 -0.090143174 -0.04871706 -0.008627501 -0.06023665
0.019051516 0.0052808663 -0.029252572 -0.03829451 -0.06519119 -0.09221878 0.018982653 -0.035865873
0.023133896 -0.0103108315 -0.11621088 -0.2542156 -0.004619666 -0.002791814 -0.07030158 -0.025332816
00000000: 89b0 39bd d60c 1c3d bd02 81bd e112 a3bd
00000010: 3a06 7fbc d6ee f83d b914 153d d65c 3f3c
00000020: 1065 c93b c31f 96bd bee8 45bd 6918 d1bb
00000030: c7ef 923d d0e6 90bc 0ece 9f3d e1c2 9bbb
00000040: 86e0 aabd e648 81bd 9c27 dfbb 9ab0 733d
00000050: d85f 0e3d b4c5 0d3d 8d18 05be a737 e63d
00000060: 259d 0fbe 087d dc3d a5bc 873d bf26 48bd
00000070: c74e 9b3d a1f6 f53c 5748 ae3d bd53 40b8
00000080: 636f 3abe 388a 01bd 5cac 943c a057 69bd
00000090: 1e33 f2bc 7d64 0abe 228c bfbd 644b 663d
000000a0: bb03 2f3d 5df2 c63d 1807 a8bc 5961 c2bd
000000b0: fc9c b8bd 8a8b 47bd 5d5a 0dbc b5ba 76bd
000000c0: ed11 9c3c 1e0b ad3b 17a3 efbc b4da 1cbd
000000d0: f582 85bd 33dd bcbd 8281 9b3c 18e8 12bd
000000e0: 4c83 bd3c c3ee 28bc f8ff edbd 8c28 82be
000000f0: 9160 97bb def6 36bb 46fa 8fbd c486 cfbc

conv3.weight f4 [128, 64, 3, 3]
-0.029789325 -0.017128829 0.027000774 -0.024991024 0.017159976 0.021341335 0.11617777 -0.052293826
-0.06851321 0.01423074 0.019507308 -0.11657681 -0.01427902 0.01346472 -0.09858712 0.004575365
-0.065486096 0.06822002 -0.119686894 -0.09467905 0.06206207 -0.022988418 -0.1356028 -0.028675634
-0.13480051 -0.07297604 -0.05697821 0.031536166 0.08421069 -0.22444455 0.060371533 -0.021879632
0.13440233 -0.11181411 -0.011643888 0.07015573 -0.01598759 0.040712707 -0.16088818 -0.053558927
0.008230858 -0.057885293 -0.044154413 -0.102381036 0.06352252 0.051147204 0.12654473 -0.08267065
0.031011665 0.106512226 -0.03070609 0.06432494 -0.024836076 0.13456222 -0.038737934 -0.026956992
-0.027420273 -0.06819968 0.027933467 0.06960249 -0.1170432 0.06859451 0.007884419 -0.145419
-0.07906916 -0.13894577 0.027413206 -0.029064264 0.085440785 0.08318975 0.08612875 0.019685093
-0.060958125 -0.006506413 0.064970925 0.15422887 0.12378747 0.083459176 -0.04528186 -0.03288736
0.10321086 0.06332307 -0.030412905 0.046985116 0.06589062 0.020492762 0.07670359 0.038159985
0.023738828 0.09267742 0.05883626 0.07140144 -0.042113893 -0.03259542 -0.1073597 0.13301669
0.11056261 0.04665814 0.023143271 0.034316856 -0.13854854 0.119059876 0.019563159 0.054069053
-0.0006528494 -0.0061488557 -0.09351162 0.12295099 0.107764766 -0.072312005 -0.16853924 0.018090723
-0.12697569 -0.11896189 0.024719438 -0.065346815 -0.032776292 0.029974092 -0.0055566453 -0.06586775
0.07154207 -0.07992741 0.06882906 0.03214125 0.105467044 -0.07064845 0.014678467 0.018766288
-0.11101369 -0.07976836 -0.06684048 -0.09146041 -0.093462706 -0.13207388 -0.012274692 -0.07109989
-0.13958338 -0.13962759 -0.018397857 -0.07334201 0.062699005 -0.06245987 0.034861643 -0.15657909
-0.041006643 0.14256905 0.047298543 0.069074355 0.044417266 -0.11240449 -0.013192642 0.08293762
-0.12597655 0.035526514 -0.14089847 0.062114574 0.036703095 -0.07644236 0.061130177 0.015397023
0.099169 0.022119714 -0.023951113 -0.035146076 -0.10927663 -0.027168075 -0.06608421 -0.06360772
-0.15383083 -0.1397691 0.041236024 -0.019880848 -0.14253077 -0.09293452 0.025721956 0.054487858
0.17629081 -0.19995981 0.04799761 -0.024058023 0.10123001 -0.18190171 0.024849743 0.065013
-0.09602101 -0.1276073 0.07346547 -0.07308065 -0.051417273 0.16197072 0.06566497 -0.13832524
-0.05576515 0.12818247 0.053269856 0.037283413 0.08849119 -0.020311128 -0.005661798 0.1414207
0.09379531 -0.028298443 0.0033525736 0.08328607 -0.00841008 -0.030545868 0.028181277 0.09594346
0.037402414 0.01762023 0.062701635 0.022936966 -0.006105127 -0.09155006 0.02047397 0.044142008
-0.0054970724 0.106794566 0.094483964 0.042193934 0.11308567 -0.030226868 -0.108775385 -0.12610342
0.019285578 -0.005478582 -0.10284537 -0.051691413 -0.017082404 0.012166246 -0.099002354 0.17592354
0.17202781 0.004662363 -0.023927897 -0.07671118 -0.090727024 0.022347359 -0.11032695 -0.15364973
-0.06580267 0.09819196 -0.08784647 0.06252998 -0.061042115 -0.013329394 -0.01561485 -0.06593356
0.072794594 0.11729598 0.058100972 -0.02137461 0.2159263 -0.14112535 -0.065964885 0.008930538
00000000: be08 f4bc c251 8cbc ba30 dd3c fab9 ccbc
00000010: 1493 8c3c 06d4 ae3c 9cee ed3d 0d32 56bd
00000020: a750 8cbd 0d28 693c cacd 9f3c d3bf eebd
00000030: 8df2 69bc 219b 5c3c 0be8 c9bd f2ec 953b
00000040: 931d 86bd f0b6 8b3d 671e f5bd 17e7 c1bd
00000050: cc34 7e3d 3552 bcbc 76db 0abe 2ae9 eabc
00000060: 2509 0abe 7674 95bd fc61 69bd 112c 013d
00000070: a776 ac3d cbd4 65be 2448 773d ea3c b3bc
00000080: c4a0 093e ccfe e4bd 02c6 3ebc cfad 8f3d
00000090: 68f8 82bc 5ec2 263d dfbf 24be 9b60 5bbd
000000a0: b8da 063c 2119 6dbd 42db 34bd 26ad d1bd
000000b0: 1818 823d bb7f 513d f194 013e 3b4f a9bd
000000c0: 2d0c fe3c 1523 da3d 578b fbbc cbbc 833d
000000d0: 0775 cbbc aeca 093e abab 1ebd e9d4 dcbc
000000e0: 7ba0 e0bc 46ac 8bbd bad4 e43c c08b 8e3d
000000f0: 58b4 efbd 477b 8c3d a62d 013c b8e8 14be
00000100: 03ef a1bd cd47 0ebe a991 e03c 2e18 eebc
00000110: 94fb ae3d 635f aa3d 4564 b03d a242 a13c
00000120: 3aaf 79bd c033 d5bb 7a0f 853d 2cee 1d3e
00000130: 4984 fd3d a5ec aa3d 7979 39bd e5b4 06bd
00000140: 3760 d33d 87af 813d 7c24 f9bc 7773 403d
00000150: a9f1 863d 70e0 a73c c616 9d3d a54d 1c3d
00000160: ee77 c23c a9cd bd3d 4afe 703d eb3a 923d
00000170: 9e7f 2cbd c682 05bd 67df dbbd 8735 083e
00000180: a66e e23d 9b1c 3f3d f596 bd3c d58f 0c3d
00000190: abdf 0dbe aad5 f33d eb42 a03c 8377 5d3d
000001a0: fb23 2bba 577c c9bb 0583 bfbd bbcd fb3d
000001b0: c6b3 dc3d 5118 94bd 8d95 2cbe ff32 943c
000001c0: ea05 02be 4ba2 f3bd 6b80 ca3c 8dd4 85bd
000001d0: 6f40 06bd 3a8c f53c 8514 b6bb ace5 86bd
000001e0: a684 923d fbb0 a3bd 40f6 8c3d 8ba6 033d
000001f0: 1bff d73d 22b0 90bd f47d 703c c2bb 993c
00000200: 255b e3bd 985d a3bd a9e3 88bd 984f bbbd
00000210: 6069 bfbd 603e 07be ca1b 49bc d29c 91bd
00000220: f2ee 0ebe 89fa 0ebe 1ab7 96bc 5634 96bd
00000230: 5668 803d ecd5 7fbd 15cb 0e3d 4556 20be
00000240: 95f6 27bd 9ffd 113e 1ebc 413d db76 8d3d
00000250: e1ee 353d 5334 e6bd f325 58bc 33db a93d
00000260: ffff 00be 4084 113d b047 10be da6b 7e3d
00000270: fc55 163d d08d 9cbd a363 7a3d cc43 7c3c
00000280: 1e19 cb3d 6734 b53c 2035 c4bc 55f5 0fbd
00000290: 6dcc dfbd 958f debc 2957 87bd c444 82bd
000002a0: d485 1dbe a21f 0fbe 1be7 283d 29dd a2bc
000002b0: 96f3 11be 7454 bebd dab6 d23c a92e 5f3d
000002c0: 9485 343e 44c2 4cbe 2499 443d 5515 c5bc
000002d0: ae51 cf3d 7144 3abe b091 cb3c 8925 853d
000002e0: aaa6 c4bd 7dab 02be 1075 963d 4fab 95bd
000002f0: eb9a 52bd a7db 253e 5b7b 863d 22a5 0dbe
00000300: ff69 64bd 4442 033e 7e31 5a3d 7eb6 183d
00000310: de3a b53d 8663 a6bc 9b86 b9bb 97d0 103e
00000320: c117 c03d 23d2 e7bc dab6 5b3b e391 aa3d
00000330: 6fca 09bc 543b fabc 6cdc e63c 017e c43d
00000340: 4633 193d 4d58 903c b769 803d 4ee6 bb3c
00000350: 840d c8bb 997e bbbd 07b9 a73c 40ce 343d
00000360: c920 b4bb 1cb7 da3d cf80 c13d 8cd3 2c3d
00000370: 7699 e73d 569e f7bc a1c5 debd 4121 01be
00000380: cafc 9d3c ad85 b3bb 98a0 d2bd 60ba 53bd
00000390: 66f0 8bbc ef54 473c bfc1 cabd 4d25 343e
000003a0: 0f28 303e bcc6 983b 7004 c4bc c01a 9dbd
000003b0: 17cf b9bd cf11 b73c 19f3 e1bd 5b56 1dbe
000003c0: 8dc3 86bd de18 c93d dae8 b3bd b80f 803d
000003d0: 4c07 7abd 8863 5abc 6ed5 7fbc 2d08 87bd
000003e0: 5515 953d e038 f03d 49fb 6d3d ce19 afbc
000003f0: c91b 5d3e 2a83 10be 9918 87bd 6451 123c

conv3.bias f4 [128]
-0.02043025 0.01576479 -0.15683664 0.0081383325 -0.05908105 0.048053607 -0.04737438 -0.03781548
0.01625928 0.015449962 -0.025979009 0.04614587 0.029458016 0.036062766 -0.1708184 -0.0118336035
-0.10333699 0.039581355 0.13382152 -0.006893553 -0.0020889407 0.0056180987 0.043739844 -0.07770497
0.008338564 -0.074450165 -0.03233845 0.020038279 -0.09034965 -0.09391501 -0.027361825 -0.024980452
0.07732191 0.022607794 -0.01835732 0.009074537 -0.1098254 -0.009386957 -0.051754285 0.02524217
0.0056741154 -0.08325742 -0.2013556 -0.115710504 0.06062904 0.033292383 0.05196431 -0.12409839
-0.023868944 0.07482612 0.0708723 0.015343495 -0.01770732 -0.06924238 -0.028450662 -0.037450038
-0.07332088 -0.092395805 -0.0624876 -0.041734587 -0.05950881 -0.09354743 0.007015118 -0.05983273
-0.003608104 0.020587992 0.006854487 -0.04085145 -0.14454457 0.093594745 0.08705839 -0.032470144
-0.037380993 -0.03188455 0.0330677 -0.016307527 -0.030002998 0.024843497 -0.045684792 -0.03320048
-0.039771765 -0.037458014 -0.027025903 -0.116076834 -0.0055397446 -0.036778763 0.10020898 -0.037682075
0.14704745 0.018651985 0.018918524 -0.07544347 -0.09616414 -0.03732232 0.073994815 -0.10545594
-0.08331815 0.15859081 -0.05597369 0.017248396 -0.020091254 -0.042556174 0.037114855 0.065709315
-0.021251963 -0.11189957 -0.07018023 -0.009936158 -0.025618205 0.028175248 0.04522777 0.025983116
-0.057453882 0.014563474 -0.04338356 0.0068529956 0.16105653 -0.04671602 -0.058253627 -0.04429856
-0.016153898 -0.04035898 -0.13589402 0.124234974 -0.10868089 -0.034386735 -0.13295011 -0.070835
00000000: 575d a7bc 2925 813c c999 20be a456 053c
00000010: f9fe 71bd dcd3 443d a30b 42bd 68e4 1abd
00000020: 2e32 853c d621 7d3c eed1 d4bc 7403 3d3d
00000030: f051 f13c 8db6 133d 05eb 2ebe bbe1 41bc
00000040: 58a2 d3bd 0f20 223d 8208 093e 50e3 e1bb
00000050: 9ce6 08bb 0718 b83b 8d28 333d c923 9fbd
00000060: 799e 083c 5479 98bd 5375 04bd 5127 a43c
00000070: 3d09 b9bd 8356 c0bd e825 e0bc cea3 ccbc
00000080: f35a 9e3d fb33 b93c 1762 96bc 5ead 143c
00000090: 24ec e0bd c0cb 19bc 4dfc 53bd abc8 ce3c
000000a0: eeed b93b de82 aabd 2a30 4ebe a1f9 ecbd
000000b0: 2856 783d 985d 083d 87d8 543d 4c27 febd
000000c0: ce88 c3bc 703e 993d 7f25 913d 4863 7b3c
000000d0: f10e 91bc f3ce 8dbd 5d11 e9bc 3665 19bd
000000e0: 4229 96bd 033a bdbd fff2 7fbd e3f1 2abd
000000f0: 83bf 73bd cc95 bfbd 13df e53b 2a13 75bd
00000100: f175 6cbb 26a8 a83c 9b9b e03b da53 27bd
00000110: 7e03 14be 9aae bf3d ab4b b23d 6aff 04bd
00000120: d01c 19bd 6099 02bd ff71 073d 5d97 85bc
00000130: d9c8 f5bc 9784 cb3c fa1f 3bbd 3afd 07bd
00000140: b8e7 22bd 936d 19bd 6d65 ddbc b1b9 edbd
00000150: bf86 b5bb 54a5 16bd 5e3a cd3d 8558 1abd
00000160: 9b93 163e 0ccc 983c 05fb 9a3c 1b82 9abd
00000170: b4f1 c4bd 4adf 18bd 988a 973d 49f9 d7bd
00000180: b5a2 aabd a165 223e ab44 65bd 824c 8d3c
00000190: 6a96 a4bc 624f 2ebd bf05 183d 9b92 863d
000001a0: 9918 aebc 9a2b e5bd a7ba 8fbd 44cb 22bc
000001b0: 45dd d1bc c7cf e63c c140 393d 8bda d43c
000001c0: c354 6bbd a39b 6e3c f6b2 31bd 188f e03b
000001d0: 01ec 243e 4c59 3fbd 5b9b 6ebd 6872 35bd
000001e0: 2e55 84bc 754f 25bd cd27 0bbe e86e fe3d
000001f0: 1694 debd 1bd9 0cbd 1324 08be f111 91bd

act_conv1.weight f4 [4, 128, 1, 1]
0.014656112 0.024622671 -0.05647536 -0.0006294109 0.06747954 0.2851746 -0.019795666 0.25960097
0.049128506 -0.011863074 -0.045917127 0.061838556 -0.010462947 -0.10089212 0.015467664 -0.03412687
0.005154883 0.097996324 -0.097444266 -0.05272931 -0.014388207 -0.05038482 -0.0072531905 -0.013281738
0.070240885 0.099816315 0.014970324 -0.08902456 0.029611487 -0.056956902 -0.0058672256 0.1429274
0.46977898 -0.013089548 -0.010034693 0.105866484 -0.27452907 0.006866625 -0.0066322167 0.027966535
-0.015313688 0.12659746 -0.08477514 -0.23041248 -0.054802913 -0.08270161 -0.018067468 -0.087421566
-0.1213356 0.03347514 -0.015834086 -0.07738052 0.09418485 0.043659776 0.015617785 -0.085837625
-0.020730997 -0.1149809 -0.012843334 -0.019445414 -0.052440867 0.100000635 -0.0043576728 0.10526967
0.036645625 -0.0066114743 0.56969684 0.023868438 0.59871197 -0.024860362 0.005349912 0.10061441
-0.0133790765 0.0065408163 -0.009864491 -0.01221375 0.01869459 0.19781397 0.09577063 -0.03537077
-0.09925224 -0.12473576 0.020955043 0.115828946 0.054672793 -0.2527173 0.10374155 -0.13782659
0.09552126 -0.0034080236 0.054458395 -0.058748238 -0.05872948 0.069860436 0.14495188 0.116224766
0.04602253 -0.0007452151 -0.040065408 -0.014123277 0.16565369 0.3623662 0.26818198 0.069595724
-0.019555144 -0.0057531088 0.31993505 0.038020916 0.000617114 0.25993133 0.06935914 0.091369666
-0.09501841 0.033399064 0.0088197505 -0.018281259 0.14222412 0.22493173 0.0076162377 -0.12814687
-0.0067277444 -0.020390425 -0.18753389 0.19661984 -0.023271466 -0.09749883 0.09011307 -0.15827015
0.0017686608 -0.011896681 0.006983316 -0.0053835995 -0.063687146 -0.076635435 0.3160913 0.22651158
0.16302803 -0.0072928076 0.03424798 0.05943333 -0.033815995 0.2674269 -0.063756436 0.075641416
0.037851635 -0.20170279 -0.016466292 -0.042387754 -0.028862474 0.08906015 -0.09838351 0.0043248674
-0.05532888 -0.15457709 -0.025364293 -0.005644242 -0.018094484 -0.04822141 -0.01819595 -0.16999723
0.114250034 -0.017328916 0.015003788 -0.054444816 0.37813622 0.017245067 0.024660533 0.04388104
0.010042993 0.018164176 0.13967553 0.14323057 0.0031491201 0.1147331 0.008151029 -0.08722213
0.38897404 0.025093703 -0.0024388481 -0.038146097 -0.015151883 0.025209593 -0.0034843169 0.06764917
0.050995465 0.037545662 0.5946626 0.028764999 -0.008166928 0.04297237 0.05881152 0.3693281
0.046595804 0.016304929 0.12701654 -0.019266376 -0.08265382 -0.010330483 -0.066896416 0.012387542
-0.020120677 0.023422312 0.004624212 0.02623599 0.0071561756 0.23439649 -0.0025359027 0.052894216
0.1778431 0.065281324 0.0737064 -0.102438584 0.014320676 0.21447323 0.2428504 0.042634565
0.10467084 0.03794273 0.08651784 -0.017107407 0.15708114 0.052906387 0.028884659 0.0033211117
0.029986601 0.08848085 0.0888679 0.077445544 -0.20368296 -0.3062405 -0.25914663 -0.14450723
0.022502901 -0.0059747924 0.066946745 -0.26699162 0.08090095 0.30637667 -0.04192711 -0.062705964
-0.07762174 -0.09714175 0.02764414 0.3013777 0.085697435 0.10884421 -0.011291401 -0.014670329
0.024912873 -0.07200252 -0.032791365 0.21517484 0.089679174 0.016986853 0.12017909 0.19766062
00000000: 3020 703c 7cb5 c93c b552 67bd 0dff 24ba
00000010: b732 8a3d 6802 923e 852a a2bc 6bea 843e
00000020: f93a 493d 575d 42bc 9913 3cbd 6d4a 7d3d
00000030: c86c 2bbc 87a0 cebd 166c 7d3c 9ec8 0bbd
00000040: 4bea a83b 4cb2 c83d dc90 c7bd b0fa 57bd
00000050: 84bc 6bbc 5060 4ebd 2cac edbb a69b 59bc
00000060: 74da 8f3d 7f6c cc3d 1746 753c 8252 b6bd
00000070: ca93 f23c a44b 69bd db41 c0bb 8f5b 123e
00000080: df86 f03e 8b75 56bc 8e68 24bc 87d0 d83d
00000090: 138f 8cbe 6d01 e13b 1153 d9bb 131a e53c
000000a0: 43e6 7abc c4a2 013e 979e adbd 40f1 6bbe
000000b0: 0579 60bd 765f a9bd 3a02 94bc 140a b3bd
000000c0: cd7e f8bd 3a1d 093d 7cb6 81bc ae79 9ebd
000000d0: fde3 c03d 98d4 323d bde1 7f3c a3cb afbd
000000e0: 0dd4 a9bc 1b7b ebbd d96c 52bc fd4b 9fbc
000000f0: 3ccc 56bd 22cd cc3d cfca 8ebb a097 d73d
00000100: b919 163d 11a5 d8bb a7d7 113f be87 c33c
00000110: 3045 193f f5a7 cbbc 514e af3b ee0e ce3d
00000120: ea33 5bbc 5854 d63b ad9e 21bc 2e1c 48bc
00000130: 6625 993c bf8f 4a3e 6423 c43d f1e0 10bd
00000140: c244 cbbd 7675 ffbd e9a9 ab3c ba37 ed3d
00000150: 94f0 5f3d 2964 81be 7376 d43d 6a22 0dbe
00000160: a6a0 c33d 2659 5fbb c40f 5f3d fea1 70bd
00000170: 538e 70bd fd12 8f3d 446e 143e 4007 ee3d
00000180: 1f82 3c3d 8a5a 43ba a01b 24bd 5165 67bc
00000190: 1fa1 293e 1088 b93e 264f 893e 3488 8e3d
000001a0: 1c32 a0bc 9384 bcbb 87ce a33e d2bb 1b3d
000001b0: d2c5 213a b815 853e 2a0c 8e3d 0520 bb3d
000001c0: 0399 c2bd 75cd 083d b780 103c 94c2 95bc
000001d0: 33a3 113e 8154 663e a291 f93b ef38 03be
000001e0: 6974 dcbb d209 a7bc e208 40be b656 493e
000001f0: cda3 bebc 77ad c7bd 348d b83d 9211 22be
00000200: 69d2 e73a 4cea 42bc 4dd4 e43b e868 b0bb
00000210: 686e 82bd 0af3 9cbd b8d6 a13e a7f2 673e
00000220: d2f0 263e 81f8 eebb 9c47 0c3d 5d70 733d
00000230: a482 0abd 2eec 883e bc92 82bd e3e9 9a3d
00000240: 510a 1b3d 2d8b 4ebe 51e4 86bc c89e 2dbd
00000250: ff70 ecbc 2b65 b63d 4b7d c9bd 9eb7 8d3b
00000260: 89a0 62bd 7549 1ebe c7c8 cfbc 55f3 b8bb
00000270: e23a 94bc d083 45bd ac0f 95bc c113 2ebe
00000280: ecfb e93d 5ff5 8dbc 73d2 753c 8701 5fbd
00000290: 129b c13e 8745 8d3c e304 ca3c 9bbc 333d
000002a0: 5e8b 243c 0acd 943c 1a07 0f3e 09ab 123e
000002b0: 7861 4e3b 30f9 ea3d e58b 053c 84a1 b2bd
000002c0: 9b27 c73e 4f91 cd3c 15d5 1fbb 153f 1cbd
000002d0: 9a3f 78bc 5984 ce3c 2359 64bb a68b 8a3d
000002e0: 9fe0 503d 7bc9 193d cf3b 183f 93a4 eb3c
000002f0: 94ce 05bc cc03 303d 59e4 703d 9318 bd3e
00000300: 3edb 3e3d ea91 853c a010 023e 85d4 9dbc
00000310: 6846 a9bd 3041 29bc fd00 89bd 1ef5 4a3c
00000320: 1ed4 a4bc 26e0 bf3c b486 973b dcec d63c
00000330: 5a7e ea3b a205 703e 6331 26bb 9ba7 583d
00000340: 801c 363e 37b2 853d 62f3 963d 52cb d1bd
00000350: 45a1 6a3c df9e 5b3e c6ad 783e 95a1 2e3d
00000360: aa5d d63d d669 1b3d 4430 b13d d524 8cbc
00000370: e1d9 203e 5eb4 583d 859f ec3c 02a7 593b
00000380: 76a6 f53c 7335 b53d 6000 b63d c59b 9e3d
00000390: 4492 50be 8ecb 9cbe deae 84be b4f9 13be
000003a0: 0158 b83c 31c8 c3bb 601b 893d 20b3 88be
000003b0: 66af a53d 67dd 9c3e c3bb 2bbd fc6b 80bd
000003c0: 26f8 9ebd 41f2 c6bd f775 e23c 2e4e 9a3e
000003d0: 2382 af3d b7e9 de3d 92ff 38bc d25b 70bc
000003e0: 1516 cc3c 0f76 93bd 3d50 06bd cb56 5c3e
000003f0: b7a9 b73d 0328 8b3c 7420 f63d 8c67 4a3e

act_conv1.bias f4 [4]
0.06998184 -0.0024311957 0.18061237 -0.0005058867
00000000: a452 8f3d b254 1fbb 73f2 383e 7b9d 04ba

act_fc1.weight f4 [81, 324]
-0.006899347 -9.523437e-05 0.017457899 -0.018103037 -0.026106676 0.0053741345 -0.03944209 -0.05457438
-0.0055936584 0.018379657 -0.02378105 -0.033903833 0.0033262921 -0.03839532 -0.005945857 -0.014235921
-0.04115583 0.019539854 0.006279975 -0.020207964 -0.019313369 0.01936655 -0.03297369 -0.0053700553
0.01638338 -0.032387353 0.021819986 0.042852823 0.013871273 -0.069099635 -0.06350795 -0.05231469
0.001473739 -0.0691144 -0.0009591355 0.01296851 0.00043574467 -0.010999404 -0.046800975 -0.07387277
-0.07739842 -0.0023792405 -0.025982676 -0.03779608 -0.009567951 0.060478665 0.031796042 -0.1722973
-0.059267793 -0.018075397 -0.006682407 0.009457377 -0.030199172 -0.017486567 0.05988279 -0.34539235
-0.06419019 0.11518536 0.004185977 -0.0168559 0.0014743966 0.015893286 0.030341772 -0.03406549
0.13508075 0.18280897 0.026691008 -0.03675617 -0.0055171554 -0.0066912235 0.019988932 -0.01742178
-0.019926678 -0.06358011 0.030267745 -0.061478734 -0.06267749 -0.001070624 0.008844983 0.024156664
0.0032647753 0.0017538762 -0.019838091 -0.017314719 -0.021340042 -0.0033472574 0.0022680417 -0.0069386126
-0.04232863 -0.011111412 -0.027829934 -0.009567894 0.030971708 0.012238853 -0.008611544 0.0058368417
0.03627575 -0.023837145 -0.010244702 -0.017020624 0.006778187 0.030018646 -0.0073127765 0.038275518
0.033679668 0.022517359 0.008690922 0.0074498192 0.008761951 0.014395676 0.033459168 0.06582517
0.1068382 -0.014479664 0.06643744 0.015737278 0.02361161 -0.048657585 -0.021027926 0.008893515
0.058345255 -0.009811734 0.023956541 -0.0025821128 0.017924951 -0.00067213195 0.041715432 0.026171623
0.03126815 0.07067092 0.017907385 0.052120898 0.023026552 0.02491819 0.025344817 0.062146254
0.04298969 0.17732395 -0.07005757 0.013261928 0.008611284 0.02664854 -0.023347307 -0.014446236
-0.5530572 0.18857224 -0.030777207 0.05396039 -0.014582453 0.033674985 0.011493984 -0.010248511
-0.01489214 0.14008367 0.032775387 0.010046466 -0.04703171 -0.03834967 0.0173049 0.016291454
0.010232198 -0.008404529 -0.006500532 -0.022484336 -0.039178666 -0.039068542 -0.031876247 -0.04320215
-0.032827727 -0.015882429 -0.02358404 0.0092756655 -9.7371185e-06 -0.025716804 -0.063218884 -0.044428006
-0.05122977 -0.0700006 -0.0470725 -0.03142586 -0.016738959 -0.03430308 -0.04188273 -0.040423635
-0.041329734 -0.025827618 -0.0723984 -0.07534437 -0.08671064 0.018715877 -0.03807133 -0.066137776
-0.049179155 -0.051308297 -0.072098725 -0.04139099 -0.06832477 -0.052574076 0.0011890505 -0.069133185
-0.08059933 0.021291131 -0.025475238 -0.052677397 -0.056896243 -0.08216261 -0.036092915 0.11111352
-0.08676883 0.04267832 -0.15730032 -0.07422853 -0.07967073 -0.0628863 -0.06433054 -0.022400083
-0.086656556 -0.014092732 -0.20591179 -0.018668517 -0.029754924 -0.0929437 -0.063306674 -0.053743266
-0.023241106 -0.91781414 -0.06855025 0.08016275 -0.013910103 -0.021793436 -0.085285075 -0.064099476
-0.005768685 -0.042502124 -0.014918416 0.053711604 0.057676025 -0.012281042 -0.018084977 -0.0072807902
-0.008395477 -0.0006523811 0.0050898395 -0.019179504 0.019578151 0.018875852 0.00953243 0.017799001
-0.017113835 0.004575321 0.08141761 0.008755298 0.018527228 -0.0042697364 0.034484703 0.04245341
00000000: eb13 e2bb 90b8 c7b8 de03 8f3c d24c 94bc
00000010: abdd d5bc 8219 b03b 078e 21bd 6389 5fbd
00000020: 024b b7bb ef90 963c 7ad0 c2bc bfde 0abd
00000030: ecfd 593b 6944 1dbd 77d5 c2bb c83d 69bc
00000040: 0493 28bd 0b12 a03c 40c8 cd3b 2c8b a5bc
00000050: 1237 9ebc 99a6 9e3c 6c0f 07bd 4af7 afbb
00000060: 7036 863c 9aa8 04bd d4bf b23c 7186 2f3d
00000070: 5644 633c 1c84 8dbd 7510 82bd ee47 56bd
00000080: 7a2a c13a da8b 8dbd 7e6e 7bba e079 543c
00000090: a974 e439 d836 34bc 61b2 3fbd 9b4a 97bd
000000a0: 1083 9ebd 08ed 1bbb 9fd9 d4bc 10d0 1abd
000000b0: e5c2 1cbc 7ab8 773d 913c 023d b46e 30be
000000c0: c9c2 72bd db12 94bc 18f8 dabb 1df3 1a3c
000000d0: 4164 f7bc fd3f 8fbc a847 753d 44d7 b0be
000000e0: 2576 83bd 4de6 eb3d 852a 893b 6215 8abc
000000f0: 8a40 c13a a332 823c 4f8f f83c 4188 0bbd
00000100: 9c52 0a3e 4632 3b3e 1aa7 da3c a38d 16bd
00000110: 41c9 b4bb 0d42 dbbb d4bf a33c 1fb8 8ebc
00000120: 463d a3bc 4a36 82bd 10f4 f73c 20d1 7bbd
00000130: 0e5d 80bd 2e54 8cba 8cea 103c 32e4 c53c
00000140: d7f5 553b 52e2 e53a 7e83 a2bc 99d7 8dbc
00000150: 50d1 aebc a95d 5bbb 6da3 143b 4d5d e3bb
00000160: c960 2dbd a40c 36bc 9afb e3bc a8c2 1cbc
00000170: 61b8 fd3c 7885 483c 6f17 0dbc fa42 bf3b
00000180: e195 143d 1e46 c3bc 65d9 27bc d66e 8bbc
00000190: 8e1b de3b aae9 f53c 04a0 efbb cac6 1c3d
000001a0: b1f3 093d 5376 b83c 5e64 0e3c 9d1d f43b
000001b0: 498e 0f3c d7db 6b3c 7b0c 093d 59cf 863d
000001c0: fccd da3d 1d3c 6dbc 5a10 883d 77eb 803c
000001d0: 236d c13c 2d4d 47bd c242 acbc 1bb6 113c
000001e0: 6ffb 6e3d 65c1 20bc 8240 c43c aa38 29bb
000001f0: 59d7 923c 0332 30ba cddd 2a3d df65 d63c
00000200: 0813 003d eabb 903d 82b2 923c b97c 553d
00000210: 2ea2 bc3c 3b21 cc3c ef9f cf3c 128d 7e3d
00000220: f515 303d 6994 353e 587a 8fbd 8f48 593c
00000230: 5816 0d3c 0a4e da3c da42 bfbc e8af 6cbc
00000240: 2895 0dbf 1519 413e 7b20 fcbc 9205 5d3d
00000250: 3eeb 6ebc c8ee 093d 4351 3c3c 5fe9 27bc
00000260: 2afe 73bc 1872 0f3e 7c3f 063d ef99 243c
00000270: 53a4 40bd 8b14 1dbd 01c3 8d3c a875 853c
00000280: f3a4 273c 26b3 09bc 6a02 d5bb 1231 b8bc
00000290: cf79 20bd 5606 20bd ab90 02bd bdf4 30bd
000002a0: 5e76 06bd de1b 82bc 5133 c1bc f6f8 173c
000002b0: 9b5c 23b7 0cac d2bc e778 81bd 24fa 35bd
000002c0: 4fd6 51bd 795c 8fbd 18cf 40bd 67b8 00bd
000002d0: 2420 89bc 6381 0cbd 3a8d 2bbd 4193 25bd
000002e0: 5e49 29bd 7194 d3bc 9d45 94bd 264e 9abd
000002f0: 5995 b1bd 0a52 993c aff0 1bbd 3e73 87bd
00000300: 1570 49bd a628 52bd 7fa8 93bd 9989 29bd
00000310: dbed 8bbd ea57 57bd ead9 9b3a b395 8dbd
00000320: 4311 a5bd bd6a ae3c 72b1 d0bc 41c4 57bd
00000330: 090c 69bd df44 a8bd 2ad6 13bd 7c8f e33d
00000340: dbb3 b1bd 76cf 2e3d 5613 21be 2105 98bd
00000350: 682a a3bd 88ca 80bd bbbf 83bd 6180 b7bc
00000360: fe78 b1bd 34e5 66bc 8ada 52be b8ee 98bc
00000370: 99c0 f3bc 4459 bebd eea6 81bd e621 5cbd
00000380: 2264 bebc def5 6abf 1364 8cbd 5e2c a43d
00000390: 33e7 63bc 2688 b2bc f1a9 aebd 9646 83bd
000003a0: 3d07 bdbb b516 2ebd 5f6c 74bc b300 5c3d
000003b0: b23d 6c3d 6c36 49bc f226 94bc b293 eebb
000003c0: 2f8d 09bc 8e04 2bba abc8 a63b 561e 9dbc
000003d0: 5c62 a03c 88a1 9a3c e92d 1c3c 36cf 913c
000003e0: 5032 8cbc 93ec 953b 47be a63d 6272 0f3c
000003f0: 6ac6 973c 25e9 8bbb d53f 0d3d a0e3 2d3d

act_fc1.bias f4 [81]
0.010511865 -0.033513315 -0.060250845 -0.03186915 -0.053986378 -0.02601833 -0.046513308 -0.020970028
0.013179563 -0.03788706 -0.013580435 -0.060412485 0.05241066 0.00022830669 0.07050184 -0.03262433
-0.02403426 -0.0101355715 -0.0630692 -0.061211344 0.12521483 0.049642384 0.083881155 0.03154859
0.09141737 -0.102472655 -0.030274138 0.008468516 0.04847102 0.020792464 0.079571635 0.06486378
0.05192336 -0.005501995 0.04910853 -0.003833822 -0.040255256 -0.045823608 0.10845075 0.047276787
-0.0118003255 0.06984963 0.11001227 -0.052595463 -0.030413691 -0.031201825 0.027076615 -0.0029370654
0.058325645 0.057558145 0.018814461 0.041008323 0.002773398 -0.020426434 -0.07178343 -0.06920069
0.11106716 0.03114118 0.110813364 0.060897205 0.11519383 -0.06051132 -0.04653766 -0.031010656
-0.026599873 -0.07811288 0.037955068 -0.056708243 0.032134496 -0.07019262 -0.013947076 -0.005027491
-0.004621904 -0.00951678 -0.05577214 -0.017079564 -0.009903116 -0.004316637 -0.016352093 -0.0028857645
0.01027772
00000000: f539 2c3c 4245 09bd 97c9 76bd 3a89 02bd
00000010: d220 5dbd 6524 d5bc bd84 3ebd 56c9 abbc
00000020: 18ef 573c 762f 1bbd 7980 5ebc 1573 77bd
00000030: 8fac 563d 9c65 6f39 4563 903d 17a1 05bd
00000040: 7fe3 c4bc ab0f 26bc 6d2a 81bd bfb8 7abd
00000050: 5138 003e d055 4b3d e2c9 ab3d 1839 013d
00000060: 0839 bb3d 2fdd d1bd 7801 f8bc 88bf 0a3c
00000070: 8c89 463d f554 aa3c 74f6 a23d 4dd7 843d
00000080: 97ad 543d 144a b4bb 0726 493d dc40 7bbb
00000090: b2e2 24bd 89b1 3bbd 6d1b de3d 4ea5 413d
000000a0: 2756 41bc 530d 8f3d 1d4e e13d 576e 57bd
000000b0: 2226 f9bc f89a ffbc c7cf dd3c c87b 40bb
000000c0: dfe6 6e3d 17c2 6b3d c920 9a3c 58f8 273d
000000d0: e6c1 353b 5655 a7bc 3103 93bd 17b9 8dbd
000000e0: 2e77 e33d ca1b ff3c 1ef2 e23d 596f 793d
000000f0: beea eb3d b8da 77bd 469e 3ebd 0f0a febc
00000100: fae7 d9bc a5f9 9fbd c676 1b3d e746 68bd
00000110: 769f 033d 26c1 8fbd 4782 64bc a7bd a4bb
00000120: 5773 97bb 45ec 1bbc 5471 64bd 71ea 8bbc
00000130: ae40 22bc 9372 8dbb d3f4 85bc 181f 3dbb
00000140: e263 283c

val_conv1.weight f4 [2, 128, 1, 1]
0.30383003 -0.17778826 -0.20229192 -0.029218098 0.26610246 -0.036012065 0.040574655 0.19557959
0.23273087 0.2966365 -0.4789757 -0.18472902 -0.30171117 -0.038351193 0.42811 -0.08175657
-0.16789974 0.12667637 0.025187084 0.19540983 -0.30100924 -0.24653496 0.112674326 0.011583655
-0.120104775 -0.3923617 0.13403314 0.06561728 0.01720131 0.093349986 -0.15569538 0.12085099
0.019739749 0.13622135 0.13447 0.1875859 0.07547987 -0.28548065 0.20807989 -0.2599735
-0.19226354 0.23327033 -0.15934823 0.003924523 -0.32220116 0.20450515 -0.615168 0.060905922
-0.05305994 -0.36003956 -0.4402689 0.25029042 -0.11612449 0.0073438706 0.3670655 0.35304555
0.3039967 0.44085023 0.001953597 0.17127062 0.22829807 -0.0051881233 -0.2578453 -0.04333886
0.035274804 0.073342584 0.24422653 0.16805488 0.47966152 -0.13624288 -0.2751455 -0.18605834
-0.30175865 0.20059451 -0.12115121 0.3557313 -0.39198077 -0.18518212 0.1511726 0.22227591
-0.0016077195 0.26326847 -0.40023214 0.12672444 0.18392341 0.06226062 -0.0030797487 -0.24810508
0.0070470357 -0.22614612 -0.2825102 0.09848513 0.11949088 -0.4239174 0.21588843 -0.07756775
0.28171855 0.009032694 0.18963176 -0.16510798 0.08965537 -0.008497142 -0.0010666118 0.03467902
-0.116110116 -0.07964337 0.07252524 -0.0052524204 -0.18119599 -0.19342922 0.0641687 0.077252954
-0.3173689 -0.002119428 0.08041755 0.020411197 0.0068150614 0.17100191 -0.060237497 0.31882012
0.29652718 -0.39719045 0.26025495 0.0058581373 0.315456 -0.021919679 0.10375256 0.06849273
0.31060535 -0.21688458 0.15979084 -0.47312415 0.40367374 -0.14200279 0.0996955 -0.5425855
-0.10231592 0.29014853 0.33063704 -0.47118783 0.12519792 0.046665613 0.023218874 0.3605374
0.2454866 -0.2881785 0.034480147 0.12699425 0.14952038 -0.16517168 -0.28631896 -0.43355116
-0.15219969 0.022708436 0.2698109 -0.50499165 0.2916109 -0.6757026 -0.72199255 0.13692889
0.03349494 -0.3923691 0.2017766 0.1530816 0.07947775 0.11590246 -0.37289324 -0.001089128
0.38277847 -0.35843652 0.36323628 -0.026252026 0.013420507 0.1912062 0.1601432 0.2131132
-0.04807063 0.19738218 -0.07695814 -0.09975807 0.24786244 -0.5275737 0.29746982 -0.30939376
-0.12559529 -0.30670345 -0.04282781 -0.5142429 0.5438128 0.40547466 -0.20242348 -0.09564635
-0.2973446 0.35596672 -0.048699077 0.38745642 -0.019650396 -0.4659334 0.14330839 -0.20054245
-0.15338989 -0.40992793 -0.61827594 0.2864291 0.22109754 0.17333658 0.093967535 -0.48298407
0.1786034 -0.057851184 -0.043452572 -0.11305051 -0.4941114 0.010088904 -0.046852004 0.17067759
0.0049181534 0.09828297 -0.23169735 0.23379847 0.20239276 -0.052136615 0.18279618 0.4719545
0.25911248 0.0044389134 -0.3373271 -0.041015893 -0.60287994 -0.023213627 0.08550772 -0.15702598
0.46623397 -0.46710065 0.05759861 -0.080404714 -0.15856974 0.027752742 -0.4234787 -0.245471
-0.2709122 -0.1393971 0.2479737 0.10019842 0.0068968884 0.33136588 0.6516017 -0.41122562
-0.029432636 0.27205357 -0.46049908 0.009683291 -0.31800044 -0.47206864 0.43126455 0.14073901
00000000: 9c8f 9b3e 200e 36be 9d25 4fbe cb5a efbc
00000010: 953e 883e 6381 13bd 9c31 263d 0446 483e
00000020: 0051 6e3e bde0 973e 4e3c f5be 9b29 3dbe
00000030: e379 9abe 2416 1dbd 3c31 db3e fd6f a7bd
00000040: e9ed 2bbe 73b7 013e 2555 ce3c 8419 483e
00000050: e21d 9abe a973 7cbe ccc1 e63d 5fc9 3d3c
00000060: 7ef9 f5bd a2e3 c8be fc3f 093e 5a62 863d
00000070: c3e9 8c3c 472e bf3d 9c6e 1fbe b980 f73d
00000080: 41b5 a13c 9c7d 0b3e 81b2 093e 8516 403e
00000090: 3195 9a3d 852a 92be e512 553e 3f1b 85be
000000a0: bce0 44be 6bde 6e3e 2f2c 23be 4999 803b
000000b0: 8df7 a4be cc69 513e a67b 1dbf 7d78 793d
000000c0: 6155 59bd 1b57 b8be ed6a e1be 1126 803e
000000d0: add2 edbd daa4 f03b 02f0 bb3e 63c2 b43e
000000e0: 75a5 9b3e 1fb7 e13e eb07 003b 9161 2f3e
000000f0: f8c6 693e 2201 aabb 4d04 84be 1784 31bd
00000100: 507c 103d a334 963d 8516 7a3e 9416 2c3e
00000110: 3296 f53e 4183 0bbe dfdf 8cbe 1486 3ebe
00000120: 1c80 9abe a668 4d3e 201e f8bd 6a22 b63e
00000130: b4b1 c8be 62a0 3dbe fdcc 1a3e 4c9c 633e
00000140: 1dba d2ba 20cb 863e 3aeb ccbe 0dc4 013e
00000150: 6b56 3c3e fe04 7f3d 9cd5 49bb 420f 7ebe
00000160: d2ea e63b d992 67be 2da5 90be 92b2 c93d
00000170: a2b7 f43d b40b d9be db11 5d3e d7db 9ebd
00000180: 6a3d 903e ddfd 133c d42e 423e 1112 29be
00000190: 3c9d b73d 9937 0bbc 8ecd 8bba 970b 0e3d
000001a0: 24cb edbd 101c a3bd 1d88 943d 7f1c acbb
000001b0: 718b 39be 4f12 46be e16a 833d cc36 9e3d
000001c0: 2d7e a2be 1ae6 0abb f5b1 a43d 6235 a73c
000001d0: e150 df3b 201b 2f3e 98bb 76bd 643c a33e
000001e0: 69d2 973e 8c5c cbbe 2340 853e 9ef5 bf3b
000001f0: 7383 a13e e690 b3bc 397c d43d eb45 8c3d
00000200: aa07 9f3e fe16 5ebe 36a0 233e 543d f2be
00000210: 53ae ce3e 2e69 11be 282d cc3d e2e6 0abf
00000220: 028b d1bd 598e 943e 4249 a93e 883f f1be
00000230: e233 003e 7124 3f3d 8235 be3c 5c98 b83e
00000240: d760 7b3e 228c 93be 0e3b 0d3d c80a 023e
00000250: df1b 193e c422 29be 6698 92be 6bfa ddbe
00000260: 3cda 1bbe 0b07 ba3c a724 8a3e 2247 01bf
00000270: 064e 953e d8fa 2cbf 81d4 38bf 1637 0c3e
00000280: fd31 093d 9ae4 c8be 869e 4e3e 6cc1 1c3e
00000290: 3bc5 a23d 455e ed3d ddeb bebe 12c1 8eba
000002a0: 8afb c33e fe84 b7be 1bfa b93e 7d0e d7bc
000002b0: b0e1 5b3c 8fcb 433e 94fc 233e 593a 5a3e
000002c0: b5e5 44bd 8e1e 4a3e 3b9c 9dbd f64d ccbd
000002d0: a7cf 7d3e 120f 07bf f74d 983e dc68 9ebe
000002e0: 0d9c 00be 3c08 9dbe 376c 2fbd 6ca5 03bf
000002f0: 5137 0b3f 609a cf3e 1a48 4fbe 3ce2 c3bd
00000300: 8d3d 98be 4541 b63e af78 47bd b060 c63e
00000310: def9 a0bc d38e eebe 6fbf 123e 005b 4dbe
00000320: 3d12 1dbe 13e2 d1be 5547 1ebf d6a6 923e
00000330: 6567 623e 257f 313e 0d72 c03d b049 f7be
00000340: cfe3 363e 5df5 6cbd 53fb 31bd 0787 e7bd
00000350: 2bfc fcbe ee4b 253c e3e7 3fbd 1bc6 2e3e
00000360: 7628 a13b 9548 c93d 1242 6dbe de68 6f3e
00000370: 0c40 4f3e 348d 55bd ec2e 3b3e 05a4 f13e
00000380: 64aa 843e 4e74 913b 23b6 acbe 4800 28bd
00000390: 5756 1abf 812a bebc ac1e af3d 6bcb 20be
000003a0: 38b6 ee3e d127 efbe 85ec 6b3d 3aab a4bd
000003b0: 1b60 22be b859 e33c 33d2 d8be c05c 7bbe
000003c0: 01b5 8abe 1dbe 0ebe d1ec 7d3e d434 cd3d
000003d0: 4bff e13b caa8 a93e 5ecf 263f 2a8c d2be
000003e0: b61c f1bc 9b4a 8b3e 89c6 ebbe aba6 1e3c
000003f0: f4d0 a2be fbb2 f1be b5ce dc3e e31d 103e

val_conv1.bias f4 [2]
-0.01554308 0.053593066
00000000: 67a8 7ebc 6784 5b3d
