best_policy.model (torch, 529533 bytes, 15 tensors)

conv1.weight f4 [32, 4, 3, 3]
0.24541198 0.009987334 -0.02333933 -0.16747873 0.110046886 -0.045922283 0.12883419 -0.22088228
0.107663676 0.17677233 -0.32454342 0.05576032 -0.3532529 -0.05412942 0.050461575 -0.126481
0.11604133 -0.19514576 -0.019295743 0.037426405 0.05744856 -0.021122621 0.07439046 -0.09029609
0.131342 -0.00076352165 0.011008508 -0.046433497 -0.15150006 0.13691436 0.046158843 0.013859008
-0.029357316 -0.10348686 0.17436087 0.13760206 -0.15161817 0.16672327 0.116160505 -0.22683237
-0.0031080288 -0.24336097 -0.2533885 0.012252175 -0.06380596 -0.22008587 -0.18647105 -0.043839507
-0.2243183 0.095768325 -0.24638005 -0.34495527 0.15709808 0.024895001 -0.08089514 0.013690671
-0.02559743 0.049446676 0.058492593 -0.08856727 0.06679798 -0.045964155 -0.008758878 -0.09006049
-0.070342965 -0.09011614 -0.0395576 0.2073711 0.15225376 0.12256572 0.02509866 0.17839918
0.14953141 -0.18809706 -0.22743155 0.083619356 0.16653603 0.101933315 0.17728652 -0.20555381
-0.1663231 -0.3752634 0.29808438 0.05943429 -0.3506672 0.09395101 -0.21220076 -0.0068071363
-0.16924241 -0.093429066 0.08473705 -0.025391897 0.0034925027 -0.12548226 -0.035672624 -0.060989603
-0.10260183 0.07934543 0.074891604 0.13595131 -0.1624256 0.061172407 0.17142862 0.14632381
0.09492109 -0.07971715 -0.05972448 -0.09382111 -0.14581634 0.042751137 0.025481174 -0.20521267
-0.1936746 -0.07113275 -0.057702392 -0.1514942 0.19356921 -0.047751144 0.3480261 -0.19747673
-0.061577857 0.35098597 0.15420365 -0.3524112 0.28411216 -0.19122297 0.008581141 0.031614695
-0.0020850012 -0.0010237574 -0.017376326 -0.054858558 -0.024894726 -0.10773439 -0.06255121 0.11393884
0.07477982 0.11988013 -0.0075044036 -0.068148464 0.17093581 -0.12384034 -0.12834798 -0.16736127
-0.19591731 -0.26183596 -0.11940883 0.17310645 -0.005315529 0.12109585 0.09986073 0.11060104
0.097578585 -0.07285574 -0.02710601 -0.15471429 0.056470744 0.15597427 0.0933193 0.1357337
0.20143946 -0.24952948 -0.11993698 0.03354796 -0.121708535 -0.09978917 -0.07744795 -0.009334033
-0.11611715 -0.026451953 0.14704058 -0.31398386 -0.20139346 -0.13424881 -0.09093084 -0.06580276
0.14385709 -0.0778909 0.020048857 0.20093296 0.3026413 0.16800225 0.30242345 -0.068158165
0.2179889 0.2256489 0.16472006 0.27629265 0.24293822 -0.15533601 -0.12574261 -0.13047132
-0.056022733 -0.09534456 -0.02200686 0.08797299 -0.09104948 -0.13842846 -0.022363137 -0.020920176
0.04169327 0.09386627 0.11298724 -0.113745674 -0.088896826 0.009516091 0.00720084 -0.004470147
0.08515393 -0.18800576 0.00019132873 -0.015486223 -0.12291976 -0.09999259 -0.07768934 0.13890564
0.1282966 0.21384214 -0.34109282 -0.20672773 -0.26432157 0.028009264 0.28097934 -0.07017184
-0.061462387 0.16518472 -0.25560266 0.23195256 -0.19067836 -0.0042066313 0.027450677 0.26720342
-0.15851079 0.057645693 0.05608456 -0.05599893 0.03026847 0.037832074 -0.0025468206 0.081880905
-0.06233146 0.06360033 -0.063164026 -0.15845926 -0.018167594 -0.11789628 0.095535494 -0.11323077
-0.02093617 0.10315548 -0.05581114 -0.0065309815 -0.08964826 0.2416373 0.019630758 -0.018984964
00000000: 474d 7b3e eaa1 233c 1f32 bfbc 8b7f 2bbe
00000010: 4360 e13d 0119 3cbd 1ced 033e f72e 62be
00000020: c67e dc3d ce03 353e 8e2a a6be ef64 643d
00000030: 90dd b4be d0b6 5dbd ccb0 4e3d 3c84 01be
00000040: 14a7 ed3d 4ad4 47be 1b12 9ebc 6e4c 193d
00000050: 2e4f 6b3d 5909 adbc 075a 983d 28ed b8bd
00000060: 847e 063e 1227 48ba 075d 343c 0d31 3ebd
00000070: d522 1bbe 4733 0c3e 0e11 3d3d e510 633c
00000080: c17e f0bc ebf0 d3bd a88b 323e 8ee7 0c3e
00000090: cb41 1bbe 81b9 2a3e 8fe5 ed3d bf46 68be
000000a0: 12b0 4bbb 9e33 79be 23bc 81be 59bd 483c
000000b0: b3ac 82bd 315e 61be 44f2 3ebe 0e91 33bd
000000c0: b2b3 65be 2f22 c43d 0d4b 7cbe fa9d b0be
000000d0: 52de 203e 9af0 cb3c 5aac a5bd d64e 603c
000000e0: b4b1 d1bc 9988 4a3d ee95 6f3d c262 b5bd
000000f0: 61cd 883d e944 3cbd 6681 0fbc a271 b8bd
00000100: f90f 90bd d08e b8bd 2607 22bd 1759 543e
00000110: 69e8 1b3e bc03 fb3d b49b cd3c 46ae 363e
00000120: c31e 193e 849c 40be d1e3 68be a040 ab3d
00000130: 6c88 2a3e 6ac2 d03d 998a 353e b37c 52be
00000140: 9a50 2abe 8622 c0be 849e 983e 5f71 733d
00000150: a78a b3be 6369 c03d 284b 59be 660e dfbb
00000160: e24d 2dbe bd57 bfbd 9e8a ad3d ab02 d0bc
00000170: 79e2 643b 6c7e 00be 751d 12bd 3cd0 79bd
00000180: e920 d2bd db7f a23d c560 993d d236 0b3e
00000190: e652 26be eb8f 7a3d fc8a 2f3e e9d5 153e
000001a0: fd65 c23d bf42 a3bd a8a1 74bd 4825 c0bd
000001b0: e150 15be d11b 2f3d e5bd d03c 4523 52be
000001c0: a252 46be 0cae 91bd 5859 6cbd 4c21 1bbe
000001d0: 0237 463e b496 43bd 7a30 b23e 5737 4abe
000001e0: 1039 7cbd 6fb4 b33e 90e7 1d3e 3e6f b4be
000001f0: 2677 913e f4cf 43be ea97 0c3c 697e 013d
00000200: 84a4 08bb 992f 86ba cc58 8ebc 5eb3 60bd
00000210: 06f0 cbbc d9a3 dcbd d91a 80bd c458 e93d
00000220: 2a26 993d b783 f53d 80e7 f5bb 6c91 8bbd
00000230: cc09 2f3e 01a0 fdbd a76d 03be c160 2bbe
00000240: 8c9e 48be 5d0f 86be 9e8c f4bd d142 313e
00000250: e42d aebb 1a01 f83d c883 cc3d cc82 e23d
00000260: 48d7 c73d 6435 95bd 6c0d debc 6c6d 1ebe
00000270: de4d 673d b8b7 1f3e 301e bf3d c6fd 0a3e
00000280: 2546 4e3e a884 7fbe 85a1 f5bd 9669 093d
00000290: 5342 f9bd 445e ccbd 089d 9ebd c6ed 18bc
000002a0: d4ce edbd c4b1 d8bc ce91 163e 7ec2 a0be
000002b0: 163a 4ebe 8578 09be f339 babd 99c3 86bd
000002c0: 464f 133e 4485 9fbd 803d a43c 5fc1 4d3e
000002d0: cdf3 9a3e c808 2c3e 3fd7 9a3e 8296 8bbd
000002e0: 7b38 5f3e 8110 673e 60ac 283e 3b76 8d3e
000002f0: ccc4 783e 6710 1fbe acc2 00be 469a 05be
00000300: 1878 65bd 0244 c3bd bb47 b4bc 2f2b b43d
00000310: 2678 babd 31c0 0dbe e632 b7bc ca60 abbc
00000320: 90c6 2a3d f53c c03d db65 e73d 7ef3 e8bd
00000330: 8a0f b6bd 61e9 1b3c 06f5 eb3b 507a 92bb
00000340: 2f65 ae3d 9584 40be 6a9f 4839 edb9 7dbc
00000350: 5bbd fbbd eac8 ccbd 971b 9fbd 483d 0e3e
00000360: 2f60 033e 6ff9 5a3e b8a3 aebe 6fb0 53be
00000370: 2855 87be af73 e53c 86dc 8f3e 41b6 8fbd
00000380: fcbf 7bbd 2f26 293e 5ade 82be f984 6d3e
00000390: 3041 43be c8d7 89bb 3ee0 e03c e3ce 883e
000003a0: a750 22be e41d 6c3d ecb8 653d 225f 65bd
000003b0: 95f5 f73c cef5 1a3d 8fe8 26bb 2db1 a73d
000003c0: 464f 7fbd e440 823d 245c 81bd 2543 22be
000003d0: 35d4 94bc 9b73 f1bd 1da8 c33d 89e5 e7bd
000003e0: 5582 abbc 2e43 d33d 399a 64bd d801 d6bb
000003f0: 8299 b7bd c56f 773e afd0 a03c 5b86 9bbc

conv1.bias f4 [32]
-0.012871546 -0.056326795 0.053450488 0.056305356 -0.015207035 -0.11675104 0.11125673 -0.19705077
-0.21225725 0.091006964 0.05333972 -0.10774787 -0.09008882 0.033402994 -0.040280648 0.11921163
0.060881924 -0.023372957 -0.20432618 0.010819653 -0.10049533 -0.035724886 -0.018291337 0.08325153
0.11785454 0.12821485 0.06966523 0.07924159 0.011240932 -0.19671263 -0.0794189 -0.15774924
00000000: 2de3 52bc edb6 66bd e6ee 5a3d 72a0 663d
00000010: ed26 79bc 2b1b efbd 92da e33d adc7 49be
00000020: f759 59be dc61 ba3d c07a 5a3d eaaa dcbd
00000030: 7d80 b8bd 94d1 083d 52fd 24bd 3a25 f43d
00000040: 535f 793d a578 bfbc e23a 51be ea44 313c
00000050: 7fd0 cdbd 4254 12bd b7d7 95bc c77f aa3d
00000060: b95d f13d c14a 033e a5ac 8e3d 6a49 a23d
00000070: e32b 383c 096f 49be 60a6 a2bd 0489 21be

conv2.weight f4 [64, 32, 3, 3]
-0.178617 -5.336509e-05 -0.08473365 -0.08539485 0.062583335 -0.05029462 0.01920039 -0.078062385
0.097460516 -0.034394905 -0.018459443 0.0006566872 0.00087546883 0.060658854 0.16129969 0.20250583
-0.12596531 0.02114996 -0.099951394 0.0023943917 -0.12083757 0.06771164 0.07138074 -0.0768391
-0.083161905 0.15665099 0.027631652 0.1856423 -0.09275266 -0.24343003 -0.057391517 -0.02713885
-0.27622682 -0.20107074 0.049410354 -0.042170137 -0.1379518 0.07509051 -0.15327485 -0.10487234
0.09901195 0.048305105 -0.07234822 -0.05795183 -0.015075469 -0.028253147 0.08292231 0.103265226
0.11844154 0.03670252 0.08579951 0.15134889 0.07717358 -0.021701958 -0.04542423 -0.15740763
-0.021469656 -0.016416555 0.05942845 -0.082336046 -0.045431092 -0.09748399 -0.07585254 0.13034539
-0.051987775 -0.0112201115 0.08984933 0.047374044 -0.019677939 -0.06635148 -0.023341093 -0.075833
0.003458057 -0.0015378792 0.040217467 0.13609691 0.013149879 -0.15761319 -0.022181643 -0.019016735
-0.07087745 -0.097276874 -0.048111044 0.0007010805 0.08384676 0.098887876 -0.017711094 -0.03153239
0.013594547 -0.017351262 -0.11036081 -0.15606092 -0.15921967 -0.08674746 -0.038897723 -0.12096244
-0.09206686 -0.1666764 0.04517837 -0.15408018 -0.16036846 -0.17168085 -0.16203573 0.05237481
0.004190271 -0.08463572 -0.05940835 0.18161339 0.013751502 -0.082265645 0.21802469 -0.19096297
0.04012006 0.11950417 -0.041285854 -0.074256726 -0.0054716235 -0.04866945 0.04159402 -0.029371541
-0.022937978 -0.15273684 -0.13702811 -0.020244617 0.01730155 -0.13738318 -0.31931478 -0.14593695
-0.0076911757 -0.08979634 -0.09435028 0.01570008 -0.017045932 -0.0057063135 0.03939852 8.886307e-05
-0.24888086 0.0068196906 -0.12072016 -0.15122615 -0.14967124 0.00060539856 0.06907557 -0.014448393
-0.063197576 -0.10198378 -0.02222767 -0.1891466 0.021894647 0.11871371 -0.09310544 -0.04326344
0.021867732 -0.052698884 0.0062298398 0.05346537 0.13209261 -0.021712946 0.0357242 0.093014374
-0.016412256 0.0057585943 0.03619114 -0.014116485 0.017614096 0.22736554 0.1332265 0.08247837
0.20441563 0.032397978 -0.22104199 -0.058261123 -0.07380324 -0.2778525 -0.24789086 0.07665818
-0.18839267 0.17822523 -0.02074379 0.047550626 0.114508584 -0.3369006 -0.07294198 -0.13628532
-0.05442886 -0.007966556 0.11796947 0.13653342 0.17356235 -0.11969116 0.0021977895 -0.2253905
0.18978241 -0.028892165 -0.05353114 0.003133847 -0.04315261 -0.15787189 -0.14398192 0.08494145
-0.014666922 0.033839736 0.012154214 0.061361182 0.005261563 0.13402481 -0.037770778 0.036915906
-0.06683676 0.1571378 -0.022826735 -0.036057133 -0.017935887 -0.15602405 -0.14335278 -0.12488875
0.10861826 -0.13780835 -0.046386514 0.1345669 -0.061530877 0.072354585 0.14395638 -0.18062042
-0.07346356 -0.19522761 -0.13370018 0.05188398 -0.08802535 -0.021290526 -0.15119527 -0.12482686
0.046008166 -0.02704133 0.061643988 -0.053388327 -0.015551602 -0.22645228 -0.14689529 -0.14055543
-0.15146528 0.09864261 0.026287962 -0.07477656 -0.037623625 0.0067682676 -0.008438664 0.0776133
-0.08695519 0.15720214 -0.03166493 -0.08792135 0.008115339 -0.11722392 0.037199996 -0.10116689
00000000: 60e7 36be 54d4 5fb8 d688 adbd 7fe3 aebd
00000010: b12b 803d bb01 4ebd 234a 9d3c 2cdf 9fbd
00000020: 6199 c73d ace1 0cbd 4238 97bc 8825 2c3a
00000030: b87f 653a 6b75 783d bf2b 253e b05d 4f3e
00000040: 0dfd 00be ae42 ad3c 51b3 ccbd 3aeb 1c3b
00000050: b079 f7bd 66ac 8a3d 1130 923d d15d 9dbd
00000060: ca50 aabd 1e69 203e c65b e23c 0419 3e3e
00000070: 1bf5 bdbd b945 79be 5e13 6bbd 4b52 debc
00000080: 9a6d 8dbe 7de5 4dbe 8362 4a3d 98ba 2cbd
00000090: 3d43 0dbe 0ec9 993d 15f4 1cbe 4fc7 d6bd
000000a0: c7c6 ca3d 93db 453d 4e2b 94bd e65e 6dbd
000000b0: 1aff 76bc 2573 e7bc 2cd3 a93d b87c d33d
000000c0: 7a91 f23d 6255 163d a7b7 af3d 34fb 1a3e
000000d0: 2f0d 9e3d 4ec8 b1bc c20e 3abd 772f 21be
000000e0: 22e1 afbc 037c 86bc 3f6b 733d cd9f a8bd
000000f0: f415 3abd b0a5 c7bd 9458 9bbd 4379 053e
00000100: 22f1 54bd 8fd4 37bc ed02 b83d 490b 423d
00000110: a133 a1bc 49e3 87bd d235 bfbc 554e 9bbd
00000120: 92a0 623b aa92 c9ba 12bb 243d fd5c 0b3e
00000130: 9772 573c 5a65 21be 47b6 b5bc fcc8 9bbc
00000140: 3228 91bd 1939 c7bd 1610 45bd b7c8 373a
00000150: dab7 ab3d ba85 ca3d db16 91bc 1b28 01bd
00000160: aabb 5e3c 3c24 8ebc d904 e2bd 6fce 1fbe
00000170: 7b0a 23be a7a8 b1bd 3853 1fbd 28bb f7bd
00000180: 8d8d bcbd 38ad 2abe f40c 393d 32c7 1dbe
00000190: a137 24be 1bcd 2fbe b2ec 25be f886 563d
000001a0: 8a4e 893b 7e55 adbd 2c56 73bd dcf8 393e
000001b0: fb4d 613c e47a a8bd dd41 5f3e cc8b 43be
000001c0: ef54 243d 9abe f43d 5b1b 29bd e913 98bd
000001d0: 4e4b b3bb 9e59 47bd 7e5e 2a3d 969c f0bc
000001e0: 6de8 bbbc 0c67 1cbe 1951 0cbe 0ad8 a5bc
000001f0: fbbb 8d3c 2dae 0cbe 3a7d a3be 7f70 15be
00000200: 4206 fcbb 25e7 b7bd b83a c1bd 749d 803c
00000210: e9a3 8bbc 07fc babb 5860 213d ff5b ba38
00000220: a0da 7ebe b677 df3b 223c f7bd 07db 1abe
00000230: 6b43 19be 9cb3 1e3a 7e77 8d3d f4b8 6cbc
00000240: bb6d 81bd dfdc d0bd cd16 b6bc a5af 41be
00000250: 675c b33c 2c20 f33d 11ae bebd 0135 31bd
00000260: f523 b33c c9da 57bd af23 cc3b 81fe 5a3d
00000270: 4943 073e 59df b1bc 8a53 123d 527e be3d
00000280: ff72 86bc 97b2 bc3b 293d 143d d448 67bc
00000290: 704b 903c 83d2 683e 876c 083e 6bea a83d
000002a0: 5552 513e beb3 043d d558 62be 37a3 6ebd
000002b0: 2726 97bd af42 8ebe 1ad7 7dbe f7fe 9c3d
000002c0: 02ea 40be ad80 363e e1ee a9bc 72c4 423d
000002d0: 7a83 ea3d 3c7e acbe 9b62 95bd 618e 0bbe
000002e0: ccf0 5ebd 2886 02bc fa99 f13d 6bcf 0b3e
000002f0: 54ba 313e a420 f5bd ca08 103b c4cc 66be
00000300: 5256 423e 43af ecbc 7843 5bbd 3a61 4d3b
00000310: cbc0 30bd 2ba9 21be ff6f 13be c8f5 ad3d
00000320: 884d 70bc 899b 0a3d 7822 473c dd55 7b3d
00000330: 3169 ac3b cd3d 093e 88b5 1abd 2235 173d
00000340: b6e1 88bd bbe8 203e 22ff babc a5b0 13bd
00000350: 48ee 92bc c5c4 1fbe 12cb 12be acc5 ffbd
00000360: 4073 de3d a21d 0dbe c9ff 3dbd e8cb 093e
00000370: cd07 7cbd a42e 943d 4d69 133e 8ff4 38be
00000380: 1074 96bd bfe9 47be b3e8 08be 4c84 543d
00000390: a246 b4bd 7869 aebc efd2 1abe 3aa5 ffbd
000003a0: 0f73 3c3d c785 ddbc 687e 7c3d b8ad 5abd
000003b0: 25cc 7ebc 1be3 67be b86b 16be c3ed 0fbe
000003c0: b719 1bbe 2305 ca3d da59 d73c 7424 99bd
000003d0: 3b1b 1abd 58c8 dd3b 5242 0abc b9f3 9e3d
000003e0: 9015 b2bd 99f9 203e 16b3 01bd 1c10 b4bd
000003f0: 33f6 043c 1813 f0bd 065f 183d 9630 cfbd

conv2.bias f4 [64]
-0.007950564 -0.012688043 -0.096509025 -0.04576243 -0.09972019 0.11176239 0.036751658 -0.026725825
-0.020707868 -0.10744068 -0.041628305 -0.027778925 0.03424864 -0.013911139 0.015297772 0.017353788
-0.02516423 -0.0064377734 -0.045828238 0.015420074 0.031097032 0.015878381 -0.068262815 0.0877459
-0.06843278 0.058936168 0.06604323 -0.05734787 0.02206965 0.020686505 0.058884177 -0.01590944
-0.06410104 -0.05976303 -0.00047539646 -0.09119813 0.008066379 -0.07951394 -0.043047167 0.028956829
0.049274437 0.03806253 0.03540557 -0.01693133 -0.06645824 0.0032630118 0.011321465 0.0025958258
-0.0002419263 -0.030067923 -0.003506306 -0.049397863 -0.07298597 -0.013083071 0.07260965 0.07009023
0.037430044 -0.046642475 -0.06324828 -0.09612972 -0.0048287427 -0.012835484 0.032931853 -0.062010918
00000000: 1543 02bc 82e1 4fbc 86a6 c5bd 6371 3bbd
00000010: 193a ccbd aee3 e43d e888 163d 1ef0 dabc
00000020: 8ca3 a9bc dc09 dcbd 7182 2abd a190 e3bc
00000030: 4d48 0c3d 8ceb 63bc 82a3 7a3c 8829 8e3c
00000040: 3725 cebc f5f3 d2bb 64b6 3bbd 7aa4 7c3c
00000050: 34bf fe3c 6113 823c 60cd 8bbd 1fb4 b33d
00000060: 7c26 8cbd 0d67 713d ac41 873d 9ae5 6abd
00000070: 69cb b43c bf76 a93c 8930 713d 8454 82bc
00000080: 6847 83bd 14ca 74bd a23e f9b9 16c6 babd
00000090: d928 043c 34d8 a2bd 3a52 30bd df36 ed3c
000000a0: fed3 493d 75e7 1b3d 6e05 113d 93b3 8abc
000000b0: 421b 88bd 41d8 553b aa7d 393c bb1e 2a3b
000000c0: 99ad 7db9 0151 f6bc 0eca 65bb 6a55 4abd
000000d0: ab79 95bd 615a 56bc 5eb4 943d 778b 8f3d
000000e0: 3f50 193d 2e0c 3fbd 5088 81bd a9df c4bd
000000f0: 6e3a 9ebb ec4b 52bc 8de3 063d 29ff 7dbd

conv3.weight f4 [128, 64, 3, 3]
-1.1599161e-38 7.10461e-40 5.624243e-39 -4.358152e-39 7.11754e-39 8.947278e-39 -6.5374e-40 -8.210597e-39
-6.370611e-39 -6.779522e-20 -1.2121408e-15 9.96553e-17 -2.7816605e-17 -1.1552526e-15 -2.6838117e-16 3.2487033e-19
-1.184805e-16 2.1027645e-16 3.165068e-39 -1.10948386e-35 5.481577e-39 7.4893304e-37 -3.3775616e-28 -8.4696895e-32
6.88244e-39 -2.5390365e-29 -5.457622e-37 1.1228746e-38 1.1345223e-38 -1.1459146e-38 5.488833e-39 1.423802e-39
4.357935e-39 3.723107e-39 -5.762924e-39 1.0119541e-38 -8.692874e-39 5.596888e-30 6.562609e-30 5.3441457e-31
-1.0751623e-30 -2.2802985e-37 8.217778e-38 3.8965204e-29 -9.982524e-38 -1.792205e-39 1.0576565e-38 -5.357656e-39
1.136076e-39 -3.595038e-39 2.15912e-40 -4.981019e-39 -3.159785e-39 -3.36093e-39 -9.35874e-40 6.822677e-39
5.776514e-39 2.077768e-39 2.75078e-40 -3.6885019e-37 -1.23154e-39 4.870741e-39 1.0087891e-33 -1.636428e-39
-1.7755156e-38 -2.5132995e-32 -5.775655e-39 9.69875e-40 -2.5552147e-33 3.434137e-39 2.125838e-39 -3.2362255e-37
-1.3520779e-31 7.418277e-31 -1.5908819e-21 6.202562e-31 -5.4397836e-25 6.809377e-25 7.596661e-31 5.2261955e-26
-4.0232108e-25 -1.2645539e-37 3.325224e-32 -2.8996277e-31 3.6394255e-37 1.2382338e-26 -1.2950453e-31 1.5888721e-38
-6.126046e-36 9.324271e-31 9.851097e-39 1.848648e-39 -8.9401e-40 -2.022147e-39 6.59807e-39 -6.34389e-39
8.127867e-39 -7.396499e-39 -6.00318e-39 5.215386e-39 1.0359023e-38 -8.577457e-39 8.283926e-39 7.834714e-39
-4.111e-40 -1.0203495e-38 -7.026146e-39 2.365833e-39 -2.0223772e-21 3.3447315e-21 3.7038257e-18 -4.6461404e-20
-3.6867355e-16 -9.411918e-16 -4.9654515e-19 1.8263477e-19 -5.4617216e-19 -1.245651e-38 2.85429e-40 3.194855e-34
4.617777e-39 3.0845704e-38 -2.132221e-39 -7.455463e-39 5.708859e-39 1.076776e-34 8.283294e-39 -3.713448e-39
1.8554e-39 1.0911505e-38 -1.659182e-39 -3.4033e-39 1.1818526e-38 -1.951483e-39 7.281096e-39 2.025815e-39
-8.8625415e-37 -1.9770577e-37 5.348654e-39 -9.026895e-36 -3.3169407e-37 -6.972976e-39 -5.73767e-40 7.0494505e-38
2.8287642e-25 -7.558132e-20 3.5369162e-24 1.4101252e-26 -9.392092e-19 7.284118e-18 -1.5245387e-28 -1.9647653e-19
-5.310849e-19 -3.538985e-39 -3.65841e-39 1.585491e-39 -6.42889e-39 -4.153055e-39 -2.7003425e-38 -2.56876e-40
-1.0676805e-38 3.897018e-39 7.875543e-39 -2.800866e-39 4.290481e-37 -1.6410882e-38 -6.018555e-35 -3.5632815e-33
-1.000285e-38 -6.355396e-39 -3.447455e-39 -9.94476e-40 7.0005085e-31 5.567492e-31 1.48213895e-33 -4.848044e-32
2.9749797e-30 -5.2752775e-37 1.1286719e-35 -5.5344353e-29 2.3117564e-26 -1.03967355e-19 3.6892118e-25 -4.7371354e-24
2.0450317e-23 -1.8443215e-20 2.0851676e-31 -6.8607836e-22 -3.450284e-19 6.344733e-36 -1.8566138e-29 -1.8352061e-22
6.58605e-40 5.0363947e-31 -1.9814227e-31 5.57348e-38 -1.0455957e-27 6.377655e-32 -1.1307035e-38 -3.747338e-39
8.561798e-39 8.281601e-39 -6.602194e-39 1.0392311e-38 -3.038784e-39 -7.902296e-39 -4.569688e-39 3.707854e-39
1.0415591e-38 8.998943e-39 -3.228945e-39 -3.582679e-39 7.848654e-39 -6.544018e-39 -1.178419e-39 8.203107e-39
-2.0073865e-31 2.5077004e-26 -4.993361e-29 3.6196544e-27 1.5077965e-26 1.0986649e-26 2.6561517e-26 1.2954618e-25
-2.515634e-24 6.772488e-39 -1.031649e-39 8.02127e-40 9.477685e-39 -8.985805e-39 3.485053e-39 3.162211e-39
-1.0371521e-38 -1.9668e-39 -1.6145081e-21 -6.165669e-17 -2.2608714e-18 -3.2506265e-18 -3.844366e-15 -4.7370546e-17
1.278953e-25 3.8137493e-23 -8.1933875e-20 4.354988e-39 -1.251525e-39 -9.384782e-39 4.43874e-39 -5.708217e-39
-6.22062e-39 -1.09657e-39 -1.0013094e-38 7.49965e-40 -3.608355e-39 -8.471062e-39 -6.99395e-40 -9.761105e-39
00000000: be4d 7e80 7abc 0700 1a3e 3d00 c174 2f80
00000010: ce80 4d00 5f6d 6100 5c1e 0780 ce67 5980
00000020: ac5e 4580 b213 a09f 1ab0 aea6 1bca e524
00000030: 0d48 00a4 4c7d a6a6 12b6 9aa5 04c5 bf20
00000040: 4599 08a5 a76e 7225 ec76 2200 0cf6 6b85
00000050: 68b0 3b00 45d9 7e03 1214 d691 bee2 db8b
00000060: 71f1 4a00 94be 0090 98b6 3983 2d45 7a00
00000070: de89 7b00 70c7 7c80 a2c4 3b00 fb80 0f00
00000080: 2674 2f00 828a 2800 b0c0 3e80 2a31 6e00
00000090: 32a8 5e80 6809 e30e 041b 050f 6d6d 2d0d
000000a0: 7f74 ae8d 6730 9b82 8eb5 df01 ba93 4510
000000b0: 05e0 0782 f083 1380 292b 7300 f756 3a80
000000c0: eb5e 0c00 8125 2780 e059 0200 0e3d 3680
000000d0: 3268 2280 e898 2480 d630 0a80 d94a 4a00
000000e0: 92e6 3e00 f99f 1600 cefe 0200 c406 fb82
000000f0: 0869 0d80 a509 3500 259d a708 b2d1 1180
00000100: 2756 c180 7b7f 028b 2de4 3e80 9e8f 0a00
00000110: 6847 5489 fa64 2500 f925 1700 003f dc82
00000120: 7f82 2f8c a2bc 700d 4368 f09c de48 490d
00000130: 685a 2897 71bd 5217 9786 760d f364 8115
00000140: 5206 f996 461f 2c82 cfa7 2c0b 5432 bc8c
00000150: bcaf f702 ea41 7514 431b 288c 4a03 ad00
00000160: 5e49 0285 824b 970d da44 6b00 4721 1400
00000170: 23bc 0980 ec04 1680 bcd8 4700 2f14 4580
00000180: 3081 5800 6e8a 5080 6c5e 4180 60ca 3800
00000190: becc 7000 7666 5d80 3734 5a00 ff4f 5500
000001a0: fb79 0480 311b 6f80 0982 4c80 fbc2 1900
000001b0: 77ce 189d 84b8 7c1d a5a5 8822 6468 5b9f
000001c0: 9d86 d4a5 d9a3 87a6 e48d 12a1 f99d 5720
000001d0: 9a33 21a1 afa3 8780 a91b 0300 a455 d407
000001e0: 7c48 3200 a3f0 2701 c437 1780 cc2e 5180
000001f0: fa29 3e00 ca20 0f07 7432 5a00 956f 2880
00000200: 1a34 1400 d6d0 7600 2011 1280 040f 2580
00000210: 3eb1 8000 f13f 1580 bc48 4f00 260f 1600
00000220: d0c9 9683 348d 8682 df3d 3a00 17fb 3f85
00000230: 42bd e182 d2ed 4b80 6e3f 0680 80e7 bf01
00000240: 8f17 af16 1b76 b29f ecd3 8818 eca6 8b14
00000250: 529a 8aa1 465e 0623 1c42 4191 63f5 67a0
00000260: a4bf 1ca1 4089 2680 29d6 2780 b443 1100
00000270: 2101 4680 0739 2d80 4805 1381 11cc 0280
00000280: 9742 7480 4d6f 2a00 cfc1 5500 ad7f 1e80
00000290: 5cff 1103 ddb2 b280 2a00 a086 4f03 9489
000002a0: e0eb 6c80 4234 4580 1a8a 2580 32d4 0a80
000002b0: f32d 630d eaac 340d 3843 f608 8fb9 7b8b
000002c0: e95b 710e 2682 3383 be0a 7005 8a50 8c90
000002d0: fdf1 e414 697c f59f e559 e416 5142 b798
000002e0: 88c8 c519 f530 ae9e ca55 870c be5a 4f9c
000002f0: 38ab cba0 03f0 0605 7348 bc8f e1dc 5d9b
00000300: ec2b 0700 bb70 230d 089a 808c 7db9 9701
00000310: 67ae a592 ca92 a50b 6a1f 7b80 0ece 2880
00000320: cf3a 5d00 bc2d 5a00 3be4 4780 8929 7100
00000330: e516 2180 630c 5680 6ec2 3180 fd5f 2800
00000340: 6e6a 7100 64fd 6100 fc28 2380 0d03 2780
00000350: db76 5500 0f42 4780 f4d4 0c80 ed52 5900
00000360: 6e49 828c c259 f814 8831 7d90 a863 8f13
00000370: 2f53 9514 ee9c 5914 b986 0315 d35e 2016
00000380: 44a3 4298 f1be 4900 d13b 0b80 01bc 0800
00000390: ee33 6700 c5d8 6180 e9f2 2500 f56e 2200
000003a0: 95ef 7080 a36a 1580 42fa f39c b02b 8ea4
000003b0: a7d2 26a2 99da 6fa2 0582 8aa7 4575 5aa4
000003c0: a353 1e16 ee6b 381a fd75 c19f ef6b 2f00
000003d0: bea0 0d80 f430 6680 6755 3000 3028 3e80
000003e0: 8fbc 4380 cbf0 0b80 6f08 6d80 992a 0800
000003f0: a04a 2780 e03d 5c80 a19d 0780 fd49 6a80

conv3.bias f4 [128]
-0.0004659349 -0.00074889796 -0.052064933 0.025958542 -0.07200442 0.07830443 -0.007886735 -0.06567336
-0.0047135483 -0.01513077 -0.037305903 0.073663026 -1.11234785e-10 0.03750722 -0.011719636 0.050670322
-0.044597056 0.0844467 0.108470954 -7.027817e-20 -1.3344888e-06 0.024900464 -0.012726998 -0.03681524
0.014708797 -0.026528092 0.076253675 0.026034547 -0.0029479065 -0.06800263 -0.06805927 0.015713234
0.07229488 -0.0238739 -0.0017445105 -1.7695534e-07 -0.027790122 -0.00011087029 -0.008857927 -4.528598e-12
-0.008019869 -0.008682112 -0.08350512 -0.08535839 -3.8228146e-07 -0.00035288147 -1.5529424e-10 -0.08133353
0.009500603 0.027411561 0.029806962 -0.0009426909 0.02560078 -0.047518026 -0.047111724 -0.00096700824
-2.95106e-05 0.0035810033 -0.0518587 0.017301774 0.013895194 -0.06275067 -0.013375324 -0.004380357
0.005226677 0.0045390544 0.019878946 -0.081545494 0.06324758 -0.0120422635 0.03472045 -0.03334634
-0.0016442711 -0.059821073 0.05498541 0.022750989 -0.013656373 0.031093968 -0.079469986 -0.014811432
-0.024670701 -3.71847e-11 -1.8565448e-06 -0.07162702 -0.0051353057 -0.011048641 0.15146765 0.029338315
0.094273716 -0.0004509124 -0.02469561 0.02112879 -0.011184868 -0.0019055621 0.06292092 -0.036919378
-0.054087527 0.111954525 -0.040247172 -2.023804e-11 0.0037403184 -2.7028348e-06 -0.003987864 0.065004334
-0.050576612 -0.08108789 0.046259075 0.017228909 0.059768658 0.07423362 0.024632184 0.06296268
-9.059982e-06 -0.016017001 -0.005714918 0.010005565 0.113101885 -0.0016751126 -0.011295634 -0.012913801
-0.00015666768 -1.0289417e-09 -0.09675169 0.13611875 -0.00784261 -0.0732072 -0.06330799 -0.019971821
00000000: b948 f4b9 b151 44ba 0a42 55bd 02a7 d43c
00000010: 0e77 93bd 135e a03d 5d37 01bc c17f 86bd
00000020: 1c74 9abb 0de7 77bc 13ce 18bd a4dc 963d
00000030: 9e9b f4ae 2ca1 193d b703 40bc af8b 4f3d
00000040: 67ab 36bd 64f2 ac3d 0526 de3d 8cf0 a59f
00000050: b01c b3b5 0ffc cb3c e684 50bc 94cb 16bd
00000060: 2bfd 703c 7151 d9bc e32a 9c3d 6746 d53c
00000070: aa31 41bb f644 8bbd a962 8bbd 0ab9 803c
00000080: 570f 943d 3293 c3bc 0fa8 e4ba 1d01 3eb4
00000090: 1ca8 e3bc 0983 e8b8 d720 11bc fc55 9fac
000000a0: c565 03bc 6b3f 0ebc bb04 abbd 61d0 aebd
000000b0: 5d3c cdb4 f302 b9b9 71bf 2aaf 3292 a6bd
000000c0: 6ba8 1b3c 368e e03c bb2d f43c ea1e 77ba
000000d0: bab8 d13c 43a2 42bd 39f8 40bd d37e 7dba
000000e0: 888d f7b7 44af 6a3b ca69 54bd 73bc 8d3c
000000f0: aba8 633c 6c83 80bd 2d24 5bbc 1989 8fbb
00000100: 8b44 ab3b 59bc 943b 2cd9 a23c 5301 a7bd
00000110: f287 813d ea4c 45bc 0837 0e3d 2c96 08bd
00000120: 9584 d7ba f106 75bd 6238 613d 4860 ba3c
00000130: fbbe 5fbc c7b8 fe3c 29c1 a2bd a6ab 72bc
00000140: 361a cabc 408a 23ae 652e f9b5 30b1 92bd
00000150: 1146 a8bb 5c05 35bc 561a 1b3e e856 f03c
00000160: 9412 c13d 7068 ecb9 734e cabc 4916 ad3c
00000170: bd40 37bc 0ec4 f9ba afdc 803d c638 17bd
00000180: e28a 5dbd 6a48 e53d 38da 24bd 0404 b2ad
00000190: 2120 753b 5962 35b6 a1ac 82bb fe20 853d
000001a0: 6c29 4fbd 6811 a6bd 287a 3d3d a423 8d3c
000001b0: fbcf 743d cc07 983d 6fc9 c93c 94f2 803d
000001c0: 5400 18b7 1636 83bc 3544 bbbb 62ee 233c
000001d0: f6a1 e73d 748f dbba 5311 39bc 6894 53bc
000001e0: 2947 24b9 ab6a 8db0 c025 c6bd b762 0b3e
000001f0: 4a7e 00bc a8ed 95bd 9fa7 81bd f29b a3bc

act_conv1.weight f4 [4, 128, 1, 1]
-7.41058e-39 9.700354e-39 -0.03029331 -0.038248938 -0.021224601 0.30805326 -0.106949545 0.0990824
0.0039148894 5.970096e-32 -0.015825659 0.16190732 4.20561e-39 -0.0571053 0.09339323 0.13882905
-0.081549555 0.045746118 -0.04983499 -1.35091e-40 9.750815e-39 -0.03143067 -0.03182501 -0.0029578798
0.040471297 0.026115315 0.14254604 -0.09581542 0.02975583 -0.012930681 -0.013114934 0.2072168
0.3199162 0.014689764 6.562019e-39 3.460711e-39 -0.17400704 4.40054e-40 4.585403e-39 -3.255305e-39
-0.13129516 0.13398159 -0.10262367 -0.1550829 6.99199e-40 1.0741719e-38 -1.368397e-39 -0.0038757261
-0.04677018 0.14958264 0.025266526 5.898857e-39 0.031737033 0.122915946 0.1213446 8.474626e-39
8.168214e-39 -0.024039973 -0.11482448 0.00059620943 0.01756722 0.26768816 -3.790078e-39 0.024130672
0.06937934 -0.047267552 0.20596679 0.10165717 0.34002742 0.03981544 0.07075576 0.122856274
0.019414594 0.019957263 -0.02039851 0.08728701 -0.06272657 -0.06030477 0.06319573 -0.033767708
-0.03287341 -6.48829e-39 1.1216786e-38 0.05746935 0.043247573 -0.17208987 0.030361667 -0.008643685
0.07034849 0.00010262534 0.044737093 0.051361226 -0.16305348 1.3125203e-05 0.18361562 -0.15606362
0.06528816 0.021441562 -0.12023448 -9.616593e-39 0.20367779 -6.12432e-40 9.057971e-39 0.021433987
-0.13833058 0.14517815 -0.0023402525 0.028054902 0.004961758 0.02563339 0.014661976 0.07012929
1.83832e-40 0.0247784 0.026655333 -0.08244048 0.10591554 0.35241008 -0.00013261836 -0.010141187
2.951664e-39 1.05323e-39 -0.040182825 0.087213725 -0.11468974 -0.09806717 0.016634617 -0.050753616
-9.170775e-39 1.729976e-39 0.07052322 0.09301902 -0.014393073 -0.1648709 0.26271498 0.12477547
0.014056314 -0.046359323 -0.05407759 0.004862795 -5.730037e-39 0.1750524 -0.3002551 0.0073670424
0.00393638 -0.097660236 0.052607782 -1.394597e-39 5.857832e-38 0.041206345 -0.07446151 0.016164815
-0.107572265 -0.16638122 0.010853672 0.069501445 -0.1650444 0.0011963043 0.022567317 -0.3445937
0.10134764 0.0039551724 3.9728e-40 -1.0711363e-38 0.28161326 -8.7095e-40 0.0025010065 -7.419238e-39
-0.038896106 0.018345907 0.1433396 0.10861025 -4.558673e-39 -2.048805e-39 -4.91466e-39 -0.15444174
0.26067948 0.058004692 0.08437318 -6.432868e-39 -0.034098897 0.032974705 -0.016674753 -8.584867e-36
-6.882821e-39 0.06723473 0.49920157 0.035443675 0.12580961 -0.07164077 3.9662532e-16 0.119644806
-0.025505878 0.03882083 0.09269773 0.14230919 -0.41567957 0.011123985 -0.0929629 -0.110124975
-0.035646755 -0.023822976 0.02625368 0.03389259 -0.0820594 0.11657761 0.0934747 0.099287786
0.16757809 6.103853e-39 1.86921e-39 -0.1114427 -0.15682732 0.12441948 0.17977434 0.181554
0.0960194 -1.2021694e-14 0.08388106 -0.074470624 0.22791381 8.414972e-06 -0.048863284 0.15952748
0.004532351 0.08195198 0.22178 -1.612588e-39 -0.14441445 -4.483567e-39 -9.502152e-39 -0.05968689
0.0006932116 -0.14280388 0.0470789 -0.078533545 0.03761975 0.11364139 -0.10309985 -0.16770369
5.895742e-39 -0.14425829 0.005276149 0.21277079 0.08472301 0.060148813 -0.018984659 0.036350954
-3.33354e-39 -2.724205e-39 0.027135853 0.14056556 0.10126296 0.11924153 0.043599125 0.14967431
00000000: afb1 5080 a4a0 6900 ad29 f8bc ebaa 1cbd
00000010: 37df adbc 28b9 9d3e 5d08 dbbd b7eb ca3d
00000020: 7948 803b 18fe 9a0b d0a4 81bc 08cb 253e
00000030: 88cb 2d00 3fe7 69bd f344 bf3d 3429 0e3e
00000040: 7403 a7bd 4860 3b3d c61f 4cbd 9478 0180
00000050: 4e2d 6a00 72bd 00bd f15a 02bd fdd8 41bb
00000060: 3bc5 253d c9ef d53c 97f7 113e e03a c4bd
00000070: 80c2 f33c 35db 53bc 05e0 56bc a430 543e
00000080: 0ecc a33e 56ad 703c 3d74 4700 0eaf 2500
00000090: e72e 32be b1ca 0400 3dee 3100 7772 2380
000000a0: 3d72 06be 7832 093e 5c2c d2bd 0dce 1ebe
000000b0: 159d 0700 8bf7 7400 89e6 0e80 e5ff 7dbb
000000c0: 1792 3fbd 312c 193e bffb ce3c 9d3b 4000
000000d0: b1fe 013d 5bbb fb3d 8583 f83d cf47 5c00
000000e0: a8f1 5800 7aef c4bc 1929 ebbd f04a 1c3a
000000f0: 21e9 8f3c 6c0e 893e 3245 2980 b0ad c53c
00000100: c116 8e3d 9f9b 41bd f5e8 523e a231 d03d
00000110: 1318 ae3e 8415 233d 65e8 903d 129c fb3d
00000120: 5b0b 9f3c 6a7d a33c c71a a7bc 88c3 b23d
00000130: ca76 80bd 2202 77bd c36c 813d 0250 0abd
00000140: 45a6 06bd b6a6 4680 d623 7a00 fb64 6b3d
00000150: 5e24 313d 5438 30be 08b9 f83c 3e9e 0dbc
00000160: de12 903d 8f38 d738 3e3e 373d 2660 523d
00000170: 7ef7 26be 5134 5c37 bc05 3c3e 24cf 1fbe
00000180: cdb5 853d 37a6 af3c 7f3d f6bd 26b7 6880
00000190: e990 503e 36ab 0680 f0a1 6200 5496 af3c
000001a0: 88a6 0dbe 95a9 143e ec5e 19bb 65d3 e53c
000001b0: 3e96 a23b 1dfd d13c c938 703c f29f 8f3d
000001c0: 7300 0200 12fc ca3c 495c da3c 8ed6 a8bd
000001d0: 3fea d83d 186f b43e 780f 0bb9 3927 26bc
000001e0: 0a24 2000 fa77 0b00 bf96 24bd 1c9d b23d
000001f0: 74e2 eabd 71d7 c8bd 5245 883c 06e3 4fbd
00000200: 64dc 6380 78d6 1200 7a6e 903d c280 be3d
00000210: ecd0 6bbc ebd3 28be 9482 863e 488a ff3d
00000220: 744c 663c 46e3 3dbd 7780 5dbd 1558 9f3b
00000230: 0365 3e80 f040 333e 09bb 99be 3b67 f13b
00000240: c0fc 803b 1702 c8bd 427b 573d 922f 0f80
00000250: 2277 9f01 fcc7 283d 477f 98bd 136c 843c
00000260: d94e dcbd d75f 2abe 9ad3 313c c656 8e3d
00000270: 6601 29be 50cd 9c3a 18df b83c 966e b0be
00000280: 5a8f cf3d 649a 813b 7453 0400 eca2 7480
00000290: 9d2f 903e db7b 0980 ede7 233b d1c9 5080
000002a0: 8651 1fbd 284a 963c 9ec7 123e 0d6f de3d
000002b0: baa3 3180 3c4f 1680 1384 3580 fa25 1ebe
000002c0: c877 853e 5496 6d3d d9cb ac3d 380c 4680
000002d0: 49ab 0bbd 7c10 073d 7e99 88bc 7694 3685
000002e0: 81f2 4a80 5db2 893d 5997 ff3e 632d 113d
000002f0: 3cd4 003e 65b8 92bd 91a3 e425 5608 f53d
00000300: b4f1 d0bc 9702 1f3d 4fd8 bd3d 80b9 113e
00000310: f4d3 d4be 6041 363c 5563 bebd 3489 e1bd
00000320: 5502 12bd 6728 c3bc f511 d73c f5d2 0a3d
00000330: c20e a8bd 3ec0 ee3d aa6f bf3d 6557 cb3d
00000340: 9799 2b3e 0f77 4200 995a 1400 123c e4bd
00000350: 5797 20be a4cf fe3d c416 383e 4be9 393e
00000360: d2a5 c43d 4790 58a8 d5c9 ab3d 0e84 98bd
00000370: 3d62 693e 082e 0d37 de24 48bd 2c5b 233e
00000380: 1e84 943b 71d6 a73d 4c1a 633e 3d8f 1180
00000390: 62e1 13be 5cd2 3080 2278 6780 3e7a 74bd
000003a0: a5b8 353a 2e3b 12be ced5 403d 32d6 a0bd
000003b0: 2b17 1a3d d1bc e83d 0426 d3bd 84ba 2bbe
000003c0: ee32 4000 72b8 13be 8ce3 ac3b 96e0 593e
000003d0: 4283 ad3d 9a5e 763d b785 9bbc bde4 143d
000003e0: 8e4c 2480 faa9 1d80 024c de3c 6bf0 0f3e
000003f0: f462 cf3d e734 f43d ff94 323d 3944 193e

act_conv1.bias f4 [4]
0.06669264 -0.009404041 0.07310099 -3.8468022e-21
00000000: 2796 883d 6813 1abc f9b5 953d fd53 919d

act_fc1.weight f4 [81, 324]
0.049780186 0.061566085 0.018773858 0.042651094 0.0052249567 0.06886052 -0.05468069 0.045439016
0.06771481 -0.05726959 -0.09893102 0.012075572 -0.010849146 0.011765311 -0.030432414 0.04387038
-0.00096139085 -0.0020190112 -0.07005716 -0.01082072 -0.096188016 -0.054252885 -0.119350694 -0.047566257
-0.060940407 0.03559391 -0.082306854 -0.107144736 -0.03796111 -0.011101843 -0.039251536 -0.08580214
-0.027831672 -0.06647865 -0.010010817 0.008516569 -0.03872616 -0.06278081 -0.05241615 -0.07543446
-0.10003032 0.014688214 0.0058437693 -0.089157656 -0.0070203836 -0.04410222 0.045446232 -0.07440267
-0.039317023 -0.008777844 0.012159602 -0.019068884 -0.02870038 -0.015518175 -0.10067246 -0.14302103
-0.10163629 -0.04965202 -0.06464962 0.0130314585 -0.10096003 0.03258549 -0.06513695 0.15270026
0.09994943 0.090665825 -0.048235055 -0.08877285 0.0032985287 -0.025052588 0.005386927 -0.013545
-0.09607105 -0.22780468 -0.14561169 -0.008109957 0.017298952 -0.1029545 0.009198578 0.052376438
-0.075918555 -0.07681518 -0.1242787 -0.019920388 -0.04845666 0.002842897 0.15150243 0.021172566
-0.18259433 -0.13234238 0.059952 -0.046781443 -0.03264947 -0.00080662186 -0.07643342 0.043639038
0.12214017 -0.07265393 0.07296361 0.052876282 0.07922637 0.0249459 -0.03733649 0.01999367
-0.04160973 -0.010637988 0.026012802 0.1230597 -0.025866332 0.046269376 0.017542705 0.06024157
0.050271083 0.042183883 -0.07421971 -0.037623502 0.007688603 -0.0030567425 0.012909371 -0.011556087
0.043101773 -0.008167246 0.054405104 -0.028482446 0.0405771 0.03587732 0.10603538 0.0038670176
0.007023578 -0.06163213 0.11148637 0.07687885 -0.022838114 0.041518036 -0.0649842 0.0029854851
0.02532933 0.07007452 0.013420827 0.034281116 0.039492976 -0.035238773 -0.104262605 -0.13436739
-0.42715538 -0.078318134 -0.060262986 0.018227767 0.020196302 -0.026526371 0.05375769 -0.013395548
-0.029091211 -0.15916231 -0.042111386 -0.05737259 -0.0042821206 0.08369874 -0.05414474 0.045847945
0.09646462 0.037553802 0.10995465 0.09341312 -0.020319195 -0.01333263 -0.0034035444 -0.041577607
0.010870623 0.10764376 0.012854687 -0.065698065 -0.0035011186 -0.0060173534 -0.047527134 -0.04748126
-0.028783586 -0.022701701 0.030990688 -0.03984595 -0.09737973 -0.09123205 -0.01192868 -0.081469245
-0.018985044 -0.030205928 0.012756345 -0.09309455 -0.09358058 -0.1616022 0.049215324 -0.07631869
-0.022355791 -0.10577604 -0.11455724 0.018423071 -0.004226246 -0.027362458 -0.055358935 -0.03156986
0.0001014763 -0.041203365 -0.027889052 -0.113784775 -0.04844802 0.02788767 0.039177973 -0.062222824
0.06111595 0.0012643767 -0.036456313 -0.10513891 -0.066616215 -0.10406398 -0.019905165 -0.0576936
0.03509348 -0.08022036 0.022818834 0.024527963 0.032046713 0.023944383 -0.037953686 -0.052501656
-0.0027317014 -0.4064759 0.05485081 -0.037714753 -0.06292066 -0.012966511 0.019687016 -0.096265085
0.040566802 0.0575692 0.056153208 -0.32779056 -0.19044773 -0.065779045 -0.05128689 -0.012566869
-0.004360348 -0.088533334 -0.091037996 7.264513e-39 -1.0337218e-38 7.336605e-39 -2.444218e-39 -4.6639764e-38
-4.197803e-39 -5.24835e-39 -8.81833e-39 8.902701e-39 -8.629068e-39 4.4986e-41 1.9788568e-38 -3.34455e-40
00000000: 4fe6 4b3d b82c 7c3d a2cb 993c eab2 2e3d
00000010: 1d36 ab3b bf06 8d3d dcf8 5fbd 431e 3a3d
00000020: 10ae 8a3d 8593 6abd 599c cabd 9fd8 453c
00000030: 9ec0 31bc 4ac3 403c 664d f9bc 6db1 333d
00000040: d905 7cba 6351 04bb 217a 8fbd 6449 31bc
00000050: 39fe c4bd 4638 5ebd 236e f4bd d6d4 42bd
00000060: a69c 79bd ebca 113d 7f90 a8bd b36e dbbd
00000070: 1c7d 1bbd 81e4 35bc 38c6 20bd 08b9 afbd
00000080: 3fff e3bc f525 88bd 6904 24bc 1489 0b3c
00000090: 529f 1ebd 3a93 80bd 51b2 56bd 627d 9abd
000000a0: b2dc ccbd d6a6 703c 177d bf3b 4a98 b6bd
000000b0: 3f0b e6bb 88a4 34bd d425 3a3d 6d60 98bd
000000c0: e30a 21bd f2d0 0fbc 1139 473c 5936 9cbc
000000d0: 0f1d ebbc f23f 7ebc 5d2d cebd 1b74 12be
000000e0: b026 d0bd eb5f 4bbd 0567 84bd e681 553c
000000f0: 22c4 cebd 5d78 053d 8566 85bd 755d 1c3e
00000100: 49b2 cc3d 01af b93d 1f92 45bd 8ace b5bd
00000110: 212c 583b 163b cdbc d284 b03b d9eb 5dbc
00000120: e6c0 c4bd a145 69be 3b1b 15be a0df 04bc
00000130: 88b6 8d3c cfd9 d2bd a2b5 163c ad88 563d
00000140: 307b 9bbd 4751 9dbd d585 febd 1530 a3bc
00000150: 7e7a 46bd e64f 3a3b 7423 1b3e 1772 ad3c
00000160: 02fa 3abe c384 07be 3a90 753d e69d 3fbd
00000170: 73bb 05bd 7a73 53ba 2089 9cbd d9be 323d
00000180: a024 fa3d 95cb 94bd f26d 953d cd94 583d
00000190: 6f41 a23d 585b cc3c 26ee 18bd c4c9 a33c
000001a0: f76e 2abd f54a 2ebc cd18 d53c b906 fc3d
000001b0: a1e5 d3bc f584 3d3d b8b5 8f3c ddbf 763d
000001c0: 0de9 4d3d 02c9 2c3d 8100 98bd 1a1b 1abd
000001d0: adf0 fb3b a153 48bb d481 533c be55 3dbc
000001e0: 7c8b 303d eacf 05bc e3d7 5e3d 0554 e9bc
000001f0: 2c34 263d 19f4 123d 1429 d93d ca6d 7d3b
00000200: 0b26 e63b f971 7cbd f752 e43d a972 9d3d
00000210: ff16 bbbc d10e 2a3d 7016 85bd 21a8 433b
00000220: 747f cf3c 3b83 8f3d 07e3 5b3c 5b6a 0c3d
00000230: 63c3 213d 8856 10bd a287 d5bd 9b97 09be
00000240: 1cb4 dabe 4265 a0bd 52d6 76bd 6652 953c
00000250: b772 a53c d54d d9bc 0631 5c3d 0079 5bbc
00000260: b150 eebc 72fb 22be fd7c 2cbd 85ff 6abd
00000270: 0851 8cbb 3f6a ab3d e0c6 5dbd 0ecb 3b3d
00000280: 3e8f c53d 04d2 193d e72f e13d 614f bf3d
00000290: 7174 a6bc 1a71 5abc 000e 5fbb 484d 2abd
000002a0: b31a 323c 5574 dc3d 779c 523c b58c 86bd
000002b0: 0673 65bb 382d c5bb d0ab 42bd b67b 42bd
000002c0: 8ecb ebbc ebf8 b9bc 2fe0 fd3c 8235 23bd
000002d0: 066f c7bd ded7 babd 8370 43bc 59d9 a6bd
000002e0: 8686 9bbc 6c72 f7bc fdff 503c 5ba8 bebd
000002f0: 2da7 bfbd 0c7b 25be 0296 493d f94c 9cbd
00000300: 7e23 b7bc 1ca1 d8bd fc9c eabd fbeb 963c
00000310: 527c 8abb 3c27 e0bc 0dc0 62bd 664f 01bd
00000320: accf d438 dcc4 28bd 9577 e4bc fe07 e9bd
00000330: 6e71 46bd af74 e43c 1579 203d 5cdd 7ebd
00000340: b854 7a3d 71b9 a53a 3753 15bd 1253 d7bd
00000350: 156e 88bd 7f1f d5bd 2810 a3bc 2050 6cbd
00000360: 2ebe 0f3d 924a a4bd 90ee ba3c deee c83c
00000370: 6a43 033d 0327 c43c 5375 1bbd fa0b 57bd
00000380: 5806 33bb 9c1d d0be 3eab 603d c97a 1abd
00000390: 8cdc 80bd 7d71 54bc aa46 a13c a126 c5bd
000003a0: 6029 263d aecd 6b3d e800 663d 2ad4 a7be
000003b0: bb04 43be 2ab7 86bd 3412 52bd 45e5 4dbc
000003c0: 40e1 8ebb f750 b5bd 2172 babd 821a 4f00
000003d0: f58f 7080 78e3 4f00 7c9d 1a80 58ee 7d81
000003e0: c4b5 2d80 4426 3980 eb05 6080 1cf1 6000
000003f0: 55f6 5d80 677d 0000 7a7a d700 53a4 0380

act_fc1.bias f4 [81]
0.13888387 -0.067746595 -0.15524119 -0.05632734 -0.06291292 -0.08962032 -0.17479259 -0.027646746
0.13501194 -0.052626863 0.033283718 -0.11163887 0.10366159 0.016742801 0.1467145 -0.104625374
-0.042822693 -0.028787835 -0.16725977 -0.10300379 0.20078357 0.07931548 0.10684069 0.022998309
0.115008764 -0.15868944 -0.113677606 -0.04954788 0.12497495 0.045747153 -0.024523547 -0.0002405242
-0.029100664 0.008597528 0.121508755 -0.08098633 -0.04974835 -0.018783407 0.1449946 -0.029106116
0.087971754 0.0078806635 0.12683165 -0.033308353 -0.03522289 -0.049232125 0.11822729 0.017208548
-0.02244171 0.015136694 -0.046577778 0.046552215 0.05969812 -0.09317811 -0.12477459 -0.1099225
0.19443865 0.057473067 0.1715459 0.09643196 0.25411978 -0.09180222 -0.10526217 -0.07463377
0.037911654 -0.113152504 0.117391914 0.012448851 0.12028736 -0.10362916 0.04234646 -0.039395534
0.13431 -0.03526651 -0.15434581 -0.07802471 -0.035121787 -0.10665281 -0.07736948 -0.033108667
0.12661827
00000000: 9337 0e3e babe 8abd 8cf7 1ebe 7fb7 66bd
00000010: 7dd8 80bd dc8a b7bd d4fc 32be 6e7b e2bc
00000020: 9240 0a3e 448f 57bd 8254 083d eba2 e4bd
00000030: 874c d43d 3328 893c 533c 163e d445 d6bd
00000040: d966 2fbd 77d4 ebbc 2546 2bbe a7f3 d2bd
00000050: 359a 4d3e 2870 a23d 4bcf da3d f366 bc3c
00000060: b789 eb3d 7c7f 22be cecf e8bd b8f2 4abd
00000070: def2 ff3d 5e61 3b3d 9be5 c8bc 3935 7cb9
00000080: 8464 eebc a5dc 0c3c 95d9 f83d 29dc a5bd
00000090: edc4 4bbd a9df 99bc 7779 143e f36f eebc
000000a0: 892a b43d e61d 013c 28e0 013e 576e 08bd
000000b0: e145 10bd a0a7 49bd 2621 f23d f1f8 8c3c
000000c0: add7 b7bc e5ff 773c 57c8 3ebd 89ad 3e3d
000000d0: 0486 743d 2ad4 bebd d289 ffbd 0c1f e1bd
000000e0: ed1a 473e e168 6b3d baa9 2f3e 1f7e c53d
000000f0: fd1b 823e cd02 bcbd b193 d7bd 97d9 98bd
00000100: 4049 1b3d 80bc e7bd 2c6b f03d 44f6 4b3c
00000110: 3859 f63d 863b d4bd 7b73 2d3d 365d 21bd
00000120: 9088 093e 9e73 10bd d40c 1ebe 6bcb 9fbd
00000130: dddb 0fbd ca6c dabd e473 9ebd f49c 07bd
00000140: 38a8 013e

val_conv1.weight f4 [2, 128, 1, 1]
2.3980925e-30 4.34553e-08 -1.2873801e-08 -7.7390346e-13 -0.00049772236 2.92509e-39 3.579597e-39 6.106871e-06
-1.393869e-39 1.2038412e-12 -0.002484345 3.0834386e-09 3.06915e-39 -4.5254805e-05 -0.00031017617 -0.0025949716
-1.4138339e-08 -0.001303745 6.965912e-39 7.023983e-39 5.0082676e-17 -0.0022706683 -8.430559e-05 -1.1627888e-17
-0.0025907315 0.00029376845 0.0001608122 -2.3046787e-16 0.00040666212 -1.5095123e-19 6.360621e-39 -0.001224963
0.0002786768 2.1772563e-23 -4.6665318e-36 -8.884329e-39 -6.759191e-21 8.080829e-09 1.158957e-39 5.228975e-39
-4.716292e-05 -1.8766705e-06 -3.7440543e-06 -6.844956e-39 2.3620328e-06 1.8133804e-06 5.706075e-39 -0.0042600096
-0.00014190443 -0.00081923703 0.0012034017 5.2691675e-38 4.3382084e-25 3.164198e-39 0.0009452342 -0.0005262125
2.832289e-39 -1.6758734e-09 6.614501e-35 -2.203033e-24 -0.0023372762 -0.0023109266 -2.0545517e-15 -0.00017793286
-6.9196e-06 -0.0011845987 -0.00024425582 -2.0469086e-05 -0.0037009658 2.885108e-20 0.00048850384 7.217421e-39
5.096193e-08 -1.8643437e-10 1.088756e-39 0.0002513542 -0.001217483 -5.1731255e-05 -2.8807024e-05 -7.402001e-28
-8.791654e-39 2.459639e-39 2.042572e-14 -0.00059668394 4.675848e-05 9.645021e-39 4.61895e-40 0.00014099131
0.0012975076 1.6066e-39 -0.0020348055 -0.0002256066 -6.864832e-39 4.59922e-39 2.0169595e-05 -0.00010972047
-0.0036776832 0.00056136947 -6.66345e-14 -1.702878e-39 -3.8302288e-28 2.2701564e-10 -9.762922e-39 -0.0013669562
-1.0122829e-36 -7.182326e-11 -2.3341145e-20 -0.0011030268 -0.0025910567 -0.0021310009 -0.0024163297 2.702223e-39
7.192198e-39 -0.006006329 -0.0007891168 3.3938523e-12 -0.0013980969 0.0006266785 -0.001384251 -5.775611e-07
-4.1304518e-10 -1.3388e-40 -6.87679e-40 -9.2797374e-05 -2.1676125e-21 -3.3700107e-05 -1.875767e-39 -4.8357902e-05
-0.0028631769 0.002108328 0.055181447 -0.33733568 0.17831843 -0.25568512 0.15154675 -0.2581818
-0.0040735584 -0.051403973 0.40109953 -0.3969198 -2.196921e-37 0.021612786 0.02365955 0.22957996
0.24798219 0.027815364 0.012055376 -3.4681438e-16 -1.988901e-27 -0.036506873 0.036463547 -0.31624737
0.0072359843 0.009095336 0.2150602 -0.25469115 0.26351222 -0.28638083 -0.3376506 0.22557858
0.07312227 -0.15544337 -0.00039664155 -4.286373e-07 0.0006705159 3.255911e-39 0.004129941 -1.2373964e-07
0.37535775 -0.21234675 0.16657588 0.088420086 -7.453487e-09 0.00090976694 -5.8019944e-32 0.10231218
-0.008908695 0.16873029 0.0047179195 -2.3644661e-05 0.027753137 -0.33236253 0.26522943 -0.00954136
-0.0030531394 -0.1254656 -0.061031297 -0.36055765 0.3777647 0.28756252 -0.0048279786 0.003026737
-0.23185772 0.17181224 0.051922575 0.17292815 0.2195309 -0.22143976 0.23123434 -0.1261142
-0.07501169 -0.22970884 -0.3720201 0.19840501 0.32195544 0.00979379 0.1418025 -0.29491925
0.1379363 0.0004180989 -1.0778249e-18 0.02173855 -0.12267652 0.05764385 -0.19357488 0.13331158
0.08358088 0.0033142685 0.011952528 0.13899422 0.17218031 -0.008646611 -0.001087381 0.45899367
0.19470182 0.09440743 -0.16853988 1.1138645e-38 -0.29579362 -0.00060143694 0.0044845147 0.068764605
0.4156886 -0.34879553 0.031241471 0.061769776 0.001348472 0.053422004 0.0025599939 -0.15726012
3.9338958e-16 0.029009849 0.22615361 -0.014723809 0.05301408 0.28407776 0.3029027 -0.27922136
-0.0049961545 6.580862e-39 -0.26272655 0.027563535 -0.22308752 -0.22969364 0.33122256 -0.02613852
00000000: 6f8e 420e 9ca3 3a33 932b 5db2 9fd5 59ab
00000010: 9579 02ba f6d9 1f00 76fa 2600 9fe9 cc36
00000020: 8a2d 0f80 f36c a92b 65d0 22bb 6de4 5331
00000030: 8b6b 2100 facf 3db8 249f a2b9 6610 2abb
00000040: 13e5 72b2 6ce2 aaba 21da 4b00 027c 4c00
00000050: 30f7 6624 7ecf 14bb 38cd b0b8 267f 56a3
00000060: 43c9 29bb ef04 9a39 b29f 2839 0edb 84a5
00000070: 4435 d539 3636 32a0 d342 4500 f08e a0ba
00000080: 5e1b 9239 4192 d219 087e c684 e5bd 6080
00000090: e25a ff9d ddd3 0a32 b39e 0c00 41f0 3800
000000a0: cdd0 45b8 e8e1 fbb5 5d42 7bb6 f488 4a80
000000b0: 6a83 1e36 4763 f335 3722 3e00 8d97 8bbb
000000c0: 2ecc 14b9 11c2 56ba 76bb 9d3a bd70 8f01
000000d0: d442 0617 7f74 2200 98c9 773a 86f1 09ba
000000e0: 45d7 1e00 8e54 e6b0 f6d7 af06 9073 2a98
000000f0: fd2c 19bb ea72 17bb ca0b 14a7 7d93 3ab9
00000100: e92e e8b6 8944 9bba 760f 80b9 07b5 abb7
00000110: e78b 72bb d13e 081f f00e 003a 3c97 4e00
00000120: 3ce1 5a33 9cfc 4caf 02db 0b00 31c8 8339
00000130: f393 9fba 03fa 58b8 9da6 f1b7 2b94 6a92
00000140: 8ebb 5f80 79c8 1a00 81fa b728 c86a 1cba
00000150: 891e 4438 6506 6900 9307 0500 11d7 1339
00000160: 2111 aa3a 8c7e 1100 5f5a 05bb d090 6cb9
00000170: 5cc0 4a80 c114 3200 e031 a937 bb19 e6b8
00000180: 4905 71bb de28 133a 2d0c 96a9 ee8a 1280
00000190: 04c5 f291 399b 792f 0e4f 6a80 702b b3ba
000001a0: 243b ac83 e7f0 9dae 6d73 dc9e 7093 90ba
000001b0: b8ce 29bb 43a8 0bbb 495b 1ebb b36c 1d00
000001c0: ec50 4e00 bdd0 c4bb bbdc 4eba 35d2 6e2c
000001d0: 5940 b7ba af47 243a c26f b5ba b209 1bb5
000001e0: f112 e3af 3475 0180 f87c 0780 369c c2b8
000001f0: b9c7 239d 3759 0db8 e06c 1480 e7d3 4ab8
00000200: 23a4 3bbb e02b 0a3b f105 623d 43b7 acbe
00000210: 1b99 363e 29e9 82be 122f 1b3e 6830 84be
00000220: 7c7b 85bb f98c 52bd eb5c cd3e 1239 cbbe
00000230: c383 9582 4c0d b13c acd1 c13c 0217 6b3e
00000240: 0bef 7d3e 0cdd e33c e983 453c c5ec c7a5
00000250: b493 1d93 3b88 15bd cd5a 153d 2deb a1be
00000260: d61b ed3b 9b04 153c be38 5c3e e166 82be
00000270: 13eb 863e 82a0 92be 8ae0 acbe 12fe 663e
00000280: 21c1 953d 8c2c 1fbe 54f4 cfb9 761f e6b4
00000290: 8fc5 2f3a 2874 2300 7554 873b 4bdd 04b4
000002a0: e42e c03e 6d71 59be de92 2a3e 9715 b53d
000002b0: c80c 00b2 6d7d 6e3a dea0 968b 0c89 d13d
000002c0: c6f5 11bc a2c7 2c3e c798 9a3b 8658 c6b7
000002d0: 8c5a e33c 6c2b aabe 27cc 873e 5d53 1cbc
000002e0: 2e17 48bb 0e7a 00be f4fb 79bd 039b b8be
000002f0: 606a c13e 653b 933e 0534 9ebb 385c 463b
00000300: 1c6c 6dbe 8cef 2f3e c4ac 543d 1414 313e
00000310: b5cc 603e 1bc1 62be b2c8 6c3e 1524 01be
00000320: bb9f 99bd cb38 6bbe 6b79 bebe af2a 4b3e
00000330: 58d7 a43e 2276 203c ad34 113e a8ff 96be
00000340: 2c3f 0d3e 4934 db39 130f 9fa1 0b15 b23c
00000350: d43d fbbd f51b 6c3d 7e38 46be d582 083e
00000360: 742c ab3d 3334 593b 89d4 433c 8054 0e3e
00000370: 0950 303e 84aa 0dbc 7486 8eba 3801 eb3e
00000380: ea5f 473e af58 c13d b895 2cbe 034a 7900
00000390: 4372 97be c0a9 1dba d6f2 923b 75d4 8c3d
000003a0: 23d5 d43e 5495 b2be 1dee ff3c 4e02 7d3d
000003b0: 36bf b03a 08d1 5a3d 92c5 273b cc08 21be
000003c0: 0ec6 e225 10a6 ed3c d094 673e 223c 71bc
000003d0: 4b25 593d a472 913e 1016 9b3e 1af6 8ebe
000003e0: c8b6 a3bb c4a8 4700 1884 86be eccc e13c
000003f0: 0e71 64be cf34 6bbe 0196 a93e 7320 d6bc

val_conv1.bias f4 [2]
-0.023666186 0.029726507
00000000: 97df c1bc 0185 f33c
