best_policy99_train_.model (torch, 529533 bytes, 15 tensors)

conv1.weight f4 [32, 4, 3, 3]
00000000: 133b db3e a2a1 babd 8d29 55bd 12c7 e4bd
00000010: 50e3 aa3d f3bb 72bd 175b 423e 6f4d 68be
00000020: edf2 5b3d e9c1 3c3e 307b 86be c617 50bd
00000030: a329 97be 1682 683d 606b e63d a70c 21be
00000040: 62e1 413e d4ff 80be 2a14 ea3c 7a7b d23d
00000050: 85ea 6e3c d03c b63c b6ee 543d 4c74 03be
00000060: e0d2 dc3c 8e56 ebba dfe7 97bc 58b5 84bd
00000070: 91e7 0cbe 8710 1c3e ec8f 4c3c 3e65 bf3c
00000080: f52b 4cbc 2d02 1cbe 4279 283e e513 093e
00000090: 6d2b 8fbe 63c0 c9bd 2306 8b3c 5ff7 a5be
000000a0: f8c9 cabc 9c63 8cbe 1af2 77be 0af7 c83d
000000b0: 2c87 2fbe 41df 91be 2a15 9cbd 6506 0ebe
000000c0: 2665 3dbe c163 153e 512e cfbe b40e bcbe
000000d0: ce23 9e3d 1971 1fbc bcd4 193c b535 7e3d
000000e0: db1e 6e3c 04fc efbc 41c3 a33d 78cb 04be
000000f0: d222 143d e17a dabc 8010 bd3d c303 e1bd
00000100: ab90 d8bd 88c8 0cbe df70 abbc 41b6 643e
00000110: c9a3 1a3e d5f9 1b3e 076b 563d ffdf 3e3e
00000120: 152d 1c3e 9303 44be 3251 65be 8dd4 453e
00000130: 992c dc3d f12c 183e 84df 373e 484a 3fbe
00000140: bb9f 11be bc23 e3be f700 843e e9ca 6a3e
00000150: 480c e1be 6ff2 5d3e a0cb 50be ca41 06be
00000160: 79e0 16be 69cd 023e 5a07 a3bd f34f afbc
00000170: c0eb c83c c63d a93c 0928 d03d 39ba 7cbd
00000180: 2f4b 83bd 1377 213d bb94 173d 3fc9 0c3e
00000190: 2813 36be 18d8 703d fce5 273e 3d5a ef3d
000001a0: 7714 af3d d1d5 c0bd 8bb9 a7bd 952d cdbd
000001b0: e8df 9dbe fdb0 84bd 1c10 17bd 90b6 b1bd
000001c0: 01cc 49be f40d bdbd ec7f 96bd dd69 1bbe
000001d0: 9979 503e 7c07 133d 417a aa3e 961d 52bd
000001e0: 2870 14bd 6d20 ea3e ed7c b53e 84dd 92be
000001f0: 8361 a03e 6231 a7be 20a5 643c c03e 813c
00000200: d7ab 193e 4aa7 16bb f3d7 2a3d cd80 fd3c
00000210: 3a00 dbbc 9af6 0cbc 2185 61be 8f4a d73d
00000220: 40dd b23d 8fc0 0c3e 99e6 363c 2073 f6bc
00000230: 7ae8 523e b8f5 fcbd 2696 e9bd fe1b 11be
00000240: 0998 78be 41a8 8cbe 438c c2bd a15d 793e
00000250: 7454 1ebe bc04 0a3d b784 20bd 771d b63d
00000260: 3674 173e 556e 40be 864b 8bbd 3b45 75be
00000270: b08d 303d 853b 1a3e 314d 8f3e b0b2 bc3d
00000280: 803e 9f3e cf90 42be 79f7 0d3c 3fc3 623d
00000290: abe2 c6bc 51bb 52bd 71d2 98bc d51d 2bbe
000002a0: 8702 1bbc 9cbf 1bbd 7713 3c3e ce6b debd
000002b0: 6264 18bd 7f28 0fbc b7c2 55be 5f46 86bd
000002c0: e4ce a43d 7ce9 58be 86a6 93bc 3e7c dc3d
000002d0: 5aef eb3e 5ddf 3e3e 554b be3e 06c9 02be
000002e0: 809a 8a3e 7afe 3d3e a250 8e3e 96d8 893e
000002f0: 7aa1 bc3e ad99 73be 499c 0abe e3b3 01be
00000300: 2c5f edbc e424 97bd b456 be3c ea0d 92bc
00000310: bb89 1abd ab12 0cbe 108c 433d a035 7ebd
00000320: 6765 5f3e 46b7 a93d bc56 db3d 18d8 2e3d
00000330: 7d57 9b3d 85f9 0d3d 0591 e23d 0c3d 6b3d
00000340: c3e0 053e 8dc6 f9bd 58e5 553d ce1e 963c
00000350: 9e2a 96bd 367f 55bd 3640 3fbd ed1a 353e
00000360: 6f6a 3c3e 5594 2a3e cd7d a1be 72fb 41bd
00000370: c247 1ebe 2529 0abc 89d1 943e 4364 9cbd
00000380: 8550 2d3d 82f9 cf3d 0943 97bd d3b6 c73e
00000390: ec76 81be be79 823d bfcd 92bc f12c b23e
000003a0: 7668 0bbe 8ee8 d53c 4c84 08be 977f 5cbb
000003b0: 118b b2bb 999d c7bd 302a d3bc 1b28 4abc
000003c0: 5a1c 2ebd 57fa a03c 1ff3 a4bd 4b96 f7bd
000003d0: c549 493a d7ba 31bd 1d7f bc3d e0ef 06be
000003e0: 0626 5a3c dc96 c33d 5ab7 99bd a571 df3c
000003f0: 2a20 28be a4e2 8d3e 49b5 d4bd 2d37 863d
0.42818508 -0.0911286 -0.05204158 -0.11170782 0.08344138 -0.059261274 0.1898006 -0.22685789
0.05369847 0.18433346 -0.2626586 -0.050803922 -0.29523954 0.056764685 0.11250949 -0.15727483
0.18933633 -0.2519518 0.028574068 0.102774575 0.014582281 0.022245795 0.051985465 -0.12837332
0.026956022 -0.0017954872 -0.018543182 -0.06479901 -0.1376021 0.1524068 0.0124854855 0.023363706
-0.012461652 -0.15235205 0.16452506 0.13386495 -0.2796282 -0.09851148 0.0169707 -0.32415292
-0.02475451 -0.27419746 -0.24213448 0.09812744 -0.17141408 -0.28490642 -0.07621224 -0.13869627
-0.18495616 0.14588834 -0.40465024 -0.36729968 0.07721673 -0.009731554 0.009389099 0.062062938
0.014533724 -0.029294975 0.07996226 -0.12968242 0.03616602 -0.026669921 0.09231663 -0.109870456
-0.10574468 -0.13748372 -0.020927845 0.2233515 0.15101542 0.15232022 0.052348163 0.18640135
0.15251572 -0.19141988 -0.22394255 0.19319363 0.10750694 0.14860894 0.17956358 -0.1868068
-0.14221089 -0.443632 0.25781986 0.22928967 -0.43954682 0.21674512 -0.20390177 -0.13111034
-0.14734067 0.1277367 -0.079603866 -0.021400427 0.024526477 0.020659339 0.10163886 -0.061701033
-0.064108245 0.0394202 0.037007075 0.13748644 -0.17780745 0.058799833 0.16396326 0.116871335
0.08548825 -0.09415782 -0.081896864 -0.1001846 -0.3083489 -0.0647907 -0.036880597 -0.08677399
-0.19706728 -0.09231177 -0.07348618 -0.15177102 0.20358886 0.03589581 0.33296397 -0.051297747
-0.036239773 0.45727864 0.35446873 -0.28684628 0.31324396 -0.32654864 0.0139553845 0.015776992
0.15006958 -0.0022987896 0.04170985 0.030945206 -0.026733506 -0.008603716 -0.22023441 0.10512268
0.08733606 0.1374533 0.011163377 -0.030084193 0.20596495 -0.12351555 -0.11405592 -0.14170834
-0.24276747 -0.27472118 -0.09499409 0.24352123 -0.15461904 0.03369592 -0.039189067 0.08892339
0.14790425 -0.18792088 -0.06801514 -0.2395219 0.043103874 0.15061767 0.2798858 0.092137694
0.3110237 -0.19000553 0.008664959 0.055361982 -0.024278006 -0.05144817 -0.018655034 -0.16710599
-0.009461052 -0.03802453 0.183668 -0.10860406 -0.037205108 -0.008737682 -0.20875059 -0.06556391
0.08047274 -0.21182817 -0.01802374 0.10765885 0.46081048 0.18639894 0.3716685 -0.12771997
0.27071 0.18554106 0.27795893 0.26923054 0.36841947 -0.23789091 -0.1353618 -0.12666278
-0.028976046 -0.07380083 0.023234703 -0.0178289 -0.037729006 -0.13678996 0.047740996 -0.06206286
0.21816026 0.0828691 0.10709903 0.04268655 0.075850464 0.03466179 0.110628165 0.057431266
0.13074021 -0.12196074 0.052220672 0.018325236 -0.07332347 -0.05212327 -0.046692096 0.17686053
0.18399976 0.16658147 -0.3154129 -0.047358938 -0.15457061 -0.008432661 0.29066113 -0.07636311
0.042313118 0.10155012 -0.07385833 0.3900667 -0.25286043 0.06370877 -0.017920373 0.34799913
-0.13614067 0.026111867 -0.13331717 -0.0033645385 -0.005448707 -0.09746856 -0.025776953 -0.012338663
-0.042507507 0.019650621 -0.08054184 -0.12089213 0.0007678534 -0.043391075 0.092039324 -0.13177443
0.01331473 0.095502585 -0.07505675 0.02727587 -0.1641852 0.27711976 -0.1038614 0.06553493

conv1.bias f4 [32]
00000000: de3a 413c aa5b 75bd cb68 6e3d 9c26 fd3c
00000010: 10c4 443c be4f 33be 98c1 393e 60c7 29be
00000020: eaa1 75be a65d 233e 0e87 973d 00a0 bdbd
00000030: 1ba2 c4bb d364 ba3d f2b2 523d 6e3c f23d
00000040: cd28 2b3d a894 ddbc 6436 18be 804a c53d
00000050: 1a45 15be 261c bbbd 3009 633b 8275 ee3d
00000060: fb2f 093e dfc5 503e 0e27 b03d 0d17 d83d
00000070: 06a0 993d c4a2 24be 2c78 b1bd ee91 36be
0.01179382 -0.05990187 0.058205407 0.0309022 0.012009636 -0.17510888 0.18140256 -0.16579962
-0.23987547 0.15953693 0.073988065 -0.09259033 -0.00600077 0.09101262 0.051440187 0.11827932
0.041786958 -0.027048424 -0.14864498 0.0963335 -0.14577141 -0.09136228 0.0034642927 0.116435066
0.1339721 0.20387982 0.08601199 0.105512716 0.07501225 -0.16077715 -0.08665499 -0.17829105

conv2.weight f4 [64, 32, 3, 3]
00000000: b81b d4bd 0797 05bd 8de0 28bd 5b32 0bbe
00000010: b9cb 033e 36aa f8bc 4f39 003c 933c 35be
00000020: 39b3 a13c 860b 05be 5be1 b03c 3c05 90bd
00000030: 32cf d4ba 7cce 013e 12cc 0a3e 716f 0c3d
00000040: cb49 46be 1540 18bd 1abf 7ebd 550d 133e
00000050: 4641 09bd 77b3 8d3d 5c5d ba3d 719f 14bd
00000060: 82bd 8b3c 4e30 713e 0261 fb3b 8755 533e
00000070: 44ba cfbd 65ed 10be 2c48 25be 1ed1 bfbc
00000080: 7a55 02be dcb7 a4bd 56d1 193e 3e04 683d
00000090: ea9f 1abd b4b8 c03d 9a92 85bd def1 65bd
000000a0: 1ed2 673d e11d be3d a689 c6bc 84d4 42be
000000b0: 9e0a d8bd 75a2 513d c377 d73d 2c7d 0c3e
000000c0: 531a 123e 3f6f 5a3d 0846 653d f5c0 733e
000000d0: 22b2 193e bf46 053d 01bc 3c3d bbd8 36be
000000e0: cab7 08ba 18d9 a6bd 9340 2e3e a8b2 00bc
000000f0: c12e 7dbd c1ba 64be 8513 a4bd f1e9 7d3d
00000100: 9235 bbbd 64e7 013d 83a4 d43d 58af 033d
00000110: a15a cbbc 5441 eebd 5d3c f6bc 2e48 cabd
00000120: ea0a edbc aa89 e3bc 1c14 ad3d 290d 17ba
00000130: 34c5 f33c 6a28 19be 66a5 913d 074f eebd
00000140: 9394 a13b 545a 40bd 1de9 053d 63a9 123e
00000150: ef95 b93c 17a7 843d 3786 c2ba 3362 47bd
00000160: f0aa d9bc 10f0 0cbd fad6 37bd ae22 76bd
00000170: 588d fcbd 207e a6bd dac9 d33d 8372 03be
00000180: 0885 38be c728 09be b61f 313e e073 05be
00000190: a89f 4ebe b59f 83bc edc1 a2be 241f 173e
000001a0: 9407 103e e4b1 7cbd f18e 0ebe 1a5f 3d3e
000001b0: 069c c13d 60de ab3c 3903 963e bcc3 73be
000001c0: 3c87 7a3d 2773 4a3d b7c8 6ebd 8d86 5ebd
000001d0: d1c3 18bd d895 84bd 61c0 553e 9d04 013d
000001e0: df18 b23c b70b debd ddbc 01be 4a76 e4bc
000001f0: d50c 133d 6024 81be 9808 b1be b3cf 45be
00000200: 58ad c7bc dd3a 273d b292 32bd 57ab b23d
00000210: 9c86 f73c 345c c43d 3667 41bb d75b d93d
00000220: 6342 43be 0a6f ba3c 2ffa 1cbe c227 9abd
00000230: 446d acbe 6840 bd3c 6b67 0e3e ce40 103d
00000240: 4d9a 85bb 091f 7ebe a844 993d 535a 2cbe
00000250: 42cc 64bc 4644 6d3d ba29 72be a33f 023c
00000260: b004 1ebd 0d83 20bd 4185 86bd 8bea 0c3e
00000270: af63 003e 1c13 ee3c 260e 523c 2dce 263e
00000280: cf9d d4bc 0ca1 443e fa25 693d f963 eebc
00000290: 3c36 b6bc 8a06 7b3e 95ad ef3d f94e 253e
000002a0: 851e 703e d07e bbbc cb15 34be 80d6 01be
000002b0: 8b55 85bd be48 9dbd 9f17 3dbe b57d 02bd
000002c0: 1c48 6dbe 9748 4c3e 0cb9 dd3b edd8 613d
000002d0: 8aa2 4e3d cdfe 8dbe 03ae 8bbd ba04 8bbd
000002e0: f693 84bb 12dc 883d 2bc0 743d 3d90 623e
000002f0: f611 403e 1997 1abe 2a80 e73c f2a8 00be
00000300: 13e3 223e 3bb3 433d e044 a9bc 7563 62be
00000310: 5f9a 6dbd dcc9 f1bc 152a 8ebd 9ea2 1d3e
00000320: 6a30 8abd dffc f53d e75d 7e3a 7487 d03d
00000330: d0a7 02bd 90e3 de3d 30bd c1bc 1696 e23d
00000340: 77e5 a0bd 93d4 3d3e ab35 25bd 1e22 87bd
00000350: 1f50 a53c ae89 8abd 279f 21be 6911 2abe
00000360: 8254 083e 792a 99bd 75f1 603c 525b 1e3e
00000370: 0fe6 33bd 43ac a43d 1c26 0d3e 150f 73be
00000380: bccc 51bd a41d 88be 9d93 1bbe 82f5 bbbb
00000390: 42fd 98bd b7d0 bbbd fd7a 52be 036d 2e3d
000003a0: 6eb1 fc3a 555e 11bc 13f3 173e 07ec 47bd
000003b0: d4c1 283d fa99 9bbe 68b7 ffbd 294c b4bd
000003c0: adf2 30be 0668 513d 7c2d b33d 96ac fcbd
000003d0: 9340 c0bc 4b53 e73d bc99 653c a459 c33d
000003e0: 1dd4 0ebe 2c6d 0f3e 62cd 97bd 87d6 8dbc
000003f0: 92f6 973d f0cc 3cbe f02f 423d fceb acbc
-0.103568494 -0.032614734 -0.041229773 -0.13593428 0.12870683 -0.0303546 0.007826163 -0.17698888
0.01973878 -0.12992677 0.021591833 -0.070322484 -0.0016236065 0.12676424 0.13554409 0.034285966
-0.19364087 -0.03717049 -0.062193967 0.14360555 -0.033509515 0.06918996 0.09099838 -0.036284868
0.017058138 0.23553583 0.0076714763 0.20638095 -0.10142949 -0.14153059 -0.16140813 -0.023415145
-0.12727919 -0.08042881 0.15021262 0.05664467 -0.037750162 0.09410229 -0.06522103 -0.056138866
0.056596868 0.09283043 -0.024235558 -0.19026381 -0.105489 0.05118032 0.105208896 0.13719624
0.14267854 0.05332875 0.05597499 0.23804076 0.15009359 0.03253817 0.046077732 -0.17856114
-0.0005215375 -0.08146876 0.1701682 -0.007855095 -0.061812166 -0.22336866 -0.080115356 0.061990682
-0.09141077 0.031714812 0.103829406 0.032149643 -0.024823489 -0.11633554 -0.03005808 -0.098770484
-0.028935868 -0.027775604 0.08451101 -0.0005762154 0.02975712 -0.14956823 0.071116254 -0.11636167
0.0049310415 -0.046961144 0.032693017 0.14322428 0.022654502 0.06477182 -0.0014841025 -0.048677634
-0.026570767 -0.03440863 -0.044882752 -0.060091667 -0.12331647 -0.08129525 0.103412345 -0.12836652
-0.18019497 -0.13394462 0.17297253 -0.13032484 -0.20178092 -0.016067365 -0.3178858 0.14757973
0.14065391 -0.061693087 -0.13921715 0.1849331 0.09453587 0.02098006 0.29299334 -0.23805135
0.061164126 0.049426224 -0.058296885 -0.054327536 -0.03729612 -0.06473893 0.20874168 0.03149854
0.021740375 -0.10842078 -0.12669702 -0.027888436 0.03590091 -0.25223064 -0.3457687 -0.19317512
-0.024374649 0.04082762 -0.04359693 0.08724087 0.030215554 0.09587899 -0.0029510981 0.1061322
-0.19068293 0.022758026 -0.15329812 -0.075271145 -0.33677113 0.023102 0.13906638 0.035218053
-0.004077232 -0.24816526 0.07483798 -0.16831331 -0.0139647145 0.05792644 -0.2364873 0.0079497425
-0.03857869 -0.03918748 -0.06568385 0.13761346 0.12538026 0.029061846 0.012820756 0.16289587
-0.025954155 0.1920206 0.056920983 -0.029100405 -0.022242658 0.24514213 0.1170303 0.16143407
0.23449142 -0.022887617 -0.17586438 -0.12679482 -0.06510457 -0.0767989 -0.18466042 -0.031858165
-0.23172039 0.19949566 0.006766444 0.055138517 0.050447978 -0.2773346 -0.068202995 -0.06788011
-0.0040459586 0.066826 0.05975358 0.22125335 0.18756852 -0.15096702 0.028259356 -0.12564448
0.15906934 0.04777835 -0.020662725 -0.22108252 -0.058008548 -0.0295152 -0.0694162 0.15394065
-0.067475155 0.12011122 0.00097033236 0.10182086 -0.03189832 0.10883248 -0.023649782 0.11063783
-0.07856267 0.18538122 -0.040334385 -0.06598304 0.020179806 -0.067645416 -0.15783368 -0.16608204
0.13313487 -0.07478804 0.013729443 0.15464523 -0.043920573 0.08040669 0.13784069 -0.23736222
-0.05122064 -0.26585114 -0.15193029 -0.005736054 -0.0747018 -0.091706686 -0.20554729 0.04258443
0.0019278952 -0.008872588 0.14838819 -0.048809078 0.041200474 -0.30390912 -0.12486154 -0.08803589
-0.17280073 0.051124595 0.0874891 -0.12337606 -0.023468291 0.11295184 0.014013704 0.09538582
-0.13948102 0.1400649 -0.074122205 -0.017314209 0.074200764 -0.18437552 0.047408998 -0.02110862

conv2.bias f4 [64]
00000000: 6a2b e1bc 27b0 463d 865d 96bd be39 5bbd
00000010: 1a87 80bd f489 853d 26ef 073d 40f9 493a
00000020: 42bb 913c a8d1 96bd 6251 26bd 6171 fabc
00000030: e4cb 893d e8b8 b7bc 5f32 533d 0297 a9bc
00000040: 7220 48bd 6a06 ecbb 3c08 80bc cb52 063d
00000050: 2b99 603d 263b 5e3d a477 54bd a64b af3d
00000060: 37bb 13be cb7a a23d 0a04 923d 98d7 59bd
00000070: 9dae 0a3d b38a f53b 44a4 ad3d 1358 68bc
00000080: 9e22 25be 9d3d f5bc 55df dfb9 620d 18bd
00000090: 185d 9bbc 8a47 e8bd 1ded d3bd de2b 8a3b
000000a0: 8d5d 983d dd66 ae3d 1607 bebc 74fe 7ebd
000000b0: a128 abbd 917c 3dbc 7783 41bc ba33 97bc
000000c0: b4f1 6eba 7336 94bc 95ff 49bb 5e74 f7bb
000000d0: fa11 bdbd 2e6a ddbc 029e fd3c dd94 aa3a
000000e0: aa88 75ba 3476 73bc 4d9f 83bd b231 52be
000000f0: fa43 84bb 321b abbc a98e c7bb 4e43 fbbc
-0.027486522 0.048507836 -0.07342057 -0.053521864 -0.062757686 0.06520453 0.033187054 0.00077046826
0.017789487 -0.073642075 -0.040604956 -0.030571641 0.06728342 -0.022427037 0.05156171 -0.020701889
-0.048859067 -0.007202913 -0.015628926 0.0327938 0.054833572 0.054255627 -0.05187191 0.08559351
-0.14426886 0.07933577 0.07129677 -0.05318412 0.03385793 0.007493341 0.08478597 -0.014181155
-0.16126487 -0.029936606 -0.0004270027 -0.037122138 -0.018965289 -0.1134177 -0.1034796 0.004216655
0.074397184 0.08515713 -0.023196738 -0.062254384 -0.08357359 -0.0115653435 -0.011811129 -0.018457282
-0.0009114996 -0.01809237 -0.0030822505 -0.007551714 -0.092319444 -0.02702817 0.030959133 0.0013014335
-0.0009366373 -0.014859725 -0.064268686 -0.2052677 -0.0040364238 -0.020886991 -0.0060900045 -0.030671742

conv3.weight f4 [128, 64, 3, 3]
00000000: 621a bfbc 7daf ad3c 8029 6e3b 0155 c2bc
00000010: 45fc 0a3e cc70 403d 0604 903d c825 94bd
00000020: d712 e8bd fd95 2dbd 8ded aa3d 68a8 c6bd
00000030: 3b15 a23d 5fac 1ebc 59d9 16bd e706 1c3d
00000040: a3d4 9bba b523 863c 39da febd 473f 14be
00000050: ced5 b23c 19b2 e53c 93c4 1cbe 4eb0 acba
00000060: ff21 82bd 5566 37bc 4e57 563c b8a1 df3c
00000070: cf3f 993d 04c6 64bd 8785 5b3d 6d02 ddbd
00000080: 863b 0d3e a6c2 c6bd 3f6b 513d 2a3d 33bd
00000090: 18a7 1dbe b977 823d 2d19 09bd 4018 02be
000000a0: 28f2 84ba b827 4abd f5c1 94bc 64fb c2bd
000000b0: 373e d63d bcac 3f3d 8c36 683d e36d e4bd
000000c0: 74a9 083c 4c4d b53b 5fd7 813d 4521 39bd
000000d0: b4b5 053e f87c 263d 562c 7abd 9654 c6bd
000000e0: c9ef 92bc a90f 4e3c 9cd2 0e3d 48c7 a53c
000000f0: 2ee6 2dbd 5257 103d ea71 d0bc ebc4 1dbe
00000100: 1e89 2abe 90ec babd c58b 123c aa0b b7bc
00000110: a049 9e3d 0205 013c 7237 0ebd e8d7 c93d
00000120: d5cf 72bd 3153 b53d 7c4a 063e 04f0 fb3d
00000130: 7b37 ad3d 1391 583d 5f81 cc3d 0699 6c3d
00000140: 3ccd 063d 4c2d 5c3d 7f39 a3bd a2ae 68bd
00000150: b085 d33c c4bd 273e 895c 8e3d 4bef 993c
00000160: eb6f f93d 8deb b43d 756e 8f3d f866 1f3c
00000170: fa72 e83c 129d 2d3c 9230 cdbd 7c29 303c
00000180: 128a 903d f664 64bd 4b1d e73c 72da ac3c
00000190: d16b 10be 4244 313d 2846 acbd eb30 aa3d
000001a0: 0ba1 1fbd 3930 2a3b ee91 e3bc 1188 af3d
000001b0: 7f08 99bc 387d d8bd 50db a9bd 75f0 5e3d
000001c0: 50b9 53be d775 10be 24fc 66bd 6202 b8bc
000001d0: aff8 24bd 2f9d 75bc acf4 7a3d 33cc e0bc
000001e0: 923f e03c 1c23 0fbe 6147 0f3d 71fd d4bd
000001f0: 4a80 283d f64b 54be b45c c53c a3b2 873c
00000200: d0e6 b9bd ffbe 1ebd 716e 9fbd d6d7 0ebe
00000210: 12e5 60bd 8dec f7bd b63c 0c3b 62fe f7bd
00000220: 571f d4bd 6d0b 03be 6ce1 18bc b492 b5bd
00000230: 8711 85bd 78de 44bb e3d2 b8ba 3a7e 29be
00000240: bb5b 59bc e661 4d3e 815c bf3c 365d 433e
00000250: 5519 dc3d 6d63 8d3d e6b9 c53c 8858 c03d
00000260: 5e67 4abe 3091 003e fa3f 483b 1701 b93d
00000270: d0dc 80bd 6485 e2bd 44ab 473d ab16 183e
00000280: 855b 603d 64ec 183d 3619 4bbc acdb b93c
00000290: 2c84 38be d60f 50bd 805a fabc a41c 49bd
000002a0: a3b4 aabd ee02 0cbe 2870 5a3b d16f 263d
000002b0: 3d7f 32be 00f2 e7bc 7543 403d b9e1 733d
000002c0: 5956 253e 3276 e7bd 10b3 59bd 15e7 77bd
000002d0: ba6a a83d 9162 46be 31ce 28be d312 d53d
000002e0: 2ccd 793c 192b 83bd 1e2e 933d cf99 83bc
000002f0: bc28 753c 47d1 df3d 330e 0e3d 9c13 14be
00000300: 2e91 58bd ba3f a03d 72b0 823d bbd7 cc3d
00000310: 8fc1 cb3d 661d 39bd bf77 47bd 92ef c43b
00000320: 3641 eb3d 00ec 2cbc a14b ef3d a4bb 8dbb
00000330: 3371 923d 35bb dcbd eaa2 8cbc 2fc0 b0bc
00000340: 3689 503d fc2f 903d 3ea2 c4bc 0d1b 123c
00000350: 1433 0abb f995 f5bc 9d11 b2bd 2e89 3e3c
00000360: 06a8 223c dfe7 1c3d 151e 613d 0580 8b3d
00000370: 6b8e 1d3e f81e 95bd b9aa 4dbd 7817 8ebd
00000380: ee80 273d acd8 a63d 10fa 11be ad66 debd
00000390: d340 003d d899 37bd 7068 0fbe bd6a 073e
000003a0: 8e8e dd3d ebf1 d8bc 792d c63c ebad 81bd
000003b0: c481 0bbe 85ec 69bd afe0 05be 873c ddbd
000003c0: c7d4 343c 18c2 d53c 5ca5 a6bd 6709 b13d
000003d0: 1fc2 cdbc 9773 49bd 79b8 f6bc cf48 75bd
000003e0: 2c8e 0b3e de02 563d 89c8 f63d cff5 203b
000003f0: 7d4f 233e 3e9b 91bd ccaa f33c a322 05be
-0.02332801 0.021201843 0.0036340654 -0.023722174 0.13572796 0.04698257 0.070320174 -0.07233769
-0.113317184 -0.042379368 0.083460905 -0.0970009 0.07914206 -0.009684651 -0.036828373 0.03809252
-0.0011888932 0.016374448 -0.124439664 -0.14477263 0.021830466 0.028039025 -0.15309362 -0.0013175101
-0.063541405 -0.011193831 0.0130823385 0.027298793 0.07482874 -0.055852905 0.05359414 -0.10791478
0.13792238 -0.09705095 0.05112767 -0.043759502 -0.15395772 0.063704915 -0.033471275 -0.12704563
-0.0010142969 -0.049354285 -0.018158892 -0.09520605 0.10461085 0.04679559 0.056692645 -0.11153772
0.008341182 0.005532896 0.06339907 -0.045197744 0.13057595 0.040646523 -0.06107744 -0.09684102
-0.017936604 0.012576976 0.03486882 0.020236626 -0.042455845 0.035239525 -0.025444943 -0.1540715
-0.16653869 -0.09127152 0.008944456 -0.022344429 0.077288866 0.007874729 -0.034720846 0.09855634
-0.059280235 0.08853758 0.13114351 0.12301639 0.08457848 0.05287273 0.09985613 0.057763122
0.03291057 0.053754136 -0.07969951 -0.056807168 0.025820583 0.16380984 0.069512434 0.018790862
0.1217955 0.0883399 0.0700349 0.0097291395 0.028375138 0.0105965305 -0.1001903 0.010752078
0.07057585 -0.055760346 0.02821221 0.021100257 -0.14103629 0.043277986 -0.08411819 0.083101116
-0.038971942 0.0025968684 -0.027779546 0.085708745 -0.018680809 -0.105707586 -0.08293784 0.054428536
-0.2067616 -0.14107452 -0.056392804 -0.022462074 -0.040276226 -0.014991089 0.061268494 -0.02744112
0.027374063 -0.13978237 0.03498018 -0.103999026 0.04113797 -0.20732102 0.024092056 0.016564673
-0.09077227 -0.038756367 -0.07784737 -0.13949522 -0.05490596 -0.12105665 0.0021398491 -0.121090665
-0.1035754 -0.12797327 -0.0093310885 -0.08865872 -0.06497484 -0.0030039828 -0.0014100935 -0.16552058
-0.013266499 0.20056877 0.023359539 0.19078526 0.10747019 0.069037296 0.024136495 0.09391886
-0.19765994 0.12555385 0.003055571 0.09033411 -0.06292117 -0.110605985 0.048747316 0.14852397
0.05477478 0.037334815 -0.0123961475 0.022687756 -0.1801917 -0.050796352 -0.030560732 -0.04909958
-0.08335235 -0.13672993 0.003333101 0.04063398 -0.1743135 -0.028313637 0.046939332 0.059541438
0.1614622 -0.11301841 -0.053149283 -0.06052311 0.082234815 -0.19373538 -0.16484906 0.10403981
0.015246671 -0.064047046 0.071865305 -0.016064553 0.014963325 0.10928588 0.03468151 -0.14460605
-0.05287283 0.07824655 0.063813105 0.10002085 0.09949028 -0.045194052 -0.048698183 0.0060100043
0.114870474 -0.010554314 0.11684347 -0.004325347 0.07150497 -0.107778944 -0.017167527 -0.021576015
0.050912105 0.07040402 -0.024003144 0.008917582 -0.0021087574 -0.02997874 -0.08694766 0.011629386
0.009927755 0.038307067 0.05496033 0.06811527 0.1538636 -0.072812974 -0.050211642 -0.0693807
0.04089444 0.08146796 -0.14255548 -0.108594276 0.03131182 -0.04482445 -0.14004683 0.13224311
0.10818206 -0.026482543 0.024191605 -0.06332 -0.1362372 -0.05711033 -0.13073991 -0.1080256
0.011037058 0.026093528 -0.081370085 0.086443715 -0.025116978 -0.0491825 -0.03011726 -0.05988389
0.13628453 0.052248828 0.12049968 0.0024560576 0.15948291 -0.07109688 0.029744528 -0.13001494

conv3.bias f4 [128]
00000000: 99ad 9fbc a1f4 d6bb ddb0 1cbe 1d45 84bc
00000010: e531 82bd 19d8 8a3d 832f 1fbd 95c4 62bd
00000020: c2ef 733c 5da7 853b eeed f6bc 9f74 993d
00000030: 7de6 a73c f43c 4e3d 78ad 11be 40b8 1e3c
00000040: 28ec a8bd f3e0 293d bd99 f23d 99ef 2e3d
00000050: 1eac 003d 7d86 e4bb 37e6 ce3c 37e3 8dbd
00000060: 9702 36bc c266 03bd 8f87 9c3c 8552 29bc
00000070: b53d 7dbd 51b8 babd 9008 0fbd 476d 10bd
00000080: 7922 793d af1c e63c dfe8 503c e394 0a3d
00000090: c7ff dabd a4e1 003c 5126 00bd 14f0 193a
000000a0: 4087 4e3c b48e a5bd 4a62 20be 5375 c4bd
000000b0: a1d6 0a3d 2727 753d 4045 503d 6e8a 0bbe
000000c0: 2acf 753c bbc4 b83d f110 943d 806e 143c
000000d0: 5c39 09ba 7f2c 77bd 7f4a 133d bfcd 0dbd
000000e0: 64f1 43bd 5a78 eabd 0e4d ccbd 4d49 14bd
000000f0: 0983 89bc b4c5 cabd f249 69bc f74b 65bd
00000100: 4d2a c0bb d9a6 0c3d 4ad3 b13c c1e0 f0bc
00000110: bfce 92bd bcb7 873c 93c2 ab3d bf3d 44bd
00000120: aca7 abbc fbe9 ffbb 7b8e 203d e8f7 45bd
00000130: 5a36 64bd 3c82 283d b4cb 7ebd 93a9 8b3c
00000140: 5ed7 d4bc fbd6 963b fdc3 233b b42c ddbd
00000150: 2988 1d3c fd5d ecbc b7d0 f73d 4214 70bb
00000160: fa4d fa3d b7ad 653c 98bc f3bc 2cc0 c4bc
00000170: 930b 95bd 808a 56bd 7b4f 8e3d 3e88 66bd
00000180: c21b 80bd 3477 0e3e e6b7 17bd 67a8 ff3b
00000190: 0e2e d1bc adb3 26bd 04c9 0f3c 1732 7a3d
000001a0: 91c8 95bb 6492 0cbe 9acd 37bd 3a51 6abc
000001b0: 3623 debc b2a8 823d 9bf4 2b3d 86a6 e43a
000001c0: 7e58 0abd f272 37bc 2ceb babc 7bfa e53c
000001d0: 743e 083e 8839 1bbd 76d6 8bbd 2446 6bbd
000001e0: 1209 8ebc f7f7 e3bc afbf 07be d826 153e
000001f0: 71d0 b2bd 9741 ccbd 408d 18be 4745 5abd
-0.019491958 -0.0065599238 -0.15301843 -0.016146237 -0.06357173 0.067794986 -0.03886367 -0.055363256
0.014888706 0.004078789 -0.03014275 0.07492947 0.020495648 0.0503511 -0.1422633 0.009687483
-0.08248168 0.041474294 0.118457295 0.042708967 0.031414144 -0.00697404 0.02525626 -0.069281034
-0.011109016 -0.03208042 0.019107608 -0.010334616 -0.061826427 -0.09117187 -0.034920275 -0.035260465
0.06082389 0.02808985 0.012750833 0.033833396 -0.10693317 0.007866297 -0.03128654 0.0005872261
0.012605488 -0.08083859 -0.15662494 -0.0959269 0.033896092 0.05985179 0.050847292 -0.13627025
0.015003005 0.09021898 0.07229794 0.009059548 -0.00052346825 -0.06034517 0.035959717 -0.034620043
-0.04783763 -0.114487365 -0.099756345 -0.036202718 -0.016786115 -0.0990099 -0.014238821 -0.05598065
-0.0058644176 0.034338806 0.021707196 -0.029404046 -0.0716834 0.016567104 0.083867215 -0.04791045
-0.020953976 -0.007809875 0.03919838 -0.048332125 -0.055715896 0.041139826 -0.062205985 0.017048633
-0.025981601 0.0046032644 0.0024988644 -0.10799542 0.009614983 -0.02885341 0.12100356 -0.0036633168
0.12221904 0.014018468 -0.029753014 -0.024017416 -0.07277598 -0.052378178 0.069487534 -0.056282274
-0.062552944 0.1391266 -0.037040614 0.0078020575 -0.025534656 -0.040698696 0.008775953 0.061082926
-0.0045710285 -0.13727719 -0.04487381 -0.0143015925 -0.0271164 0.06379832 0.04198132 0.0017444647
-0.0337758 -0.011196839 -0.022817217 0.02807354 0.13305074 -0.037896663 -0.068280146 -0.05743994
-0.01733831 -0.0278282 -0.13256715 0.14565599 -0.08731163 -0.09973448 -0.14897633 -0.053288724

act_conv1.weight f4 [4, 128, 1, 1]
00000000: e7b0 5fbd 6abb 043d 7b79 d5bd 4aaa 70bd
00000010: cbc6 a33c 132a a53e 2652 e6bc 0adf 693e
00000020: bbbc a83d c194 32bd 0bf9 71bd 86ee 8f3b
00000030: e031 343b 9168 86bd c85f 063d 3b0a 2f3c
00000040: f86b 42bc b02e d33d deb6 44bd 6531 613c
00000050: dd1f 763c 8c2b 39bd 8c1a e43c bed1 b63c
00000060: 2943 b73d 77f0 913d 025f e33d 39aa c6bd
00000070: f3f8 1e3d baec a0bc 787e 3fbd bdad 8a3e
00000080: 4bf1 cf3e 14db 113d 93f1 eabc af71 a63d
00000090: 5662 84be ab91 b13d 46ea 9c3c 5756 3c3c
000000a0: 4086 27bd 712c 9e3e 6dfa 03be 72cb 47be
000000b0: e822 3dbd d033 02be ebd0 76bd 2a6d 07be
000000c0: 5934 78bd dd0b 333d d9a0 3e3d 9bb6 28bc
000000d0: d5d1 c33d 032c c63d 6100 b83b 870e 2fbe
000000e0: 0055 6fbd fcf2 1fbd d8b5 1abd acff 83bc
000000f0: b3f7 97bd b13c 0b3e 4140 ab3c 3fbd 063c
00000100: dafc f23d d53e 89bc 4544 043f c6da f33c
00000110: 7cf4 0e3f 546c 133c ca65 e03c 72a4 0b3e
00000120: de14 17bd 58c5 253c ac00 26bc efd1 c6bd
00000130: 954d d93d 622b 3e3d bd5a 993d 4d1e 69bd
00000140: 6c19 c3bd 171b 46be f077 ab3d fb24 f13c
00000150: e8d0 2b3c 579d 8cbe 8bbb 573d b419 d2bc
00000160: d6af cd3d d4e4 62bd ee08 d43d 003a 67bc
00000170: ba8b 0dbe 5d5a 2a3c e6fa 883e fa51 08bd
00000180: ff75 893d 4000 ab3c 5e12 82bd 0088 dcbb
00000190: 0be4 293e f76b ba3e eb8d 6a3e f959 573d
000001a0: a307 01bd 2b28 943d d46c 2d3e 825a ac3d
000001b0: b292 c13c 6025 573e da6b 393c 8e72 2c3e
000001c0: f09f c4bc c8ba d73d 2f2b 2c3d a0c7 ccbc
000001d0: 5606 123e a95f 6f3e 7ff7 843d 5156 84bd
000001e0: a35c 193d b82a 58bd d88b 00be f2b1 193e
000001f0: 6fd5 a1bc a2e1 22bc 991f febc 3948 d5bd
00000200: bd1a 1b3c b6ee 8abc 2586 a13d d559 4d38
00000210: 4979 1d3d 6d4d d7bd bab8 883e 5b4b 1d3e
00000220: 45bb 513e 1e3e d9bc e53d 83bb 578c 033d
00000230: 148d cbbc 63d7 8a3e 717c e2bd 0fb9 a03c
00000240: e1e4 c83d 257b 27be 324a 5bbb 41c3 b9bd
00000250: d71a acbc 5d0f e13c 19e5 f0bd a85d 903d
00000260: 5d0b 8abd f540 41be ce00 89bd b9f1 5bbc
00000270: 1ab1 64bd 1fbe 9b3d 6e86 11bc 7371 81be
00000280: 0cd1 e13d bb12 efbc 8d3e 9cba 57c2 29be
00000290: 34b3 b33e 9028 363d bb63 893d cefe fb3c
000002a0: 0e69 863a 26b0 c1bc 8cf8 6a3d c1f3 043e
000002b0: 6dfb 353d 992e 853e 3c67 2a3c 5c64 00be
000002c0: b161 a33e 7802 af3d 8652 ca3d 8004 0ebe
000002d0: f841 0dbe 3b3e dd3d c0ba 15bc 6ee8 663d
000002e0: d8d7 d23d b4e5 c53c 75f2 163f 309b be3c
000002f0: 55a6 bf3c 99f4 503d 6844 56bc 5e3e 923e
00000300: 2187 303d 3253 08bd c70e e13d 0ac5 26bd
00000310: edac 4fbe efa6 5dbb f849 1dbe b674 41bb
00000320: 7725 86bd 03ad 0abc bb12 e23b dfb5 bb3c
00000330: 2490 b5bc 95a5 6f3e 7347 6c3b fd6d df3c
00000340: 7c24 3e3e c060 623e f95c 973d 5dc4 e1bd
00000350: 74cf b1bc b0b4 3a3e f6d0 443e c353 033e
00000360: 00f3 ca3d 599c a23d 3e26 d03d fcbf a5bc
00000370: 2f0b 133e af87 2b3d 458b 40bd 2195 ae3d
00000380: 165f a93d fd1d a83d ae8c 353e 7793 b63d
00000390: ce7c 8bbe fa92 66be 1407 91be eda5 d4bd
000003a0: 6995 da3b e99d dfbc 8b6a c33d c137 19be
000003b0: e682 343e 42e0 2e3e bdc0 a2bd d25c 41bc
000003c0: 1508 563c afdb e4bd 07c4 c03c edc3 7a3e
000003d0: 6115 b53d b811 123d 1882 84bd dbf0 a1bb
000003e0: 8dc7 563d d809 e9bc 656a b7bc f820 253e
000003f0: 9528 823d 88b3 5e3d 920e 253d f819 3e3e
-0.054612067 0.032405294 -0.10423561 -0.05875615 0.019992253 0.32258663 -0.028115343 0.22838989
0.082391225 -0.043598894 -0.059075397 0.004392448 0.0027495548 -0.06562913 0.032806188 0.0106835915
-0.011866562 0.10311639 -0.04802596 0.013744687 0.015022245 -0.045207545 0.02784469 0.02231681
0.08948357 0.07125943 0.11102106 -0.09700436 0.038811635 -0.01964413 -0.04675147 0.27085677
0.4061378 0.03560932 -0.028679645 0.08127152 -0.25856274 0.08670362 0.019154679 0.011495194
-0.040899515 0.3089328 -0.12888499 -0.19511202 -0.046175867 -0.12715077 -0.060257833 -0.13225237
-0.060596798 0.043712486 0.046540115 -0.010297443 0.09561507 0.09676363 0.0056152795 -0.17095385
-0.05843067 -0.039050087 -0.037771076 -0.016113125 -0.07420292 0.1359737 0.020904662 0.008223831
0.11864634 -0.016753593 0.5166667 0.029767405 0.55841804 0.008997995 0.027392287 0.1363695
-0.036885135 0.010117851 -0.010131996 -0.097080104 0.10610501 0.04642809 0.0748801 -0.056913663
-0.09526333 -0.19346271 0.08372486 0.029436579 0.010486819 -0.2746379 0.05266909 -0.025647022
0.10043304 -0.05539401 0.10353266 -0.014112949 -0.13822833 0.010397521 0.2675392 -0.033281304
0.06711959 0.020874143 -0.063511595 -0.0067300797 0.16590898 0.36410496 0.229057 0.05257604
-0.031501424 0.07234224 0.16936046 0.084157005 0.02362952 0.21010351 0.011317218 0.16840574
-0.024002045 0.105336726 0.04203337 -0.024997532 0.1426023 0.23376335 0.06492519 -0.06461776
0.03744186 -0.052775115 -0.12553346 0.15009287 -0.019755093 -0.00994149 -0.031020926 -0.10414166
0.009466824 -0.01695953 0.07886914 4.895947e-05 0.038445745 -0.10512815 0.26703435 0.15360777
0.20481594 -0.026518878 -0.004005181 0.03211626 -0.024847545 0.27117452 -0.110588916 0.019619493
0.0980928 -0.1635557 -0.0033460972 -0.09070445 -0.021008892 0.027473146 -0.11762447 0.070491135
-0.067404486 -0.18872435 -0.066896066 -0.01342433 -0.05583296 0.07604622 -0.008882148 -0.25281867
0.11026201 -0.029183736 -0.0011920497 -0.16578041 0.3509766 0.044472277 0.06708475 0.030761149
0.0010254697 -0.023643564 0.05736594 0.1298361 0.04442923 0.26012114 0.01040059 -0.12538284
0.3191047 0.08545393 0.09879021 -0.13868904 -0.13794696 0.10802885 -0.009138763 0.056374006
0.10295075 0.024157383 0.5896371 0.023267359 0.023394743 0.051014517 -0.013077833 0.28563207
0.04309762 -0.033282466 0.10989147 -0.040715255 -0.2028081 -0.0033821424 -0.15360248 -0.0029519028
-0.065501146 -0.008464101 0.0068992055 0.022913871 -0.022163458 0.23403008 0.003605333 0.027274126
0.18568605 0.2210722 0.0739078 -0.110237814 -0.021705367 0.1823299 0.19220337 0.12824921
0.0990963 0.07939977 0.10163544 -0.020233147 0.14359735 0.041877445 -0.047007818 0.08524538
0.08270089 0.08208845 0.17729446 0.089148454 -0.27243656 -0.22517005 -0.28325713 -0.1038321
0.006670643 -0.027296977 0.09541806 -0.14962675 0.17628059 0.17077735 -0.07946918 -0.011801915
0.01306345 -0.11174714 0.023530973 0.24488802 0.08841968 0.03566143 -0.06470126 -0.0049420423
0.0524364 -0.028447077 -0.0223896 0.16125858 0.06355397 0.054370433 0.0402971 0.18564594

act_conv1.bias f4 [4]
00000000: a860 693d 2bdf c13c 16ad 023e a3d3 9cbc
0.056976944 0.023665985 0.1276134 -0.019143885

act_fc1.weight f4 [81, 324]
00000000: c71b 493c a0b3 9abc e7da c2bc e5b6 3bbd
00000010: 0009 88bc 8e11 01bc 2897 c3bc 0781 ecbc
00000020: 3c8b 9e3c 8ff4 0a3d 337c 9dbc c28a 8bbc
00000030: a2df 8b3c cd61 a3bd dba2 83bc 7192 223a
00000040: a439 37bd c844 c33c e639 893a 6f21 30bd
00000050: 57ba cfbc 5db2 4b3b e1ef 48bd f838 a33c
00000060: 0319 02bd 1cd6 18bd 0a3a d33b 22fb c83c
00000070: a6a4 86bc 46ae 9ebd ace3 86bd 2075 e33b
00000080: 520d 463d 2ff2 03be c09a 16bd 07a4 09bc
00000090: 65e1 2bbc af48 043c c356 9bbd fb13 aebd
000000a0: 1bea 43bd a62a 0cba 2ae6 60bd 1ab0 ebbc
000000b0: 6032 2ebd 2e67 3a3c 6ce3 3ebd aef5 5fbe
000000c0: c270 62bd c129 0abb 8759 73bc c8cf d0ba
000000d0: de79 e1bc 10c7 19bd 0800 9239 a71f d5be
000000e0: a5a3 afbd dc54 a03d 845f 653c 83e8 b7bc
000000f0: 110e 60bc fa1a 02bd 4d75 07bb 4624 f7bc
00000100: 64c9 fb3d f860 323e ba0e 563d 02b0 65bd
00000110: 226b 753c 74bf 873c 4157 1b3d 20ac 7dbb
00000120: 70e7 203d 444b e7bd b56b 463d 23da 5dbd
00000130: 6951 72bd 2f0d 50bd 23d8 d03a 5df5 69bb
00000140: 889f a7bc 98e9 fcbc b087 76bd b224 03bc
00000150: f1a4 3cbd 027d 10ba 0e65 233c 37c2 f2bc
00000160: ba1a adbd 1471 47bc 6644 d8bb 081a 63bd
00000170: e3ca 403c 9957 21bb 5549 54bd 7728 813b
00000180: 63fb 253d 42ae bbbc 8930 5e3b fcb9 03bd
00000190: 9ff5 963c 228d 8d3b d6a1 abbc 0110 7b3c
000001a0: 0e78 1a3d 18d5 7e3c 4831 83bb d7f1 2c3c
000001b0: dcc0 54bc 06c4 94bb b845 3f3d 5906 993d
000001c0: 213b a03d 1990 3cbb 8cc3 df3c 903c d2bb
000001d0: 60d0 8bbc 5e10 f7bc dad2 e53b d355 b63c
000001e0: 3de9 a63d d9d2 8339 0ce8 db3c 0f1e b53c
000001f0: 3b7a 01bb 43b7 cfbc e275 e83d bba4 6c3c
00000200: 3ed6 d33d feda 253d d464 3c3d 6388 423d
00000210: d983 d2bb d2e3 1e3c 2186 44bb 206e 753c
00000220: 6ce3 a63d b326 2d3e 8f1d 903c dd89 623c
00000230: f404 80bc 14a6 cabb 6cd1 0dbd bea3 7fbd
00000240: 566a 05bf bf66 0b3e 6fde 2d3d 4058 a93c
00000250: f99a c53c 2524 dc3c fa07 783b 48d3 00bd
00000260: 6a7d 15bd caee 743d 5a33 cc3d ce9b acbb
00000270: 86f6 38bd 6ea9 0fbd 2741 dd3b b64d 783c
00000280: 684d 6c38 dea0 0fbd 7715 4abb ee73 b0bc
00000290: 3d1d 04bd 4330 f7bc 918b dfbc e2d9 93bd
000002a0: c22d d3bc f316 a3bc ad87 143a 9435 4f3c
000002b0: 84df debb fe14 a6bb 2154 98bc ee79 59bd
000002c0: a1ae a0bc db56 7dbd 3fe7 25bd b840 a43c
000002d0: acba b03b db3d 1fbd 2919 03bd 2627 65bd
000002e0: d860 1ebd 1e1b 333d a594 45bd 6175 79bd
000002f0: 6c8c 95bd 4c7a 1dbd 6487 04bd d01d 1bbd
00000300: c06d 16bd 97eb 60bd d0c5 95bd c6c3 61bd
00000310: ae37 49bd ff5b 67bd ba78 c1bb e3dc 11bd
00000320: 195b 89bd e1af 373d 2c62 36bd f789 b2bd
00000330: 6bdb 9bbc da4c fcbc fe31 91bc ec48 043e
00000340: a028 91bd 3c6b bb3d b8c3 10be a06a b9bd
00000350: dd73 2ebd e746 6ebd 5390 8bbc 0d80 6cbc
00000360: 19fb e8bd a938 bc3c 0cae 35be 4d25 8dbc
00000370: 0676 17bd 512e 95bd 4b64 74bd 888b 52bd
00000380: 42a0 aabc 544b 4dbf cce5 82bc ba5f c03d
00000390: 0524 1abd abbf d7bc e7a5 55bd 4bf3 88bd
000003a0: 3516 fbbc 54b3 abbc a24b 3c3d 9baa aa3d
000003b0: 123d 2a3d 5349 d13c 38fe 14bd 6e78 99bc
000003c0: 82f3 253b ac85 2bbc bcb7 81bc 0af4 7dbc
000003d0: 8f04 22bd 4fcd c53b a85f 25bd f596 303c
000003e0: fe06 b0bc d34d 9bb9 90fb 583c 1e58 0d3d
000003f0: 7832 5b3d 4ccf 073c 4f8f 483d f289 993c
0.012274689 -0.01888448 -0.023786021 -0.04582872 -0.016605854 -0.0078777205 -0.023875788 -0.028870119
0.019353501 0.033924635 -0.019224262 -0.017033938 0.01707441 -0.079776384 -0.016068866 0.0006201631
-0.044732705 0.023836508 0.0010469526 -0.043000635 -0.025357408 0.0031081655 -0.04905689 0.019924626
-0.031762134 -0.037313566 0.006446128 0.024533812 -0.016435932 -0.07748084 -0.06586394 0.0069414526
0.048352547 -0.12885354 -0.036768675 -0.008400924 -0.01049075 0.00807397 -0.07584908 -0.08499905
-0.047830682 -0.0005346931 -0.054907 -0.028770495 -0.04252851 0.011377139 -0.046603605 -0.21871063
-0.055283315 -0.0021082016 -0.014852888 -0.0015931064 -0.027523931 -0.037543356 0.00027847313 -0.4162571
-0.085761346 0.07828686 0.0139998235 -0.022449737 -0.013675229 -0.031764008 -0.0020669282 -0.030168664
0.122942716 0.17419803 0.052260138 -0.056076057 0.014979156 0.016570784 0.03792501 -0.003870733
0.039283216 -0.11293653 0.04844256 -0.05416311 -0.05915967 -0.050793823 0.0015933554 -0.0035699226
-0.020461813 -0.030873105 -0.060187995 -0.008004354 -0.046055738 -0.00055117917 0.009972824 -0.029633624
-0.08452363 -0.012172956 -0.0065999506 -0.055444747 0.011767122 -0.0024618863 -0.051827747 0.0039415914
0.040522944 -0.022910241 0.003390344 -0.03215979 0.018427668 0.004319803 -0.020951193 0.01532364
0.03771215 0.015553735 -0.0040036775 0.010555706 -0.012985434 -0.0045399694 0.04669735 0.07471914
0.07823778 -0.0028772412 0.027314924 -0.006415911 -0.017067134 -0.030159172 0.007013661 0.022257721
0.081499554 0.0002514336 0.026844047 0.02210906 -0.0019756693 -0.02535594 0.11350609 0.014443572
0.10343598 0.04049205 0.045994595 0.04749335 -0.006424409 0.009697871 -0.0029987174 0.014979869
0.08148846 0.16909294 0.01759222 0.0138268145 -0.015627362 -0.006184349 -0.03462355 -0.062412016
-0.5211538 0.13613413 0.042448457 0.020671964 0.024121748 0.026872704 0.0037846551 -0.031451494
-0.036496557 0.05979804 0.09970732 -0.005267597 -0.045156978 -0.03507369 0.0067521515 0.0151552465
5.6338875e-05 -0.035065524 -0.0030835548 -0.021539655 -0.032254446 -0.03017438 -0.02728823 -0.07219292
-0.025778655 -0.019908404 0.0005665969 0.012647051 -0.0068015475 -0.0050684204 -0.018594803 -0.053094797
-0.01961452 -0.06185041 -0.040503737 0.020050392 0.005393347 -0.03887735 -0.032006416 -0.055945538
-0.038666576 0.043727033 -0.04823746 -0.060902957 -0.07302174 -0.03844671 -0.03235568 -0.03787023
-0.03672576 -0.054912176 -0.0731312 -0.055118345 -0.049125366 -0.05648422 -0.0059042843 -0.035611045
-0.067068286 0.044845466 -0.044527218 -0.08717721 -0.019025525 -0.030798364 -0.017724033 0.12918442
-0.07087827 0.09151313 -0.14137161 -0.0905354 -0.042590965 -0.058173086 -0.017036593 -0.014434827
-0.11376018 0.022976236 -0.17742175 -0.0172297 -0.03697779 -0.07284225 -0.05966596 -0.0514026
-0.02082837 -0.80193067 -0.015978716 0.093932584 -0.037632007 -0.026336512 -0.05216017 -0.066870295
-0.030650238 -0.020959534 0.045970567 0.08333322 0.041562147 0.025547659 -0.036375254 -0.018734183
0.0025322144 -0.010468882 -0.015834682 -0.015500078 -0.03955513 0.0060364376 -0.040374428 0.010778178
-0.02148771 -0.00029621887 0.013243571 0.034507863 0.053514928 0.0082891695 0.048964795 0.018742535

act_fc1.bias f4 [81]
00000000: a161 a63c 7134 32bd 0ba8 c0bd 4e28 41bd
00000010: fa4b 0cbd 3c57 6abd bf83 bcbd f567 b2bc
00000020: 0b27 9d3c 4f1a 29bd ae5f 6ebc 66e7 c0bd
00000030: 32e7 b63d fa41 7cbb e169 d53d 4f66 a3bd
00000040: 7d72 42bd 8414 d1bb c94b c2bd 9efa bfbd
00000050: 9a22 0a3e 2c75 663d 81e3 d73d 6b55 c03c
00000060: 586b b73d b22a 0dbe 037f 61bd 1d9f d1bc
00000070: 0b97 b53d 14bf 6f3c ae78 6a3d 6523 e63c
00000080: 5299 293d a595 28bc cbf9 a93d 376c 2cbd
00000090: bacc 6abc 3e66 48bd e6b1 f03d 0e17 e03b
000000a0: 567e 363d 9971 2d3d 116d f13d 8225 88bd
000000b0: 9c85 65b8 6995 1dbd f027 a13d a7ac aaba
000000c0: 50be 473d c5ea 2b3d 2377 6e3c ce20 0c3d
000000d0: 79a2 ea3c 5f94 1bbd bf0d a2bd f0bd b4bd
000000e0: 542e fe3d efae 083d 9a6c 123e e8e4 8c3d
000000f0: 6dc9 273e 3c8d 9ebd 2b62 48bd 5d4b 1cbd
00000100: 0fb6 84bc 154f e3bd 8bb4 953d 4052 30bd
00000110: 639e 8a3d 3bbf b0bd 8f4b 23bc cd15 343b
00000120: 3df7 853c 893e 813b eeca 91bd ef27 0dbd
00000130: e9c0 073b 0813 6bbd 305e 6bbc dac5 bcb9
00000140: 7f91 933c
0.020310225 -0.043507043 -0.09407052 -0.04715758 -0.034252144 -0.0572121 -0.09204816 -0.021778086
0.019183656 -0.041284855 -0.014549179 -0.09419136 0.08930816 -0.0038491474 0.104205854 -0.07978498
-0.047472466 -0.0063806195 -0.09487111 -0.09373973 0.13489762 0.056264088 0.1054144 0.02347823
0.08956021 -0.13785818 -0.05505277 -0.025588566 0.088667 0.014632959 0.057243995 0.02809305
0.041405983 -0.010289584 0.08299597 -0.04209539 -0.014331037 -0.04892563 0.117526814 0.006838686
0.044554077 0.042344663 0.11788381 -0.06647779 -5.4722288e-05 -0.038472567 0.078689456 -0.0013021425
0.04876548 0.04197194 0.014554772 0.034210972 0.028641926 -0.037983295 -0.07912778 -0.0882529
0.1241118 0.033369955 0.1429924 0.06879598 0.16385432 -0.07741782 -0.048921745 -0.03815781
-0.016200094 -0.11099068 0.073098265 -0.04304719 0.06768491 -0.08630224 -0.009966745 0.0027478815
0.016353244 0.0039442223 -0.07118784 -0.03446191 0.0020714349 -0.057391196 -0.014365718 -0.00036005565
0.018013714

val_conv1.weight f4 [2, 128, 1, 1]
00000000: 4e4e 7a3e ad83 2fbe 9289 25be e8d4 97bc
00000010: c87c 9b3e 5128 cfbc 38a0 8e3c 308a 543e
00000020: ae92 223e 6b5e 943e 903e d4be 9c04 87bd
00000030: 89bd babe 16db 12bd 78fb cc3e cc69 bcbd
00000040: fb0d 42be 8321 243e df62 ca3b 92ac 643e
00000050: 50b6 41be e78f 43be 22df 0f3e bc99 0d3d
00000060: e77c 27bd 5e93 b8be 2b08 f23d a945 e53d
00000070: 61e4 623d 19b9 9a3d e526 eabd fdd1 de3d
00000080: 3b7a 983c 4a83 e23d 9673 103e 37bb 493e
00000090: 5741 8f3d c40e 1fbe 93e1 523e 12de 01be
000000a0: 09d0 8ebe 998c 593e 95e3 46bd 8845 bc3a
000000b0: 2edc 34be e4c2 083e a46a f3be 947b 093e
000000c0: bc8e c8bc 344c 6ebe fc60 9bbe 1313 703e
000000d0: 6d4e 9dbd 71d2 a5ba 9133 b03e 2419 833e
000000e0: 6269 323e 4f3a 9e3e 5de7 133b 5440 403e
000000f0: 972d 933e 7068 48bc 8126 74be ab94 2bbd
00000100: d07e 4d3d 0ccc 723d 380c 243e 75f7 233e
00000110: 4f2b b13e 5c7c a6bd d06c 52be 9f9a 39be
00000120: 5b88 8cbe 6733 1c3e 2400 adbd 75e5 c83e
00000130: c491 80be 9b61 f6bc c784 d33d 0032 5e3e
00000140: 90fa 2b3d 6fab 433e 10c6 aabe 3aad 133e
00000150: b4fc 5a3e bf8d 0d3d 081f 92bc 9c0a 0ebe
00000160: b77a 3f3c b96c 3fbe ee26 08be e49a a83d
00000170: 7147 bc3d cf1b 92be e0ad d93d 7ce0 97bd
00000180: 2da2 803e 21d6 6a3c 9ac2 123e f74c b2bd
00000190: a685 363d d71c ca3a 60f3 dcbb 92c9 78bc
000001a0: f83d 7bbc cf03 b6bb 003a 973d e176 2c3c
000001b0: f7ac bdbd 45c7 a4bd aba4 823d fc43 833d
000001c0: de14 88be 5e8d b83c af07 aa3d 5763 303d
000001d0: 636c 2b3c 2fb4 693e 9957 2ebd 9149 6a3e
000001e0: ce61 413e 7a5e ccbe 2c08 353e 3803 d23b
000001f0: 1060 ac3e 7e77 b6bc ed10 a83d e079 c33d
00000200: d898 353e 7bb7 42be a8e5 3b3e 0c5a e2be
00000210: ea1e a43e 9db7 14be e01a da3d 009f d4be
00000220: 81f4 85bc a357 373e 7b68 a53e a513 debe
00000230: 25e0 023e 46dd 5e3d 4609 b5bd 311b 923e
00000240: fa98 9c3e 035f 4ebe 66d6 dd3c 424c d03d
00000250: 518b 033e 309d ecbd 5c08 8abe ea4d a5be
00000260: b2d7 dfbd 2852 f23c b228 943e 5079 e7be
00000270: af81 a43e baa4 f7be 4b70 07bf 29ad c33d
00000280: 2b0b 3e3d b000 c5be 2f2d ef3d 085b ef3d
00000290: b14a 9b3d a0c6 da3c 2f98 abbe ca2a e3bc
000002a0: d4a8 ce3e 7c81 82be 7830 b23e 655d 77bc
000002b0: 645b 423c 03ee 033e 110e 023e 4fe1 233e
000002c0: b5b3 3ebd 62b3 543e 5a90 03bd 122b 8ebd
000002d0: 961e 803e f3a6 06bf deb2 a03e 392f 38be
000002e0: a4c5 72bd 5f9b 83be 08eb 19bd ca0c 00bf
000002f0: 5ede fc3e 0a7d d13e 7b41 14be f6c8 97bd
00000300: 7a39 80be d262 d23e 8c97 9d3c ca36 b53e
00000310: 6b72 4a3e 99b6 bdbe 5335 243e 4821 49be
00000320: 7a89 0ebe 33e4 52be 22d6 14bf d2ef 793e
00000330: f52a 943e cece 983d 7f84 ef3d 6cbe e5be
00000340: 1b1a 363e e262 8ebd 31f4 df3c 9f48 16be
00000350: b59c f2be fc1b 0c3c e83b b9bc 5643 1d3e
00000360: 8775 a43b 7518 033e 4790 d3bd a558 273e
00000370: a203 4f3e 06ac 59bd fe03 df3d d40e e73e
00000380: 1cc2 4c3e b113 dc3b 3c20 66be bd1d 8dbc
00000390: 4964 d9be a26c 31bd fb99 913d 7639 b5bd
000003a0: 2ced f53e 6f85 d0be 842c 343d bdd0 85bd
000003b0: 950c 0cbe 683f d33c ecdb cabe 60b6 4cbe
000003c0: 2f61 aabe d2cc 17be 5689 5f3e 3005 783d
000003d0: 9f78 b23b 9926 8a3e 5ac4 123f cf18 d4be
000003e0: 5b4f 0ebd 9bfe 593e bfe0 f3be 5807 873a
000003f0: 3952 9cbe 9019 cebe 7f9a ba3e 1dfb ce3d
0.24443933 -0.17140074 -0.1616576 -0.018534139 0.30368638 -0.025287779 0.017410383 0.2075584
0.15876266 0.28978285 -0.4145398 -0.06592676 -0.3647273 -0.035853468 0.40035605 -0.09199867
-0.18950646 0.16028409 0.006176337 0.22331455 -0.18917203 -0.19097863 0.14049962 0.03457044
-0.0408906 -0.36049932 0.11817964 0.11194927 0.05539358 0.07554836 -0.114332 0.10879896
0.018612972 0.11060198 0.14106593 0.19700323 0.069948845 -0.15532976 0.20593862 -0.1268237
-0.27893093 0.2124504 -0.048556883 0.0014363984 -0.17662117 0.13355595 -0.47542298 0.13426048
-0.024482124 -0.23271257 -0.3034743 0.23444776 -0.07680974 -0.0012651217 0.34414342 0.25605118
0.17423013 0.3090386 0.0022568323 0.18774539 0.2874572 -0.012231931 -0.23842813 -0.041889828
0.050169766 0.059276626 0.16020286 0.16012366 0.34603354 -0.081291884 -0.20549321 -0.1812539
-0.2744778 0.15253983 -0.084472924 0.39237562 -0.2511121 -0.030075839 0.1032806 0.21698761
0.041987002 0.19108365 -0.33354235 0.1442155 0.21385461 0.034559008 -0.017837062 -0.13871235
0.011686972 -0.18693818 -0.132961 0.08232668 0.09193314 -0.2853684 0.10628867 -0.07415864
0.2512373 0.014333279 0.14332047 -0.08706086 0.04456105 0.0015419972 -0.0067428797 -0.015184777
-0.015334599 -0.0055546532 0.073841095 0.01052639 -0.09261506 -0.0804582 0.06379064 0.06409451
-0.2657842 0.022528347 0.08302247 0.043063488 0.010462853 0.22822641 -0.04256401 0.22879626
0.18884966 -0.3991583 0.17678899 0.006409075 0.3366704 -0.022273775 0.08206353 0.0954473
0.17734087 -0.19015305 0.18349326 -0.44209325 0.32054836 -0.14523168 0.10649657 -0.41527557
-0.01635194 0.17904525 0.32306275 -0.43374363 0.12780817 0.05441024 -0.088396594 0.2853637
0.30585462 -0.20153432 0.027079772 0.10170795 0.12846114 -0.11553419 -0.26959503 -0.32286006
-0.109298125 0.02958019 0.28937298 -0.45209742 0.3213019 -0.48367864 -0.5290572 0.09554512
0.04639737 -0.38477087 0.1167854 0.11687285 0.07582606 0.02670604 -0.33514544 -0.027730364
0.4036318 -0.25489414 0.34802604 -0.015097951 0.01186261 0.12883763 0.12700678 0.16003917
-0.0465581 0.20771554 -0.032120086 -0.06941809 0.25023335 -0.52598494 0.31386465 -0.17986764
-0.059270516 -0.25704476 -0.03757766 -0.50019515 0.49388403 0.4091571 -0.14478104 -0.07411377
-0.2504385 0.4109102 0.019237302 0.35393363 0.1977021 -0.37053373 0.16035967 -0.19641602
-0.1391963 -0.20594864 -0.5813924 0.2440789 0.28939024 0.0746132 0.116951935 -0.44871843
0.17783396 -0.06952454 0.02733812 -0.1467614 -0.47385183 0.008551594 -0.022611573 0.15357718
0.005018893 0.12802298 -0.10330253 0.16342409 0.2021623 -0.05314257 0.10889433 0.451285
0.19995922 0.0067162146 -0.22473234 -0.017226094 -0.42459324 -0.04331649 0.071094476 -0.088488504
0.4803251 -0.40726802 0.043987766 -0.06533954 -0.13676675 0.02578707 -0.39620912 -0.19991446
-0.3327727 -0.14824226 0.21829733 0.060551822 0.005446508 0.26982573 0.5733086 -0.41425177
-0.034743648 0.2128853 -0.47632405 0.0010301871 -0.3053148 -0.40253878 0.36445996 0.1010649

val_conv1.bias f4 [2]
00000000: 4cbf 30b8 2073 523d
-4.213983e-05 0.051379323
