current_policy1111_renju.model (torch, 679475 bytes, 15 tensors)

conv1.weight f4 [32, 4, 3, 3]
0	0xbe09081b	-0.13381998
1	0x3d8f78ad	0.07005439
2	0x3e904364	0.28176415
3	0x3d29f630	0.04149455
4	0x3c5cd6e3	0.013478967
5	0x3eae20ee	0.34009498
6	0xbc5d7f2a	-0.013519088
7	0xbc88482b	-0.016635975
8	0xbdc9824e	-0.09839307
9	0x3da4826e	0.0803269
10	0xbd1acd76	-0.0377936
11	0x3e85c2ed	0.2612528
12	0x3db6c128	0.089235604
13	0xbdca495f	-0.09877276
14	0x3e8ef537	0.2792146
15	0xbb537fb0	-0.0032272153
16	0xbce73fb8	-0.028228626
17	0x3d94706d	0.07248006
18	0x3c016da4	0.0078996755
19	0x3c798ed5	0.015231808
20	0xbda3232d	-0.079656936
21	0xbddd87ce	-0.10816918
22	0xbce3ce86	-0.027808439
23	0xbcf4affa	-0.029869068
24	0x3db15142	0.08658077
25	0xbdc7eccb	-0.097619615
26	0x3c283d3d	0.010268507
27	0x3e0a5f19	0.1351284
28	0xbdb663b0	-0.08905733
29	0xbdad155b	-0.08451339
30	0x3d8a522d	0.06753955
31	0xbd0c3c00	-0.034236908
32	0x3def5391	0.11685861
33	0x3e121e23	0.14269309
34	0xbda5afb7	-0.080901556
35	0xbdbc9589	-0.09208209
36	0xbdab77c2	-0.08372451
37	0xbe646722	-0.22304967
38	0xbe0834e8	-0.13301432
39	0x3df6fc54	0.120598465
40	0x3ded4adc	0.11586544
41	0xbd9742c6	-0.07385783
42	0x3e70da29	0.23520721
43	0x3e917a3d	0.28413573
44	0x3e01000f	0.12597679
45	0x3d3666f3	0.044531774
46	0xbe184db3	-0.1487339
47	0xbdc05300	-0.09390831
48	0xbc69d5b7	-0.014272145
49	0xbe0cd52f	-0.13753198
50	0xbde3810d	-0.11108599
51	0x3e7d0ea2	0.24712613
52	0x3e8366c4	0.2566434
53	0xbd0cf524	-0.03441347
54	0x3c5b8ca2	0.013400229
55	0x3c86008b	0.01635768
56	0xbcf7e713	-0.030261552
57	0xbd2a3769	-0.04155675
58	0xbc0a291a	-0.008432651
59	0x3d1ee98f	0.038796958
60	0x3d6e0313	0.0581084
61	0xbd714338	-0.058901995
62	0x3c968458	0.018373653
63	0x3e32cbcf	0.1746056
64	0xbcdb44ad	-0.026766146
65	0xbc047fc6	-0.008087104
66	0xbda93a21	-0.0826304
67	0xbd85473f	-0.0650773
68	0xbbe001e3	-0.0068361624
69	0x3d457a9e	0.04821264
70	0x3e18851d	0.14894529
71	0xbc9de5e7	-0.019274665
72	0xbe0786b0	-0.13234973
73	0xb9b13fdf	-0.00033807658
74	0xbc93795d	-0.018002206
75	0x3e394a53	0.18094759
76	0x3e6ccdb2	0.23125342
77	0x3ca92786	0.020648729
78	0x3dff4d2a	0.1246589
79	0x3beef317	0.007292162
80	0xbd3367d8	-0.043800205
81	0x3da850dc	0.08218548
82	0xbe0b0bd2	-0.13578728
83	0xbd70ef0f	-0.058821734
84	0xbcd9d29e	-0.026589688
85	0xbd9388e8	-0.07203847
86	0x3d6d18ca	0.05788497
87	0x3e2a8d9c	0.16655582
88	0x3e3f55ee	0.18685123
89	0xbd9139a5	-0.07091073
90	0xbd36eb47	-0.04465797
91	0xbde95ce8	-0.113946736
92	0xbe12ac3b	-0.14323513
93	0x3c84ede4	0.016226716
94	0x3bff877d	0.007798134
95	0xbd843049	-0.06454522
96	0xbd3c4138	-0.045960635
97	0x3d26ab43	0.04069067
98	0xbe03982f	-0.12851022
99	0x3d427975	0.04747911
100	0xbd9b0fc1	-0.07571364
101	0xbdff8513	-0.12476554
102	0xbe0409d5	-0.12894376
103	0x3d1d93d8	0.038471073
104	0x3c898a00	0.016789436
105	0x3e1c0f5b	0.15240233
106	0xbd21885b	-0.03943668
107	0xbd5a2a68	-0.053263098
108	0x3de15d0a	0.11004074
109	0x3d1672fc	0.03673075
110	0x3d205762	0.039145835
111	0xbd978ee4	-0.07400301
112	0xbe44f594	-0.19234306
113	0xbe32a61b	-0.17446177
114	0x3d7885c4	0.060674444
115	0x3c82e320	0.015977442
116	0x3c8cdd84	0.01719547
117	0x3deb56bd	0.114911534
118	0x3e220fc5	0.15826328
119	0xbd82dba4	-0.063895494
120	0xbdcc9e94	-0.09991184
121	0x3d3e79b3	0.04650278
122	0x3dd31ceb	0.1030825
123	0xbd0f1e8d	-0.034941245
124	0x3e371ee9	0.17882885
125	0xbe3028a6	-0.17203006
126	0x3d1a5700	0.037680626
127	0xbdd51702	-0.10404779
128	0xbd3854cc	-0.045002744
129	0x3e02007f	0.12695502
130	0x3d82fbb2	0.06395663
131	0xbc239778	-0.009984843
132	0x3c932a1d	0.017964417
133	0x3d20893e	0.039193384
134	0x3caf15fd	0.02137279
135	0xbd06e2e6	-0.03293123
136	0xbd9c8054	-0.07641664
137	0xbdacd945	-0.084398784
138	0x3dd1d149	0.10244996
139	0x3dbfe419	0.09369678
140	0x3db0ec51	0.08638824
141	0xbe015824	-0.12631279
142	0x3d5165a6	0.05112233
143	0x3d429511	0.047505442
144	0x3bd3e532	0.006466531
145	0x3dc2516d	0.09488187
146	0x3c8df283	0.017327553
147	0x3e5e5192	0.21710804
148	0x3e0df37a	0.1386241
149	0x3e21c235	0.1579674
150	0xbd9fd2da	-0.078038886
151	0x3e1d9935	0.15390475
152	0x3d0235a6	0.031789444
153	0xbd2f1fa3	-0.04275478
154	0xbd2a4851	-0.041572873
155	0x3d04509b	0.032303434
156	0xbd9035e5	-0.070415296
157	0x3d704cf9	0.058667157
158	0x3e635971	0.22202088
159	0xbe21783f	-0.15768526
160	0x3e47506e	0.19464275
161	0xbd562136	-0.052277766
162	0x3c8be624	0.017077513
163	0x3d3e432e	0.046450786
164	0xbd8bdc97	-0.068291835
165	0xbcef086f	-0.029178826
166	0xbd3ba561	-0.045812014
167	0xbdc483e1	-0.095954664
168	0x3cf85af9	0.030316817
169	0x3d20b226	0.039232396
170	0x3c78665a	0.015161121
171	0xbce40c1d	-0.027837807
172	0x3b951c4a	0.0045504915
173	0x3cce0dff	0.025153158
174	0x3c5dcc08	0.013537414
175	0xbd076535	-0.033055503
176	0x3d910b21	0.07082201
177	0xbd956709	-0.07295043
178	0x3c507626	0.012723481
179	0x3d129d18	0.035794348
180	0x3e2f07d1	0.17092825
181	0x3d2f75e0	0.042837024
182	0xbe04540a	-0.12922683
183	0x3de63b4c	0.11241779
184	0xbe04f61e	-0.12984511
185	0x3d9f04da	0.07764597
186	0xbd75feb5	-0.06005736
187	0x3dcce15b	0.10003921
188	0x3ca6ea7f	0.020375488
189	0x3d98b121	0.0745566
190	0xbd992724	-0.074781686
191	0xbe18a85c	-0.14907974
192	0x3d5a84f4	0.05334945
193	0xbdd9b09a	-0.10629387
194	0x3d35873b	0.04431842
195	0xbbd58596	-0.006516169
196	0xbdc35a5c	-0.09538719
197	0xbd60c050	-0.054870903
198	0x3e2d8685	0.16945846
199	0xbd9c7029	-0.0763858
200	0x3dd8efb6	0.10592596
201	0x3c8cc818	0.017185256
202	0xbd908844	-0.070572406
203	0x3d68ad1b	0.05680571
204	0x3e11663e	0.14199159
205	0x3c0b1b91	0.008490459
206	0xbd055ad0	-0.03255731
207	0x3df125d8	0.11774796
208	0xbdd7b5b0	-0.10532701
209	0x3dacee78	0.08443922
210	0xbdb4980c	-0.08818063
211	0xbda00f22	-0.07815386
212	0x3e1cffa4	0.15331894
213	0xbdb7a117	-0.08966272
214	0xbcc30e97	-0.023810668
215	0xbdcaf352	-0.09909691
216	0xbe3ea4cb	-0.18617551
217	0xbcb182d6	-0.021668833
218	0x3db0a2ae	0.08624779
219	0xbc3d5ae3	-0.011557314
220	0xbc3dad58	-0.011576973
221	0x3d011396	0.03151282
222	0xbde666b8	-0.11250061
223	0x3d1e9a88	0.03872159
224	0xbe07003c	-0.13183683
225	0x3dd2470e	0.10267459
226	0x3dea41b0	0.1143831
227	0x3de183a3	0.11011436
228	0x3e033a42	0.12815192
229	0x3c5489d4	0.012972314
230	0xbda87c6f	-0.08226859
231	0x3e0d9a25	0.13828333
232	0x3d577aea	0.052607454
233	0x3e0dd6ef	0.13851522
234	0xb8355668	-4.3234235e-05
235	0x3db93e92	0.090451375
236	0x3dc817e7	0.09770184
237	0xbb4f1bdf	-0.0031602306
238	0xbd35a144	-0.044343248
239	0xbdafc3e3	-0.08582284
240	0xbb77435e	-0.0037729363
241	0x3d8e9a1b	0.06962987
242	0x3dafd6e5	0.0858591
243	0x3e104632	0.14089277
244	0x3e2d7fc3	0.16943268
245	0xbe035e45	-0.1282893
246	0xbdc8a736	-0.09797518
247	0x3d65e4dc	0.05612646
248	0xbe08f3b3	-0.13374214
249	0x3db0dfdb	0.08636447
250	0x3e193d44	0.14964777
251	0x3e301cc2	0.1719847
252	0x3dfa5c67	0.122246556
253	0xbd6bff0e	-0.057616286
254	0x3dc25a68	0.094899
255	0x3e84ff10	0.25975847

conv1.bias f4 [32]
0	0x3c1bff89	0.009521374
1	0xbcfe98c1	-0.031078698
2	0x3e1e37f8	0.15451038
3	0xbbb6336b	-0.0055603287
4	0xbd425bea	-0.047450937
5	0x3e3b5984	0.18295866
6	0xbd2b2a11	-0.041788165
7	0xbded4abb	-0.11586519
8	0xbda3c281	-0.07996083
9	0x3d90ff5c	0.07079956
10	0xbdfc8824	-0.12330654
11	0xbda94776	-0.08265583
12	0x3df5fe01	0.12011338
13	0x3dbfbe99	0.093625255
14	0xbda7eee7	-0.08199864
15	0xbd85a53f	-0.06525659
16	0x3e23a675	0.15981467
17	0x3de5da2c	0.112232536
18	0x3a0fa95e	0.0005480255
19	0xbd59b3d8	-0.053150028
20	0x3cb20c94	0.021734513
21	0x3dbb21e1	0.09137321
22	0x3901a904	0.00012365362
23	0xbd983f0e	-0.07433902
24	0xbd8d87f9	-0.069107
25	0x3e17c5e0	0.14821577
26	0x3e219dad	0.15782805
27	0xbd530c99	-0.051525686
28	0x3deedc79	0.116631456
29	0xbe055464	-0.13020474
30	0x3cf0eed3	0.029410755
31	0xbd482ceb	-0.048870962

conv2.weight f4 [64, 32, 3, 3]
0	0xbc4fc906	-0.012682205
1	0xbcae8e92	-0.021308217
2	0x3d4a26d6	0.049353443
3	0x3d01f112	0.031724043
4	0xbcbfff84	-0.023437269
5	0x39834aa8	0.0002504189
6	0x3bb67503	0.005568148
7	0x3c559ec7	0.013038344
8	0xbd235bb7	-0.039882388
9	0x3d734c0b	0.059398692
10	0x3d6649f4	0.05622287
11	0xbc21de8b	-0.009879719
12	0xbc88f693	-0.016719138
13	0x3cebec5d	0.02879923
14	0xbbfda700	-0.007740855
15	0x3d76e057	0.06027254
16	0x3cf39064	0.029731937
17	0x3b70011d	0.0036621757
18	0xbd2bf262	-0.0419792
19	0xbd106b13	-0.035258364
20	0x3d56d168	0.0524458
21	0xbceb0e69	-0.028693395
22	0xbd298c33	-0.04139347
23	0xbcff6f5f	-0.031181036
24	0x3d4e8734	0.05042191
25	0x3d7980c8	0.06091383
26	0x3cc70432	0.024293993
27	0xbc9f5b2b	-0.019452652
28	0x3b3e7350	0.002906043
29	0x3c88c12e	0.016693678
30	0xbcc0e385	-0.02354599
31	0x3d2b5b76	0.04183527
32	0xbc3cbb28	-0.011519231
33	0x3d637d8c	0.055539653
34	0xbcb93435	-0.022607902
35	0xbc86cacd	-0.016454125
36	0x3d0f3c19	0.034969423
37	0x3ca9a47f	0.02070832
38	0x3a04c563	0.00050648133
39	0x3baba690	0.0052383617
40	0xbd164939	-0.036690924
41	0xbd3138b5	-0.04326697
42	0x3bf1cdbc	0.007379262
43	0xbcee27ee	-0.029071774
44	0xbd0e9485	-0.034809608
45	0x3c881eba	0.016616214
46	0x3d41be44	0.047300592
47	0x3d821869	0.06352312
48	0x3d3fda30	0.04683894
49	0xbd4267bd	-0.047462214
50	0x3c4f433c	0.012650307
51	0xbc06afe2	-0.008220645
52	0x3a2ba014	0.0006546986
53	0x3a595ac0	0.0008291416
54	0x3d0e856e	0.034795217
55	0x3d94e654	0.07270494
56	0x3d9d1b87	0.07671266
57	0x3b8bbd32	0.004264497
58	0x3ccab0b2	0.024742458
59	0x3d90a3d6	0.07062499
60	0xbca517ad	-0.020152891
61	0x3cad3cb3	0.021147108
62	0x3d427c20	0.047481656
63	0xbd544be2	-0.05183018
64	0xbd24010d	-0.040040065
65	0xbd28baab	-0.041193645
66	0xbdcf19ff	-0.1011238
67	0xbd6bf8eb	-0.057610434
68	0xbd70235b	-0.058627468
69	0xbd760428	-0.060062557
70	0xbd9a400d	-0.07531748
71	0xbd94e43c	-0.07270095
72	0xbcbf8f0a	-0.023383636
73	0xbd4d4d5b	-0.0501226
74	0x3ca22031	0.01979074
75	0xbd135a95	-0.035975058
76	0xbb1ce2f1	-0.0023938979
77	0xbd28ebfb	-0.041240674
78	0x3d1b8c73	0.03797574
79	0xbc94bc1f	-0.01815611
80	0x3b660e5d	0.0035103776
81	0x3d634721	0.055487756
82	0x3d113dd4	0.035459355
83	0x3d2c3c22	0.042049535
84	0x3a85ddde	0.0010213216
85	0x3d57ae4c	0.052656457
86	0xbd84e634	-0.0648922
87	0x3d8a159c	0.06742403
88	0x3d1f02f4	0.038821176
89	0x3c8ed15e	0.017433818
90	0x3cb2e199	0.021836089
91	0x3d1fca5f	0.039011355
92	0xbd3c5097	-0.045975294
93	0x3d2585f6	0.04041096
94	0x3c984ac9	0.018590348
95	0x3d4111f7	0.047136273
96	0xbb83b2b7	-0.004019107
97	0xbd5251a9	-0.05134741
98	0xbc9feb42	-0.01952136
99	0x3d6233ee	0.055225305
100	0xbbfea1d3	-0.007770756
101	0x3d12db70	0.035853803
102	0x3ca79273	0.020455575
103	0x3cc85371	0.02445385
104	0x3cfaed9a	0.030630875
105	0xbd1a03ae	-0.037601165
106	0xbda8c3b6	-0.08240454
107	0xbd77c400	-0.060489655
108	0x3c046b9d	0.008082298
109	0x3d4d62d5	0.05014308
110	0x3cee2fbd	0.029075498
111	0xbc353ee2	-0.011062356
112	0xbd32c093	-0.043640684
113	0x3cf58501	0.029970648
114	0x3bc4b09e	0.0060024997
115	0x3d0ae4a6	0.033909462
116	0xbaccf202	-0.0015636089
117	0x3d2490c1	0.04017711
118	0x3da3f081	0.08004857
119	0x3db96046	0.09051566
120	0xbcb0745e	-0.021539863
121	0x3d9cf479	0.07663817
122	0x3cbf6eec	0.023368321
123	0x3d877933	0.06614914
124	0x3b8680c6	0.0041047065
125	0xbb19e816	-0.0023484281
126	0xbc6593f4	-0.014012326
127	0xbc2f2bed	-0.010691625
128	0x3ca0b419	0.019617127
129	0x3d15c252	0.03656227
130	0x3c9a215a	0.018814731
131	0xbd635319	-0.05549917
132	0xbc2393da	-0.009983981
133	0xbd5fb0f8	-0.05461213
134	0xbd256127	-0.040375855
135	0xbc212bce	-0.009837104
136	0xbd15a2d9	-0.036532257
137	0x3c3b4377	0.011429659
138	0xbceacad8	-0.028661177
139	0xbd52c824	-0.0514604
140	0xbd111279	-0.035418008
141	0x3d17c824	0.037056103
142	0x3c992ab6	0.018697124
143	0x3c4da24a	0.0125509
144	0xbce34853	-0.027744448
145	0x3d4b2aa3	0.04960121
146	0xbbe87a3b	-0.007094649
147	0x3d8a806b	0.06762775
148	0xbd0b91a4	-0.03407444
149	0x3d573b35	0.0525467
150	0x3c52656a	0.012841562
151	0x3b33f4e4	0.0027459199
152	0xbc319827	-0.010839499
153	0xbc9b9f9e	-0.01899701
154	0xbc950ce6	-0.018194627
155	0x3c4cbe85	0.012496595
156	0x3c457406	0.012051588
157	0x3cf63e33	0.030058956
158	0xbcf344a6	-0.02969582
159	0xbce0c506	-0.027437698
160	0x3c2b5b38	0.01045876
161	0xbb80f43f	-0.0039353664
162	0xbd0a5077	-0.033768144
163	0x3c9f4d87	0.019446148
164	0xbbb4f922	-0.005522863
165	0x3d908016	0.070556805
166	0x3d0422cb	0.032259744
167	0x3d8bfcb0	0.06835306
168	0x3d3a65e4	0.045507327
169	0x3ce95392	0.028482232
170	0x3d1243d9	0.035709236
171	0xbca0afe3	-0.01961512
172	0x3cc5ab80	0.02412963
173	0xbd58724e	-0.052843384
174	0x3c478aca	0.012179086
175	0xbcdb7a6e	-0.026791777
176	0xbd2a1c72	-0.041531034
177	0x3ceda9f0	0.029011697
178	0xbd205268	-0.03914109
179	0xbc7da957	-0.015482268
180	0x3c808036	0.015686136
181	0xbcf253c1	-0.029580953
182	0xbc48213e	-0.012214957
183	0xbcb6d6e6	-0.022319268
184	0xbd205825	-0.03914656
185	0xbca91c41	-0.020643355
186	0xbd3e3c99	-0.04644451
187	0x3d46071f	0.048346635
188	0x3bf49e9c	0.007465197
189	0xbcf68b78	-0.0300958
190	0x3d81959c	0.06327364
191	0x3d5bee67	0.053694155
192	0xbc6ed5da	-0.014577353
193	0x3d96addd	0.073573805
194	0x3d380dbc	0.044934973
195	0x3cf30df3	0.029669737
196	0x3c52ad82	0.01285875
197	0x3c587a0e	0.013212694
198	0xbcc5899d	-0.02411347
199	0x3ba795dd	0.0051143006
200	0xbcf845d4	-0.030306734
201	0x3d2d59c6	0.042321943
202	0xbcadb608	-0.021204963
203	0x3cd8fbc3	0.026487237
204	0x3d37dc08	0.044887573
205	0xbd0fcc26	-0.0351068
206	0xbcbe36a4	-0.023219414
207	0xbd658d83	-0.05604316
208	0x3ba20fbb	0.004945723
209	0xbd2e36b8	-0.042532653
210	0xbc5d9df9	-0.013526433
211	0xbd0445a1	-0.032292966
212	0xbd84335f	-0.06455111
213	0xbd8d004f	-0.068848245
214	0x3ca4bacf	0.020108609
215	0xbd347a7d	-0.044062126
216	0x3cd7cb77	0.026342137
217	0xbc54d1a4	-0.012989435
218	0xbd38835c	-0.04504715
219	0x3d1417b8	0.036155432
220	0x3cafac5d	0.021444494
221	0xbd3ca1e6	-0.046052836
222	0x3bb3f0bd	0.0054913447
223	0x3d024b56	0.031810127
224	0x3d5ce8d4	0.05393298
225	0xbd038997	-0.032113638
226	0xbd554bd6	-0.052074276
227	0x3d7c1fdf	0.061553832
228	0x3c5b748b	0.013394485
229	0xbc69db17	-0.0142734265
230	0xbd51de18	-0.051237196
231	0x3cc8e478	0.024523005
232	0x3d167159	0.03672919
233	0xbd833f75	-0.06408588
234	0xbcd421a8	-0.025894955
235	0x3a987fdc	0.0011634785
236	0x3d3c3648	0.045950204
237	0xbbe911ef	-0.0071127336
238	0x3d0735b5	0.033010203
239	0x3d3a5f2e	0.045500927
240	0x3d02fdab	0.031980198
241	0xbc8e0e7a	-0.017340887
242	0xbcc5375c	-0.024074249
243	0x3d8947ab	0.06703123
244	0xbb28ce8d	-0.002575788
245	0x3c052b82	0.008128049
246	0x3c5e7fed	0.013580305
247	0x3cfd56d4	0.030925192
248	0x3d995a09	0.07487876
249	0x3cf12c1c	0.029439978
250	0xbc284df0	-0.010272488
251	0xbcb4d3e1	-0.022073688
252	0x3c2846f9	0.010270827
253	0xbc34bf85	-0.01103199
254	0x3b0763ed	0.0020658926
255	0x3c6fc2b3	0.014633822

conv2.bias f4 [64]
0	0x3d554a6b	0.052072924
1	0xbd09cf6b	-0.033645075
2	0xbc688483	-0.0141917495
3	0xbc1fbc4f	-0.009749486
4	0x3b2a6ca6	0.00260047
5	0x3d4e4de0	0.050367236
6	0xbd149ee7	-0.036284354
7	0x3c9a0546	0.018801343
8	0xbb22893a	-0.0024801032
9	0x3c52469f	0.01283422
10	0xbd3eadef	-0.046552595
11	0x3c1790c5	0.009250824
12	0x3c7c8e44	0.015414778
13	0xbc597729	-0.013273039
14	0xbd010ccb	-0.03150634
15	0xbc1a7b02	-0.009428741
16	0xbcd00b7a	-0.025396097
17	0x3d1e76ae	0.0386874
18	0xbd0c7496	-0.034290873
19	0xbd3bb47d	-0.045826424
20	0xbba19757	-0.004931371
21	0xbc4b8841	-0.012422622
22	0xbc102b7a	-0.008799428
23	0xbce51e70	-0.027968615
24	0x3ce43dcc	0.027861498
25	0xbd0ec6ba	-0.03485749
26	0x3d223269	0.039598856
27	0xbd19575d	-0.03743683
28	0x3c2d996b	0.01059566
29	0xbbe13253	-0.006872454
30	0xbcc2591f	-0.023724137
31	0x3d403d48	0.046933442
32	0xbc8e71da	-0.017388273
33	0xbd075d8e	-0.033048205
34	0xbbbb2a65	-0.005711841
35	0x3c895e9a	0.016768742
36	0x3d5cc5d4	0.0538996
37	0x3d1b3aee	0.037897997
38	0xbca2f3c7	-0.019891633
39	0x3d594b57	0.053050365
40	0x3d456a34	0.048196986
41	0xbd6d9dfd	-0.058011997
42	0x3c88ab2d	0.016683185
43	0x3d4f9895	0.050682623
44	0x3bad5c8e	0.0052905744
45	0x3d0868ef	0.033303197
46	0x3cb3884e	0.021915581
47	0x3d4897de	0.048972957
48	0xbc0d8475	-0.008637537
49	0xbc05db4c	-0.00816996
50	0xbade06d9	-0.0016939297
51	0x3ce153f0	0.027505845
52	0xbbb1c70b	-0.005425339
53	0xbcfc13b6	-0.030771118
54	0x3cea6c36	0.028616052
55	0x3cc883ae	0.024476852
56	0xbd012551	-0.03152973
57	0x3bd0b093	0.0063687055
58	0x3d670a93	0.05640657
59	0x3cb61472	0.022226546
60	0xbd68b618	-0.056814283
61	0x3d6e56cf	0.058188256
62	0x3c6e1174	0.014530528
63	0x3cbeb817	0.02328114

conv3.weight f4 [128, 64, 3, 3]
0	0x3c2105f8	0.009828083
1	0xbb046fae	-0.0020208168
2	0xbcdc6b97	-0.026906772
3	0xbb980420	-0.0046391636
4	0x3d534f6d	0.05158942
5	0xbc92a8ff	-0.01790285
6	0xbcd7bf0d	-0.026336217
7	0x3c840487	0.01611544
8	0x3c9ded66	0.01927824
9	0x3d2f99c4	0.04287125
10	0xbcc78961	-0.0243575
11	0x3c5af3f2	0.013363825
12	0x3d3bb676	0.045828305
13	0x3d360279	0.04443595
14	0x3d2d80c5	0.042359132
15	0x3d158c3a	0.036510684
16	0x3c07e298	0.00829377
17	0x3c391505	0.011296515
18	0x3bf06490	0.0073362067
19	0x3bd3421a	0.006447089
20	0xbaaf52ab	-0.0013376077
21	0x3bef95f5	0.0073115774
22	0x3b566a0c	0.0032717017
23	0xbab24531	-0.0013600943
24	0x3b758e98	0.0037469026
25	0x3a3321dd	0.0006833354
26	0xbb07fec7	-0.0020751224
27	0x3b2db9d6	0.0026508472
28	0x3d4f3df2	0.050596185
29	0x3cfa261d	0.030535752
30	0xba149a58	-0.0005668751
31	0x3c8bc54e	0.017061856
32	0x3d02ec29	0.0319635
33	0xba2d5413	-0.00066119543
34	0x3cd15df5	0.025557498
35	0x3c96c22d	0.018403137
36	0x3bd5fb87	0.0065302285
37	0xbd858d90	-0.065211415
38	0x3beed48f	0.0072885226
39	0x3c2087c2	0.009797992
40	0x3dc36ab1	0.09541834
41	0x3d4e26b9	0.050329898
42	0xbd07ae5f	-0.033125278
43	0x3c67df98	0.01415243
44	0x3d2b8ac4	0.041880384
45	0x3c0e5623	0.008687529
46	0xbc2ba3b8	-0.010476045
47	0x3b86f54b	0.0041185967
48	0xbc2bc1b8	-0.010483198
49	0xbcdeab54	-0.027181305
50	0x3d251817	0.040306177
51	0xbc17f5cb	-0.00927491
52	0xbda05e3b	-0.07830473
53	0xbd3c187f	-0.0459218
54	0x3cc4d437	0.024026973
55	0x3bc08576	0.005875285
56	0xbcd6ce9c	-0.026221566
57	0xbbf5d5b6	-0.007502283
58	0x3d8b3f03	0.06799128
59	0x3d767f1e	0.060179822
60	0xbc6143e0	-0.013749093
61	0x3cec0a2e	0.028813448
62	0x3d373dfb	0.044736844
63	0xbd22cbaf	-0.03974503
64	0x3cb8d43b	0.022562137
65	0xbd5c7b42	-0.053828485
66	0xbd1f8159	-0.038941715
67	0x3c079185	0.008274441
68	0xbd97dd66	-0.07415275
69	0xbd004766	-0.03131809
70	0xbc7dcb29	-0.015490332
71	0xbdacb72b	-0.08433374
72	0xbc595d39	-0.013266855
73	0xbd5596e3	-0.05214585
74	0x3a906a93	0.001101809
75	0xbd5667f1	-0.05234522
76	0x3d54010d	0.051758815
77	0x3c94ab6c	0.018148147
78	0x3cebd5ff	0.028788565
79	0xbb006e42	-0.0019596969
80	0x3ce2f6e4	0.027705617
81	0x3d0dcf65	0.034621615
82	0x3b907855	0.004408876
83	0xbc4a0365	-0.012329911
84	0x3ba60997	0.005067061
85	0x3d54dbef	0.051967558
86	0x3d7d0f89	0.061782394
87	0x3b6e8be5	0.0036399302
88	0xbc8c7a90	-0.017148286
89	0x3c08ca56	0.008349022
90	0x3c8c1896	0.017101567
91	0x3a9fbd88	0.0012187222
92	0x3bbc5967	0.0057479623
93	0x3cc5b2ff	0.024133204
94	0x3cf664ec	0.03007742
95	0x3db1c612	0.08680357
96	0x3d048aec	0.03235905
97	0xbc289b44	-0.010290924
98	0x3d7c62e5	0.06161775
99	0x3d4c2643	0.049841177
100	0x3d8b9a2b	0.068165146
101	0xbc28a597	-0.010293386
102	0x3c756bf7	0.014979354
103	0x3d1e0f18	0.038588613
104	0x3d1c7d71	0.038205568
105	0xbbde8bfa	-0.006791589
106	0xbaf10fbc	-0.001839153
107	0x388e214a	6.777288e-05
108	0x3d857e2d	0.06518207
109	0x3cdbde40	0.026839375
110	0x3c8501fe	0.016236302
111	0xbc82ca17	-0.015965505
112	0x3d40318b	0.046922248
113	0x3d76b98c	0.060235545
114	0x3d3c0336	0.0459015
115	0x3ce02aae	0.027364101
116	0x3d13aa7a	0.03605125
117	0xbc6c0abf	-0.014406859
118	0xbce42fbe	-0.027854796
119	0x3cd5fc55	0.026121298
120	0xbcee8ec6	-0.029120814
121	0xbbe2e7d9	-0.006924611
122	0xbcd0d063	-0.025489992
123	0xbac24dd7	-0.0014824223
124	0x3c8a30de	0.016869005
125	0x3c68d8da	0.014211858
126	0xbd81e05c	-0.06341621
127	0xbd6ffc23	-0.058590066
128	0xbb72735a	-0.0036995024
129	0xbcd989f8	-0.026555046
130	0x3d011a7f	0.03151941
131	0x3c96fc62	0.018430892
132	0xbc4dcea0	-0.01256147
133	0xbd0eba90	-0.03484589
134	0x3d7812c6	0.06056478
135	0xb7e06af4	-2.6752685e-05
136	0x3941069c	0.00018408376
137	0x39103eb5	0.0001375627
138	0x38176d49	3.6102985e-05
139	0xb80c7dce	-3.3495766e-05
140	0xb888d217	-6.5241176e-05
141	0xb6a48c86	-4.90394e-06
142	0xb5735c2c	-9.065868e-07
143	0x37702dd8	1.4315789e-05
144	0x3ce8d316	0.028420966
145	0x3bd4439e	0.006477787
146	0xbc097d70	-0.008391723
147	0x3d028e05	0.03187372
148	0x3cd51b8f	0.026014118
149	0x3bd89c25	0.0066104108
150	0x3d268ed3	0.04066355
151	0x3cbb75fb	0.022883406
152	0x3cfb8efa	0.030707825
153	0xbd127dd2	-0.035764523
154	0xba98837b	-0.0011635864
155	0xbc18db68	-0.009329654
156	0x3ce93b4e	0.028470661
157	0xbd27efdd	-0.041000236
158	0xbc8013a1	-0.01563436
159	0x3ccad3ab	0.024759134
160	0x3c65446e	0.013993366
161	0xbd637ce5	-0.05553903
162	0x3d0c9e3f	0.034330603
163	0xba4dfedf	-0.0007858108
164	0x3d33af29	0.043868218
165	0x3cde087f	0.02710366
166	0x3d0103ba	0.031497695
167	0x3daf2837	0.08552592
168	0x3d54f2ef	0.051989492
169	0xbd073d09	-0.033017192
170	0x3d709b6a	0.058741964
171	0xbcb324d6	-0.02186815
172	0x3a1e3fa0	0.00060367025
173	0x3ccee9ac	0.025257908
174	0x3b810e8e	0.0039385026
175	0x3d157777	0.036490884
176	0x3a70e34a	0.0009189142
177	0xbca238be	-0.019802447
178	0x3c7a2c37	0.015269331
179	0x3cab5cf8	0.020918354
180	0xbb0eff10	-0.002181951
181	0xbcaaddf2	-0.020857785
182	0x3a2060ee	0.0006117959
183	0x3d293683	0.041311752
184	0xbca4a5c9	-0.020098584
185	0x3d4afcda	0.049557544
186	0xbd0e87c4	-0.034797445
187	0x3cbaa1ff	0.022782324
188	0x3d30b15c	0.043137893
189	0xbb95507b	-0.004556713
190	0x3ddc692a	0.10762246
191	0xbb27f39d	-0.0025627383
192	0x3b9669a4	0.00459023
193	0x3d3abec4	0.045592085
194	0x3d03d1e2	0.03218258
195	0xbc517933	-0.012785244
196	0x3d4a80d6	0.049439274
197	0xbd5e3a05	-0.05425455
198	0x3cc08546	0.02350105
199	0xbc3fd8af	-0.011709376
200	0x3d31cc25	0.043407578
201	0xbcccc46b	-0.024996003
202	0xbb8010ef	-0.0039082686
203	0x3d2fad5b	0.042889934
204	0x3d77b8e2	0.060479052
205	0xbcf6be75	-0.030120114
206	0x3d9cdd03	0.07659342
207	0x3c8237d4	0.015895762
208	0xbbe72134	-0.0070535187
209	0x3cccdd6a	0.025007922
210	0xbc53ef6a	-0.012935499
211	0x3c95207b	0.018203964
212	0xbd11c7b4	-0.035590842
213	0x3c4baaf3	0.012430894
214	0xbd6cfab9	-0.057856295
215	0x3c8d9f50	0.01728788
216	0xbc28a083	-0.010292175
217	0xbc66e640	-0.014092982
218	0x3d570f13	0.05250461
219	0x3ab106f7	0.0013506104
220	0x3c1a4a6a	0.009417156
221	0x3a3e33ec	0.0007255662
222	0xbc17417c	-0.009231921
223	0xbd81c351	-0.06336082
224	0xbc8b023d	-0.01696884
225	0x3ce216f8	0.027598843
226	0x3c76a468	0.015053846
227	0x3d120167	0.03564587
228	0xbc8ba114	-0.017044581
229	0xbaee950e	-0.0018202381
230	0x3c0422b6	0.008064916
231	0x3d32b859	0.04363284
232	0x3caf4ee4	0.021399923
233	0x3c343485	0.01099885
234	0x3c73c666	0.014878845
235	0x3d7255f0	0.059163988
236	0x3d32f7ff	0.04369354
237	0x3907c392	0.00012947459
238	0x3bfa86e5	0.007645475
239	0x3cf9db03	0.03049994
240	0xbd0a7476	-0.033802472
241	0xbb839ad8	-0.0040162615
242	0xbd544cb5	-0.051830966
243	0x3cb56ae4	0.022145696
244	0x3cdd25b5	0.02699552
245	0x3cef90cd	0.029243851
246	0x3c410842	0.011781754
247	0xbc450bf8	-0.012026779
248	0xbca2e4fa	-0.019884575
249	0x3b890330	0.004181288
250	0xbcbf5bc0	-0.02335918
251	0x3a9c7815	0.0011937643
252	0x3d249094	0.040176943
253	0xbbfc79ba	-0.0077049406
254	0x3d46b4eb	0.04851238
255	0xbc7735b4	-0.015088487

conv3.bias f4 [128]
0	0x3d6ae673	0.05734868
1	0xbcca3b67	-0.024686528
2	0xbc38876b	-0.011262755
3	0xb8d3e148	-0.00010103226
4	0xbb63f2f4	-0.0034782263
5	0x3d6ec5e2	0.058294185
6	0x3cfa2607	0.030535711
7	0x3d297f86	0.04138138
8	0xbcf1e016	-0.029525798
9	0xbb8a1797	-0.004214238
10	0x3d6275d3	0.055288147
11	0xbb98668d	-0.004650897
12	0x3d0c32e7	0.03422823
13	0xbc507257	-0.012722573
14	0xbb86a34c	-0.004108822
15	0xbc9b64ec	-0.018969022
16	0xbc9487ea	-0.018131215
17	0x3c0268da	0.007959569
18	0xbbd54576	-0.0065085245
19	0x3cc3556c	0.023844443
20	0xba96d4e1	-0.0011507535
21	0x3c122824	0.008920703
22	0x3c162d38	0.009166054
23	0x3da20eac	0.07912955
24	0xbc4e3045	-0.012584751
25	0x3c38b0a0	0.011272579
26	0x3d8371a8	0.064181626
27	0x3d8fbca0	0.07018399
28	0x3d0ee67e	0.034887783
29	0x3d0212e7	0.031756308
30	0x3d22d5d7	0.039754715
31	0xbcf5a370	-0.02998516
32	0xbb989e87	-0.00465757
33	0x3d87386e	0.0660256
34	0x3b48e2c7	0.0030652748
35	0xba3d2e65	-0.0007216691
36	0xb71e33e6	-9.429617e-06
37	0xba40260a	-0.0007329887
38	0xbd040f8d	-0.032241393
39	0x3b7bbce8	0.0038412157
40	0xbce71c2a	-0.028211672
41	0x3ce90d79	0.028448807
42	0x3c70a84a	0.014688561
43	0xbb92c426	-0.004478949
44	0xbcf078b1	-0.029354425
45	0x3be5e8cc	0.007016277
46	0x3d55d333	0.05220337
47	0x3c1e1c5a	0.009650314
48	0xbc670b32	-0.01410179
49	0xb9f882f9	-0.00047399828
50	0x3ba055ae	0.0048930263
51	0x3d0a513b	0.033768874
52	0x3d341cfb	0.04397295
53	0xbabf9e1f	-0.0014619267
54	0xbc37f3ed	-0.01122759
55	0x3d240cee	0.040051393
56	0xbd3c01ef	-0.04590028
57	0x3bafa5e2	0.005360351
58	0x3a3f95bf	0.00073083857
59	0xbcc26332	-0.02372894
60	0x3bf52dd4	0.00748227
61	0x3d5452ae	0.051836662
62	0xbbc2019b	-0.0059206015
63	0xbbcda68f	-0.006275959
64	0x3cdb2557	0.026751203
65	0xbce556c1	-0.027995469
66	0x3d0b4e52	0.03401024
67	0x39cc844b	0.00039008478
68	0xbc139688	-0.009008057
69	0xbb16175b	-0.0022902105
70	0x3d06f179	0.03294513
71	0x3bd54db5	0.0065095075
72	0x3babd9e5	0.005244481
73	0x3cf00187	0.029297603
74	0xbca17972	-0.01971123
75	0xbc796ef4	-0.015224207
76	0xbce373ee	-0.02776524
77	0xbac9894d	-0.0015376002
78	0x3c8fe615	0.017565766
79	0xbc4c31ce	-0.012463046
80	0xbbdc45ca	-0.0067221867
81	0x3c0bbcb5	0.008528878
82	0x3ca73d6b	0.020415029
83	0xbba43e8c	-0.005012339
84	0x3c254aef	0.010088666
85	0x3d43c4d3	0.047795128
86	0x3d15bafe	0.036555283
87	0x3c3764bc	0.011193451
88	0x3c5a050c	0.013306867
89	0x3c03028f	0.0079962155
90	0x3d125012	0.035720892
91	0xbc265b33	-0.0101535795
92	0x3c719cdc	0.014746871
93	0x3d14aef5	0.036299665
94	0x3b667a05	0.0035167944
95	0xbc231466	-0.009953594
96	0xbc8d60cc	-0.01725807
97	0x3d2861dd	0.041108955
98	0xbbe915b0	-0.007113181
99	0xbc95c857	-0.018284006
100	0xbcfdc1dd	-0.03097623
101	0xb59fc524	-1.1903799e-06
102	0x3d93073f	0.071791165
103	0xbbb68395	-0.005569885
104	0x3d481714	0.048850134
105	0xbc9739ee	-0.01846024
106	0x3d16e8fa	0.036843278
107	0xbb85a3cb	-0.0040783635
108	0x3d6467c1	0.05576301
109	0xbcb1b4d0	-0.021692663
110	0x3af7fff0	0.001892088
111	0x3d738858	0.0594562
112	0xbb9f01b8	-0.0048525
113	0xbbf9781b	-0.0076131946
114	0x3d75b4a5	0.05998673
115	0x39b6d191	0.00034869884
116	0xbb8f21f5	-0.0043680617
117	0x3c90fbd6	0.01769821
118	0xbbf44be0	-0.007455334
119	0xbc9e4cf5	-0.019323805
120	0x3d083132	0.03325004
121	0x3d291445	0.041279096
122	0x3d32c8ea	0.043648638
123	0x3b6834fa	0.0035431967
124	0x3d438349	0.047732625
125	0x3c9edd28	0.019392565
126	0xbcbd78bd	-0.023128862
127	0x3cfa1c79	0.030531155

act_conv1.weight f4 [4, 128, 1, 1]
0	0xbcd5dae5	-0.026105354
1	0xaa190e01	-1.3593988e-13
2	0xa9a2eba8	-7.235125e-14
3	0x31725705	3.52651e-09
4	0x3cf3d3e4	0.029764123
5	0x3bdbfa1f	0.0067131664
6	0xb160e338	-3.272545e-09
7	0x2875fa5a	1.3654518e-14
8	0x3b33c2c0	0.0027429312
9	0xb53c9b1f	-7.026119e-07
10	0x3b3342cc	0.0027353046
11	0x3210a873	8.420204e-09
12	0x292c8f46	3.8315942e-14
13	0xbc2dd534	-0.010609914
14	0x3c8949a6	0.016758751
15	0x3bffb671	0.007803731
16	0x338dec30	6.6087864e-08
17	0x3ae51cfe	0.0017479954
18	0x340fb4e0	1.3383715e-07
19	0xbbe789b0	-0.007065974
20	0x2afc63b8	4.4833386e-13
21	0xbc05e890	-0.008173123
22	0x3cfe6ae2	0.031056825
23	0xaaa0950e	-2.8525137e-13
24	0x3c8266f4	0.015918233
25	0xbcdeb1cd	-0.027184391
26	0x2b055d25	4.7380356e-13
27	0x2b0bac83	4.962213e-13
28	0xbc3836bd	-0.011243519
29	0x2abb2191	3.3241164e-13
30	0x3c0fa134	0.008766461
31	0x31c43f54	5.7115503e-09
32	0xaa6070e2	-1.9934361e-13
33	0xba70eae2	-0.00091902737
34	0xbb5a7781	-0.003333539
35	0xa9315bda	-3.9381564e-14
36	0x2d725f72	1.37773005e-11
37	0x3d124525	0.035710473
38	0x2987bfb5	6.02846e-14
39	0x3cd8c28c	0.026459955
40	0xbc247c36	-0.01003938
41	0x39aa8098	0.00032520737
42	0xb97db10f	-0.0002419392
43	0xbc85ddc8	-0.016341105
44	0xbc8f51ef	-0.017495124
45	0x3192c421	4.2714565e-09
46	0xb6b8527c	-5.4932298e-06
47	0xbbe0a7a5	-0.0068559223
48	0xbd2ec59f	-0.042668935
49	0xa9cd9580	-9.129763e-14
50	0x3d1e73c3	0.038684618
51	0xb653faaf	-3.1587367e-06
52	0x3c0f0093	0.008728164
53	0x3aa767da	0.0012772039
54	0x29a2706a	7.213746e-14
55	0x30ebf090	1.7166872e-09
56	0x3ccb98ea	0.024853189
57	0x3c64b4b2	0.013959097
58	0xa96940dc	-5.179265e-14
59	0x2a8552db	2.3683038e-13
60	0xa97c9a74	-5.6089207e-14
61	0xbc34ceff	-0.01103568
62	0x2aab459f	3.042401e-13
63	0x298f1358	6.353831e-14
64	0xba819878	-0.0009887358
65	0x348523a5	2.4799115e-07
66	0x36a1f0b7	4.826197e-06
67	0x2a47bfad	1.7741251e-13
68	0x29b8cd49	8.206853e-14
69	0x2921e73b	3.5949742e-14
70	0x31ca64e8	5.8904455e-09
71	0xbc53e120	-0.012932092
72	0x2809459d	7.620123e-15
73	0xb97156b6	-0.00023015853
74	0xbd005263	-0.03132857
75	0xaf001c45	-1.1651576e-10
76	0x2907e99e	3.0178652e-14
77	0xab161866	-5.3324565e-13
78	0xbbaf727d	-0.0053542242
79	0xaf81933b	-2.3569577e-10
80	0xb78a36ea	-1.6476453e-05
81	0xa837dda6	-1.0206603e-14
82	0x319a8916	4.4975748e-09
83	0x359c438f	1.1642568e-06
84	0xbc2251be	-0.009907184
85	0x38acedef	8.245918e-05
86	0xa890df1f	-1.6083975e-14
87	0xbccf1592	-0.02527884
88	0xbd25e77d	-0.040503968
89	0xbd3fccb9	-0.046826098
90	0xbc68ba07	-0.014204509
91	0xa96e8e34	-5.2969958e-14
92	0x3661e2f0	3.3659708e-06
93	0xa8ea2804	-2.5996573e-14
94	0x3cb0d7cc	0.021587275
95	0x3bf04c96	0.0073333485
96	0xbc501594	-0.012700457
97	0xbd240e84	-0.040052906
98	0xb396818a	-7.008482e-08
99	0xabd96c88	-1.5448901e-12
100	0x2b0001d3	4.5477267e-13
101	0x31898c90	4.003205e-09
102	0x3c9fd35d	0.019509966
103	0xaa92a426	-2.604871e-13
104	0xb175597a	-3.5703054e-09
105	0xbc80b67b	-0.015712013
106	0xbd1963b4	-0.0374486
107	0x2a054d58	1.1839607e-13
108	0xbbd162ea	-0.0063899653
109	0xa75e1744	-3.0821301e-15
110	0xbcc57246	-0.024102341
111	0x30f5d7d2	1.7887436e-09
112	0x31d617ef	6.2309407e-09
113	0xbd5e6632	-0.05429668
114	0x3b8cf09b	0.0043011433
115	0xbcc628de	-0.024189409
116	0x2e26b805	3.7907472e-11
117	0xb80295bf	-3.1133877e-05
118	0x33ab5ad4	7.9793296e-08
119	0xaa8fd458	-2.5549246e-13
120	0x2cd52bd4	6.05869e-12
121	0x2a94acd2	2.641e-13
122	0x3d1666fb	0.036719304
123	0x3d131ee6	0.03591814
124	0x2a80b8a6	2.2865493e-13
125	0xb502b2cc	-4.868896e-07
126	0x31ac5ff6	5.0167683e-09
127	0x3a84ac15	0.0010122085
128	0x3dc72f08	0.097257674
129	0xb5b9d054	-1.3844206e-06
130	0x3870a334	5.7372454e-05
131	0xaad7c172	-3.8325902e-13
132	0xbd27f13e	-0.04100155
133	0x3c8607d2	0.01636115
134	0xbcf53b5b	-0.02993553
135	0x3d9b8062	0.075928465
136	0xbd986ba9	-0.074424095
137	0x3cfed20a	0.031106014
138	0x3d3e1126	0.046403073
139	0x3b069cad	0.0020540163
140	0x3daf6d64	0.085657865
141	0xbce8a11e	-0.02839714
142	0xbddfba67	-0.10924225
143	0xbd2f415f	-0.042786952
144	0xa9932f90	-6.536362e-14
145	0x3d25d414	0.040485457
146	0x3d435e2c	0.04769723
147	0xbc3ff4c0	-0.011716068
148	0x3360239f	5.218646e-08
149	0x3d6ec882	0.058296688
150	0xb9afb7c6	-0.00033515523
151	0x3d59b66f	0.053152498
152	0xbdc8c70c	-0.0980359
153	0x3d0f6125	0.035004754
154	0x3c75ccb3	0.015002417
155	0x3e03247c	0.12806886
156	0x3a83a9f7	0.001004516
157	0x3e21d32a	0.15803209
158	0x3d22ffb2	0.03979463
159	0xba94e117	-0.0011358586
160	0x3c255b4c	0.010092568
161	0x3d88b7e4	0.06675699
162	0xbcf2d10d	-0.029640699
163	0xbbfee0eb	-0.007778277
164	0x2ab7f0f2	3.267452e-13
165	0x3c800ea6	0.015631985
166	0xbcca6a16	-0.024708789
167	0xbd461d9d	-0.048368085
168	0x3ca528e8	0.020161107
169	0xbd25e5e9	-0.040502463
170	0x3d3b0637	0.045660224
171	0xbcaa453f	-0.020784972
172	0xbe0a5c32	-0.13511732
173	0x3d27e6e7	0.04099169
174	0xbcb526ea	-0.022113282
175	0x3d7ece79	0.062208626
176	0xbd5d71c6	-0.05406358
177	0xb15aa348	-3.181599e-09
178	0xbe248752	-0.16067246
179	0x3d09a599	0.03360519
180	0xbc9d0c71	-0.019170972
181	0xbc277193	-0.010219949
182	0x2e8bc40b	6.3558124e-11
183	0x3cf436fa	0.029811371
184	0xbd9c21ad	-0.07623611
185	0xbd128a5b	-0.035776477
186	0x3c12da17	0.0089631295
187	0xbba6b633	-0.005087638
188	0x3c84032b	0.016114792
189	0x3cb4c42a	0.022066195
190	0x3db31c8e	0.08745681
191	0x3b063240	0.0020476729
192	0x3ce02054	0.027359165
193	0x3b7ec528	0.0038874839
194	0xbce88578	-0.028383955
195	0x3c05b14f	0.008159949
196	0x3a9b194b	0.0011833099
197	0x32ab48ca	1.994012e-08
198	0x3d97d436	0.07413523
199	0xbc357479	-0.0110751325
200	0x3cccc723	0.0249973
201	0x3cc32268	0.023820117
202	0x3d5594d6	0.052143894
203	0xb919a817	-0.00014653835
204	0x3a3000c2	0.000671398
205	0x35f097d2	1.7925579e-06
206	0x3cc40f35	0.023933033
207	0x3bfc4a6d	0.007699302
208	0xbb234235	-0.0024911289
209	0x3df03151	0.11728156
210	0x3cebe597	0.028796
211	0xb8ea37d9	-0.00011168392
212	0xbc4ceb6f	-0.012507304
213	0x3d61bb12	0.055110045
214	0x3bae7753	0.005324283
215	0xbcbcfdb6	-0.023070198
216	0xbde02157	-0.10943859
217	0xbd74126c	-0.05958788
218	0xbd3d6ba6	-0.04624524
219	0x2f8b4dc6	2.5339214e-10
220	0xba8bb0eb	-0.0010657584
221	0x3da1318d	0.07870779
222	0xbda8b431	-0.08237494
223	0xbcb8cf76	-0.022559863
224	0xbba08dd8	-0.0048997216
225	0x3caba9dd	0.02095502
226	0x3d20825f	0.03918683
227	0x3d652549	0.05594376
228	0x3682db35	3.899821e-06
229	0xa9d0c84a	-9.2718e-14
230	0x3dda62e2	0.10663392
231	0x3c0575a8	0.008145727
232	0x3dcc8a02	0.099872604
233	0x3d0f35a4	0.034963265
234	0x3db6273d	0.08894203
235	0xb7a3df9d	-1.9535242e-05
236	0x3dba38da	0.09092875
237	0x2f7f7810	2.323477e-10
238	0xbdc78617	-0.097423725
239	0x3d0fe4f0	0.03513044
240	0x3e1cb729	0.15304245
241	0xbd8b1da3	-0.06792762
242	0x3d60670e	0.05478578
243	0x3c2eec4e	0.010676457
244	0x39c4eb86	0.00037559512
245	0x3d2e82de	0.042605273
246	0x3c96b378	0.018396124
247	0x2929d1c6	3.7707488e-14
248	0x3d93b692	0.07212557
249	0x3da53245	0.08066229
250	0xbcfa1ebe	-0.030532237
251	0xbd669010	-0.056289732
252	0x3dc880f4	0.09790221
253	0x3d56e20e	0.052461676
254	0xb84e9c4f	-4.92598e-05
255	0x3dc9c3aa	0.09851773

act_conv1.bias f4 [4]
0	0xbd7e2909	-0.062050853
1	0x3d95bc0b	0.07311257
2	0xbd44d2a3	-0.04805244
3	0xbcef1763	-0.029185956

act_fc1.weight f4 [121, 484]
0	0x39183970	0.00014517247
1	0x3b095f46	0.0020961328
2	0x3aafb7fb	0.0013406271
3	0x3a8dcfd6	0.0010819386
4	0x3a00a5dd	0.0004907528
5	0x393348ee	0.00017097939
6	0x38c12760	9.210291e-05
7	0xb99a73c9	-0.00029459436
8	0xb8a0aafd	-7.6612436e-05
9	0x3997e725	0.0002897318
10	0x3647db5d	2.9780997e-06
11	0x3b3937d0	0.0028262027
12	0x3bab5fd4	0.0052299295
13	0x3b6a2e45	0.0035733145
14	0x3a1b91d6	0.0005934512
15	0xb9b9ceb4	-0.00035439956
16	0xba91097f	-0.0011065452
17	0xbae3fadd	-0.0017393489
18	0xbaaf878f	-0.001339184
19	0x398fc065	0.0002741843
20	0x3a2a769d	0.000650266
21	0x39814677	0.00024657298
22	0x3b1cdd7a	0.0023935721
23	0x3b4dd950	0.0031410046
24	0x3b0edf42	0.0021800552
25	0x3b454a01	0.0030103924
26	0xba224cd7	-0.00061912596
27	0xbb517c93	-0.003196512
28	0xbaf81d79	-0.0018929682
29	0xbb18ac8f	-0.0023296212
30	0x392548b4	0.0001576271
31	0x3b3a5df1	0.002843734
32	0x39dc3f6c	0.00042008923
33	0x3aa7d811	0.0012805482
34	0x3a875075	0.0010323661
35	0x3aebc636	0.0017988149
36	0x3ad196ed	0.0015990414
37	0x3b32951d	0.0027249523
38	0x3a2309bb	0.00062194065
39	0x3aa87cdf	0.0012854597
40	0xbac1e1fe	-0.0014792082
41	0x3affa1e0	0.0019503199
42	0xbaae98e1	-0.0013320708
43	0xb94ff9b5	-0.00019834081
44	0xb9e71b5a	-0.00044080132
45	0xba5c4fcc	-0.00084042246
46	0xba827f39	-0.0009956128
47	0x3aea1f10	0.001786204
48	0x3a7cd2d9	0.0009644456
49	0x3addad33	0.0016912579
50	0x3b342d32	0.0027492759
51	0x3abd4395	0.0014439697
52	0xbb2bf663	-0.0026239387
53	0xbb102233	-0.002199304
54	0x38f5712b	0.000117035896
55	0xba670d17	-0.0008813901
56	0xbb158629	-0.0022815561
57	0xbbba0792	-0.005677172
58	0xbb300528	-0.0026858542
59	0x3a8a2fcc	0.0010542809
60	0x3ae37336	0.0017353061
61	0x3b684232	0.0035439846
62	0xba5708d0	-0.0008202912
63	0xbb151474	-0.0022747787
64	0xbab867ef	-0.001406906
65	0x390a6790	0.00013199286
66	0xb9a6bd0d	-0.0003180284
67	0xbb5317dd	-0.0032210269
68	0xbc0064f7	-0.007836572
69	0xbba2ff31	-0.004974269
70	0xbb3741ad	-0.002796273
71	0x3882cfc0	6.2375795e-05
72	0x396e82e4	0.0002274621
73	0xbaf99d8c	-0.0019044145
74	0x3a429d26	0.00074239296
75	0xba77ba98	-0.0009450107
76	0x39f248bc	0.00046212028
77	0x37a3640c	1.9477702e-05
78	0xbafb351e	-0.001916561
79	0xbbb1ca85	-0.0054257535
80	0xbbdc82db	-0.0067294664
81	0xbba41aae	-0.0050080633
82	0xba3f36a7	-0.00072942156
83	0xbab5dfd8	-0.0013875915
84	0x3b126ad0	0.0022341497
85	0xb84fc5c3	-4.9536826e-05
86	0x3ab444c4	0.0013753404
87	0x38a587b3	7.893089e-05
88	0x3985a3ad	0.00025489685
89	0x3a431912	0.00074423954
90	0xbad4d610	-0.0016238112
91	0xbb322e21	-0.002718814
92	0xbb5b34d7	-0.0033448243
93	0xbb1e2cd0	-0.0024135597
94	0xbab67288	-0.0013919631
95	0xbaa1534a	-0.0012308147
96	0x3a8371c8	0.0010028416
97	0x3a7414b3	0.0009310946
98	0x39f1286d	0.00045997222
99	0x38c587a5	9.418958e-05
100	0x3a91ef3e	0.0011133922
101	0x3a5b89a7	0.0008374699
102	0x39772fde	0.00023573588
103	0x38898707	6.55782e-05
104	0xba87af36	-0.00103519
105	0xba94a876	-0.0011341709
106	0x3b424148	0.0029640961
107	0x3b3160d1	0.0027065764
108	0x3b83ad05	0.0040184283
109	0x3a98b906	0.0011651821
110	0xb5285ea6	-6.272261e-07
111	0x390b1252	0.00013262898
112	0x3a5edaee	0.0008501251
113	0x3a7b7332	0.00095920556
114	0x39820679	0.00024800355
115	0x3959f76d	0.00020786906
116	0x399dbcf9	0.0003008617
117	0x3ad896ac	0.0016524396
118	0x3b73876d	0.0037159577
119	0x3b2a1115	0.0025950123
120	0x38f38fd5	0.00011613934
121	0x3c2b5e03	0.010459426
122	0xbd558931	-0.05213279
123	0xbd477b5e	-0.048701636
124	0xbcb4fe28	-0.022093847
125	0x3bf5d441	0.0075021093
126	0xba9e7235	-0.001208848
127	0xbd8065be	-0.06269406
128	0xbd200d27	-0.039075043
129	0xbcb6f274	-0.022332408
130	0x3c8bb6a8	0.01705487
131	0x3c2f9b84	0.01071823
132	0xbb5e23b5	-0.0033895795
133	0xbcece663	-0.02891845
134	0x3cd2c6b3	0.025729513
135	0xbccb28c5	-0.024799714
136	0xbc247fc3	-0.010040226
137	0xbd0ef459	-0.034900997
138	0xbcbab3a4	-0.022790737
139	0xbd06d5b0	-0.032918632
140	0xbd008b52	-0.031382866
141	0x3a2b0152	0.0006523329
142	0x3afb565e	0.001917552
143	0xbc1afd32	-0.0094597805
144	0xbd378842	-0.04480768
145	0xb9c2f5d9	-0.00037185734
146	0xbc18c5cd	-0.009324503
147	0xbcdac3d2	-0.026704703
148	0x3ab3d046	0.0013718687
149	0xbb5a053c	-0.003326728
150	0x3bf3a6e2	0.0074356655
151	0xbc2553b6	-0.010090759
152	0xbcef5f81	-0.029220344
153	0xbc8b6d4a	-0.017019887
154	0xbc051bca	-0.008124301
155	0xbced8745	-0.028995166
156	0xbc361c5b	-0.011115159
157	0xbbcd27b0	-0.0062608346
158	0x3cde9720	0.027171671
159	0x3d0ed8d0	0.034874737
160	0xbbcf4d18	-0.006326329
161	0xbd519802	-0.051170357
162	0x3c49369a	0.012281084
163	0xbd2a6d7d	-0.041608322
164	0xbd374074	-0.0447392
165	0xbcec7fca	-0.028869528
166	0xbc242597	-0.010018728
167	0xbcb4385a	-0.021999527
168	0xbc9d3216	-0.019188922
169	0x3cb36d21	0.021902623
170	0x3d677531	0.056508247
171	0x3a514660	0.0007983204
172	0xbcbd809c	-0.023132615
173	0xbaa51516	-0.0012594785
174	0xbc60d1a9	-0.013721862
175	0xbd1584fe	-0.036503784
176	0xbcd78e15	-0.026312867
177	0xbcb633e0	-0.022241533
178	0x3d0f0a1c	0.03492175
179	0x3cd34fc1	0.025794866
180	0x3c9075fd	0.017634386
181	0x3cf86754	0.030322708
182	0x3cafb4dc	0.021448545
183	0x3ce1f509	0.027582662
184	0x3d85b4a2	0.065285936
185	0x3bc8756f	0.006117515
186	0xbd00e696	-0.031469904
187	0xbd80c314	-0.06287208
188	0xbd8984de	-0.067147955
189	0xbc5fe723	-0.013665947
190	0x3cccd7ae	0.025005188
191	0x3b9cff3f	0.00479117
192	0x3c37154f	0.011174514
193	0x3d2938f7	0.04131409
194	0x3cf014e5	0.029306838
195	0x3cb5304c	0.022117756
196	0x3ba207c7	0.004944775
197	0xbd09019f	-0.03344881
198	0xbc646906	-0.013941055
199	0xbd09b51e	-0.033619992
200	0xbd06ef16	-0.032942854
201	0xbd69d2f9	-0.057085965
202	0x3c424d0a	0.011859188
203	0x3c808f27	0.01569326
204	0xba52f383	-0.00080471503
205	0xbb03d268	-0.0020114426
206	0x3c2ac37a	0.010422582
207	0xbd0fa276	-0.035067044
208	0xbc8371bd	-0.016045446
209	0xbcb378f0	-0.021908253
210	0xbd43eb83	-0.047832023
211	0xbd7c98c1	-0.061669115
212	0xbc9ceedb	-0.019156864
213	0x3b43c447	0.002987163
214	0x3c057ae1	0.008146972
215	0xbb7a2353	-0.0038168028
216	0x3be3635d	0.0069393353
217	0xbd1389f8	-0.03602025
218	0xbc3ea188	-0.011635192
219	0xbd3530f9	-0.044236157
220	0x3cd788b6	0.026310306
221	0xbcbf9cbd	-0.023390168
222	0xbd3deb06	-0.046366714
223	0xbd2a1aca	-0.041529454
224	0xbd8f586e	-0.069992885
225	0xbd2da6ec	-0.042395517
226	0xbd0ac928	-0.033883244
227	0xbcef06cf	-0.029178051
228	0xbd66abe1	-0.05631626
229	0xbcf0a268	-0.029374316
230	0xbd07a8f2	-0.033120103
231	0x3dd01b3c	0.101614445
232	0x3dbe2bcc	0.09285697
233	0xbc68f525	-0.014218603
234	0xbc97c5a0	-0.018526852
235	0xbd2392d8	-0.039934963
236	0xbd872c0b	-0.066001974
237	0xbd14628e	-0.0362268
238	0xbcc38ca7	-0.02387078
239	0xbc8d7bc6	-0.017270934
240	0xbd4e9821	-0.05043805
241	0xbd06b54c	-0.032887742
242	0x3a41f985	0.0007399547
243	0x3bb4ad91	0.005513855
244	0x3a81e87c	0.0009911205
245	0x3cea2dec	0.02858635
246	0x3a929cc8	0.001118564
247	0xbc21387e	-0.009840129
248	0x3cc1a736	0.023639303
249	0x3ca32a5a	0.019917656
250	0x3c3ee06a	0.011650184
251	0x3d3744c7	0.044743326
252	0x3ca3ff03	0.02001906
253	0xbc8cf72c	-0.017207704
254	0x3c9a6647	0.018847598
255	0x3d241d59	0.04006705

act_fc1.bias f4 [121]
0	0x3ce87769	0.028377252
1	0x3c8ff8e4	0.017574735
2	0x3ca28d7d	0.019842857
3	0x3d1243b3	0.035709094
4	0xbd5e6f2f	-0.05430525
5	0x3d3db32d	0.046313453
6	0xbcdec1ed	-0.02719208
7	0x3d246706	0.040137313
8	0x3d0f6a8a	0.035013713
9	0x3d52d359	0.051471088
10	0xbbcff93d	-0.00634685
11	0x3c2adb68	0.010428287
12	0x3cee4c12	0.029089008
13	0x3d0fab4f	0.035075482
14	0x3d949745	0.07255415
15	0x3c031809	0.008001336
16	0x3b9dbcf9	0.004813787
17	0xbd6b482d	-0.05744188
18	0x3cdcc78d	0.026950622
19	0x3d5df631	0.054189865
20	0xbb00a1b7	-0.001962764
21	0x3d54ad49	0.05192307
22	0x3b9adc5d	0.0047259764
23	0x3d044714	0.032294348
24	0xbd8660f4	-0.06561461
25	0xbd9f6309	-0.07782561
26	0x3c166332	0.009178923
27	0xbcc4b964	-0.024014182
28	0xbc956d2b	-0.018240532
29	0xbd623b05	-0.055232067
30	0xbd85d76a	-0.065352276
31	0x3d6dc30e	0.058047347
32	0xbcb06bbb	-0.021535745
33	0x3d10910a	0.03529457
34	0xbaf2c4cd	-0.0018521786
35	0xbd99f2d3	-0.07517018
36	0x3d0c2609	0.03421596
37	0xbc413ab2	-0.011793779
38	0xbccd4b7c	-0.025060408
39	0xbca27a0a	-0.019833583
40	0xbbe00f0f	-0.0068377326
41	0xbc85f020	-0.016349852
42	0xba944f8e	-0.0011315213
43	0x3c8e972b	0.017406067
44	0xbd84b9c1	-0.06480742
45	0xbc0581a9	-0.008148589
46	0x3cb319b4	0.021862842
47	0xbcd81d7f	-0.026381252
48	0x3d5f3a63	0.05449904
49	0x3c7ec676	0.015550246
50	0x3d45c289	0.048281226
51	0xbad5b650	-0.0016304944
52	0x3c8ca5d0	0.01716891
53	0x3bdfaf1b	0.006826294
54	0xbba987a1	-0.005173639
55	0x3c584e74	0.013202298
56	0x3d1aba8c	0.03777556
57	0xbd639081	-0.05555773
58	0xbd9627df	-0.073318236
59	0x3d05f35f	0.0327028
60	0x3c3a49bb	0.011370118
61	0x3d1a67a3	0.037696492
62	0xbc8aa6eb	-0.016925296
63	0xbd218aca	-0.039439
64	0x3cf33bbc	0.02969157
65	0x3d3bfff6	0.0458984
66	0xbd516502	-0.05112172
67	0x3baa80af	0.0052033286
68	0xbc84f314	-0.01622919
69	0x3c5e29aa	0.013559738
70	0x3b4f4cca	0.0031631463
71	0x3d8234d3	0.06357732
72	0xbc3a4e05	-0.01137114
73	0x3bab447d	0.0052266703
74	0xba035951	-0.00050105626
75	0x3d1ec142	0.038758524
76	0xbd4c9e70	-0.049955785
77	0x3d111043	0.0354159
78	0xbc0354b8	-0.008015804
79	0xbd031969	-0.032006655
80	0xbc254a5d	-0.01008853
81	0xbd0bea12	-0.034158774
82	0xbd1e1264	-0.038591757
83	0x3cc3d2ac	0.023904167
84	0xbcaee4dd	-0.021349365
85	0xbd4a85fd	-0.049444187
86	0x3d8eb428	0.06967956
87	0x3ca0af07	0.01961471
88	0x3c8e3f28	0.0173641
89	0x3d011ec1	0.03152347
90	0xbda5e802	-0.081008926
91	0xbd01ab0f	-0.031657275
92	0x3c5ef2d1	0.013607697
93	0xbce8fb08	-0.028440014
94	0x3cb26916	0.021778625
95	0xbd8787a5	-0.06617669
96	0xbd8a7b8e	-0.067618474
97	0x3d5689fc	0.052377686
98	0xbc7a96b1	-0.015294717
99	0x3c835bd5	0.016035
100	0x3c622244	0.013802115
101	0x3c780b21	0.015139372
102	0xbbde3576	-0.0067812754
103	0xbd60619f	-0.0547806
104	0x3cd45607	0.025919927
105	0xbc7325ca	-0.014840553
106	0x3d2bac97	0.04191264
107	0x3d10c5ce	0.03534489
108	0x3c549742	0.012975516
109	0x3d4c3506	0.049855255
110	0x3c86ceb5	0.016455987
111	0x3bcaefb2	0.0061931247
112	0x39cacf62	0.00038682955
113	0x3c58bd2e	0.013228698
114	0xbcb9fcd3	-0.022703564
115	0x3d35ca03	0.044382107
116	0xbd8b1455	-0.067909874
117	0x3cc1ef70	0.023673743
118	0xbaad2acb	-0.0013211606
119	0x3d2e9b78	0.042628735
120	0xbc1f805c	-0.009735193
