current_policy.model (torch, 529587 bytes, 15 tensors)

conv1.weight f4 [32, 4, 3, 3]
0.48179808 0.023754478 -0.10840348 -0.17731215 0.054085314 0.064332955 0.24872468 -0.22027403
0.04120336 0.15264174 -0.35357243 -0.047124658 -0.23845655 0.049038533 0.110624515 -0.14208879
0.290837 -0.20835137 -0.057479292 0.020541029 0.07323783 0.07537634 0.120517835 -0.046026234
0.003635288 -0.01432174 0.1336024 -0.13095538 -0.14815474 0.13106094 -0.06063587 0.015035115
-0.03155199 -0.21233906 0.1637054 0.12031319 -0.32766637 0.02719166 0.030444691 -0.20315345
0.010969957 -0.29370442 -0.31818017 0.19046707 -0.09948318 -0.26450083 -0.120332904 -0.023323266
-0.1317538 0.1763005 -0.370265 -0.35150957 0.089064896 -0.091980495 0.029913904 -0.017724043
-0.020965999 0.083557926 -0.06220642 -0.17169186 0.059809573 -0.009489796 0.05613581 -0.11104776
-0.095941916 -0.10820204 -0.026736958 0.22732532 0.1729209 0.15342891 0.071687534 0.22195718
0.16484722 -0.09662678 -0.18466863 0.15267527 0.18039794 0.20413734 0.16814096 -0.11185034
-0.16685838 -0.5511567 0.24718843 0.2518846 -0.3644694 0.21532935 -0.12747255 -0.11629806
-0.11756779 0.1647489 -0.049687184 -0.05642483 -0.0116981175 0.083586976 0.10081451 0.06802723
0.068739854 0.07548429 0.06801001 0.13317098 -0.18050255 0.043080423 0.16018894 0.11888538
0.08187395 -0.08543848 -0.06633603 -0.09048242 -0.17463285 -0.17001724 -9.4742325e-05 -0.084810704
-0.26370493 -0.11034566 -0.11719034 -0.21016568 0.21629624 0.018182695 0.30618745 -0.050849732
-0.027293775 0.469855 0.29905733 -0.13824299 0.2991103 -0.41100684 0.05002438 -0.052993122
0.07582734 -0.014501221 -0.04835483 -0.05159086 -0.042501066 -0.06483884 -0.09443583 0.12814957
0.083209835 0.123160355 0.03152532 -0.035527393 0.18845822 -0.123653315 -0.14515989 -0.1756226
-0.20369059 -0.26873717 0.02715812 0.27992058 -0.20065081 0.102546945 0.06875771 0.17451608
0.1862402 -0.27125177 0.0046861577 -0.27692357 0.09120756 0.20018297 0.2617488 0.0935179
0.33010596 -0.14640093 0.0262638 0.06847697 0.07885454 -0.031477388 -0.05106256 -0.19905676
-0.090793416 -0.12886938 0.21373439 -0.123031445 -0.12747012 -0.10049178 -0.22383305 -0.10759439
0.03203535 -0.22011416 -0.048168078 0.071923494 0.4916621 0.19646719 0.37438208 -0.11236253
0.28086615 0.21778062 0.28299427 0.34085724 0.37020183 -0.27066183 -0.121361904 -0.17532685
-0.0012921162 -0.07739569 -0.0026195545 -0.016224213 -0.014183245 -0.105059825 0.05721317 -0.03666485
0.15182106 0.06975052 0.10948471 -0.012939067 0.009874282 0.048342876 0.07632468 0.035109393
0.10293737 -0.14038897 0.028431969 -0.0076332656 -0.09068632 -0.08278733 -0.08049661 0.15318799
0.16396637 0.18482526 -0.49798232 -0.020420004 -0.09994212 0.027665732 0.31250283 -0.04890346
0.005995457 0.04148113 -0.06541278 0.45992497 -0.21669205 0.06784104 -0.04106829 0.4225213
-0.091844775 0.085116446 -0.08349969 0.1289345 -0.078958005 -0.069533974 -0.020638982 0.06153928
-0.033673003 0.060336947 -0.05334934 -0.14549807 -0.033923957 -0.07433304 0.08083404 -0.14544448
0.0034315728 0.0973813 -0.07578147 0.030081943 -0.18998829 0.23410213 -0.10287955 0.0923735
00000000: 3dae f63e c098 c23c a502 debd 5191 35be
00000010: 9088 5d3d ffc0 833d afb1 7e3e 848f 61be
00000020: dbc4 283d 1e4e 1c3e 7207 b5be c905 41bd
00000030: f42d 74be a1dc 483d 1b8f e23d b97f 11be
00000040: 96e8 943e 105a 55be 686f 6bbd a945 a83c
00000050: b7fd 953d e95e 9a3d 0ed2 f63d 0186 3cbd
00000060: 033e 6e3b bba5 6abc 11cf 083e 2b19 06be
00000070: e0b5 17be d734 063e 515d 78bd d855 763c
00000080: a93c 01bd 696f 59be 63a2 273e c366 f63d
00000090: e3c3 a7be 0bc1 de3c 2567 f93c 7507 50be
000000a0: 56bb 333c 6d60 96be 83e8 a2be cd09 433e
000000b0: d6bd cbbd a76c 87be 1971 f6bd 6f10 bfbc
000000c0: 78ea 06be 1e88 343e 6093 bdbe 10f9 b3be
000000d0: a867 b63d 4560 bcbd 010e f53c 0332 91bc
000000e0: e3c0 abbc 6b20 ab3d 29cc 7ebd fecf 2fbe
000000f0: e2fa 743d 177b 1bbc aaee 653d 026d e3bd
00000100: 327d c4bd 0899 ddbd 7707 dbbc f8c7 683e
00000110: 2d12 313e 781c 1d3e ead0 923d be48 633e
00000120: b6cd 283e 43e4 c5bd c619 3dbe e856 1c3e
00000130: 3dba 383e 6109 513e 252d 2c3e cb11 e5bd
00000140: ecdc 2abe 9b18 0dbf f71e 7d3e 05f7 803e
00000150: bc9b babe 4c7f 5c3e 2a88 02be ad2d eebd
00000160: 62c7 f0bd f0b3 283e ca84 4bbd b91d 67bd
00000170: 76a9 3fbc a62f ab3d d677 ce3d dc51 8b3d
00000180: 7bc7 8c3d 8297 9a3d d548 8b3d f95d 083e
00000190: a9d5 38be 1975 303d 9208 243e 2e7a f33d
000001a0: 88ad a73d 5ffa aebd 2fdb 87bd d94e b9bd
000001b0: f4d2 32be 0019 2ebe 66b0 c6b8 3cb1 adbd
000001c0: 5504 87be e8fc e1bd 7d01 f0bd ac35 57be
000001d0: c37c 5d3e e0f3 943c 9ac4 9c3e cf47 50bd
000001e0: 3297 dfbc d690 f03e 0b1e 993e 928f 0dbe
000001f0: fc24 993e 7d6f d2be 5de6 4c3d 510f 59bd
00000200: 5d4b 9b3d 8796 6dbc b70f 46bd f050 53bd
00000210: 9915 2ebd 3aca 84bd 9367 c1bd a439 033e
00000220: eb69 aa3d 7f3b fc3d b220 013d 2c85 11bd
00000230: 31fb 403e f33d fdbd cba4 14be 69d6 33be
00000240: 4494 50be eb97 89be b57a de3c c051 8f3e
00000250: 6877 4dbe 2204 d23d d8d0 8c3d 58b4 323e
00000260: c0b5 3e3e 83e1 8abe 578e 993b edc8 8dbe
00000270: 07cb ba3d c4fc 4c3e f003 863e 5086 bf3d
00000280: a603 a93e 20ea 15be 2e27 d73c a73d 8c3d
00000290: 7d7e a13d 6fee 00bd fa26 51bd 89d5 4bbe
000002a0: e6f1 b9bd 56f6 03be 30dd 5a3e e9f7 fbbd
000002b0: 8787 02be a2ce cdbd 7e34 65be 735a dcbd
000002c0: 8037 033d 9b65 61be e44b 45bd a04c 933d
000002d0: 23bb fb3e b22e 493e 02af bf3e 531e e6bd
000002e0: b0cd 8f3e e201 5f3e a0e4 903e d784 ae3e
000002f0: 188b bd3e 3094 8abe 978c f8bd e288 33be
00000300: 3a5c a9ba a281 9ebd d5ac 2bbb a4e8 84bc
00000310: d760 68bc 9b29 d7bd 5b58 6a3d e22d 16bd
00000320: fb76 1b3e 5cd9 8e3d 8539 e03d 61fe 53bc
00000330: bec7 213c 2e03 463d 1d50 9c3d dece 0f3d
00000340: d4d0 d23d 20c2 0fbe 29ea e83c 7920 fabb
00000350: c0b9 b9bd 678c a9bd 68db a4bd 50dd 1c3e
00000360: cde6 273e d542 3d3e 8af7 febe da47 a7bc
00000370: 74ae ccbd 3fa3 e23c 5f00 a03e ff4e 48bd
00000380: 8a75 c43b 1ee8 293d 23f7 85bd 497b eb3e
00000390: 85e4 5dbe 3ef0 8a3d 3937 28bd b654 d83e
000003a0: 1d19 bcbd 8851 ae3d e301 abbd 6807 043e
000003b0: bcb4 a1bd d467 8ebd 1513 a9bc 9d10 7c3d
000003c0: b4ec 09bd e023 773d d684 5abd 72fd 14be
000003d0: d9f3 0abd ec3b 98bd 518c a53d 66ef 14be
000003e0: 3de4 603b d96f c73d 5133 9bbd 686e f63c
000003f0: 4a8c 42be 78b8 6f3e 83b2 d2bd 512e bd3d

conv1.bias f4 [32]
0.056041714 -0.049015008 0.09115379 0.013242736 0.03580023 -0.17508164 0.21711704 -0.1681691
-0.21709748 0.16744176 0.078287594 -0.12418958 0.009482724 0.047875024 0.0309794 0.18088335
0.04002161 0.03560447 -0.1405335 0.028959183 -0.19872136 -0.08934064 -0.039567463 0.09283997
0.15241693 0.22320005 0.09317395 0.16805312 0.09138032 -0.21050608 -0.029841006 -0.1977049
00000000: ff8b 653d f6c3 48bd d7ae ba3d 10f8 583c
00000010: 43a3 123d 9a48 33be ee53 5e3e 8534 2cbe
00000020: cd4e 5ebe da75 2b3e 3f55 a03d 1b57 febd
00000030: 6d5d 1b3c 9a18 443d 83c8 fd3c 7c39 393e
00000040: b3ed 233d fed5 113d 04e8 0fbe cf3b ed3c
00000050: 9d7d 4bbe 3af8 b6bd 7e11 22bd e222 be3d
00000060: 2f13 1c3e 8e8e 643e fcd1 be3d 1e16 2c3e
00000070: 9b25 bb3d e88e 57be 2075 f4bc 2773 4abe

conv2.weight f4 [64, 32, 3, 3]
-0.11102504 -0.022110127 -0.09431944 -0.104875475 0.095851816 0.079109766 -0.029332729 -0.12214876
0.016551552 -0.26165122 -0.055383466 -0.13641754 0.0047809114 0.16798311 0.101577036 -0.08816054
-0.16318214 -0.07130628 -0.14300291 0.1359509 -0.07396867 0.10057176 0.12901422 -0.13636826
-0.05506212 0.23183316 0.023365553 0.2834227 -0.063800976 -0.1869575 -0.17926617 -0.0008393431
-0.07898364 -0.08485096 0.18882991 0.086745344 0.03361959 0.10071211 -0.027931247 -0.04640343
0.06520418 0.1473101 -0.059818633 -0.11220587 -0.03867355 0.07340247 0.10734738 0.13319352
0.095156625 0.02263454 0.02752856 0.24715209 0.18975303 0.028334618 0.086281985 -0.13630888
0.012766579 -0.013858566 0.16597322 -0.03660457 -0.12466363 -0.21674761 -0.01744888 0.062050764
-0.09344734 0.00614044 0.18944256 0.053753134 0.0064928173 -0.04386665 -0.08415175 -0.03506004
-0.0044109593 0.038413707 0.092212744 -0.056938864 0.01948364 -0.123227485 0.08122711 -0.0363847
0.017548982 -0.032348216 0.058934942 0.16696729 0.06646315 0.09995197 -0.026068354 -0.07123522
-0.06207142 -0.017104106 0.03488685 0.011392187 -0.03406193 0.0041635255 0.15735666 -0.045654844
-0.14622274 -0.14679424 0.23818946 0.007931077 -0.16433237 0.02302694 -0.18864347 0.052416265
0.22464924 -0.06972397 -0.08859471 0.1801672 0.13088359 0.06943035 0.32680818 -0.25818527
0.07172461 -0.04689027 -0.079501845 -0.09658593 -0.09199917 -0.039864063 0.19951358 -0.021129081
0.04884023 -0.100753635 -0.101848595 0.0019080039 0.024853088 -0.20389473 -0.29162028 -0.15751036
-0.0052824914 -0.031892877 -0.03254524 0.11085013 0.017560447 0.13227764 0.01780989 0.050183527
-0.17280051 -0.013567928 -0.14184108 -0.07425215 -0.35009214 0.023078661 0.14935803 -0.007668538
-0.041413717 -0.18562481 0.043308485 -0.08347738 0.022692872 0.10047134 -0.26128113 0.016051993
-0.0933965 -0.12500304 -0.08026784 0.12769142 0.112302184 0.06869349 0.040897556 0.10868126
0.014657655 0.17238317 0.054857288 -0.08246398 -0.024891604 0.30588105 0.12632063 0.16424192
0.19764698 -0.10360759 -0.15176685 -0.08335102 -0.07570627 -0.08506691 -0.22097458 -0.0496677
-0.13429692 0.24397318 0.04582673 0.09136379 0.052273296 -0.2368478 -0.0780008 -0.061408434
0.04715342 0.021845339 0.08813444 0.20613155 0.19721045 -0.07664522 -0.11367942 0.015492407
0.15250763 0.1078607 -0.026104916 -0.21834946 -0.10633211 -0.049476292 -0.13425037 0.15288055
-0.054974258 0.12358508 0.030628351 0.08766298 -0.06765081 0.09057682 -0.042845678 0.10895482
-0.086424746 0.12959674 -0.038265273 -0.08581095 -0.027812414 -0.14980382 -0.15070125 -0.19768994
0.07874454 -0.16039732 -0.02761836 0.17368668 -0.07228265 0.05434092 0.1557458 -0.21342908
-0.05848271 -0.33053985 -0.21983881 -0.051241104 -0.09574968 -0.059176568 -0.20709194 0.10177708
-0.017351612 -0.047989678 0.09045118 -0.08064686 0.08808243 -0.2873785 -0.11916319 -0.021765737
-0.16632707 -0.010342712 0.06686567 -0.17803451 -0.11454612 0.07002819 0.037243605 0.059742536
-0.16179526 0.13448119 -0.036429197 0.005155312 0.0627009 -0.13963336 0.074686795 -0.03193751
00000000: 1961 e3bd 4c20 b5bc 8d2a c1bd f4c8 d6bd
00000010: f54d c43d 4d04 a23d 314b f0bc 2129 fabd
00000020: 1f97 873c 26f7 85be c6d9 62bd 0ab1 0bbe
00000030: 31a9 9c3b c403 2c3e 9f07 d03d 838d b4bd
00000040: 3819 27be 0709 92bd 5b6f 12be b636 0b3e
00000050: e37c 97bd 91f8 cd3d 4e1c 043e 1fa4 0bbe
00000060: d188 61bd ac65 6d3e 1e69 bf3c c81c 913e
00000070: 16aa 82bd c971 3fbe 8d91 37be 5d07 5cba
00000080: 2dc2 a1bd 57c6 adbd a15c 413e 8ba7 b13d
00000090: b2b4 093d 2742 ce3d 12d0 e4bc 8611 3ebd
000000a0: c589 853d 75d8 163e 6204 75bd 31cc e5bd
000000b0: 2868 1ebd 0954 963d f1d8 db3d e263 083e
000000c0: 7ae1 c23d 126c b93c 9383 e13c 7015 7d3e
000000d0: 9e4e 423e 001e e83c 9cb4 b03d 8e94 0bbe
000000e0: ea2a 513c 0a0f 63bc e2f4 293e acee 15bd
000000f0: a54f ffbd 16f3 5dbe f4f0 8ebc f128 7e3d
00000100: 5261 bfbd be35 c93b 3bfd 413e 3f2c 5c3d
00000110: b3c1 d43b 84ad 33bd c157 acbd 1e9b 0fbd
00000120: cf89 90bb b157 1d3d 09da bc3d ba38 69bd
00000130: 289c 9f3c b15e fcbd 665a a63d 2008 15bd
00000140: e2c2 8f3c 907f 04bd c465 713d 79f9 2a3e
00000150: d51d 883d 9eb3 cc3d 4d8d d5bc c5e3 91bd
00000160: 9a3e 7ebd e91d 8cbc 83e5 0e3d 4ca6 3a3c
00000170: 8684 0bbd 2f6e 883b 1b22 213e 9300 3bbd
00000180: 6abb 15be 3b51 16be f0e7 733e 59f1 013c
00000190: bf46 28be fea2 bc3c c12b 41be 70b2 563d
000001a0: 730a 663e 71cb 8ebd 2571 b5bd c07d 383e
000001b0: 5906 063e 8031 8e3d 6753 a73e dc30 84be
000001c0: 5ae4 923d 0310 40bd ddd1 a2bd d8ce c5bd
000001d0: 106a bcbd 8048 23bd 4a4d 4c3e e516 adbc
000001e0: b10c 483d ec57 cebd ff95 d0bd fd15 fa3a
000001f0: b498 cb3c c8c9 50be 414f 95be 654a 21be
00000200: c018 adbb 1ba2 02bd 284e 05bd 6505 e33d
00000210: edda 8f3c ca73 073e 0ce6 913c 3e8d 4d3d
00000220: 9ef2 30be 044c 5ebc ca3e 11be 8311 98bd
00000230: 473f b3be 760f bd3c 50f1 183e 5c48 fbbb
00000240: 6ea1 29bd 6e14 3ebe 3d64 313d 30f6 aabd
00000250: 67e6 b93c ebc3 cd3d a4c6 85be 787f 833c
00000260: aa46 bfbd cc00 00be 7763 a4bd 8ac1 023e
00000270: b0fe e53d 2caf 8c3d 3284 273d 4894 de3d
00000280: a926 703c 3785 303e 09b2 603d e0e2 a8bd
00000290: 7ae9 cbbc 719c 9c3e 325a 013e 092f 283e
000002a0: f863 4a3e 3730 d4bd c568 1bbe f1b3 aabd
000002b0: e40b 9bbd 8f37 aebd 2947 62be 5c70 4bbd
000002c0: 2285 09be 1bd4 793e cfb4 3b3d f01c bb3d
000002d0: 861c 563d 3b88 72be e2be 9fbd 6987 7bbd
000002e0: f223 413d fff4 b23c d47f b43d 2614 533e
000002f0: 89f1 493e 2bf8 9cbd c1d0 e8bd ddd3 7d3c
00000300: f62a 1c3e 12e6 dc3d fad9 d5bc 0097 5fbe
00000310: a6c4 d9bd a7a7 4abd ee78 09be b88c 1c3e
00000320: b02c 61bd 2d1a fd3d 4fe8 fa3c a688 b33d
00000330: 828c 8abd 5780 b93d f37e 2fbd b423 df3d
00000340: 75ff b0bd 02b5 043e 0cbc 1cbd a7bd afbd
00000350: dcd6 e3bc 2c66 19be 6e51 1abe 3b6f 4abe
00000360: d144 a13d 323f 24be e63f e2bc ecda 313e
00000370: ed08 94bd 9694 5e3d d47b 1f3e 278d 5abe
00000380: 918b 6fbd 853c a9be 6d1d 61be 31e2 51bd
00000390: 6918 c4bd 2163 72bd e90f 54be 8070 d03d
000003a0: f824 8ebc d390 44bd 783e b93d 2e2a a5bd
000003b0: 9064 b43d 4623 93be d50b f4bd 0f4e b2bc
000003c0: a551 2abe 7a74 29bc def0 883d ae4e 36be
000003d0: 2897 eabd f16a 8f3d c08c 183d 97b4 743d
000003e0: a8ad 25be 70b5 093e c836 15bd e4ed a83b
000003f0: 5469 803d 0cfc 0ebe 64f5 983d e8d0 02bd

conv2.bias f4 [64]
-0.043583814 0.06207186 -0.07056214 -0.028593794 -0.029343117 0.116288766 0.04791618 0.026692567
0.0067719035 -0.08706455 -0.02939256 -0.038015585 0.05160916 -0.030519951 0.07452609 -0.024983497
-0.07632713 -0.030806191 0.00064043363 0.053001147 0.039676573 0.032043662 -0.117524646 0.106305175
-0.1522527 0.093965255 0.034058653 -0.06397913 0.02456919 0.010343632 0.111640215 -0.0104631325
-0.20128903 -0.041864343 0.007600859 -0.051088095 -0.0045157047 -0.119811945 -0.07262248 0.064618275
0.06254409 0.099052906 0.0009882665 -0.06562339 -0.11615073 -0.027462745 -0.014278093 -0.03387756
0.009816047 0.0051171556 -0.00251458 -0.05310715 -0.059723258 -0.0812754 0.02879015 -0.024730023
0.0044743787 0.002954886 -0.102124974 -0.23388678 -0.027986199 -0.004779068 -0.049773138 -0.07514575
00000000: f184 32bd 103f 7e3d e282 90bd 883d eabc
00000010: fa60 f0bc ce28 ee3d c243 443d 5faa da3c
00000020: d8e6 dd3b e64e b2bd aac8 f0bc 3bb6 1bbd
00000030: 2064 533d fa04 fabc 22a1 983d 31aa ccbc
00000040: 6651 9cbd 445d fcbc c6e2 273a bb17 593d
00000050: e783 223d 3740 033d c3b0 f0bd 87b6 d93d
00000060: 22e8 1bbe db70 c03d 1681 0b3d 7d07 83bd
00000070: 5345 c93c 5678 293c a0a3 e43d 8f6d 2bbc
00000080: b61e 4ebe f279 2bbd a010 f93b c041 51bd
00000090: 7af8 93bb f75f f5bd 18bb 94bd 9656 843d
000000a0: 1e17 803d 40dc ca3d b988 813a 8e65 86bd
000000b0: 6fe0 edbd 8df9 e0bc aaee 69bc 32c3 0abd
000000c0: 7cd3 203c d0ad a73b a7cb 24bb e286 59bd
000000d0: 60a0 74bd b873 a6bd 52d9 eb3c 9e96 cabc
000000e0: cf9d 923b c3a6 413b e626 d1bd 0480 6fbe
000000f0: 5043 e5bc ba99 9cbb ebde 4bbd 04e6 99bd

conv3.weight f4 [128, 64, 3, 3]
-0.08508894 0.010599065 0.08142814 -0.11635799 0.11700596 0.02406959 0.016839875 -0.051880307
-0.11339157 -0.06925542 0.1081839 -0.10309685 -0.03811571 -0.010845657 -0.020619871 -0.018146545
-0.030701987 0.0050118286 -0.046096105 -0.15395877 0.07767793 -0.020568531 -0.15866686 0.02610763
-0.06789175 0.04880992 -0.0748452 0.049395557 0.08772449 -0.11531936 -0.0060879737 -0.059095826
0.07484528 -0.11855232 -0.04887537 -0.087083094 -0.029120836 0.10041106 -0.075886905 -0.060614
0.041343186 -0.088501826 -0.097139 -0.1301155 0.06531915 -0.049987316 0.13136813 -0.064430535
0.04107138 0.071482204 -0.06654202 -0.0059678634 0.034419607 0.096153915 -0.091440395 -0.034926347
-0.004263999 -0.043743324 0.052402455 -0.00018456891 -0.1036854 0.07578951 -0.024529988 -0.14585645
-0.08904895 -0.039913256 0.034637403 0.04332586 0.025409268 0.09483489 0.033496108 0.04972865
-0.03774868 0.09704602 0.06275 0.15332282 0.08460239 0.036949545 0.019009972 0.015029616
0.03233233 0.032565843 -0.038996123 -0.041324742 -0.008532318 0.044601586 0.07043634 0.030495053
-0.017984584 0.01695742 0.060590453 -0.028136684 -0.04403693 -0.026985899 -0.083811924 0.05361777
0.0472887 -0.026200546 -0.029729329 0.053684957 -0.095248945 0.12244969 0.016409678 0.046275716
-0.08067294 0.015471062 -0.050206088 0.200251 0.08340394 -0.082627386 -0.10703364 0.023938203
-0.18586394 -0.14514457 -0.020234969 -0.060174968 -0.012237894 0.013358699 -0.055511534 -0.050143488
-0.00940851 -0.14765806 0.072829 -0.033010367 0.050909836 -0.1239399 0.026686152 0.050774977
-0.12961563 -0.057951417 -0.03917056 -0.14911744 -0.106582865 -0.121878274 -0.05820096 -0.113887675
-0.057215676 -0.11936624 0.06347222 -0.020250626 0.06768809 0.008064253 0.06176256 -0.17364094
0.028726978 0.20999381 0.077239156 0.06822222 0.07488749 -0.044372737 -0.015245581 0.16037345
-0.16276559 0.14295407 -0.037031252 0.04766198 -0.0039619035 -0.13908108 0.08367183 0.042367395
0.04402752 0.024937473 -0.024101557 -0.047100857 -0.1369931 -0.08772474 -0.075568244 -0.07500626
-0.08767303 -0.15095553 -0.00432665 -0.011447819 -0.13591988 -0.03399974 0.011163687 0.06870611
0.1817438 -0.13206057 0.022817735 -0.005212396 0.10864563 -0.106665075 -0.13253552 0.10259895
-0.057237595 -0.09116355 0.03867717 -0.04058351 -0.025581446 0.15605582 0.06460123 -0.18223724
-0.055121854 0.033615854 -0.050350968 -0.024410868 0.110539906 -0.047046136 -0.018938994 0.10306339
0.10667755 -0.002181045 0.046445955 0.10393278 0.03695222 -0.07162779 -0.04372809 0.01170065
0.03243427 -0.0517215 0.048892196 0.057610977 0.019319447 -0.05838888 -0.07460503 0.05370207
-0.012150974 0.074522175 0.16977078 0.026559316 0.08993012 -0.009529057 -0.16764596 -0.16076836
-0.055907365 0.0021154427 -0.096245386 -0.12833369 -0.044117995 -0.073636085 -0.15218255 0.17219006
0.17796427 0.021086112 -0.023354912 -0.06520034 -0.08907249 -0.030719263 -0.13233165 -0.11075441
-0.028233293 0.06599253 -0.07244907 0.08337988 0.06397071 -0.07562275 0.033819355 -0.08234418
0.14161383 0.13816583 0.1015958 -0.018563252 0.2063573 -0.103832215 -0.012206847 -0.045698725
00000000: 1c43 aebd b3a7 2d3c ccc3 a63d 194d eebd
00000010: d2a0 ef3d 972d c53c c7f3 893c 7280 54bd
00000020: d739 e8bd c9d5 8dbd 858f dd3d 7124 d3bd
00000030: 381f 1cbd fcb1 31bc 01eb a8bc 10a8 94bc
00000040: bc82 fbbc 443a a43b 45cf 3cbd 5ea7 1dbe
00000050: 9b15 9f3d 567f a8bc 9179 22be abdf d53c
00000060: d40a 8bbd e9ec 473d 7148 99bd ff52 4a3d
00000070: e6a8 b33d 8e2c ecbd a07d c7bb 770e 72bd
00000080: 7b48 993d 8fcb f2bd 8a31 48bd 9f58 b2bd
00000090: d28e eebc 50a4 cd3d 986a 9bbd 6346 78bd
000000a0: 7957 293d 7240 b5bd d0f0 c6bd ff3c 05be
000000b0: 0cc6 853d 80bf 4cbd 5e85 063e 28f4 83bd
000000c0: 773a 283d 4365 923d 2f47 88bd 118e c3bb
000000d0: 93fb 0c3d 58ec c43d 1a45 bbbd ee0e 0fbd
000000e0: 04b9 8bbb 332c 33bd f5a3 563d d788 41b9
000000f0: 0359 d4bd 8837 9b3d 1df3 c8bc 655b 15be
00000100: 4c5f b6bd 157c 23bd f3df 0d3d 7576 313d
00000110: 1927 d03c cb38 c23d 3733 093d 45b0 4b3d
00000120: 5c9e 1abd 10c0 c63d 1283 803d a800 1d3e
00000130: 0544 ad3d 6858 173d cdba 9b3c c73e 763c
00000140: e86e 043d c363 053d 66ba 1fbd 2244 29bd
00000150: 23cb 0bbc 27b0 363d ee40 903d c3d0 f93c
00000160: 6854 93bc 4aea 8a3c b22d 783d e77e e6bc
00000170: 1160 34bd 8811 ddbc 96a5 abbd 4f9e 5b3d
00000180: ccb1 413d 87a2 d6bc ec8a f3bc c2e4 5b3d
00000190: e111 c3bd e7c6 fa3d 976d 863c 9b8b 3d3d
000001a0: db37 a5bd 567a 7d3c e6a4 4dbd 990e 4d3e
000001b0: afcf aa3d 8c38 a9bd 7434 dbbd 0d1a c43c
000001c0: 1e53 3ebe c7a0 14be cec3 a5bc 077a 76bd
000001d0: 7381 48bc 72de 5a3c 1060 63bd 4263 4dbd
000001e0: 2726 1abc ad33 17be 5f27 953d e135 07bd
000001f0: d586 503d 34d4 fdbd eb9c da3c 6cf9 4f3d
00000200: f6b9 04be 775e 6dbd 4f71 20bd 3eb2 18be
00000210: 1e48 dabd 519b f9bd 2164 6ebd f13d e9bd
00000220: fc5a 6abd 4a76 f4bd b9fd 813d a4e4 a5bc
00000230: 0ea0 8a3d ee1f 043c bdfa 7c3d eece 31be
00000240: d754 eb3c 9e08 573e 902f 9e3d 17b8 8b3d
00000250: 9d5e 993d 30c0 35bd 9ac8 79bc f038 243e
00000260: 06ac 26be 8d62 123e 15ae 17bd 3539 433d
00000270: dbd2 81bb 456b 0ebe 235c ab3d 6f89 2d3d
00000280: 3356 343d ac49 cc3c a170 c5bc d4ec 40bd
00000290: eb47 0cbe 07a9 b3bd 86c3 9abd e29c 99bd
000002a0: eb8d b3bd 1694 1abe 92c6 8dbb a28f 3bbc
000002b0: 952e 0bbe 5043 0bbd e6e7 363c cab5 8c3d
000002c0: 0c1b 3a3e e33a 07be 42ec ba3c bfcc aabb
000002d0: 9a81 de3d 3873 dabd 64b7 07be 661f d23d
000002e0: f871 6abd f5b3 babd f46b 1e3d e53a 26bd
000002f0: 2e90 d1bc 19cd 1f3e a64d 843d 669c 3abe
00000300: 74c7 61bd c7b0 093d d13c 4ebd 4df9 c7bc
00000310: bf62 e23d 73b3 40bd f325 9bbc e612 d33d
00000320: c279 da3d ddef 0ebb 1d3e 3e3d b6da d43d
00000330: 365b 173d 97b1 92bd 3a1c 33bd 15b4 3f3c
00000340: ccd9 043d ecd9 53bd 2f43 483d 7df9 6b3d
00000350: d143 9e3c 2e29 6fbd 86ca 98bd b4f6 5b3d
00000360: e114 47bc 159f 983d 64d8 2d3e ec92 d93c
00000370: 482d b83d c31f 1cbc 62ab 2bbe 76a0 24be
00000380: 1fff 64bd 3da3 0a3b 4d1c c5bd e869 03be
00000390: 12b5 34bd 84ce 96bd bed5 1bbe 9752 303e
000003a0: 443c 363e c8bc ac3c cd52 bfbc c187 85bd
000003b0: a36b b6bd f7a6 fbbc f381 07be 35d3 e2bd
000003c0: 8249 e7bc 1727 873d 2e60 94bd 12c3 aa3d
000003d0: 1303 833d 1ae0 9abd 2a86 0a3d 11a4 a8bd
000003e0: 3703 113e 587b 0d3e 7511 d03d f611 98bc
000003f0: 544f 533e fca5 d4bd 3aff 47bc 962e 3bbd

conv3.bias f4 [128]
-0.030706907 0.010385898 -0.16000898 -0.008501432 -0.06536173 0.07802089 -0.038350314 -0.057870023
0.027490066 0.005894464 -0.037977654 0.03794129 0.023841314 0.032122932 -0.14274812 -0.013997289
-0.114251934 0.03880011 0.101642415 -0.0007308665 -0.0021934975 -0.02612476 0.041293424 -0.0732876
0.00080289127 -0.061216258 -0.016839815 0.019894939 -0.10091964 -0.08297526 -0.0788807 -0.02362812
0.09034542 0.0035822028 -0.0153295025 0.012666109 -0.11203633 0.0039234394 -0.07023371 0.010878004
0.010581366 -0.05440742 -0.18383023 -0.12153647 0.055014282 0.025082042 0.029948141 -0.11635778
0.011062257 0.067301296 0.045996442 0.020607099 -0.027044762 -0.07167819 0.01794412 -0.032164965
-0.0443033 -0.09670546 -0.096363574 -0.053513475 -0.05900174 -0.10188931 -0.004182578 -0.0716785
-0.0009334454 0.031591438 -0.00995708 -0.041346982 -0.12773778 0.07691403 0.061051548 -0.036997195
-0.030105451 -0.039276406 0.023632709 -0.04686968 -0.0365538 -4.4214932e-05 -0.04432096 -0.024202758
-0.04711978 -0.014649821 0.013309233 -0.11294776 -0.00032365043 -0.047668178 0.10772795 -0.021425383
0.114133865 0.030792957 -0.010568573 -0.074443005 -0.08772103 -0.06904338 0.08583663 -0.08764804
-0.1004832 0.12857492 -0.046295114 0.020516237 -0.023020113 -0.050504476 0.015013375 0.081362836
-0.021518711 -0.12199276 -0.07170312 -0.005353967 -0.023790661 0.049371142 0.03221491 0.041130543
-0.033742853 0.013370023 -0.030142188 0.034564905 0.12979877 -0.06562405 -0.05629877 -0.053304143
-0.004573254 -0.022929184 -0.10973058 0.12583633 -0.10451978 -0.06495429 -0.14596131 -0.06056274
00000000: 0d8d fbbc 9d29 2a3c 65d9 23be 9749 0bbc
00000010: 5fdc 85bd 6bc9 9f3d 3815 1dbd 1e09 6dbd
00000020: d932 e13c 5926 c13b 758e 1bbd 5368 1b3d
00000030: dc4e c33c 5693 033d 902c 12be e354 65bc
00000040: ebfc e9bd ddec 1e3d e629 d03d 9f97 3fba
00000050: c8c0 0fbb 9803 d6bc 4b23 293d cf17 96bd
00000060: 1f79 523a e6bd 7abd a7f3 89bc b6fa a23c
00000070: f5ae cebd efee a9bd 348c a1bd c28f c1bc
00000080: 0507 b93d 64c3 6a3b 9828 7bbc 8385 4f3c
00000090: 4e73 e5bd 3290 803b b1d6 8fbd a839 323c
000000a0: 775d 2d3c 51da 5ebd fe3d 3cbe 1de8 f8bd
000000b0: a856 613d db78 cd3c ce55 f53c fd4c eebd
000000c0: 783e 353c 43d5 893d c466 3c3d 38d0 a83c
000000d0: fa8c ddbc 04cc 92bd 8cff 923c 69bf 03bd
000000e0: 6177 35bd 830d c6bd 445a c5bd f230 5bbd
000000f0: cfab 71bd 58ab d0bd 020e 89bb 2dcc 92bd
00000100: 76b2 74ba 0666 013d 0523 23bc 745b 29bd
00000110: b1cd 02be 1a85 9d3d 3011 7a3d 5f8a 17bd
00000120: b59f f6bc 4ce0 20bd 6299 c13c 6cfa 3fbd
00000130: 70b9 15bd 6c73 39b8 e589 35bd dd44 c6bc
00000140: ac00 41bd ce05 70bc f80e 5a3c 2851 e7bd
00000150: a0af a9b9 b53f 43bd 79a0 dc3d 4984 afbc
00000160: 04bf e93d 8341 fc3c cf27 2dbc 9375 98bd
00000170: 15a7 b3bd 9e66 8dbd 1dcb af3d d180 b3bd
00000180: 23ca cdbd 25a9 033e f29f 3dbd ab11 a83c
00000190: ad94 bcbc c8dd 4ebd a9fa 753c 8fa1 a63d
000001a0: 0248 b0bc 57d7 f9bd 16d9 92bd 5570 afbb
000001b0: a2e4 c2bc 6539 4a3d c8f3 033d 8078 283d
000001c0: f235 0abd f10d 5b3c c0ec f6bc ee93 0d3d
000001d0: f8e9 043e e765 86bd 8a99 66bd 7255 5abd
000001e0: 3cdb 95bb fcd5 bbbc 6dba e0bd 3ddb 003e
000001f0: 770e d6bd c106 85bd e276 15be a310 78bd

act_conv1.weight f4 [4, 128, 1, 1]
-0.06861093 0.07194905 -0.08232973 -0.09227286 -0.060818505 0.30373752 -0.036609743 0.25467104
0.1179859 -0.027570331 -0.0925925 0.0103156045 -0.008236612 -0.09619522 0.012704603 -0.026824506
0.022571173 0.07742421 -0.10407826 -0.07310685 -0.031815723 -0.06205039 0.0038154635 0.054190975
0.1023496 0.11204033 0.025414929 -0.08715418 0.017253608 -0.0677406 0.056829672 0.1681847
0.46170324 0.025736691 -0.018478934 0.073668994 -0.23288524 0.050160483 0.0229978 0.0027812405
-0.012391234 0.2096994 -0.062784545 -0.25181195 -0.05007996 -0.056873012 -0.043067954 -0.111513294
-0.08045995 0.051356055 0.0042276233 -0.1152614 0.10107102 0.030238206 -0.044460922 -0.04793478
-0.011233113 -0.04736691 0.019342894 -0.04260074 -0.059730373 0.15042266 -0.034099218 0.0792963
0.02586069 -0.017351862 0.44658047 0.0013366869 0.5051192 0.093149126 0.058729295 0.123036645
-0.009178416 -0.002646148 0.029611968 -0.027169148 0.07303803 0.08051159 0.107915364 0.002648762
-0.09946284 -0.1794156 0.07891674 0.055603854 0.04246708 -0.25096545 0.098495595 -0.13927403
0.09357038 0.00930626 0.0063817133 -0.018522345 -0.034204554 0.017309947 0.20331585 0.032858882
0.018062213 -0.011250946 -0.031366464 -0.03371338 0.19474027 0.37306765 0.2434347 0.063687034
-0.06268601 -0.00012298196 0.2831424 0.050417002 -0.002360974 0.27136582 0.018978084 0.117244706
-0.027540507 0.07396476 0.03391201 -0.0031728293 0.13627604 0.2412906 0.033891845 -0.030984847
0.0046224324 -0.017253788 -0.12740354 0.19967091 -0.06481619 0.0021282835 0.030218737 -0.13561143
-0.0056860493 0.026665932 0.0505299 -0.0023054292 -0.06613243 -0.0134529965 0.2668405 0.17351522
0.26850423 -0.0125430655 0.04265231 0.13090068 -0.043195248 0.28869072 -0.05146817 0.073680975
0.087441996 -0.13763277 -0.043277435 -0.08214748 -0.0383112 0.0756361 -0.0077384673 0.04735194
0.012803565 -0.07540067 -0.020516476 -0.024615154 -0.043191154 0.035426725 0.0139995655 -0.15833879
0.16366754 0.01629792 -0.021206029 -0.05921698 0.3758826 0.0266054 0.08531538 0.06161006
0.02121697 0.07718581 0.13633184 0.10485987 0.001810335 0.13712151 0.020147135 -0.12810697
0.36539486 0.02361953 -0.018421015 -0.08899756 0.008045859 0.024632137 0.06589567 0.04488762
0.10097698 0.011961738 0.5703208 0.047083385 0.08062675 0.064348824 -0.042337045 0.3759291
0.06523251 -0.030496547 0.19388326 -0.0037014699 -0.064302206 0.050970253 -0.0765846 0.04015516
0.003184775 0.07591806 0.03955136 0.07561135 0.08642752 0.24453205 0.0011130548 0.107119925
0.1607351 0.15430145 0.03481772 -0.08567433 0.0031683426 0.21814634 0.2665398 0.12633602
0.080386125 0.06568883 0.15810013 0.025554841 0.17559701 0.056807622 0.030824015 0.10675257
-0.027178764 0.051515542 0.09387795 0.063648954 -0.119818114 -0.2443419 -0.23865357 -0.19228348
-0.064464435 0.018420529 0.07911298 -0.25198123 0.10663522 0.29147765 -0.069809385 -0.014913851
0.046282 -0.03415448 0.028012509 0.22363575 0.06710284 0.09782513 -0.008790327 0.06727442
-0.03680852 -0.026827281 -0.054961998 0.21128175 0.096121974 0.0642988 0.026906101 0.15774503
00000000: e383 8cbd 065a 933d 7d9c a8bd 8ef9 bcbd
00000010: d31c 79bd 7c83 9b3e 19f4 15bd 3e64 823e
00000020: 97a2 f13d 2ddb e1bc 23a1 bdbd c802 293c
00000030: dbf2 06bc 0002 c5bd f826 503c 11bf dbbc
00000040: 2ee7 b83c 9690 9e3d fc26 d5bd 0bb9 95bd
00000050: 3451 02bd 8d28 7ebd db0c 7a3b 5bf7 5d3d
00000060: ab9c d13d 6775 e53d f832 d03c e47d b2bd
00000070: 7057 8d3c 95bb 8abd 3bc6 683d 9c38 2c3e
00000080: 5e64 ec3e c1d5 d23c 2261 97bc c5df 963d
00000090: 7879 6ebe 1475 4d3d e265 bc3c 7945 363b
000000a0: 9a04 4bbc 71bb 563e 2f95 80bd 7fed 80be
000000b0: a520 4dbd adf3 68bd 0668 30bd 1561 e4bd
000000c0: 30c8 a4bd ba5a 523d e087 8a3b 2b0e ecbd
000000d0: 53fe ce3d 1db6 f73c a81c 36bd 4357 44bd
000000e0: 170b 38bc ce03 42bd fd74 9e3c 1d7e 2ebd
000000f0: d6a7 74bd 6608 1a3e 9fab 0bbd 1966 a23d
00000100: ccd9 d33c 7e25 8ebc 32a6 e43e c533 af3a
00000110: 7e4f 013f f8c4 be3d 218e 703d a3fa fb3d
00000120: 1161 16bc ff6a 2dbb cc94 f23c d591 debc
00000130: f694 953d 43e3 a43d bb02 dd3d da96 2d3b
00000140: 2cb3 cbbd b9b8 37be 1a9f a13d dec0 633d
00000150: f6f1 2d3d 8b7e 80be 0fb8 c93d da9d 0ebe
00000160: d4a1 bf3d 4979 183c b11d d13b 2cbc 97bc
00000170: 131a 0cbd 97cd 8d3c 0832 503e 0997 063d
00000180: 35f7 933c e355 38bc 1f7a 00bd 0b17 0abd
00000190: fe69 473e b902 bf3e f246 793e 596e 823d
000001a0: 8661 80bd b8f4 00b9 0af8 903e 0f82 4e3d
000001b0: 92ba 1abb 76f0 8a3e ed77 9b3c fe1d f03d
000001c0: a19c e1bc d67a 973d 52e7 0a3d 3eef 4fbb
000001d0: f28b 0b3e e214 773e 2dd2 0a3d efd3 fdbc
000001e0: c677 973b d157 8dbc 1376 02be 8876 4c3e
000001f0: 5abe 84bd ac7a 0b3b 498d f73c b9dd 0abe
00000200: 0a52 babb 8372 da3c 71f8 4e3d af16 17bb
00000210: 7170 87bd f569 5cbc 519f 883e f9ad 313e
00000220: 6379 893e 6e81 4dbc 30b4 2e3d d40a 063e
00000230: 80ed 30bd 45cf 933e 4ad0 52bd 0de6 963d
00000240: ca14 b33d 9bef 0cbe ae43 31bd f03c a8bd
00000250: 34ec 1cbd 19e7 9a3d f892 fdbb 1cf4 413d
00000260: 0bc6 513c ab6b 9abd 2b12 a8bc b8a5 c9bc
00000270: 35e9 30bd 9d1b 113d 6f5e 653c 9023 22be
00000280: 7798 273e 3783 853c 44b8 adbc 818d 72bd
00000290: af73 c03e 91f3 d93c d4b9 ae3d d55a 7c3d
000002a0: 36cf ad3c 9813 9e3d 939a 0b3e c6c0 d63d
000002b0: c348 ed3a 9569 0c3e 9b0b a53c 792e 03be
000002c0: 0915 bb3e bf7d c13c abe7 96bc 5a44 b6bd
000002d0: c7d2 033c 56c9 c93c 4ff4 863d 15dc 373d
000002e0: 05cd ce3d 2afb 433c 8b00 123f 82da 403d
000002f0: a31f a53d 51c9 833d 9c69 2dbd c779 c03e
00000300: 9f98 853d e5d3 f9bc 5589 463e 5c94 72bb
00000310: e0b0 83bd 2fc6 503d 63d8 9cbd bd79 243d
00000320: a8b7 503b ee7a 9b3d 9b00 223d 20da 9a3d
00000330: e900 b13d 9c66 7a3e ece3 913a b161 db3d
00000340: be97 243e 3301 1e3e 079d 0e3d 0676 afbd
00000350: f8a3 4f3b c161 5f3e e877 883e 3b5e 013e
00000360: 7ba1 a43d de87 863d 00e5 213e 6358 d13c
00000370: b4cf 333e 1caf 683d a582 fc3c 17a1 da3d
00000380: 00a6 debc f601 533d 1543 c03d 625a 823d
00000390: 3363 f5bd c334 7abe 9a61 74be f6e5 44be
000003a0: ee05 84bd a6e6 963c fc05 a23d af03 81be
000003b0: 9163 da3d 8f3c 953e 39f8 8ebd 3a59 74bc
000003c0: 3292 3d3d 91e5 0bbd 7d7a e53c c500 653e
000003d0: 376d 893d 8b58 c83d 4e05 10bc 2cc7 893d
000003e0: 88c4 16bd e3c4 dbbc d51f 61bd 3e5a 583e
000003f0: 99db c43d 17af 833d 2f6a dc3c ea87 213e

act_conv1.bias f4 [4]
0.05837307 -0.019586524 0.15391903 -0.021453787
00000000: 9a18 6f3d eb73 a0bc f39c 1d3e dabf afbc

act_fc1.weight f4 [81, 324]
-0.046033923 -0.0063681537 0.036873434 -0.028789144 -0.03026005 0.0026169368 -0.014269396 -0.080965996
0.015932936 0.032931358 -0.004796838 -0.014585739 -0.03321454 -0.057604644 -0.0002923752 -0.045157645
-0.013179343 0.10384303 -0.014957134 -0.06392198 -0.0018392453 -3.936614e-05 -0.07007397 -0.057935074
-0.0057988204 0.037296355 0.08162007 0.042457063 -0.037716974 -0.1015988 -0.08610189 -0.02585961
0.0025588442 -0.08265427 0.05619235 0.06733121 -0.010246488 -0.01274319 -0.06150808 -0.05263728
-0.016538389 -9.5945514e-05 -0.07067324 -0.048444636 -0.022224601 0.050199408 0.009603752 -0.18896888
-0.070539266 -0.059194498 -0.07787283 -0.010590029 -0.029705485 -0.019529233 0.07204661 -0.27807042
-0.020897273 0.100173034 -0.01867728 -0.023177933 -0.0049803006 0.03363122 0.04072248 -0.055293284
0.12004478 0.16399735 0.011936104 -0.044258952 0.0059166034 -0.030212957 0.011091025 -0.020636547
-0.040551454 -0.07048385 0.048611507 -0.031848967 -0.06052747 0.013728099 0.0077070836 -0.003797834
0.010653039 -0.013503553 -0.044233844 -0.027686391 -0.00013654339 0.00016998332 0.024239957 0.02164994
-0.014870259 0.054473426 -0.048233747 -0.03784488 -0.049379893 0.013793598 -0.01748174 0.050828476
0.105797686 0.07423928 -0.07481155 -0.027017085 -0.004032136 -0.014729286 -0.025079442 -0.0008648687
0.061058413 0.11397261 0.03586502 0.03683964 0.006477888 0.02610661 0.0031819865 0.045292553
0.08203233 0.021257514 0.05840912 0.034330375 0.0061718673 -0.01397573 0.012716692 0.009345333
0.06582902 0.008793237 0.027361229 0.027992753 -0.023759566 -0.024356218 0.09486228 0.027105518
0.039180253 0.058821484 0.028120153 0.036149364 -0.01790389 -0.022881668 -0.042017736 0.008994229
0.0077571403 0.1617083 -0.017677153 -0.006523743 -0.0025742345 0.017146956 -0.04316198 -0.026314052
-0.48530242 0.14392237 -0.008458198 0.031586915 -0.03666248 0.025607727 0.012227195 -0.0500486
-0.01645922 0.094107166 0.053573214 0.016835196 -0.04606261 -0.02386035 0.04812485 0.0029712997
0.0023482614 -0.027033709 -0.0051843915 -0.029405877 -0.012592151 -0.056004602 -0.053674918 -0.07182279
-0.050467163 0.010876303 -0.04626263 -0.00070862635 0.0155404415 -0.01796324 -0.029593933 -0.08279395
-0.049870983 -0.021109492 -0.04552522 0.023454115 0.00012214543 -0.055119608 -0.058713116 -0.07779975
-0.08773395 -0.0065114317 -0.114820935 -0.04821574 -0.08368284 0.0064302613 -0.05443433 -0.10587801
-0.073022656 -0.03261697 -0.092043355 -0.066207595 -0.055337768 -0.06787704 -0.031730488 -0.08411725
-0.05389458 0.018437069 -0.034814294 -0.1125489 -0.032945648 -0.08050983 -0.020203674 0.11346158
-0.095939785 0.05168105 -0.14882877 -0.12953302 -0.0729946 -0.06440342 -0.05080042 -0.04008065
-0.08961927 -0.019679852 -0.1934768 -0.043204892 -0.05995479 -0.074960135 -0.08680301 -0.051988814
-0.020018857 -0.86940986 -0.09087023 0.095216885 -0.07475319 -0.050010126 -0.033564422 -0.094856694
-0.018006003 -0.026306622 -0.0089442795 0.09714289 0.052904334 0.012807626 -0.011626884 0.0017522101
0.040701613 0.008452323 -0.010347094 -0.025358092 -0.03075259 -0.03227717 -0.07149073 -0.017596563
-0.076245464 -0.023936678 0.114097424 0.01961892 0.031984795 0.00971243 -0.012086048 -0.015480418
00000000: 118e 3cbd f2ab d0bb 9908 173d 36d7 ebbc
00000010: ede3 f7bc ea80 2b3b 2fca 69bc 80d1 a5bd
00000020: ca85 823c 08e3 063d cb2e 9dbb 06f9 6ebc
00000030: f80b 08bd d9f2 6bbd ef49 99b9 39f7 38bd
00000040: 2cee 57bc a8ab d43d c40e 75bc 87e9 82bd
00000050: d512 f1ba 121d 25b8 f182 8fbd 544d 6dbd
00000060: 0804 bebb 10c4 183d 6c28 a73d 75e7 2d3d
00000070: 1d7d 1abd 0813 d0bd 3056 b0bd 88d7 d3bc
00000080: 48b2 273b a446 a9bd f329 663d f2e4 893d
00000090: e3e0 27bc d0c8 50bc e6ef 7bbd 309a 57bd
000000a0: 847b 87bc 5b36 c9b8 22bd 90bd e26d 46bd
000000b0: 5e10 b6bc e59d 4d3d 0e59 1d3c 0f81 41be
000000c0: e476 90bd ee75 72bd ca7b 9fbd cd81 2dbc
000000d0: eb58 f3bc c5fb 9fbc 2c8d 933d 3f5f 8ebe
000000e0: c230 abbc 8527 cd3d 1801 99bc a6df bdbc
000000f0: ca31 a3bb e4c0 093d 9dcc 263d 367b 62bd
00000100: 0ada f53d ecee 273e a68f 433c e048 35bd
00000110: 11e0 c13b 2a81 f7bc 21b7 353c fa0d a9bc
00000120: 4819 26bd d659 90bd dc1c 473d 1074 02bd
00000130: a7eb 77bd d2eb 603c b48b fc3b 15e5 78bb
00000140: 168a 2e3c 023e 5dbc 8c2e 35bd 92ce e2bc
00000150: 162d 0fb9 8d3d 3239 e092 c63c 375b b13c
00000160: 63a2 73bc 871f 5f3d c090 45bd 3c03 1bbd
00000170: 9242 4abd 8bfe 613c de35 8fbc 8531 503d
00000180: 75ac d83d c30a 983d cc36 99bd ef52 ddbc
00000190: 0220 84bb 1a53 71bc 6773 cdbc 5bb8 62ba
000001a0: 6318 7a3d 796a e93d 33e7 123d 2ae5 163d
000001b0: 7744 d43b 88dd d53c e088 503b af84 393d
000001c0: 9100 a83d 3d24 ae3c 673e 6f3d 029e 0c3d
000001d0: 603d ca3b 76fa 64bc ac59 503c 2b1d 193c
000001e0: 5ed1 863d 8211 103c a824 e03c 0f51 e53c
000001f0: 6ca3 c2bc b186 c7bc 2847 c23d 640c de3c
00000200: 797b 203d ccee 703d 3c5c e63c 5b11 143d
00000210: 2eab 92bc 5672 bbbc ca1a 2cbd 885c 133c
00000220: 9c2f fe3b dc96 253e adcf 90bc 1fc5 d5bb
00000230: 7db4 28bb c677 8c3c 9eca 30bd 9190 d7bc
00000240: 8f79 f8be 6360 133e 4194 0abc 4861 013d
00000250: 662b 16bd 4cc7 d13c 9354 483c c3ff 4cbd
00000260: 7cd5 86bc 42bb c03d 966f 5b3d f7e9 893c
00000270: 26ac 3cbd c876 c3bc 901e 453d 23ba 423b
00000280: 4ae5 193b cc75 ddbc d4e1 a9bb 98e4 f0bc
00000290: 4f4f 4ebc 1565 65bd 3bda 5bbd d417 93bd
000002a0: a8b6 4ebd 8532 323c e27d 3dbd 1cc3 39ba
000002b0: 569d 7e3c a527 93bc fa6e f2bc e08f a9bd
000002c0: 8445 4cbd d0ed acbc a778 3abd d822 c03c
000002d0: 2a14 0039 19c5 61bd 2a7d 70bd 7a55 9fbd
000002e0: dbad b3bd d95d d5bb 3d27 ebbd de7d 45bd
000002f0: e961 abbd f1b4 d23b 88f6 5ebd 92d6 d8bd
00000300: e78c 95bd 5f99 05bd 3a81 bcbd d997 87bd
00000310: dba9 62bd 1e03 8bbd d4f7 01bd aa45 acbd
00000320: 90c0 5cbd 5609 973c 6f99 0ebd 0a80 e6bd
00000330: 04f2 06bd 56e2 a4bd 2d82 a5bc 8b5e e83d
00000340: 147c c4bd 82af 533d 9266 18be 4ea4 04be
00000350: 317e 95bd f1e5 83bd 1a14 50bd 9c2b 24bd
00000360: 4f8a b7bd a437 a1bc c81e 46be 9df7 30bd
00000370: 2793 75bd b384 99bd c7c5 b1bd 39f2 54bd
00000380: 96fe a3bc a591 5ebf 2c1a babd 1201 c33d
00000390: 3318 99bd 6bd7 4cbd d97a 09bd 3a44 c2bd
000003a0: 5381 93bc fc80 d7bc 078b 12bc daf2 c63d
000003b0: 37b2 583d 14d7 513c b07e 3ebc 6aaa e53a
000003c0: bcb6 263d 9d7b 0a3c dc86 29bc c6bb cfbc
000003d0: dbec fbbc 1135 04bd bb69 92bd ab26 90bc
000003e0: 9526 9cbd da16 c4bc e9ab e93d dbb7 a03c
000003f0: 7d02 033d e220 1f3c 8f04 46bc 94a1 7dbc

act_fc1.bias f4 [81]
0.015271344 -0.049803074 -0.0814192 -0.057287753 -0.047056783 -0.054535832 -0.06730469 -0.034750152
0.012543468 -0.0522446 0.013582798 -0.09239177 0.069482096 -0.0119926315 0.08496114 -0.0661731
0.01138575 -0.026096644 -0.07269366 -0.09608185 0.10276684 0.05957947 0.077751584 0.035102803
0.069068216 -0.12502307 -0.043388885 -0.032595664 0.058554146 0.036192425 0.087665945 0.05383277
0.06304511 0.008990967 0.06369821 -0.044525113 -0.027937258 -0.043367125 0.09591854 0.032387443
0.0013862555 0.06390185 0.089048676 -0.05458656 -0.017095078 -0.055369735 0.052006982 0.0041861124
0.06556573 0.052866988 0.02821053 0.0524328 0.008118136 -0.051778704 -0.0855192 -0.08830878
0.09777041 0.04465282 0.112822756 0.08125449 0.1180644 -0.074296445 -0.061573476 -0.048697475
0.016944831 -0.097314715 0.040359825 -0.050583653 0.04567173 -0.08399664 0.020649329 -0.029355096
0.003127795 -0.019436477 -0.061628133 -0.05953625 -0.011496537 -0.053073026 -0.024879863 -0.017863134
0.012647234
00000000: a934 7a3c 4ffe 4bbd 1cbf a6bd 90a6 6abd
00000010: 9dbe 40bd f760 5fbd 0bd7 89bd 2d56 0ebd
00000020: 1e83 4d3c 6ffe 55bd 628a 5e3c e537 bdbd
00000030: a14c 8e3d be7c 44bc 1b00 ae3d c385 87bd
00000040: 4c8b 3a3c a1c8 d5bc 6ae0 94bd 90c6 c4bd
00000050: 6c77 d23d 9a09 743d 393c 9f3d f5c7 0f3d
00000060: a373 8d3d 0c06 00be 8bb8 31bd 0883 05bd
00000070: 79d6 6f3d 823e 143d 348a b33d c07f 5c3d
00000080: cb1d 813d d94e 133c 3574 823d f75f 36bd
00000090: addc e4bc baa1 31bd f170 c43d b2a8 043d
000000a0: 04b3 b53a f9de 823d 275f b63d 2896 5fbd
000000b0: fa0a 8cbc 60cb 62bd 4605 553d a82b 893b
000000c0: 5347 863d 0e8b 583d c519 e73c c7c3 563d
000000d0: ee01 053c e815 54bd b124 afbd 3cdb b4bd
000000e0: da3b c83d e0e5 363d 9e0f e73d c168 a63d
000000f0: c0cb f13d bc28 98bd 7834 7cbd 0177 47bd
00000100: e3cf 8a3c f04c c7bd 5850 253d ce30 4fbd
00000110: 4812 3b3d 6e06 acbd c828 a93c 197a f0bc
00000120: b1fb 4c3b 3f39 9fbc c86d 7cbd 48dc 73bd
00000130: f95b 3cbc 1a63 59bd dbd0 cbbc b555 92bc
00000140: 5836 4f3c

val_conv1.weight f4 [2, 128, 1, 1]
0.2652525 -0.18386853 -0.19918895 -0.062118057 0.2778379 -0.036983136 0.046092995 0.1838261
0.23560652 0.30599555 -0.47183362 -0.1730115 -0.30630204 -0.0074289595 0.3832886 -0.07694391
-0.20277232 0.12872367 0.010123646 0.18440875 -0.2881841 -0.23364545 0.12898327 -0.045033276
-0.10631697 -0.37886986 0.1379291 0.055348516 0.030088158 0.114736415 -0.16391517 0.11354321
0.02543403 0.19470352 0.1362469 0.19900818 0.07260684 -0.21647343 0.28409383 -0.23839755
-0.22202958 0.29289925 -0.1295156 0.010696898 -0.2836038 0.19990364 -0.5400801 0.09960938
-0.031046504 -0.28598085 -0.3926894 0.25291967 -0.13297787 -0.008925202 0.39084038 0.3048734
0.26332852 0.4107396 0.02306252 0.14310262 0.31509474 0.034834456 -0.2441606 -0.039825715
0.022982411 0.063435026 0.20800237 0.11565145 0.45926395 -0.15859355 -0.24812731 -0.18775664
-0.27482474 0.203962 -0.13506284 0.36091125 -0.34672564 -0.07511034 0.13706936 0.19831623
0.027550826 0.22326994 -0.30667642 0.09170619 0.18301207 0.063183635 0.0014615924 -0.21982002
0.011098327 -0.18949974 -0.29200625 0.139155 0.094181016 -0.41931337 0.16804542 -0.116155535
0.3080299 0.012453294 0.20324467 -0.12598577 0.05256941 0.011385532 -0.0011548698 -0.020112123
-0.092086 -0.04238596 0.093541615 -0.0059491247 -0.15267901 -0.18073112 0.022755628 0.069915146
-0.32833672 -0.0045964625 0.12837286 0.019651707 0.010515806 0.24696413 -0.063839614 0.3419516
0.27884832 -0.43550417 0.22358476 0.013732906 0.3656911 -0.0026295215 0.11397926 0.09402328
0.23040543 -0.21137191 0.18665428 -0.4464479 0.39500132 -0.1585635 0.13679801 -0.45967263
-0.09176899 0.26344854 0.3129477 -0.42901114 0.12748884 0.09376215 -0.0068073086 0.33343145
0.26402977 -0.26220194 0.033789013 0.10556744 0.18567362 -0.17426988 -0.27705827 -0.4114098
-0.14876978 -0.016389824 0.25078797 -0.5258896 0.2935725 -0.66619897 -0.59688836 0.13233288
0.034845766 -0.39646587 0.1618959 0.14192452 0.08053909 0.092160985 -0.38315547 -0.013533132
0.3992701 -0.35777897 0.3769333 -0.029540837 0.01378966 0.14435679 0.18607944 0.18144882
-0.048631035 0.23063144 -0.07730947 -0.098876245 0.26425138 -0.50588584 0.30480596 -0.28534836
-0.12698172 -0.2861139 -0.05125148 -0.5668566 0.4856128 0.40837273 -0.21573791 -0.10475256
-0.2904826 0.34816244 -0.026611293 0.38428873 0.05627557 -0.3901546 0.14964803 -0.20001185
-0.13952911 -0.31376043 -0.67556566 0.29848802 0.23586714 0.15496933 0.103404164 -0.47190043
0.20104174 -0.07274053 -0.020519251 -0.17072679 -0.5107022 0.011236004 -0.013240635 0.10406836
0.0016648055 0.0643574 -0.20192851 0.18829049 0.18582617 -0.096683584 0.14704946 0.5074717
0.24074355 -0.00050256256 -0.23909986 -0.0154295415 -0.52354103 -0.05499581 0.080320224 -0.13528699
0.5042489 -0.47204718 0.0077314586 -0.06783341 -0.15393032 0.05269844 -0.4063685 -0.21867384
-0.2714911 -0.14515437 0.22715816 0.07701994 0.003729862 0.31409022 0.61088824 -0.3664318
-0.044233948 0.27704528 -0.4752687 0.00555808 -0.26659232 -0.44876078 0.42170918 0.14930665
00000000: 2dcf 873e 0848 3cbe 30f8 4bbe 816f 7ebd
00000010: c540 8e3e a17b 17bd 02cc 3c3d e93c 3c3e
00000020: d642 713e 73ab 9c3e 2d94 f1be ed29 31be
00000030: 9fd3 9cbe a16e f3bb 673e c43e c594 9dbd
00000040: 8ca3 4fbe 23d0 033e a6dd 253c a6d5 3c3e
00000050: de8c 93be c140 6fbe 3114 043e d074 38bd
00000060: b6bc d9bd 3bfb c1be 493d 0d3e 20b5 623d
00000070: 717b f63c edfa ea3d 61d9 27be 5889 e83d
00000080: 075b d03c 5c60 473e 4f84 0b3e cdc8 4b3e
00000090: e5b2 943d 36ab 5dbe bf74 913e 7d1e 74be
000000a0: b95b 63be e4f6 953e bd9f 04be 0b42 2f3c
000000b0: 8434 91be 8ab3 4c3e b042 0abf 0100 cc3d
000000c0: 3d55 febc 156c 92be 960e c9be b07e 813e
000000d0: 5a2b 08be 033b 12bc 3b1c c83e 5e18 9c3e
000000e0: ffd2 863e 764c d23e 9ced bc3c 7e89 123e
000000f0: 1954 a13e 93ae 0e3d 3c05 7abe 4a20 23bd
00000100: 9c45 bc3c 39ea 813d 93fe 543e abda ec3d
00000110: a524 eb3e 5966 22be 1615 7ebe 4743 40be
00000120: d4b5 8cbe 6adb 503e ea4d 0abe 5cc9 b83e
00000130: 0686 b1be 73d3 99bd e95b 0c3e 6913 4b3e
00000140: 45b2 e13c e0a0 643e b104 9dbe 74d0 bb3d
00000150: 8467 3b3e 6c66 813d e792 bf3a 8018 61be
00000160: c2d5 353c 380c 42be d881 95be a67e 0e3e
00000170: fae1 c03d 3eb0 d6be 1914 2c3e f4e2 edbd
00000180: 18b6 9d3e e708 4c3c 5f1f 503e 6a02 01be
00000190: 0653 573d 628a 3a3c 005f 97ba 2ec2 a4bc
000001a0: 9697 bcbd e79c 2dbd bf92 bf3d e0f0 c2bb
000001b0: e357 1cbe 9411 39be 036a ba3c ac2f 8f3d
000001c0: c01b a8be ec9d 96bb 2d74 033e 9efc a03c
000001d0: 7d4a 2c3c 2ae4 7c3e 58be 82bd 4814 af3e
000001e0: 35c5 8e3e 67fa debe 67f3 643e fcff 603c
000001f0: dd3b bb3e 0d54 2cbb f56d e93d 478f c03d
00000200: 67ef 6b3e e171 58be 4d22 3f3e d294 e4be
00000210: 9d3d ca3e 785e 22be c714 0c3e 365a ebbe
00000220: 61f1 bbbd bae2 863e ae3a a03e 59a7 dbbe
00000230: 6f8c 023e 5f06 c03d d80f dfbb 87b7 aa3e
00000240: e92e 873e 553f 86be 5966 0a3d be33 d83d
00000250: 3a21 3e3e ce73 32be 95da 8dbe 4ea4 d2be
00000260: 1b57 18be f443 86bc 4867 803e b3a0 06bf
00000270: 224f 963e 048c 2abf adcd 18bf 4582 073e
00000280: 6fba 0e3d 93fd cabe 0ac8 253e a954 113e
00000290: aef1 a43d e6be bc3d f42c c4be 12ba 5dbc
000002a0: 216d cc3e ce2e b7be 67fd c03e a0ff f1bc
000002b0: 07ee 613c 44d2 133e 9c8b 3e3e b8cd 393e
000002c0: 5631 47bd a62a 6c3e 6d54 9ebd a17f cabd
000002d0: f54b 873e bc81 01bf 870f 9c3e 2e19 92be
000002e0: 7f07 02be 857d 92be 12ed 51bd 841d 11bf
000002f0: 3ea2 f83e 3b16 d13e 66ea 5cbe 8388 d6bd
00000300: 23ba 94be 5942 b23e edff d9bc 7ec1 c43e
00000310: 3681 663d 58c2 c7be 553d 193e e8cf 4cbe
00000320: b8e0 0ebe 35a5 a0be dff1 2cbf 6cd3 983e
00000330: 2887 713e 48b0 1e3e 90c5 d33d ef9c f1be
00000340: e3dd 4d3e fdf8 94bd fd17 a8bc 01d3 2ebe
00000350: 61bd 02bf 3717 383c 40ef 58bc cb21 d53d
00000360: 9a35 da3a d0cd 833d 59c6 4ebe 39cf 403e
00000370: 3749 3e3e 0b02 c6bd 2294 163e aae9 013f
00000380: 7a85 763e 67be 03ba 98d6 74be 30cc 7cbc
00000390: c906 06bf 4943 61bd ee7e a43d ac88 0abe
000003a0: 7516 013f 2bb0 f1be 2d58 fd3b 3eec 8abd
000003b0: e99f 1dbe 52da 573d 880f d0be 09ec 5fbe
000003c0: e200 8bbe 59a3 14be 269c 683e a1bc 9d3d
000003d0: b370 743b 6fd0 a03e 2c63 1c3f f39c bbbe
000003e0: a82e 35bd e1d8 8d3e 6b56 f3be 8e20 b63b
000003f0: ca7e 88be f9c3 e5be 44ea d73e d8e3 183e

val_conv1.bias f4 [2]
-0.00594438 0.046010077
00000000: 13c9 c2bb 1075 3c3d
