current_policy.model (torch, 529587 bytes, 15 tensors)

conv1.weight f4 [32, 4, 3, 3]
00000000: 85bd e43e 97dc 41bd 25af 95bc 6b4f 1abe
00000010: 999c df3d 4612 9dbd d840 6e3e c51f 73be
00000020: 94c8 873d 8dd5 673e c43f 80be d437 25bd
00000030: d8eb 7abe a537 083d 0d07 0e3e a307 1bbe
00000040: f727 513e 7256 7abe 2dfd 6d3d 6c28 a63d
00000050: 712a 613c 227f b93d d081 833d a573 bebd
00000060: 640d c43d 4583 803c 1a97 443b 4e74 6abd
00000070: 5eab 17be cf2f 153e c16a 733c 544a 1a3c
00000080: faa5 b6bc 1083 16be 3441 1d3e 9e79 033e
00000090: 0d30 a2be 9e7b d2bd 1d31 70bb 4d0e 9ebe
000000a0: c4a4 09bd 57c6 81be 53a4 9cbe a60f c23d
000000b0: 3bf9 3cbe 1eba a2be d515 5abd 039c f0bd
000000c0: 0c13 52be 1902 0e3e 8620 bdbe dda6 d1be
000000d0: cd6b 3c3d db0a 8dbd 7a89 243c 42fe 7a3c
000000e0: 1cc7 2c3d d842 2c3c a334 e53d 8bb5 d0bd
000000f0: 726b 273c 642b 3fbd f933 173d 9139 f5bd
00000100: 85c6 ebbd 5ebc 17be ca93 06bd f0e0 5a3e
00000110: e462 0e3e e812 113e 2089 353d df81 333e
00000120: f42f 3e3e 010d 34be 5358 3ebe d34e 473e
00000130: 6851 013e 2510 353e f46b 433e 4716 19be
00000140: 8109 23be 3b4d d8be fc43 813e 7076 633e
00000150: 67f7 c7be 7207 453e c2a4 6fbe a677 0abe
00000160: cdd7 09be c1c7 1b3e e12b aebd 2e83 a13b
00000170: 3d84 573c 2687 843d 133e e13d 17fb 1ebd
00000180: 28d7 05bd e72b 5e3d 7eb3 383d 9b40 133e
00000190: ffd2 31be 95b4 853d 347f 263e 40ca ed3d
000001a0: 4f4e b43d db63 cebd 70eb b2bd ef07 cfbd
000001b0: c37c 9abe 0435 39bd 05cb 57bd 4f95 67bd
000001c0: f61f 41be 2607 b2bd 2279 5fbc fe53 f4bd
000001d0: 36ca 4a3e 7375 013d 41ed b93e bfcd 25bd
000001e0: b5ba b5b9 c4e5 f23e 767f bf3e 7157 82be
000001f0: 2dd2 a43e 9f7e d4be 4b30 17bd 73a6 113d
00000200: 5689 023e eb1c 33bc bbf7 993c da29 743d
00000210: 06a4 e43c 3469 d1bc 5389 4bbe 29af e03d
00000220: 5c30 a93d 89d0 083e b6b0 733c 9d97 13bd
00000230: 6808 4d3e a83d eebd 2a5c ecbd 84d1 10be
00000240: 0e9c 83be c895 84be c745 9bbd fc15 693e
00000250: 8156 39be 9a49 823d a2b2 59bd 9285 ee3d
00000260: 7270 523e 5e68 4ebe f711 dcbd 923a 5fbe
00000270: 1da1 153d 9480 013e a836 913e fa99 9e3d
00000280: 4e83 993e 41e1 35be 4164 bdbc 226a 3b3c
00000290: 313e 9f3c 7bb0 a63b bf96 26bd 9389 2dbe
000002a0: 890c ad3b 2403 4bbd 3a80 543e 08ac 9bbd
000002b0: 4a6c e6bc 0dc0 213a e1b8 50be 88d0 91bd
000002c0: bdbc 973d 94a9 50be 04c8 87bc 91fd dd3d
000002d0: c988 f13e 980a 493e 968f bd3e 3920 dbbd
000002e0: c8f2 893e 280f 463e dad2 983e a83a 8b3e
000002f0: 33b1 c13e 5201 77be 1b04 16be be9c 03be
00000300: 0c61 17bd 0259 c9bd dad5 c83c 3f0c 56bc
00000310: d6d3 6dbd 9ce3 09be 60be 6e3c 81aa 93bd
00000320: a891 4f3e 7b4b 683d d234 bd3d f7ca e13c
00000330: cb39 5d3d 9a78 d1bc 0d79 d93d 49e3 603d
00000340: 5b6c 043e ec96 f8bd 9709 433d b20a 753c
00000350: 7d94 98bd 3997 74bd f9c5 5bbd e222 313e
00000360: b261 223e 4074 063e b0c6 babe 82c1 f5bc
00000370: d508 0bbe a406 a53c 2778 9a3e 241c a5bd
00000380: 6095 903d 6c32 613d 8865 eebd d145 cc3e
00000390: 4505 8abe 159a 863d 0604 a6bc 1231 b53e
000003a0: 1cb2 1cbe 3652 683c cc40 1fbe c8b9 243c
000003b0: 7b85 a03c a26a adbc 85f7 bebc 6479 c73b
000003c0: 5bb9 4bbc fc1f b73c 2a0d c5bd cf05 e7bd
000003d0: 4478 793b 623d 30bd 74ad c73d 3a5f 04be
000003e0: 7101 643c 6aea d83d c1fb 8abd 05a4 053d
000003f0: 0a7d 46be dede 843e 24da b3bd cebe ae3d
0.44675842 -0.04732951 -0.018271992 -0.15069358 0.109185405 -0.07669501 0.23266923 -0.23742588
0.06630054 0.22640057 -0.2504865 -0.040336445 -0.2450403 0.03325619 0.13869877 -0.15139632
0.20425402 -0.24447039 0.058102775 0.081131786 0.013743029 0.09057452 0.06421244 -0.09299401
0.095728666 0.015687594 0.002999729 -0.057239823 -0.14811465 0.14569019 0.014856995 0.009417135
-0.02229594 -0.14698434 0.15356904 0.12839362 -0.31677285 -0.10277484 -0.0036650368 -0.30870286
-0.0336044 -0.25346634 -0.3059412 0.09475641 -0.18454449 -0.3178262 -0.053243477 -0.11748507
-0.20515078 0.13867988 -0.36938876 -0.4094762 0.046001244 -0.06886836 0.010042543 0.015319409
0.042182073 0.010513984 0.1119168 -0.101908766 0.010218488 -0.04667224 0.0369148 -0.119738705
-0.11512474 -0.1481795 -0.032855786 0.2137487 0.13904911 0.14167368 0.044320226 0.1753001
0.1857298 -0.17583086 -0.1858838 0.19463663 0.1262871 0.1768194 0.1908415 -0.14949904
-0.15921594 -0.42246422 0.2524718 0.22213149 -0.3905594 0.19241121 -0.23402694 -0.13522205
-0.13461228 0.15212919 -0.08504463 0.004928968 0.013154087 0.0647109 0.10998168 -0.038813677
-0.032675892 0.054241087 0.045093052 0.14380114 -0.17365645 0.06528584 0.16259462 0.11610842
0.08803999 -0.1007764 -0.087363124 -0.10108935 -0.3017331 -0.045216575 -0.05268385 -0.056538876
-0.18859848 -0.0869277 -0.01363972 -0.11930083 0.198037 0.03160615 0.36313823 -0.040479418
-0.00034662118 0.47440922 0.37401932 -0.25457337 0.321916 -0.41502854 -0.03691129 0.03555913
0.12747702 -0.010932188 0.018794885 0.059610225 0.027910244 -0.02556286 -0.19876604 0.10970909
0.08261177 0.133608 0.014873674 -0.03603326 0.20022738 -0.11632854 -0.115410164 -0.14142424
-0.25704998 -0.25895524 -0.07581668 0.22762293 -0.18099405 0.06361695 -0.053148873 0.1164657
0.20550707 -0.20157 -0.10745614 -0.21799687 0.036530603 0.12646705 0.28362012 0.077442124
0.2998299 -0.17761709 -0.023119094 0.011438878 0.019438835 0.005086956 -0.040671106 -0.16947012
0.0052810353 -0.049563542 0.2075204 -0.07601172 -0.028127808 0.00061702804 -0.20383026 -0.07119852
0.07409046 -0.20377189 -0.016574867 0.108393796 0.4717467 0.19632947 0.3702361 -0.10699505
0.2694304 0.19341719 0.29848367 0.2719319 0.37830505 -0.24121597 -0.14650004 -0.12852761
-0.036957785 -0.0983143 0.024516035 -0.013064443 -0.05806335 -0.13465732 0.014571756 -0.072102554
0.20270407 0.05671261 0.0923859 0.027562601 0.054010194 -0.025570203 0.10618792 0.054904256
0.1293196 -0.12138161 0.047616567 0.014956163 -0.07450197 -0.05971453 -0.0536556 0.17298463
0.1585758 0.13130283 -0.36479712 -0.029999498 -0.13577588 0.020144768 0.30169794 -0.08062008
0.07059741 0.054979727 -0.11640459 0.39897016 -0.26957145 0.065723576 -0.02026559 0.35389
-0.15302318 0.014179757 -0.15552062 0.010054059 0.019594898 -0.02116901 -0.023311386 0.006087469
-0.012434329 0.022354119 -0.096216515 -0.11280405 0.0038066069 -0.04302729 0.097498804 -0.12926951
0.013916359 0.10591586 -0.067862995 0.032627124 -0.19383636 0.25951284 -0.087818414 0.08532487

conv1.bias f4 [32]
00000000: 0276 963c e01c 86bd 9c27 593d b440 fc3c
00000010: 6304 b53c 6d76 32be af75 413e fea1 2bbe
00000020: 49b6 7abe 4301 273e f1d6 cf3d ea6e c6bd
00000030: c8c3 05bc 1f7d a43d 802a 7d3d 12f1 023e
00000040: bc44 883d 28ca a5bc 6cc6 09be 193a 923d
00000050: 3329 16be 9b23 bdbd 824a 90bb ea25 143e
00000060: 2ab3 133e d54f 6c3e 65e7 c83d 4ebb e23d
00000070: 7a84 b93d 7145 1bbe 4e47 88bd 1e5e 2fbe
0.018366817 -0.06548476 0.05301629 0.030792572 0.022096818 -0.17427988 0.18892549 -0.16761014
-0.24483599 0.16309075 0.10148419 -0.09689124 -0.008164354 0.080316775 0.06180811 0.12787274
0.06653735 -0.020237997 -0.13454598 0.071399875 -0.14664154 -0.09235307 -0.0044034133 0.14467588
0.14423814 0.23077329 0.0980976 0.11070882 0.09058471 -0.15163209 -0.06654225 -0.17125747

conv2.weight f4 [64, 32, 3, 3]
00000000: 477b 05be a169 eabc 87d4 61bd f610 0cbe
00000010: 5883 f73d 5c50 b2bc 05be a4bb befe 33be
00000020: edde c93c 497d 1fbe 35dd 393b 96c8 c1bd
00000030: 1242 aabc b990 ef3d 6034 b93d 8cd8 ac3c
00000040: d59b 6fbe 4cf4 3bbd 3e3a 8cbd 698c 0e3e
00000050: 8a43 3dbd 618f 8e3c 5406 d23d c92b 82bd
00000060: 680d d93c f3c6 673e 7d89 16ba 8a29 363e
00000070: 3ffb d4bd 7837 22be e4a2 2ebe 1ff8 28bd
00000080: 5a51 07be 4100 ecbd 04c8 223e 6c8a b53d
00000090: 38ea b0bd a97f c33d 333b 98bd c40a b7bd
000000a0: 0fc6 02bc 293c df3d 396c 6bbd d337 2abe
000000b0: 3ef4 6cbd 51c9 4b3d 0aea c33d 4ba5 193e
000000c0: 401d 213e 8fb1 6d3d e68f a63d 79bd 6c3e
000000d0: 0b34 233e b6af 203d 1919 113d d6e8 3cbe
000000e0: 08a5 763c 0c35 a6bd 953c 463e ad51 d2bc
000000f0: 6229 eabc 1d47 6fbe 68ae 90bd 19ce e83d
00000100: 8c7c edbd dc22 603d 31b0 e83d 267a 583d
00000110: da27 2cbd ff7c a8bd d5ac 08bd d775 98bd
00000120: d97e 9f3b e782 c9bc 6838 9e3d f9e7 f43c
00000130: b247 673d bfde f0bd 9571 973d 0c46 98bd
00000140: 77f7 0dbc a333 34bd aca2 173d 9299 0c3e
00000150: 54e3 c33c 0918 ac3d f5c4 bfbc 814a 21ba
00000160: 55fa d4bc efa5 35bd c0ab a4bc fb91 39bd
00000170: 281a f3bd 8410 02be 7819 fc3d b5b1 08be
00000180: a937 1fbe 2406 2ebe 2da2 583e 4f24 11be
00000190: 1d12 5cbe 1bba 82bd b6d0 a1be 1f11 2c3e
000001a0: e3cd 2e3e 8996 aebd f3cc e6bd a5ee 343e
000001b0: d681 d03d a3a6 cc39 ebaa 913e 07cc 66be
000001c0: e804 5a3d a8e3 8b3d 9771 a5bd 62fd 6cbd
000001d0: ca96 03bd dff5 b9bd fd6c 513e 69e4 2f3d
000001e0: 3f86 593d d7f6 f6bd 2383 13be 408e eebc
000001f0: 052c 853d 0870 8abe 7c32 bdbe 12d0 46be
00000200: 9dac 27bd 6f63 5c3d 8848 a0bd fe92 df3d
00000210: 3355 03bd 0d08 cd3d 3cb9 923c 59a7 f73d
00000220: fab2 33be 528d 4e3c 286e 17be d77c 8abd
00000230: e054 abbe 866a 233c 6adb 0c3e 2612 173d
00000240: f7b9 753c fe0f 62be efb5 8a3d f34a 1cbe
00000250: cc23 b6bc da93 3e3d 0d50 6bbe b374 a53c
00000260: 3db7 e8bb 17d0 9abb 5696 72bd a7df 293e
00000270: 70e7 d33d ef59 743d 673f b73c ad67 243e
00000280: 3262 e2bc f90d 553e 38fe cf3d f369 31bd
00000290: b066 05bc 0187 6a3e 57db 023e 1fac 133e
000002a0: 3820 823e 92d3 63bd c68b 20be cb74 10be
000002b0: ae54 99bd 9794 8abd a0be 1cbe b853 1bbc
000002c0: 51c7 58be b535 353e 423d bd3c e8a9 7e3d
000002d0: 799a 883d a67a 8ebe fa59 01bd 4fcd 6dbd
000002e0: 9d21 89bb 1b1c 9d3d 4204 a33d b0b9 623e
000002f0: 8975 563e 0ac7 09be 93bc 6a3d e55e bcbd
00000300: 9370 053e f805 043d c567 363a 0025 37be
00000310: 9980 bebd e5d3 bfbc 497c a2bd ea07 413e
00000320: 7ff9 64bd bed0 fa3d 0405 be3c f5e3 e93d
00000330: b84d 0fbc a553 c23d 131d fdbb 0c8b c33d
00000340: 7094 93bd b6b0 4f3e a814 3cbd 3351 abbd
00000350: 7cde 863c 782d acbd 8dcd 21be da25 13be
00000360: 9995 083e cc9f b3bd 4511 a33c 0da4 283e
00000370: a8d7 5abd fdbb 6c3d 7581 0c3e 4bff 7abe
00000380: c0ef 51bd 1415 8abe a243 36be 0081 92bb
00000390: a082 e3bd 0dba a7bd 95d0 60be f79c 233d
000003a0: a667 eabb f6e9 a5bc f7ca 2b3e 988d fbbc
000003b0: d81a 4e3c 0b70 95be 223a 28be 0f68 a1bd
000003c0: d29b 2abe 8e3f 583d 0fe9 823d fe0d d3bd
000003d0: 3049 43bd 8e12 d23d 7503 2a3c ed11 e53d
000003e0: b27d 19be d027 1b3e 62e4 b2bd 3588 4ebc
000003f0: 6171 c33d 105d 24be 11d2 3f3d 67a9 05bd
-0.13035308 -0.02861482 -0.055134322 -0.13678345 0.12085599 -0.021766834 -0.005027535 -0.17577645
0.024642432 -0.15575136 0.002836061 -0.09462087 -0.020783458 0.116975255 0.09043193 0.021099351
-0.23399289 -0.045887277 -0.06847046 0.1392075 -0.04620699 0.017402353 0.10255113 -0.063560076
0.02649565 0.22634487 -0.0005742533 0.17789283 -0.10399484 -0.15841472 -0.17054325 -0.04125225
-0.13214627 -0.11523486 0.15896612 0.088642925 -0.08638424 0.095458336 -0.07433166 -0.089376
-0.007981791 0.109001465 -0.057476256 -0.16622858 -0.057850115 0.049752537 0.09566124 0.1500446
0.15733814 0.05803066 0.08132915 0.23119153 0.15937822 0.03923007 0.035424326 -0.18448195
0.015053995 -0.08115587 0.19359048 -0.025673712 -0.028584186 -0.23366971 -0.07064515 0.11367435
-0.11596021 0.054720744 0.11361731 0.052850865 -0.042030193 -0.08226966 -0.03336795 -0.07444351
0.0048674163 -0.024598552 0.077256024 0.02989577 0.05646486 -0.117612354 0.07394711 -0.074352354
-0.008664957 -0.043994557 0.03702037 0.13730457 0.02391211 0.08403022 -0.023409346 -0.00061527645
-0.025998274 -0.0443477 -0.020101428 -0.045305233 -0.11870223 -0.12701613 0.12309545 -0.1334904
-0.15548576 -0.1699453 0.21155615 -0.14174007 -0.21491285 -0.06383153 -0.31604546 0.16803406
0.17070727 -0.08524806 -0.1126956 0.1766916 0.10181014 0.00039034066 0.28450713 -0.22538768
0.053227335 0.06830531 -0.08078306 -0.057858832 -0.032126226 -0.09080099 0.20451732 0.04294244
0.053106543 -0.120588 -0.14405493 -0.029120564 0.06502537 -0.27038598 -0.3695258 -0.1941531
-0.0409361 0.053805765 -0.07826334 0.109167084 -0.032063674 0.10011301 0.017910592 0.12092466
-0.17548743 0.012606936 -0.14788115 -0.067620926 -0.33463192 0.009974128 0.13755575 0.036882542
0.014997951 -0.22076413 0.06772982 -0.15262966 -0.022233866 0.04652772 -0.22979756 0.020197248
-0.007101922 -0.0047245133 -0.059225403 0.16589223 0.103468776 0.05965608 0.0223691 0.16055174
-0.027634714 0.20806111 0.1015591 -0.04331393 -0.008142158 0.22903062 0.12778984 0.14421128
0.25415206 -0.05562169 -0.1567832 -0.14107053 -0.074868545 -0.067666225 -0.15307093 -0.009480409
-0.21169783 0.17696269 0.023100499 0.062173754 0.06670088 -0.27827948 -0.03157995 -0.058057126
-0.004184915 0.07671376 0.079597965 0.22141147 0.20943274 -0.13454834 0.057308745 -0.09197787
0.13031225 0.032232255 0.0006958212 -0.17885208 -0.09301872 -0.023416469 -0.07933862 0.18850675
-0.055902 0.12246846 0.023195751 0.114204325 -0.008746557 0.0948861 -0.007724413 0.095480055
-0.072060466 0.20282254 -0.045918137 -0.08365097 0.01646351 -0.0840711 -0.15801068 -0.14369908
0.13338317 -0.08770713 0.019905696 0.1646883 -0.053428322 0.057796467 0.13721259 -0.24511449
-0.051254034 -0.26969206 -0.17799237 -0.0044709444 -0.11108899 -0.08189783 -0.21954568 0.039944615
-0.007153469 -0.020253163 0.16776644 -0.030707166 0.012579642 -0.29187045 -0.16428426 -0.07881176
-0.16661003 0.052794985 0.06392109 -0.10305403 -0.04767722 0.10257445 0.010376801 0.1118506
-0.14989355 0.15151906 -0.08734967 -0.0126057165 0.0954311 -0.16051126 0.046831194 -0.032632258

conv2.bias f4 [64]
00000000: 1b93 0ebd 23c3 343d 0389 82bd c5a0 71bd
00000010: bc13 96bd cf6a a93d f384 053d e7ad d43a
00000020: a1c2 ec3c 0997 90bd f44c 26bd 8cd8 5dbd
00000030: 7a65 843d 60ba 6abc cb33 6c3d 47a3 c6bc
00000040: a607 48bd 8ee7 e4bc edd4 bfbc 7b38 f23c
00000050: 4146 933d 784f 833d b005 d7bc a481 be3d
00000060: bb40 14be cd67 9a3d 2349 873d ad23 4cbd
00000070: 5bfe 2d3d f2d9 0d3d 8d77 873d 8a2c eebc
00000080: 2f22 3fbe d6c0 5fbc 0680 00bc 9d4f aabc
00000090: d97b ecbc 033a f2bd 40de aabd bab3 7a3c
000000a0: 0a94 9e3d 64b7 ab3d e7d1 e3bc a937 93bd
000000b0: 33aa a6bd cbab aabc ee11 35bb 9c70 f5bc
000000c0: 77fa beb9 105e b4bc 26af 933c 6ab3 96bc
000000d0: 3c23 c8bd ddf8 e3bc b982 0f3d 7d0f 4fba
000000e0: c002 f5bc 561a c6bc ea04 24bd ef6a 51be
000000f0: 8089 9abc 7fea c1bb 414b 1bbc efa7 28bd
-0.03480826 0.04413141 -0.06373789 -0.058991212 -0.07327983 0.08272325 0.032597493 0.0016226143
0.0289014 -0.07060058 -0.040600732 -0.054161593 0.064646676 -0.014326662 0.05766658 -0.024247779
-0.04883542 -0.027942445 -0.02341696 0.029567948 0.07191134 0.06411642 -0.02624783 0.09302071
-0.14477818 0.0753933 0.066057466 -0.04983871 0.0424789 0.034631677 0.066145994 -0.029073972
-0.18665384 -0.0136568155 -0.007843023 -0.020789916 -0.028867649 -0.11827471 -0.08343172 0.015301639
0.0774308 0.08384588 -0.02781005 -0.07188351 -0.08137932 -0.02083387 -0.0027629095 -0.029960923
-0.00036426235 -0.022017509 0.018027853 -0.018396098 -0.097723454 -0.027828628 0.035036776 -0.0007898731
-0.029908538 -0.02418248 -0.04004375 -0.20450948 -0.018864393 -0.0059178467 -0.009478391 -0.04117578

conv3.weight f4 [128, 64, 3, 3]
00000000: af18 d43c 342a c83c 54f9 6a3c a3b5 0dbb
00000010: 08cc f33d 7a36 4c3d 3561 6b3d b3f7 c8bd
00000020: babd b9bd a3e4 3ebd 2480 7e3d ba37 fabd
00000030: 5fec 703d c557 dabb 9d2d 3cbd c4fc 363d
00000040: 4929 8dbc 3db2 0c3d 206a eabd de20 febd
00000050: 38b8 473d 42a8 863c 0e8f 13be 2f21 333c
00000060: 09d9 a2bd 1a53 74bc b83e 313d b813 8abc
00000070: 58ad 563d b4d8 b2bd 1080 b13d 79c6 e9bd
00000080: 340b 1e3e dbae 98bd e855 733d c7f5 2bbd
00000090: f78c 0abe 53d7 ae3b 9ad2 b8bd 422d dcbd
000000a0: c6f1 393d 513e 89bd 0321 3bbd bf99 64bd
000000b0: e80c c23d ac75 8a3d 560d 003d 64da a3bd
000000c0: 569e 8a3d dace c13d c0ad 343d 7a1b 7a3c
000000d0: 25b6 063e d715 a63d d019 5fbb 362a a2bd
000000e0: e8da c0bc e7ed 573b d5f1 b1bb ad14 093c
000000f0: d308 afbc 1042 533d 7c0a 78bc 157c a9bd
00000100: df0b 35be fe3a e0bd 6d44 82bc e46d c53b
00000110: 9615 233d ea7d ba3d 234a ebbc a6b7 c83d
00000120: 4234 93bd 8460 843d 9688 cb3d e25f 093e
00000130: 035e d43d 2250 d13d f0cd f63d 66d8 873d
00000140: b29f c43c b97e ca3c df54 cdbd fb2f 87bd
00000150: d70a e83c cca9 fc3d 47e2 9f3d 4de6 8f3c
00000160: 07fb e03d cd73 c73d 5bdb b33d ed9b 6c3c
00000170: 25b1 5f3d 1709 be3c cd75 a3bd f69b 183b
00000180: 7f68 eb3c de73 7bbd e58f 253d b319 ab3c
00000190: 8a42 febd 1782 ef3c 8502 5dbd f6c1 9e3d
000001a0: 8d8c 80bd becf 91bb e52e bebc b401 d83d
000001b0: cf14 cabd 8b3c 13be 2660 42bd 5dec 5d3d
000001c0: b96d 28be 5782 21be 4cdc 51bd 4624 763b
000001d0: 6735 673c ef52 323d c1b7 383d 1cab d0bc
000001e0: 850e c13d fce2 d3bd 1ffb 9d3d a696 76bd
000001f0: f7a7 cc3c d615 3abe 3c47 9c3d 8af0 14bc
00000200: 6b8c 68bd 753e 313d 50fd f5bd 348f d2bd
00000210: 79ec 6abd 4695 f6bd 9946 d63d 1c47 e8bd
00000220: 22a0 05be 97e0 f9bd c163 19bb 9f29 dcbd
00000230: 0533 42bd 90bf 9639 413f 6cbc 168b 10be
00000240: 9303 323d 8c82 503e a72c 533d af57 3c3e
00000250: 6db6 043e ba3f 6d3d 07c8 693c 8f0d b93d
00000260: dc9a 0ebe 221a b03d 0721 873d fd0e a73d
00000270: d2f0 37bd 82f7 dbbd c0fe 063d 930c c93d
00000280: 7156 ba3d 27df bb3c f30d 20bd 9709 4d3c
00000290: 326c 39be 0c0b 70bd d7c4 b1bc f400 40bd
000002a0: d3ec d0bd 0d2b 07be 5f33 e5ba 5670 1a3c
000002b0: 5f0e f9bd 0726 3ebd 129e 7e3d f8b0 283d
000002c0: 3373 4f3e aaa0 04be 5a8b 17bd a81f dc3c
000002d0: c5a5 8d3d 6927 37be 9127 25be ee5a cb3d
000002e0: c71b 0abd 263a b2bd 1407 6f3d 00cc 43bc
000002f0: bf57 113c 8691 da3d 2c4e bf3c 3c61 26be
00000300: af5f 08bd 1f7d 103b 2781 a63d 46e0 ca3d
00000310: 2a8e bb3d dcac eebb 4abc 58bd 36da c5bc
00000320: 2c9c b63d 0a5e 0a3c d365 be3d 7070 3f3d
00000330: 6235 6d3d 7c8b d4bd bdd4 823d c287 7cbc
00000340: 9c1c 863d c91d de3c cdde 6cbc 57b0 bb3b
00000350: 9424 ff3b 3830 d4bc ce89 91bd e3cf aa3c
00000360: a81e 9e3c 7300 ae3d 044c 723d a039 843d
00000370: 7688 3a3e db46 9cbd 900a 8fbd 5ae0 9cbd
00000380: 2655 d8ba 0294 843d 14a4 ecbd b5b1 f9bd
00000390: 813c f83c 96fc 4ebd 9050 fdbd 09ee 1d3e
000003a0: c666 d93d 3a5f 03bb b9ad e13b 0c0a 17bd
000003b0: 7ea8 1fbe 8a18 88bd b6d0 14be aab9 87bd
000003c0: 3c5f 4d3c 8092 163a 7721 f1bd 2e1e 973d
000003d0: b463 d5bc f8fd c9bd 8c42 5fbd 88c1 b0bd
000003e0: 35e0 023e bfca 463d 29e5 da3d 9223 053d
000003f0: 4764 223e 9821 a3bd 1561 603c e00a c5bd
0.025890676 0.024434187 0.014341671 -0.0021623156 0.1190415 0.04985664 0.05746575 -0.0981287
-0.090693906 -0.046604764 0.062133923 -0.1221766 0.05881917 -0.006663295 -0.045941938 0.04467465
-0.0172316 0.03434967 -0.11446023 -0.12408613 0.04875967 0.016437653 -0.1441004 0.010933205
-0.079515524 -0.014912391 0.043272704 -0.016855106 0.052411407 -0.08732739 0.08667004 -0.11414809
0.15433961 -0.07455226 0.0594081 -0.04198244 -0.13530336 0.0053357272 -0.09024544 -0.1075082
0.04539659 -0.06701339 -0.04568578 -0.055810686 0.09475118 0.067607254 0.03126272 -0.08000639
0.067684814 0.09463282 0.044111013 0.01526534 0.1315542 0.08109634 -0.0034042485 -0.07918207
-0.023541883 0.0032948197 -0.00543044 0.008366746 -0.021366512 0.051576674 -0.015139218 -0.0827562
-0.1768031 -0.10948752 -0.015901769 0.006025063 0.039815508 0.091060475 -0.028721875 0.09800653
-0.07187702 0.064637214 0.09938161 0.13415483 0.10369494 0.10220362 0.12050998 0.066330716
0.02400193 0.02471863 -0.100259535 -0.066009484 0.028325481 0.12337074 0.07806831 0.01756587
0.1098538 0.09738884 0.08782073 0.0144414725 0.054612298 0.023197694 -0.07981453 0.002328632
0.028736351 -0.061389796 0.04042043 0.020886278 -0.12415035 0.029236836 -0.05395748 0.07751839
-0.06276808 -0.0044498136 -0.02321572 0.105472 -0.0986725 -0.14378564 -0.047454976 0.05418049
-0.16448106 -0.15772377 -0.051235482 0.0037558242 0.014111853 0.043536123 0.045097116 -0.025472216
0.094265975 -0.10346028 0.07713913 -0.060202263 0.024982436 -0.18172392 0.076307744 -0.009090552
-0.056774538 0.043272454 -0.12011206 -0.1028122 -0.057354424 -0.120401904 0.10462684 -0.11341688
-0.13049367 -0.1220104 -0.0023405405 -0.10750126 -0.047411937 0.00028752955 -0.014419378 -0.14115557
0.04346044 0.203623 0.051556256 0.18392824 0.12960215 0.057922103 0.014268882 0.09035789
-0.13926262 0.085987344 0.06598096 0.08157156 -0.0449074 -0.10740568 0.032957792 0.098168515
0.09098519 0.022933556 -0.039075803 0.012514493 -0.1810768 -0.058604285 -0.021700306 -0.04687591
-0.10201421 -0.13200016 -0.0017486623 0.009426197 -0.12160944 -0.046422984 0.062162466 0.041184396
0.20258789 -0.12951913 -0.03699813 0.026870564 0.06916384 -0.17886128 -0.16128375 0.09929453
-0.033717897 -0.08702497 0.05835636 -0.011950493 0.008871018 0.10672288 0.023352705 -0.1624803
-0.033294376 0.0022047234 0.081301026 0.09906058 0.09157975 -0.00728379 -0.05291394 -0.024151903
0.08916506 0.008445272 0.09296765 0.046738088 0.057912238 -0.10378167 0.06388233 -0.015413227
0.065484256 0.027113812 -0.014457417 0.0057278085 0.007786343 -0.025901899 -0.07106362 0.020851081
0.019301727 0.084961794 0.059154525 0.064563036 0.18216118 -0.07630702 -0.069844365 -0.07659979
-0.0016504868 0.06473543 -0.11554733 -0.12192098 0.030302288 -0.050533853 -0.12368882 0.15422834
0.106153056 -0.0020045773 0.0068871644 -0.036874816 -0.15591618 -0.066453055 -0.14532742 -0.066272095
0.012534913 0.0005743876 -0.11773961 0.07378803 -0.026048519 -0.09862894 -0.054506823 -0.08630663
0.1278084 0.048533197 0.1068824 0.032504626 0.15858565 -0.07965392 0.013695021 -0.09621215

conv3.bias f4 [128]
00000000: 63f9 abbc ed89 8438 f159 24be 1979 8f3b
00000010: cc99 6fbd b656 903d f722 e0bc ba2c 82bd
00000020: 0d82 5339 742a 983b 8721 4ebd aad4 8d3d
00000030: 5c8b ff3b b69d e93c 1464 12be bef2 c63c
00000040: de4d 94bd 47b4 3a3d ff50 d73d 00c5 fb3c
00000050: 376a 1b3d e4a4 f9bc de24 9c3c fcd9 abbd
00000060: c433 9abc 1cd7 1abd dd87 2b3c 556e 5b3c
00000070: 3f2c 8fbd e3e6 a8bd a0c2 ebbc 2b7a 723c
00000080: cc25 873d ca71 963c cee5 123c 85fb 873c
00000090: 8acf e5bd daea 353b 13c3 45bd 0bff 3abc
000000a0: 10ae 2d3c 52d2 99bd 676f 12be c944 d2bd
000000b0: ba9a 3a3d 73b3 423d 7c9e 7c3d 22c4 06be
000000c0: 8507 a63b 7c87 913d 1a7a 933d d577 023c
000000d0: 78fe c33b f514 7abd 8e44 4d3d c78e f8bc
000000e0: 3a57 79bd 66dc b6bd c380 d1bd 35fb 08bd
000000f0: 9a22 04bd 529f dcbd d75f debc 23fb 63bd
00000100: dec4 dc3c cd35 4c3a b873 f03c 163f 21bd
00000110: 2a78 aebd 572c af3c 825d a63d 697a 57bd
00000120: 0afd 05bd 7b65 60bc f44f 1f3d 3545 88bd
00000130: 6117 dcbc 892f d83c 6a7a 5fbd f6b6 933c
00000140: e929 d5bc 3240 b7ba 6414 743b 4dd2 bbbd
00000150: 54ae 913c 4c91 09bd c57b d93d a23e f4bb
00000160: fc5d f63d 891b 353c 7394 4dbd 75fc 59bc
00000170: 1fe7 7fbd a8b6 50bd 5fbc 5b3d 9780 5bbd
00000180: cdbb a5bd 41e9 053e a471 eabb 4933 3bbc
00000190: 3d96 0bbc f137 57bd 5531 8d3c 7186 823d
000001a0: 6500 e2bc 6a14 22be 4312 82bd 7b85 9dbc
000001b0: 98f9 4fbc 1d7b a73d 5439 c93c 22ee d13c
000001c0: f88e 40bd cf85 22bc 5ac6 21bd 67b5 d13b
000001d0: ce33 083e 8ac4 44bd efb5 89bd 4331 55bd
000001e0: af38 cdbc d51d dbbc a3e5 02be f071 183e
000001f0: a78e cebd 1912 85bd f7ce 23be 56ec 81bd
-0.02099294 6.319941e-05 -0.16049935 0.0043784496 -0.05849628 0.07047789 -0.027360423 -0.06356187
0.00020170976 0.0046437327 -0.050324943 0.06925328 0.0077985954 0.028517585 -0.1429599 0.02428567
-0.072414145 0.045582082 0.10513496 0.030733585 0.03794309 -0.030474134 0.019060548 -0.083911866
-0.018823512 -0.0378028 0.010469404 0.013393004 -0.06990861 -0.08247163 -0.028779328 0.014799635
0.06599006 0.018364806 0.0089659225 0.016599426 -0.112212256 0.002775839 -0.04828174 -0.011413346
0.010600582 -0.075108185 -0.14300309 -0.10267026 0.045557715 0.047534417 0.06167458 -0.13160756
0.0050668144 0.0710592 0.072010234 0.0079631405 0.005981263 -0.061055142 0.050114207 -0.030341519
-0.0608742 -0.089287564 -0.102296375 -0.033442695 -0.03225956 -0.107725754 -0.02714531 -0.055659425
0.026949342 0.00077899994 0.029352054 -0.039366804 -0.08519013 0.021383448 0.08123304 -0.052606974
-0.03271202 -0.01369607 0.03889461 -0.06653825 -0.026866617 0.026389854 -0.054560103 0.018031579
-0.02602096 -0.0013980924 0.00372436 -0.09170971 0.017783321 -0.03358583 0.1061931 -0.0074537555
0.12029645 0.011053928 -0.0501904 -0.013304819 -0.062476274 -0.050955445 0.05364644 -0.05358943
-0.08092461 0.1307726 -0.0071546603 -0.011425802 -0.008519706 -0.052543584 0.017235437 0.06373299
-0.027588079 -0.158281 -0.063511394 -0.019228688 -0.012693785 0.08177779 0.024563469 0.025626246
-0.047011346 -0.009919598 -0.039495803 0.0063997987 0.13301012 -0.048038997 -0.06724154 -0.052048933
-0.025051443 -0.026747623 -0.12782912 0.14887214 -0.100858025 -0.064975925 -0.1599692 -0.06343906

act_conv1.weight f4 [4, 128, 1, 1]
00000000: f7b2 3fbd b7e2 bd3c fe6b 9fbd 5b45 90bd
00000010: 3942 2b3d ac89 a43e ad0d 8dbc 5c92 663e
00000020: 02ce b33d 0536 72bd 1785 9cbd 7d68 983c
00000030: 4108 1bbc 6c57 a6bd 0cac a23d 9ea4 4bbb
00000040: 990f ef3b 8a6a b23d fa13 6abd 4b04 5d3a
00000050: f58b 4f3c 4497 55bd e3a3 923c ab79 733b
00000060: 0b5a a93d 9bbc d43d 721b 903d 4059 c3bd
00000070: dabf ae3c 23b3 82bd 86c8 21bd d140 773e
00000080: ae53 d73e 88f2 88bc 7f67 f7bc c76d b53d
00000090: 9726 87be 425f a23d 445c 1e3d f181 363b
000000a0: 523d fbbc aa67 8c3e 0086 2ebe cfc3 47be
000000b0: 26d9 4ebd c2be f4bd 9956 02bd f5c3 f8bd
000000c0: d5f1 87bd f4e8 203d d210 6b3d 0d07 30bd
000000d0: cd59 db3d cf96 b73d 0658 3e3a 76b4 38be
000000e0: 0534 26bd 63f2 17bd 7be2 58bd 97ba 02bc
000000f0: 933e 5fbd 7fd2 db3d 5970 7d3c 1e85 e73c
00000100: 7c21 193e 03d9 39bd fcd4 013f 967d cb3c
00000110: 57f0 123f 4945 223b 35df bb3c a1aa 023e
00000120: 2dd6 32bc 4fee 4abc 3d5e 07bc 9b92 9ebd
00000130: 1481 a33d 3272 4f3d 210a 923d 5193 80bd
00000140: e8d9 93bd 08c9 56be 708d f53d f7ec f83c
00000150: 83c5 563d d881 71be 635f 763d 9698 d5bc
00000160: 71dd cd3d 0480 59bd 80d1 a03d 8e4b 9fbc
00000170: f126 06be c6be 2cbc 712c 8e3e 0ea4 fbbb
00000180: 042e 943d b5c1 9b3c e265 8abc 4be7 abbc
00000190: c1a8 243e e0a9 c13e ec4e 643e 0fe3 f83c
000001a0: c08e 42bc ed2d f73d 7933 333e e19d 883d
000001b0: c2e4 d13c 2441 843e 6313 453c 0187 0c3e
000001c0: 4256 cfbc 79fc cb3d 7b57 3e3d d2e9 11bc
000001d0: 88cc 103e a41a 773e c40e b83d 7f07 c8bd
000001e0: 45c4 0e3b fe7a 0ebd 73d9 15be 9af5 213e
000001f0: 5777 923c edb1 a83c da2a 06bd 5131 e9bd
00000200: f18a 633c b7cc 99bc 17ec bb3d c9e3 7f3b
00000210: 5b11 d5bc e6c5 b4bd ad87 883e a5c6 163e
00000220: 5e6f 2a3e bf9d 42ba bba3 deba e445 013d
00000230: 00b2 14bd e459 823e e244 d8bd 4a05 a23b
00000240: 5e5f 973d 61bf 0bbe b296 81bb 1933 a5bd
00000250: 35d7 76bc c27c e03c 0d80 f2bd 21f2 c33d
00000260: 4e6d 92bd ea21 30be 1c0b aabd 0b26 e2bb
00000270: d7b5 5bbd c10c 463d d7b2 eaba 0aea 79be
00000280: 93d0 ec3d 68b0 52bc 3694 7bbc 466a dabd
00000290: 5cae aa3e e42e fa3c 89cb 443d 3387 873c
000002a0: 637f 733c ae6f 81ba f3a3 733d e2c8 043e
000002b0: b37d 003d e663 563e a1cd 91ba 4bc1 0dbe
000002c0: 1917 a33e 0469 cd3d 1532 3e3d e968 00be
000002d0: 3a25 06be bd29 bd3d 961b a9bc fefd 8a3d
000002e0: 0843 d53d 508f da3b 6147 153f 461e 443c
000002f0: 3b75 513d 1b52 a13d cbf2 e7bc ba88 9e3e
00000300: 9734 eb3b c38d 72bc 85e2 293d 4bb4 8fbd
00000310: 2a2c 46be 66c3 a73b 1fbe e7bd d751 893a
00000320: 084d 74bd abfc bd3b 4d20 323d be4b 3f3d
00000330: b762 af3b 351f 603e 88c7 5cbc b3d8 1c3d
00000340: dc35 423e e9d4 3a3e 8a70 7a3d f8d3 d9bd
00000350: ad15 a2bc e729 3e3e b2a4 413e 2633 e43d
00000360: 94ee cd3d e05c 2f3d aa79 d43d 1f7a 003b
00000370: d951 013e f547 433c 61e8 5ebd cf7b ff3d
00000380: d09b 863d 305c a83d 7ed0 0d3e bd82 b23d
00000390: 1504 4bbe 50ef 7ebe 8416 8abe 69e3 ddbd
000003a0: b402 573a ad27 19bd c554 c13d 9b9f 1cbe
000003b0: e5ac 353e ebc5 503e dde4 dabd 91db c03c
000003c0: 8c3b df3b 6cbc fcbd b3ea a13c ad65 783e
000003d0: e455 b73d 2613 b43c 1fad 05bd b3ed a03c
000003e0: cdc4 463d 672d 24bd 4de6 67bd 59b1 2d3e
000003f0: ea27 803d 003b 6839 c74e 443d 969c 2c3e
-0.046801534 0.023179395 -0.0778427 -0.070444785 0.0418112 0.32136285 -0.017218435 0.22516769
0.08779527 -0.05913355 -0.076425724 0.018604511 -0.009462417 -0.08122143 0.079429716 -0.0031073461
0.0072955606 0.08711727 -0.057147957 0.00084311207 0.012667646 -0.05214621 0.017900413 0.0037151377
0.082691275 0.10387536 0.07036485 -0.095385075 0.021331716 -0.06381824 -0.039497875 0.24145819
0.4205603 -0.01671721 -0.030200718 0.08858829 -0.2639663 0.07928325 0.03866221 0.0027848447
-0.030668888 0.2742284 -0.17043304 -0.19508289 -0.050500058 -0.11950447 -0.031820867 -0.12146751
-0.06637923 0.03928466 0.057389088 -0.042975474 0.107104875 0.08964311 0.00072610413 -0.1803759
-0.040576953 -0.037096392 -0.052950364 -0.007979057 -0.054503035 0.10733508 0.01546868 0.028261717
0.1495418 -0.045372974 0.50715613 0.024840157 0.5739798 0.0024760535 0.022933582 0.12760402
-0.010915321 -0.012385919 -0.008262214 -0.077428065 0.07983604 0.050646015 0.07130838 -0.062780984
-0.07219297 -0.20975125 0.11989868 0.030386431 0.052434456 -0.23584688 0.06014956 -0.026073735
0.10052002 -0.0531006 0.07852459 -0.019445207 -0.13100792 -0.010543531 0.2776828 -0.007679469
0.07235339 0.019013265 -0.016894285 -0.020984313 0.1608 0.37824917 0.22295731 0.030381707
-0.011874855 0.120693065 0.17500104 0.06670738 0.025621776 0.25830948 0.012028548 0.13723375
-0.025309686 0.09960265 0.046470147 -0.008905845 0.14140522 0.24131256 0.08987191 -0.09767055
0.0021784466 -0.034785263 -0.14633732 0.15816346 0.017879171 0.020592654 -0.03275571 -0.113863595
0.013888107 -0.018774373 0.0917589 0.0039045683 -0.026009252 -0.08826809 0.26666012 0.14724214
0.16644046 -0.00074240187 -0.0016986051 0.031560794 -0.036302567 0.25459206 -0.10560013 0.004944478
0.07391237 -0.13647224 -0.003954732 -0.08066387 -0.015065958 0.02740324 -0.1184083 0.09567667
-0.071497545 -0.17200437 -0.083029 -0.0069015077 -0.053640213 0.048352007 -0.0017906082 -0.24405685
0.1156322 -0.012859441 -0.01535516 -0.10664801 0.3333615 0.030539937 0.04804567 0.01654396
0.014861914 -0.0009875202 0.059482526 0.12967256 0.031369876 0.20936546 -0.0011123904 -0.13843267
0.3185356 0.10029796 0.04643448 -0.1254002 -0.13100138 0.092364766 -0.020643037 0.067867264
0.10413176 0.006669916 0.5831204 0.011970108 0.05113719 0.078769885 -0.028314015 0.3096369
0.0071779 -0.014804306 0.04147579 -0.0701681 -0.19352785 0.005119729 -0.113155596 0.0010476661
-0.059643775 0.0057979426 0.043487836 0.046703093 0.005352344 0.21886905 -0.013475306 0.038292598
0.18965858 0.18245281 0.061142482 -0.10636133 -0.019785726 0.18570672 0.18910483 0.11142568
0.10055271 0.042813182 0.10374768 0.001960404 0.12628879 0.011919011 -0.054420833 0.124747865
0.065726876 0.08220708 0.13849065 0.087163426 -0.19825776 -0.24895978 -0.26970303 -0.10834391
0.0008202002 -0.037391353 0.09439997 -0.1529526 0.17741735 0.20388 -0.106881835 0.023542197
0.0068125185 -0.12340626 0.019765234 0.24257536 0.08951929 0.021981787 -0.032635804 0.019644594
0.048527528 -0.04008236 -0.056616116 0.16962184 0.06257613 0.00022147223 0.04792669 0.16856608

act_conv1.bias f4 [4]
00000000: 1db7 873d 017a a63c f08a ff3d e69b c2bc
0.06626723 0.020321848 0.12477672 -0.023755979

act_fc1.weight f4 [81, 324]
00000000: 6987 023c 8324 6bbc e942 e5bc 1c25 5fbd
00000010: 9f1c c5bc 45da 94bc 9c7b 13bd 1526 41bd
00000020: 3ac5 173b b99a c83c 8fef 88bc f341 22bc
00000030: fb6b 1b3c bedb 95bd aafa 9cbc 6da1 773c
00000040: e4fe 18bd a779 fb3c 3598 61bb 1e80 4ebd
00000050: 6a6c 5b3c b6d6 ff3b 13c2 0bbd fe7d af3b
00000060: 4e2d c7bc c860 6ebd 4933 8f3c d3f6 3b3c
00000070: bac7 bdbc 5521 7abd fcec 54bd 61db a03b
00000080: 1bf6 433d 1acf bebd 3a1e f0bc 6a74 8239
00000090: 4bb1 3fbc 4127 8eba 215b 94bd 1c88 c6bd
000000a0: c2bf 3ebd 89b6 0fbc e5e8 76bd f91f ccbc
000000b0: 86c3 16bd 6bfc b93c 123a c4bc 8264 70be
000000c0: 30bc 8abd b402 813c b757 12ba a053 49bb
000000d0: 31d4 0ebd e235 3abd 6115 7dbb a469 c2be
000000e0: 7514 90bd e911 b63d 911b 353c 8d8a babc
000000f0: cb55 09bc cc70 bebc 3ddd 8ab9 88a2 35bd
00000100: 46a6 f53d 8b57 343e aae2 303d 6c0d 42bd
00000110: e4cf 60bb d5a5 263c c0d5 fa3c c657 dcbb
00000120: 46c7 cf3c 149f edbd f3c8 183d c5f7 b8bd
00000130: f627 95bd c4b3 0dbd 2af0 0e3b b1e9 70bc
00000140: 37ea 0cbd bac7 debc ae23 71bd d55a 383c
00000150: f7b7 efbc 949f c43b a8d8 ab3c 3a99 ffbc
00000160: 5627 4bbd cc9b 8cbc 54ac 0bbc b06e 6ebd
00000170: 33a3 283c e40d a03a 8d55 2ebd 2936 213c
00000180: 8a48 d33c 76ee 9cbc 96de 92bb 70f1 17bd
00000190: fcd0 433c eb12 903c be9f 0dbc d82a 373c
000001a0: db50 3a3d da16 253c 9b64 fb3c b8c8 843c
000001b0: 740a 74bc 4bd7 d3bb 3b87 963c 2006 8a3d
000001c0: 5234 853d 95e9 a0bc 4a94 b93c 4b0e 1cb9
000001d0: 9a66 a3bc ec8e d9bc 17a1 593c 63ef f53c
000001e0: 031b a83d 33ce e439 f7f3 073d cc46 c23c
000001f0: 36eb 203c aafe c7bb 578d d23d e2b8 d63b
00000200: b656 b83d 5b6a 763d 1750 e03c 69b3 3e3d
00000210: 4e7f a93b c8ce 593c 2927 223a 19a2 a13c
00000220: 5a17 8b3d ca7d 343e 8989 fb3a 1040 423c
00000230: 6cb8 2abc 1b1f fcbb 9f7b 05bd ac5e 7bbd
00000240: b7b8 fcbe cfb4 053e fcd6 103d ae14 343d
00000250: b1ab 8e3c 5570 fe3c 41f7 863c 5743 f0bc
00000260: 6458 89bc bd0a 923d 516e a43d d96b 9ebc
00000270: 85ab 34bd dc36 04bd f330 e6b8 48f0 8e3a
00000280: 787e 49bb 2d79 11bd 95d4 9cbb fe3e b2bc
00000290: fae4 a6bc d3db efbc 49d9 08bd b9f4 8abd
000002a0: dc6f 1fbd c8ef 13bb 25ea b5bc a7b1 603c
000002b0: 10b1 1cbc 2a33 f3bb 587b 26bd 2231 5dbd
000002c0: 7ab4 05bd 2d53 8bbd d78b 20bd 3093 45bb
000002d0: 21d3 20bc 9c72 6dbd dc38 92ba ed89 5bbd
000002e0: 0196 3ebd 16c5 1e3d 5d01 40bd e2c7 66bd
000002f0: da0b 83bd 5803 2cbd 5b7d 34bd 671b 4ebd
00000300: eaee 0cbd 3466 78bd b0f5 9cbd 74e6 64bd
00000310: 10e2 6dbd d903 69bd 87f8 033b a7b2 03bd
00000320: d5be 80bd fcbe 2c3d c678 16bd c3dd 9ebd
00000330: 5ef9 efbc 7feb 03bd 36e8 70bc bd5c 023e
00000340: 36a9 a8bd fe2b ac3d 2fc7 0ebe 83bc 9ebd
00000350: 5215 cdbc 4a2c 71bd 5526 bcbc ea0e 90bc
00000360: 1e60 babd a8bb 933c b3be 3ebe d8a1 b7bc
00000370: adaa 5abd c7f4 94bd 422e 92bd a3a7 4dbd
00000380: 7440 0cbd 8a79 3dbf 9b5b babc f2f1 c13d
00000390: 2e96 2cbd e5f3 17bd 926b 91bd 1d88 83bd
000003a0: 25a7 20bd 251e 71bc cbd7 ac3c 5d85 4a3d
000003b0: 3f9a 913c e992 46bb 2d7d 3bbd ea01 07bd
000003c0: 3f9e 51bc 2af0 05bd d6d7 0bbd 68bf a9ba
000003d0: b53a 923a 38cb 9c3c 023c 1bba 1eff 053d
000003e0: bce6 87bb 9d5d 043c a47c 3f3d 64a3 1e3d
000003f0: d395 2b3d 3456 f93c 0552 2f3d 24cb 993c
0.007966855 -0.014351967 -0.027986007 -0.05447875 -0.0240615 -0.018170485 -0.036006555 -0.04715546
0.0023158328 0.02448784 -0.016715793 -0.009903419 0.009486194 -0.07317303 -0.019162495 0.0151141705
-0.037352458 0.030697657 -0.0034422998 -0.05041515 0.013392547 0.007807578 -0.03412063 0.0053555956
-0.024313595 -0.058197767 0.01748051 0.011472422 -0.023166526 -0.061066944 -0.05198382 0.0049089645
0.047842126 -0.09316845 -0.029311288 0.00024882267 -0.011699985 -0.0010845439 -0.07243944 -0.096939296
-0.046569593 -0.008771547 -0.0602807 -0.02491759 -0.03680756 0.02270337 -0.023953471 -0.2347584
-0.06774175 0.01574836 -0.00055825285 -0.003072001 -0.03487033 -0.045461543 -0.003861748 -0.37971222
-0.07035152 0.08890135 0.011053936 -0.022771144 -0.008382271 -0.023247145 -0.00026486246 -0.044344455
0.11994605 0.1761152 0.043184914 -0.04737608 -0.00343036 0.010171373 0.030619502 -0.0067243306
0.025363576 -0.11602607 0.037301015 -0.09031633 -0.072830126 -0.034595266 0.002181063 -0.014704154
-0.034403052 -0.027194846 -0.058871917 0.011252125 -0.029262526 0.0060004685 0.020977333 -0.031200994
-0.04959806 -0.017164133 -0.008524973 -0.05821103 0.010292816 0.0012211171 -0.042562056 0.009839573
0.025791425 -0.019156676 -0.0044821007 -0.037095487 0.011951681 0.017587146 -0.008644043 0.011179648
0.045487266 0.010076249 0.03068762 0.016208991 -0.01489507 -0.006464874 0.01837503 0.067394495
0.0650412 -0.01964263 0.022653718 -0.00014882644 -0.019946385 -0.026557408 0.013283036 0.030021375
0.08208277 0.0004364118 0.033191647 0.0237154 0.009821704 -0.0061033564 0.10280865 0.0065528015
0.09000914 0.060160022 0.02738194 0.046557818 0.0051726466 0.013293929 0.0006185645 0.019730614
0.06791563 0.1762611 0.0019190769 0.011856094 -0.010419946 -0.0076941377 -0.032588597 -0.061369583
-0.49359676 0.13057254 0.035361275 0.043965034 0.017415853 0.031059423 0.016475322 -0.029328985
-0.01676578 0.071309544 0.08028854 -0.019338535 -0.044108886 -0.03227888 -0.00010976372 0.001090535
-0.0030745547 -0.035515953 -0.004786084 -0.021758553 -0.020372856 -0.029279625 -0.033410344 -0.067849584
-0.038925037 -0.002257334 -0.022206375 0.013714231 -0.009563699 -0.0074218707 -0.040644974 -0.054001935
-0.03264282 -0.06802974 -0.03919586 -0.0030147545 -0.009815962 -0.05797063 -0.0011155861 -0.053598333
-0.046529774 0.038762175 -0.0468763 -0.056342967 -0.06398745 -0.041995376 -0.04406486 -0.0503191
-0.034407534 -0.060644343 -0.07664049 -0.05588384 -0.058076918 -0.056888435 0.0020137148 -0.032152798
-0.06286398 0.042174324 -0.036736272 -0.077571414 -0.029293712 -0.03220701 -0.014703801 0.1273069
-0.082353994 0.08406828 -0.1394317 -0.077507995 -0.02503458 -0.058880128 -0.022967497 -0.017585237
-0.09100364 0.018033817 -0.18627433 -0.02241604 -0.053385425 -0.0727325 -0.07137729 -0.0502087
-0.034241155 -0.7401358 -0.022748759 0.094699755 -0.04213541 -0.03709783 -0.071005955 -0.06422446
-0.0392219 -0.01471666 0.021098992 0.04944359 0.017773746 -0.0030299968 -0.045773674 -0.03296081
-0.012794076 -0.03269974 -0.034141384 -0.001295072 0.0011156412 0.019139871 -0.00059217226 0.032714
-0.0041473787 0.00807896 0.046749726 0.03873004 0.04189093 0.030436613 0.04280283 0.018773623

act_fc1.bias f4 [81]
00000000: 5845 b43b b33a 62bd 812b b6bd 6105 4fbd
00000010: 2268 a3bc b99f 83bd 0cc9 b1bd e322 00bd
00000020: a6be 593b 5a82 41bd 1126 e9bc 06fe 92bd
00000030: c1d8 8c3d a286 e13b e058 bb3d b3a3 5ebd
00000040: 3f7a 44bd 6016 6abc eb5e bbbd 7db1 92bd
00000050: e603 0d3e 16db 5b3d 23d1 cb3d 7508 cd3c
00000060: 5c6f b73d 17e7 f2bd d293 62bd 31d8 08bd
00000070: d4d3 883d 4b33 f13b 9980 533d ebc3 203d
00000080: d260 193d 76d9 7ebc e4d0 8a3d 4591 62bd
00000090: df4f 903b 8e13 1ebd 1a57 ee3d f439 923c
000000a0: 618e 163c f4cc 723d ff9f ea3d 7574 5bbd
000000b0: d98f ad3c ad9a 4ebd 86e5 883d 2396 34bc
000000c0: a1ff 253d 4770 723d 4a06 ae3b 57ac c93c
000000d0: ae39 733c 3e57 38bd c885 92bd a79c 8abd
000000e0: 5262 f43d a151 e63c b177 0e3e 52ac 7e3d
000000f0: 728f 273e f19f 63bd a020 39bd 4702 3ebd
00000100: 559e b8bc 2dd8 a7bd dd5e 6d3d 5221 f9bc
00000110: ffa6 473d fb7d 72bd 1290 2abc d53c d7bb
00000120: a2a0 463b 5caf 17bc af38 80bd 1f65 15bd
00000130: a3e8 ad3c 1914 78bd fbe2 21bc 21e3 abbb
00000140: 14fb 383b
0.0055014305 -0.05523176 -0.088950165 -0.05054224 -0.019947115 -0.06426949 -0.08680925 -0.03128327
0.0033225208 -0.047243454 -0.028460534 -0.071773574 0.0687728 0.0068825046 0.09147811 -0.054355334
-0.047968145 -0.014287561 -0.091489635 -0.071627595 0.13771018 0.053675734 0.09951999 0.025028447
0.08956787 -0.11860483 -0.055316754 -0.0334093 0.06681028 0.007360851 0.051636312 0.039249342
0.03744585 -0.015554776 0.06778124 -0.05531432 0.0044040526 -0.038592868 0.11637707 0.0178499
0.009189219 0.05927749 0.11456298 -0.05357786 0.021186756 -0.05044048 0.06684403 -0.0110221235
0.04052699 0.059189107 0.0053108083 0.02461831 0.014845295 -0.045005076 -0.07154423 -0.0676816
0.119328156 0.028115096 0.13912846 0.062176056 0.16363314 -0.055572454 -0.04519713 -0.04638889
-0.022536436 -0.08195529 0.057951797 -0.030411396 0.048743244 -0.059202176 -0.010410326 -0.006568531
0.0030308147 -0.0092581175 -0.062608115 -0.03647339 0.021229094 -0.06056604 -0.0098807765 -0.0052455817
0.0028225826

val_conv1.weight f4 [2, 128, 1, 1]
00000000: ef97 4c3e 930c 31be 7744 42be 6100 12bc
00000010: 32a1 933e 5133 c6bc c2af 8b3b ac6a 4f3e
00000020: dc53 2a3e fd23 a23e a162 d3be 7d09 7ebd
00000030: 0b9b aebe ea0c 3ebd 7bc9 c43e b2b3 b2bd
00000040: 7dbf 3bbe 0438 283e 4e30 7f3a ff55 5c3e
00000050: cfcf 5bbe 0b16 41be 52c5 0a3e 00d7 1b3d
00000060: df9a 47bd f7ff bcbe 60b2 da3d b6f5 ad3d
00000070: d544 763d aeac 643d c7e4 b9bd 1679 a43d
00000080: a7ac 973c a42e 013e 8f1b 0f3e 4ee8 653e
00000090: 2511 973d a1d1 2fbe 38f3 583e 1fb1 19be
000000a0: e05a 8cbe c5f0 733e 5de2 c13c 8845 b03b
000000b0: 4fc0 57be ed58 103e 2c9b ecbe 8867 113e
000000c0: 1d7b 1fbd 0267 5ebe 023a a5be 5ddf 763e
000000d0: 4c7c 7ebd fb88 9e3c f530 c53e 5468 953e
000000e0: 9f9c 413e ffab aa3e 48f7 f5bb 3ff1 3f3e
000000f0: 082b 903e 4968 f2bc 5e4d 62be 21b7 1ebd
00000100: 49d0 363d bb15 933d 7c40 4c3e 52c6 0f3e
00000110: 9bf0 cb3e a923 acbd d11b 71be 1c22 43be
00000120: 4a7f 92be 3567 1c3e 6c07 e6bd c4a8 d53e
00000130: feaf 7abe 3666 28bd b184 d23d a0fe 693e
00000140: e146 3e3d 9f94 453e b7fe b9be 1fba 0f3e
00000150: e477 3c3e 8f04 593d 8a42 9dbc 951c 2abe
00000160: 802a 643c d3d0 4cbe e1e9 e7bd 48f1 9e3d
00000170: 524e da3d 03ea 91be af99 f83d e573 55bd
00000180: dfea 743e 8ffd 823c 93b0 123e 303e c7bd
00000190: 6bc8 353d 6e76 d7bc 3b2d 3a3b 28f9 d4bb
000001a0: fcd4 edbc e65e 9bbc a572 8c3d ef23 933c
000001b0: e3b9 dabd 3a4a a9bd 9750 953d 3caa 573d
000001c0: c4a3 85be 2257 1b3d 50cc a83d 1efa b53c
000001d0: 26da 463c 9cb0 4a3e 4151 d9bc c2d3 813e
000001e0: 69d5 613e 893c d8be b1e9 583e fdc2 0e3c
000001f0: a9e6 9d3e 1473 4fbc 4eb3 e13d 1f3f d63d
00000200: 93e9 623e 46b1 4bbe 95a6 323e 51c1 eebe
00000210: cd06 a43e 45f2 12be fab7 ee3d 121b cbbe
00000220: 1c87 25bc ca4e 373e f79f a13e db35 debe
00000230: 6ba5 0a3e 0bef 5b3d 9009 d8bd feca 933e
00000240: a4de 9f3e d932 57be e2de c83c b489 c63d
00000250: a13d f83d 413f f1bd 1652 8cbe c993 a8be
00000260: 071e f8bd 7bb0 1c3d f7ec 933e 5202 edbe
00000270: 1b6e a53e 302f f4be 85d0 05bf f418 db3d
00000280: c842 243d d4a3 c4be b64d ec3d 7f6a f53d
00000290: 498a 8c3d 06d9 5c3d bca4 a5be 81eb 46bd
000002a0: ffc1 c93e fe6c 8cbe 8f96 b33e e3e4 43bc
000002b0: b292 1c3c d873 f53d 27bc 153e b2ab 273e
000002c0: c652 29bd 573a 4b3e 415f 28bd caba b3bd
000002d0: fae4 8e3e 453d 0dbf 7853 a23e d2f8 57be
000002e0: dd5e 82bd 4a58 80be 43e6 4abd 3131 03bf
000002f0: 7537 003f 4b61 d13e ca46 0abe d8ec 8dbd
00000300: 23a9 9ebe 2811 ca3e 7d8d 0cbc 9014 b63e
00000310: 43f7 353e b316 c0be 0811 2e3e 5150 4dbe
00000320: ac1e e6bd 8890 42be 94f1 11bf c254 5e3e
00000330: d3b1 a13e 4699 9f3d f11c 0f3e d634 d8be
00000340: daf4 363e 7d04 98bd ae6b 723d 0da8 1dbe
00000350: 3c8f f3be 98de 683b 8cdd babc 04cd 1d3e
00000360: c3ea 383b 30dc 183e 105b ddbd f0a3 293e
00000370: 7ac7 433e 118b 68bd 22fb c43d 02a0 e93e
00000380: 7e2a 433e 40ad bf3b 5d55 81be 26c2 44bc
00000390: e2cc efbe 97a4 07bd e00c 9f3d 7d49 b8bd
000003a0: 9b24 fb3e c0b1 d5be 69a8 343d f1af 8cbd
000003b0: 6668 1dbe 231c 8b3c 9412 c9be ca35 57be
000003c0: 20c3 a2be 3135 1dbe f985 653e e643 8d3d
000003d0: 1202 333b 8acf 983e 3142 193f 4943 e3be
000003e0: 6615 15bd a5f5 573e c5de e7be 0450 d938
000003f0: 8861 adbe f712 d4be ec4f bf3e 13c2 df3d
0.19979833 -0.17289953 -0.1897143 -0.008911223 0.2883392 -0.024194391 0.0042628953 0.20255536
0.16633552 0.31668082 -0.41286185 -0.062020767 -0.34102663 -0.046399035 0.38434967 -0.087256804
-0.18334766 0.16427618 0.0009734676 0.2151718 -0.21465991 -0.18856065 0.13551834 0.038046837
-0.04873168 -0.36914036 0.106785536 0.08494131 0.060124237 0.055828743 -0.09076839 0.08030908
0.018514944 0.12615448 0.13975357 0.22451898 0.07376317 -0.17169811 0.2118653 -0.15008973
-0.27413082 0.23822315 0.023667509 0.0053793825 -0.21069454 0.14096422 -0.46212137 0.1419965
-0.03893577 -0.21718982 -0.3227082 0.24108644 -0.062130257 0.019352427 0.38513914 0.2918116
0.18907402 0.33334348 -0.007506285 0.18744372 0.2815783 -0.029590743 -0.22099826 -0.038748864
0.04463223 0.07181879 0.19946474 0.14040497 0.39832005 -0.08405239 -0.23545767 -0.1905598
-0.2861274 0.15273745 -0.11231884 0.4173032 -0.24481198 -0.0411131 0.10279215 0.22851038
0.046454314 0.19294976 -0.36327145 0.14035843 0.1840511 0.052982863 -0.019196767 -0.16612466
0.013926148 -0.20001535 -0.11323906 0.077608645 0.1065947 -0.2849885 0.12138688 -0.05211248
0.23917721 0.015990047 0.1432517 -0.09728658 0.044380587 -0.026301589 0.0028408307 -0.0064994283
-0.029032223 -0.01896615 0.06857804 0.01796147 -0.10679986 -0.08266111 0.07290762 0.052652583
-0.26101506 0.037924893 0.082420945 0.022213992 0.012136972 0.19793934 -0.026528003 0.2535687
0.22054066 -0.42233685 0.21182896 0.008713481 0.30840042 -0.012661714 0.11020528 0.10461258
0.22159414 -0.19891843 0.17446359 -0.46631864 0.3203644 -0.14350231 0.116561845 -0.3966909
-0.010103013 0.1790115 0.31567356 -0.43400463 0.13539664 0.053694766 -0.10548699 0.28865808
0.3122455 -0.2101549 0.024520341 0.096942335 0.1212113 -0.11779643 -0.27406377 -0.3292525
-0.12115102 0.038254242 0.28891727 -0.46290833 0.32310566 -0.4769225 -0.522713 0.10698119
0.04010275 -0.3840624 0.1153826 0.11983203 0.06862313 0.053917907 -0.32352245 -0.048564438
0.3940582 -0.27426904 0.35075805 -0.011956426 0.009556459 0.11984986 0.14622556 0.1637409
-0.041338705 0.19846474 -0.041106466 -0.087758616 0.2790907 -0.55171615 0.31704307 -0.21091011
-0.0636575 -0.2506736 -0.049536 -0.51246935 0.5008462 0.4089454 -0.13503566 -0.0692994
-0.30988416 0.39466214 -0.008578655 0.35562563 0.17770104 -0.37517318 0.16998684 -0.2005017
-0.11236319 -0.19000447 -0.57009244 0.2171202 0.31580982 0.077929065 0.13975884 -0.4222781
0.17866841 -0.07422731 0.059184723 -0.15396138 -0.47570217 0.0035533067 -0.02281072 0.15410239
0.00282161 0.14927745 -0.108083844 0.16566443 0.19119063 -0.05677325 0.09618212 0.4562989
0.19059178 0.0058495104 -0.2526044 -0.012009179 -0.46836 -0.03311595 0.077661276 -0.08998392
0.49051365 -0.41737175 0.04410592 -0.06869496 -0.15371856 0.01698119 -0.39271986 -0.21016613
-0.31789494 -0.15352322 0.22414388 0.06897716 0.0027314466 0.2984584 0.59866625 -0.44387272
-0.03639736 0.210898 -0.45287147 0.000103622704 -0.33863473 -0.4142072 0.37365663 0.109256886

val_conv1.bias f4 [2]
00000000: f4a3 2d3b 51bc 383d
0.0026495429 0.045101468
