current_policy.model (torch, 529587 bytes, 15 tensors)

conv1.weight f4 [32, 4, 3, 3]
00000000: afc5 be3e 59d1 bdbc de18 94bd a6aa 1cbe
00000010: 1e41 ca3d 812e 03bd 60fc 583e 6f35 44be
00000020: 5701 383d 2704 293e 5b85 a0be 8588 85bd
00000030: d350 8abe d896 7c3d 2b20 c73d 0df6 22be
00000040: b5a8 8d3e 7c57 7abe 7725 a23b 9001 dc3d
00000050: 8b7c 4e3d 7692 9b3d 8e44 8a3d fcce 13be
00000060: e2e5 d73c bc84 cb3c dc16 c8bc cee5 a9bd
00000070: 74d6 0dbe af0b 163e b065 21bc d544 a23c
00000080: bdc0 cabc c69a 26be e9e1 303e 3646 0a3e
00000090: 7342 98be a74b b0bd 8368 313d c23c 91be
000000a0: c15f e23c 77f5 23be 7243 99be 5de9 383e
000000b0: 06bc 13be cc6f 8dbe 2f35 febc f0dc 05be
000000c0: 7388 64be e31c 4f3e a3df d4be 2a62 aabe
000000d0: d4c7 bb3d e2de 333d 6a7b cfbc 6ea2 fb3d
000000e0: 45e7 a5bd 375f c1bc 561b 1d3d 42c1 50bd
000000f0: 26fd 9c3d be32 a8bd b6ba 0bbc fb10 dbbd
00000100: 767c cdbd 146d 0cbe 0d16 57bc 0c92 6a3e
00000110: 1bbf 1c3e 3a24 233e 346c 6d3d 971c 403e
00000120: 8e54 4d3e 90b3 25be 0754 48be 4551 3b3e
00000130: ce74 be3d 29ac 103e 3dae 3d3e 64c0 39be
00000140: 0191 d6bd 957c 02bf 131d 4a3e 2209 8a3e
00000150: 284f c5be 4e90 553e c170 71be f35e e6bd
00000160: bac0 dcbd 0e92 d83d 3b42 e2bc 3b33 3abd
00000170: e6a4 c6bb a406 1a3e 163d 9c3d 7fc0 31bd
00000180: 6c9a 60bd 29c4 483d 06b2 353d 97c6 1b3e
00000190: 0174 25be 787b 953d 10b7 1a3e deda d53d
000001a0: 61a3 903d eeb3 dbbd c612 c6bd 9cb1 f8bd
000001b0: 3b57 94be 2951 d8bd 7d05 b7bd c0f7 0dbe
000001c0: 50b9 2ebe 07f6 10be 9652 81bc e056 6dbe
000001d0: 7bb5 f83d ff27 d43c fc8d ba3e abf7 1fbd
000001e0: cb87 b33c 99a4 db3e e906 c73e 6ede 9dbe
000001f0: 34f5 953e 7540 8bbe 5604 2dbd 3931 eebc
00000200: dfdc f33d 05a9 233d 9fc1 5eb9 8ea0 cbbc
00000210: 806c 093d c9ff b2bd ac58 8dbd 5788 cf3d
00000220: 0f74 b03d 1262 033e e2d2 aa3a b75f 12bd
00000230: 2eeb 443e 0791 04be a3fa f4bd 6038 1cbe
00000240: e3c4 88be 913e 75be 176a 98bd 2319 7e3e
00000250: e45b fcbd f200 663d a19c b23b 93ad f43d
00000260: 185d 133e 1319 80be bbe3 37bc 2328 86be
00000270: 5a6e 3c3d fded 203e 8712 ae3e 3276 9e3d
00000280: 413d b13e 26f1 68be 16ac 2fbd a977 9c3d
00000290: b17f 9bbc dfe1 24bd 01e4 92bc 8d07 33be
000002a0: 1134 e8bc 4f89 6ebd 2e97 0a3e 0987 ffbd
000002b0: 6ef5 07bd b6f7 babb 053c 6abe f21f b3bd
000002c0: c14d 603d 0c58 6dbe e016 35bd 5bc5 9f3d
000002d0: 93d6 f63e 9d74 353e e916 c33e 580e e0bd
000002e0: f744 913e 5cdb 343e a6e5 8b3e ba9a 8d3e
000002f0: 5404 b73e 5766 96be e8a3 13be df25 1fbe
00000300: 4d37 34bd 08c1 66bd 9ccf 9abb 3cbb d0bb
00000310: 71d0 08bd c5de 17be 69fb 213d bd0d 03bc
00000320: cceb 2c3e 2960 653d 8c6b 3c3c b957 f4bc
00000330: 4c03 403d 00e7 8ebb 5adf cbbc 0d69 123d
00000340: ad78 f03d 3f87 09be 6fd5 1d3d 1d6b 2e3c
00000350: 87dc a4bd 8135 98bd d6d1 80bd 8676 263e
00000360: 48c0 1c3e b222 343e d09a babe b2e1 0fbd
00000370: 9616 27be 4c98 543c 7af3 993e a9c2 00bd
00000380: ba4e 8a3d ba51 883d c158 26bd 7f49 d93e
00000390: a383 84be d5e5 d13d a35f b3bc 1bee b43e
000003a0: 11bd 30be c168 193d c73b f4bd 2c6f 293d
000003b0: 8d5a 81bc 7753 cc3c 67e5 57bd 7047 03bd
000003c0: f32b 69bd e26f e73b 036d 15bd b912 ecbd
000003d0: d1ab 913b 5d16 44bd c7f0 ed3d 8851 dcbd
000003e0: de43 f03c 0e74 ea3d d8b0 67bd c835 273d
000003f0: 7010 45be 2e70 863e 2909 ffbd 273a 553d
0.37260196 -0.023171114 -0.072313055 -0.15299472 0.09875701 -0.03202677 0.21190023 -0.19161008
0.044923153 0.1650549 -0.31351742 -0.0652018 -0.2701479 0.061667293 0.097229324 -0.15914173
0.27667776 -0.24447435 0.004948314 0.107424855 0.050411742 0.075962946 0.06751357 -0.14434427
0.026354734 0.024843566 -0.024424963 -0.08295785 -0.13851339 0.14652894 -0.009850904 0.019808212
-0.024750108 -0.16269979 0.17273678 0.13503346 -0.29738197 -0.086081795 0.04331256 -0.28366667
0.02763355 -0.16011606 -0.2993427 0.18057771 -0.14427194 -0.27624357 -0.03103122 -0.13072562
-0.22317676 0.20225863 -0.4157687 -0.33278018 0.091689736 0.04391373 -0.025327403 0.122868404
-0.08100752 -0.023604972 0.038356148 -0.050965555 0.07665472 -0.08212803 -0.008528402 -0.10696598
-0.10033505 -0.13713485 -0.013127816 0.22907275 0.15307276 0.15931788 0.05796452 0.18760906
0.20051786 -0.16181779 -0.19563304 0.1829272 0.092996225 0.14128174 0.18523498 -0.18139797
-0.10476876 -0.5097135 0.19737653 0.26960093 -0.38536954 0.20855829 -0.23578168 -0.11248579
-0.10778947 0.10574733 -0.027619472 -0.045459013 -0.006062138 0.15041596 0.07628839 -0.04339647
-0.05483477 0.049015198 0.04435923 0.15212475 -0.16157533 0.072989404 0.15108895 0.10442136
0.07062412 -0.10727678 -0.096715495 -0.12143251 -0.28972802 -0.10562355 -0.08936594 -0.1386404
-0.17062879 -0.14156352 -0.01578645 -0.23177671 0.1214399 0.025897978 0.3643645 -0.039054554
0.021915337 0.42899016 0.3887246 -0.30833763 0.29288638 -0.27197614 -0.042240463 -0.029076206
0.11907362 0.03995611 -0.000212437 -0.024856832 0.03355074 -0.087401934 -0.069016784 0.10133427
0.086158864 0.1283038 0.0013032819 -0.035735812 0.19230339 -0.12945949 -0.11961868 -0.1525588
-0.26712713 -0.23949648 -0.0744211 0.24814276 -0.12322214 0.056153245 0.0054508005 0.11947169
0.14390981 -0.2501913 -0.011223729 -0.26202497 0.046003677 0.15715785 0.3399851 0.07737388
0.34617046 -0.22748241 -0.042888723 0.07640011 -0.018981786 -0.04025447 -0.017930986 -0.17483349
-0.02834514 -0.058236416 0.13534233 -0.12476928 -0.033193044 -0.005705799 -0.22874458 -0.087463275
0.054761652 -0.23178118 -0.04421127 0.078013144 0.48210582 0.17720266 0.38103417 -0.10940236
0.28372929 0.17661804 0.27323645 0.2765711 0.3574549 -0.29374954 -0.14417994 -0.1554179
-0.04399805 -0.056336433 -0.004724456 -0.0063699763 -0.03340191 -0.14831074 0.039546404 -0.007998881
0.16886824 0.05599991 0.011500251 -0.029826986 0.046878144 -0.0043610334 -0.024886776 0.035744715
0.11741767 -0.13430499 0.038533624 0.010645655 -0.08049875 -0.0743208 -0.06290023 0.1625615
0.15307724 0.1759136 -0.36446238 -0.03512735 -0.1631721 0.0129757635 0.3006857 -0.031435642
0.06753297 0.06656213 -0.040611986 0.42438886 -0.2588168 0.10248915 -0.02189619 0.3533791
-0.17259623 0.037453417 -0.11925464 0.041365787 -0.015790248 0.024942143 -0.05270901 -0.03205055
-0.05692668 0.007062898 -0.036480915 -0.115270086 0.004445531 -0.04787289 0.1161819 -0.10757738
0.029329237 0.11447917 -0.056565136 0.040822774 -0.19244552 0.2625746 -0.12452919 0.05205741

conv1.bias f4 [32]
00000000: 0625 3abb 2f07 25bd d85f bc3d 84f3 b13c
00000010: eb9e 15bb 1fb0 3dbe 4df7 6f3e ee5d 42be
00000020: 98b6 80be 2994 383e 3084 a93d 8e43 eebd
00000030: 097a e53b 92ee d43d f668 233d 8549 1b3e
00000040: a0ab 2e3d afcc 97bc 5d15 30be ba1d a33d
00000050: 199c 02be be18 b1bd 1d70 233c aec8 043e
00000060: 862c 213e ed7b 783e d6af a53d c1d8 fe3d
00000070: 5d33 943d 7cbd 2abe cf32 c2bd c90d 31be
-0.0028403415 -0.040290054 0.09197968 0.021722563 -0.0022830318 -0.18524216 0.23434182 -0.18981144
-0.25139308 0.18025269 0.08277166 -0.11633979 0.007003073 0.10397066 0.03989502 0.15164764
0.042644143 -0.018530218 -0.1719565 0.07964654 -0.12754859 -0.08647297 0.00997546 0.12967178
0.1573964 0.24266024 0.08090179 0.12443686 0.07236359 -0.16673845 -0.09482347 -0.17290415

conv2.weight f4 [64, 32, 3, 3]
00000000: 833f 75bd f16a 693b a0ac 59bd cf03 c5bd
00000010: 0d5f d63d 17f0 5ab9 c58a 10bd bfa8 49be
00000020: ab1b 903c 013d 0ebe 284c 073d f581 1abe
00000030: f38f 02bd 4404 f23d 0e95 f43c 23cd cd3c
00000040: 00eb 7ebe 5bfd f3bd 758a e4bd 3ec1 c83d
00000050: 161d 33bd 049e 533d fe37 023e 653e abbd
00000060: 74b8 b8bc 3fc0 823e 3464 c0bb 254c 573e
00000070: d180 b5bd 69c9 31be 541f 21be f99e 7ebd
00000080: a2b2 18be 5123 89bd aaf9 0f3e 6e7f 6e3d
00000090: 13e3 8fbd fa84 643d 2563 c4bd b58b 22be
000000a0: 30d7 483b 8b2f e03b b03c 4bbd c9a0 6dbe
000000b0: ed28 f1bd bdce a03d 3d7c 0a3e 917c 0e3e
000000c0: 0682 f63d 3da7 603d a7ba f93c d72a 773e
000000d0: 8775 1c3e faba 07bc 5115 853c dd20 2bbe
000000e0: 2ec0 b53c 4dac 79bd 473f 383e 8cb0 49bd
000000f0: 2113 39bd 1a90 8bbe ebed ddbd b0cf b73d
00000100: 6625 bdbd 6a4a a33d c326 1e3e 68ba 403d
00000110: a9c0 ecbc 709c e8bd 3326 73bd 0446 cabd
00000120: 9081 993c ac91 0b3d 9992 133e 24b0 63ba
00000130: 2cb9 ad3d 744f 17be 2e96 5d3d 5cdc 87bd
00000140: e274 67bb 60d0 75bc b1f3 883d ba30 2b3e
00000150: cd17 503d fb20 a23d b7f7 85bc 3d63 6bbd
00000160: ccab 73bd 7e29 27bd a890 30bc 473c 82bd
00000170: 3a71 f7bd 1a79 aabd 3dcb 503d e78c 2cbe
00000180: b681 0cbe 43ce 4ebe 9e04 2e3e e841 acbd
00000190: 752b 3abe e060 603d caed a3be dced 2b3e
000001a0: b799 0b3e 4ef2 ebbc 7d55 0fbe 232c 363e
000001b0: 820b e53d 8d7a 933c 3d25 923e 8c18 83be
000001c0: a56f 9b3d 1701 943d 8917 74bd 1c5e 3dbd
000001d0: fecb 91bd 1e53 97bd 577c 6c3e 6e3d 513d
000001e0: d9fb bd3c b98e d6bd 1549 39be b6bc 18bd
000001f0: efef a43c 09d6 8ebe d688 aabe 7e35 50be
00000200: 65d2 42bd 91e5 a3bb 8c52 99bd ad34 fd3b
00000210: d6c6 403d 8863 da3d 4c04 243d 6aee 283e
00000220: 547a f1bd 073f dabc d94f 2abe 622f cbbd
00000230: 93a2 b4be 3484 0ebc 69d9 013e e4e1 163d
00000240: e8c7 2d3c 51ac 7dbe 1d5b 0a3d 28dd 17be
00000250: 98d8 32bd 1a2d de3d 4de7 88be c5bf 803b
00000260: 5267 47bd d1d0 6bbc 2265 70bd 4577 9d3d
00000270: 4be2 b73d 8ed2 323d fc60 fabc 92ac 193e
00000280: 1eeb 03bd da90 363e 1d5c a53d c8eb 60bd
00000290: c97e a63c 61fd 853e c890 083e ed1d 193e
000002a0: 58fb 6c3e 6b74 96bd 812e 22be 9764 a0bd
000002b0: e019 88bc c9c6 8cbd fe79 26be 479f 17bd
000002c0: 18ee 60be dc41 4b3e 5068 8b3c 6212 5e3d
000002d0: 4380 873d a72a 81be f681 3eba 0ac7 13bd
000002e0: 7363 d63c d807 203d 224b 963d a70b 5e3e
000002f0: fc63 293e b424 01be 18df f63c 71a9 adbd
00000300: 5bc0 273e af38 5a3d 7e0f 46bb ab15 4cbe
00000310: b216 a7bd 19d0 2abb 6a6a 5ebd 30ec 483e
00000320: 785d a3bd 98c8 db3d 4b57 ba3c e419 943d
00000330: 2251 6cbd f4c5 af3d fb36 aabc 8388 c53d
00000340: cab4 90bd 9b15 323e 6638 eebc b137 afbd
00000350: 802b bd39 904e b1bd 86a9 4cbe 0caa 3abe
00000360: 89dd 1a3e 7a20 c8bd b58f 49bb d6ae 2c3e
00000370: 5d15 2dbd c95e 0d3d ad89 193e 3fe7 92be
00000380: 03db 00bd be2f 70be c574 37be cae2 c0bc
00000390: e433 9bbd b522 a1bd 3c93 5fbe 8aa9 4b3d
000003a0: b706 62bb 12fc e1bc d315 333e e439 9dbd
000003b0: 12ff 93bb 40ae 9abe b9e1 17be 4cce 90bd
000003c0: 5362 44be 2440 5d3d 8ec8 df3d 6fab c5bd
000003d0: 3415 c63c 89b0 fe3d 6ad1 443d b192 b53d
000003e0: f3ba 2ebe ab23 113e b93b a4bd 934e 15bd
000003f0: d3bb d93d 2afe 25be 8354 69bb 2d81 9ebd
-0.059875023 0.003561672 -0.053143144 -0.09619867 0.10467348 -0.0002087954 -0.03528859 -0.19693278
0.017591318 -0.13890459 0.033031613 -0.15088637 -0.031875562 0.1181722 0.029856231 0.02512223
-0.24894333 -0.11913558 -0.11159221 0.09802483 -0.04372891 0.051664367 0.12716672 -0.0836151
-0.022548892 0.25537297 -0.00587132 0.2102514 -0.088624604 -0.17361988 -0.15734607 -0.062163327
-0.14911893 -0.06696189 0.14060083 0.058226995 -0.07025733 0.05579088 -0.09589223 -0.15873607
0.003064584 0.006841605 -0.049618423 -0.23205866 -0.11775384 0.07851932 0.13523956 0.13914706
0.12036519 0.05484699 0.03048451 0.24137436 0.15279208 -0.008284325 0.016245516 -0.16711755
0.022186365 -0.060955334 0.17992888 -0.049240634 -0.04518426 -0.27258378 -0.10836395 0.0897516
-0.09235649 0.07973178 0.15444474 0.04705277 -0.028900461 -0.11357963 -0.0593626 -0.09876636
0.018738538 0.03407447 0.14411391 -0.000868561 0.08482584 -0.14776403 0.0540983 -0.06633827
-0.003531747 -0.015003294 0.066871054 0.16717806 0.05080395 0.07916447 -0.016353471 -0.057467688
-0.05949001 -0.040811054 -0.010776676 -0.06359153 -0.12082143 -0.083238795 0.050975073 -0.16850625
-0.13721356 -0.2019587 0.16993949 -0.08411008 -0.1818064 0.054779887 -0.32017356 0.16789955
0.13632856 -0.028802063 -0.13997455 0.17790274 0.111838356 0.018002773 0.28544036 -0.25604665
0.07589654 0.0722677 -0.059592757 -0.046232328 -0.071189865 -0.073889 0.23094307 0.051083975
0.02319138 -0.10476441 -0.18094285 -0.037289344 0.02013394 -0.2789767 -0.33307523 -0.20332906
-0.04756393 -0.0050017317 -0.07486448 0.0077272267 0.047064625 0.10663515 0.04004316 0.16497198
-0.1179091 -0.026641382 -0.16632022 -0.09921147 -0.35280284 -0.008698512 0.12680592 0.03683652
0.010606743 -0.24772765 0.0337783 -0.14830458 -0.04366359 0.10848446 -0.26738968 0.0039291107
-0.04868252 -0.014393047 -0.058690198 0.076887645 0.08978709 0.04365783 -0.030563824 0.15007237
-0.032206647 0.17828694 0.0807421 -0.05491236 0.020324128 0.26169875 0.1333648 0.14952822
0.23142755 -0.07346424 -0.15838052 -0.07831686 -0.0166139 -0.06873853 -0.16257474 -0.037017133
-0.21965826 0.19849342 0.017017514 0.05421675 0.06616261 -0.25227854 -0.00072672905 -0.03607849
0.026170468 0.03906998 0.07338549 0.21684133 0.16542047 -0.12611657 0.030135676 -0.08479584
0.16381972 0.053276714 -0.0030221636 -0.1993014 -0.08158626 -0.0026063977 -0.054300703 0.19621348
-0.07976812 0.107316196 0.022746703 0.07231501 -0.05769456 0.085826784 -0.02077817 0.09645178
-0.07065733 0.17391054 -0.029079627 -0.08555544 0.000360813 -0.08657563 -0.19986543 -0.1822893
0.15123571 -0.097718194 -0.0030755822 0.1686357 -0.0422567 0.034514222 0.14993925 -0.28692052
-0.031458866 -0.23455712 -0.17915638 -0.023545641 -0.07578257 -0.07867948 -0.21833509 0.049722232
-0.0034488866 -0.027586017 0.17488794 -0.076770574 -0.0045164907 -0.30211067 -0.148322 -0.07070598
-0.19178133 0.054016247 0.10926925 -0.09651839 0.024180032 0.12436015 0.048051275 0.0886587
-0.17063503 0.14173763 -0.08019204 -0.036451887 0.10631528 -0.16210237 -0.0035603351 -0.07739482

conv2.bias f4 [64]
00000000: fcfc 59bd fc43 1e3d c39f b9bd c033 4bbd
00000010: b144 c7bc c132 a13d 3891 d83c d3b6 cebc
00000020: 19ad cc3c 3d9f d0bd 2181 4dbd 654c 4fbd
00000030: b567 773d 483d d33b 69c9 663d 809f d5bc
00000040: 8b10 b8bd 71ae 78bb 3d78 d2b9 1a51 de3c
00000050: 3baa b73d c780 183d 590f 20bd 4b87 cf3d
00000060: 0f70 25be 6d57 903d 95d1 bd3d 9f66 90bd
00000070: bac9 163d b208 a43c f433 923d 5b71 af3c
00000080: d6ee 43be 6255 22bd 709b 0fbd 8fa4 3abd
00000090: 8e81 d1bc 9426 cfbd 7d21 dabd e733 ad3c
000000a0: ab9d 903d e48e aa3d 5217 dabc 4065 50bd
000000b0: 7b9c 84bd 8ee0 11bc 8177 38bc 620b 22bd
000000c0: 03e2 53bc 7aeb 6c3c 2051 49bd e73b 87bc
000000d0: 506a e9bd 40b1 7fbd aa7c 213d 925d f0bc
000000e0: 9157 613c e958 9e3b 8ad3 76bd 4db3 60be
000000f0: 7644 86bc 29d3 a8bc 3417 bcbc c636 ffbc
-0.05321978 0.038639054 -0.09063675 -0.0496099 -0.024324747 0.07871009 0.026436433 -0.025233662
0.024984883 -0.10186622 -0.050171975 -0.050609965 0.060401637 0.0064465143 0.056344423 -0.026077032
-0.0898753 -0.0037945772 -0.00040143906 0.027138282 0.08968016 0.037232187 -0.039077137 0.10133227
-0.16156028 0.07047925 0.0926849 -0.070508234 0.036813475 0.020023677 0.071388155 0.021416357
-0.19134077 -0.03963221 -0.035060346 -0.04556709 -0.025574472 -0.1011478 -0.10650919 0.021142913
0.07061323 0.083280355 -0.026622448 -0.05087781 -0.06475159 -0.008903636 -0.011258961 -0.039561637
-0.012932303 0.014460439 -0.049149632 -0.016508056 -0.113972306 -0.0624249 0.03942553 -0.029341493
0.013753788 0.0048323763 -0.060260333 -0.21943398 -0.016390067 -0.020608502 -0.022960283 -0.031154048

conv3.weight f4 [128, 64, 3, 3]
00000000: e1a7 a8bc 4cca 8dbc 325e c0bd 621b 1d3d
00000010: 38b9 803d ca11 e03c 5573 ae3c 7ddd 69bd
00000020: 0634 57be 6530 303b b86a 893d 9c50 b0bc
00000030: 8a8a 133d 68f7 4fbc 7437 3abd 37fb 7f3d
00000040: 9455 b03c 907c 213d f153 20be c6cf fbbd
00000050: ee66 243d d7dd 793c 01ed 12be 2978 853c
00000060: bd08 a0bd ac0e 083d 7945 a0bc 3e58 833c
00000070: 232f c73c e2d8 70bd 03c3 3e3d 20ee 13be
00000080: 6c83 c23d b17a 62bd 502f 153d 3ff1 c1bc
00000090: 7793 81be 227d 8c3d ad63 c9bd 1d25 f7bd
000000a0: ed4e 00bd 7fd4 d0bc a498 f0bc 0eec 2cbe
000000b0: d5aa e9bc a749 d93d 99a5 c0bb 842a 9dbd
000000c0: 1bf1 77bd 8681 6c3d 3a1b 093d 2b46 b13c
000000d0: 5e24 f63d eebd c33d 3405 e3bc 31fb b8bd
000000e0: 7ccf 5ebc e270 183b 3a36 cb3c 4fb0 0ebc
000000f0: 50f5 73bd 2760 83bc cfc6 99bd da9f fdbd
00000100: 2f1c b2bd b6cd 93bd c09a 00bc a247 4fbd
00000110: e037 babc af33 843d 0811 0fbd b337 b93c
00000120: ba37 afbc 341b e23d 92c2 f83d d666 0f3e
00000130: 3ffe c03d e995 463d 8d2b 983d 2cc7 8b3d
00000140: c97e 3a3d e392 df3d 6635 bdbd 4cdd abbd
00000150: 64d5 773d bd22 d73d c942 7b3d 397e 5ebc
00000160: 90cd 133e 082a b03d d2ed 163d 2137 8f3c
00000170: a64f e63c 9f4c 2e3d 19b7 21be 07c9 b8bc
00000180: 1361 8dbb 2760 01be 2b25 873c 9452 1e3d
00000190: 4a3b b8bd 6465 b73d e67c 53bd f4eb 273d
000001a0: e7cb c7bc e8a9 533b 88a8 59bd 5960 273d
000001b0: ad8d 0a3d 4ac1 b7bd 1862 b1bd 0d4e c13c
000001c0: 7055 47be f41c 28be 75ce edbd ee30 4ebd
000001d0: a9a6 a1bd cf65 91bb d0b7 cc3d 6b7a 7c3c
000001e0: 167d 5f3d 8496 e9bd ba24 233d 10b9 a4bd
000001f0: 32e0 833c 6cf0 25be dd58 183d 1278 5d3d
00000200: 3820 27bd 68af 37bd 1499 97bd 4b91 22be
00000210: cbcf cbbd 1921 eebd 65ed 633a 0214 d4bd
00000220: 5c87 4cbd 279a 18be acf9 63bd bc4d 2cbd
00000230: 0a7f 90bd a0b6 12bc 2908 30bd 847d 6bbe
00000240: 653e 4d3d 9001 433e e821 713d 4b54 4f3e
00000250: d8df 083e 105a b03d 087e d63a 35cb 103e
00000260: a3fa 02be 9c9a 013e 8745 0c3d db2f 543e
00000270: 2fe5 88bd dfa0 3abe e64a 2d3d 5de0 d03d
00000280: 6964 f63b 485f 993d 0a1a 99b9 1d6b 403d
00000290: ead3 2abe 7154 6bbd dde8 58bd 5c1b 2ebd
000002a0: 88db d1bd c3ec 0bbe 1e73 46bc b953 b1bc
000002b0: 577b d2bd a411 69bc 05e1 673d 4099 ad3d
000002c0: 6e33 123e d48b fcbd a110 8d3c 5d50 c8bd
000002d0: f63b c93d e471 52be baf5 41be e1d4 dc3d
000002e0: 48bc 9bbc cc41 febd 1fbb a53d afe7 5d3d
000002f0: 63e8 983d 40cd d53d d7f2 d63d 78f9 51bd
00000300: 672a 5abd 65e3 323d 8bdd a73d a667 793d
00000310: f9d3 133e 9b77 3abd 86e3 8ebd 282f 323d
00000320: 3f8b e53d 7751 48bc bff2 f63d 6248 c1bc
00000330: 77f5 3c3d 2c7b 353d e3ac 0cbe 3769 103c
00000340: 36c6 663d ba95 a33d 5cfb c5bb ed7e 833c
00000350: 819d 2fbd eea0 79bd ce5e 86bd b3c0 f43c
00000360: cae1 ae3c cc9e aa3d 6ed9 a83c f637 40bb
00000370: 92bb 4b3e 4af9 b1bd 38d9 6ebd 85a5 a0bd
00000380: cd48 133d 26ce f23d 3cfe 66bd baa6 64bd
00000390: bb4a 923c ef79 2c3c bad4 10be a587 da3d
000003a0: 4aeb 2a3e 6ab0 d8bc d1f2 963c 5be3 36bc
000003b0: bf54 eabd 75cb 91bc 0a1d 39be e5ee c6bd
000003c0: 6011 ffbc 53e5 7d3b 0be5 47be 1964 ec3d
000003d0: 127d 083d 0bbb d1bd 9a48 54bd a68d 95bd
000003e0: 14a3 1a3e 6cf1 7f3d dea7 c03d 8860 3dbd
000003f0: b4df 333e 0be4 babc c504 8d3d df20 d3bd
-0.020587863 -0.017308377 -0.09392966 0.038356192 0.06285328 0.027352232 0.021295229 -0.057095993
-0.21015939 0.0026884314 0.06709808 -0.021522813 0.036020793 -0.012693264 -0.04546304 0.062495437
0.021525182 0.039425433 -0.15657021 -0.12295489 0.040137224 0.015250645 -0.14348222 0.016292648
-0.07814167 0.033217117 -0.019564377 0.016033288 0.024314469 -0.058800586 0.046572696 -0.14446306
0.09497723 -0.05529279 0.036422074 -0.023674605 -0.2530782 0.06859805 -0.09833465 -0.12067626
-0.03132527 -0.025491951 -0.02936966 -0.16886923 -0.028523842 0.10609751 -0.005879116 -0.07674125
-0.06053267 0.05774071 0.03347323 0.021639904 0.12018655 0.095577106 -0.027712442 -0.09032286
-0.013599273 0.0023260643 0.02480613 -0.008709027 -0.05956012 -0.01603706 -0.07508623 -0.12384005
-0.08696782 -0.072169706 -0.007849395 -0.050605424 -0.022731721 0.0645517 -0.03492835 0.022609567
-0.021388877 0.11040345 0.12146486 0.14004073 0.094234936 0.04848281 0.07430182 0.068250984
0.045531068 0.10916688 -0.092387006 -0.083918184 0.06050624 0.10504673 0.06134299 -0.0135798985
0.14433885 0.08601767 0.036847897 0.017482342 0.028114151 0.04255354 -0.15792502 -0.022556795
-0.0043145507 -0.12634335 0.016497215 0.03865297 -0.089956835 0.089548856 -0.051632784 0.040996507
-0.02438922 0.0032297317 -0.05313924 0.04086337 0.03382652 -0.08972414 -0.08661288 0.023596788
-0.19466186 -0.16417295 -0.11611644 -0.05033963 -0.07893116 -0.0044371854 0.09995997 0.015410046
0.05456265 -0.11405662 0.039829947 -0.0804311 0.016098116 -0.16204995 0.03719412 0.054069586
-0.04080221 -0.044845015 -0.07402244 -0.15875737 -0.09951743 -0.116274066 0.00086947373 -0.10355379
-0.049933776 -0.14902554 -0.055658028 -0.04206632 -0.07055481 -0.008954674 -0.042976532 -0.22997099
0.050108332 0.19043565 0.058870226 0.20246999 0.1336664 0.08610928 0.0016364465 0.14140017
-0.12790923 0.12656635 0.034245994 0.2072138 -0.06684338 -0.1822543 0.042307757 0.10199044
0.007519294 0.074888766 -0.00029201835 0.04697715 -0.16682401 -0.057453576 -0.05295645 -0.04250656
-0.102469504 -0.13664536 -0.012112407 -0.021646367 -0.102774315 -0.014225397 0.05661108 0.08476496
0.14277431 -0.123313576 0.017219843 -0.09780953 0.0982589 -0.20551258 -0.18941393 0.10782791
-0.019010678 -0.124148935 0.08092331 0.05417603 0.07466199 0.10439539 0.10495537 -0.051263303
-0.053263094 0.04367389 0.08196553 0.060889862 0.1443633 -0.04552422 -0.069769904 0.043502003
0.112082 -0.012226454 0.12058019 -0.023594085 0.04613253 0.04430692 -0.13737826 0.008814148
0.056341372 0.079875425 -0.0060419273 0.016051734 -0.042874817 -0.06094449 -0.06561051 0.029877042
0.021347899 0.08331069 0.020611491 -0.002933023 0.19895771 -0.08690126 -0.058312625 -0.0784407
0.0359581 0.11855726 -0.0563948 -0.055823065 0.0178579 0.010527118 -0.14143649 0.106704034
0.16691318 -0.026451308 0.01842633 -0.011162604 -0.11441945 -0.017797211 -0.18077484 -0.09713534
-0.031136215 0.0038741424 -0.19520967 0.115425296 0.0333224 -0.10240754 -0.05182705 -0.07302408
0.15101272 0.062486097 0.09407018 -0.046234637 0.17565805 -0.022813817 0.06885675 -0.10309004

conv3.bias f4 [128]
00000000: afd6 4abd b52c 6db9 6e87 3abe a8f4 f33c
00000010: 13b4 d6bd 8b8e 9b3d c55f 4abd 8c04 b0bd
00000020: b86a cb3b 7cfe 013c a427 b7bc b2d8 873d
00000030: d2f0 eb3c 3b4e 4f3d cbb0 0cbe 47c7 a53b
00000040: ce83 b9bd d75b 043d 29aa f93d 2471 313c
00000050: 1431 2d3d 1f9a 9a3c ed41 a43c b44d 36bd
00000060: 2e54 23bc f130 bbbc e09e dbb8 6f91 17bd
00000070: fc14 b5bd a8a1 e2bd adac 2cbd 47eb 80bd
00000080: 105f 8b3d fad5 453b 367d 27bd 7fd3 c23c
00000090: b752 efbd dc56 44bc 0bb9 52bd 54de fe3a
000000a0: 4d64 a73c afa4 9fbd 4cf0 31be ecd6 dbbd
000000b0: 8d70 3e3d 50cf dd3c 960d 643d f088 06be
000000c0: a45c 693c 6979 a03d ea51 b73d 5817 a5bc
000000d0: e7a7 4aba 24d1 b7bd c56d 013d 1f2a 85bd
000000e0: e120 8abd 2a28 8dbd db35 bcbd c819 bdbc
000000f0: 3e55 5bbd 15d8 efbd afaf 94bc 4178 adbc
00000100: b53b ffba 5775 5d3d 2dd4 4b3c 8562 59bd
00000110: 42e0 a8bd b87e 293d 9278 ea3d e696 0ebd
00000120: d9e8 123d cc15 e8bb a6fb 723d a811 92bd
00000130: 7263 2bbd 4ba1 3a3d e559 d0bd ee5e 143c
00000140: dacd 01bd 1ebb 11bc 1163 bcbb 93e4 f7bd
00000150: df40 ecbc 4e63 42bd 038d ec3d 7c97 51bc
00000160: 335e 083e a34d 253d 08d4 02bb 5026 fbbc
00000170: 86c7 a4bd 3bab 18bd a112 2c3d fde5 ea3a
00000180: 4602 9ebd 49ae 1c3e cdf9 b8bc 4461 c0bb
00000190: bf62 c63b 8d10 5fbd 8950 8a3c a935 983d
000001a0: ebee b9bc 12e1 e1bd 3c51 5fbd 7313 4d3b
000001b0: b820 62bc a5db a73d e11b 5c3c cea0 80ba
000001c0: 13a8 5bbd fbfc 5bbc 3c6b aebb 13f1 413d
000001d0: 8426 153e d0c5 d7bc bf8d e6bd f341 c1bd
000001e0: f87b 9bbc 180d 1abd ad39 14be 7ec3 123e
000001f0: d2b3 bfbd 8408 aebd 0aa6 37be 3604 a1bd
-0.049521144 -0.00022618736 -0.18215725 0.029779747 -0.10483565 0.07595547 -0.04940774 -0.08594617
0.00620779 0.007934209 -0.02235777 0.06633128 0.028801356 0.050611716 -0.13739316 0.005059156
-0.09058343 0.032314148 0.121906586 0.0108301975 0.042283133 0.018872319 0.020050967 -0.044507697
-0.0099688005 -0.022850486 -0.000104723265 -0.03700393 -0.08841893 -0.1106599 -0.042156864 -0.062948756
0.06805241 0.0030187354 -0.040890895 0.02378249 -0.116856985 -0.0119835995 -0.051446002 0.0019444921
0.02043357 -0.07795083 -0.17376822 -0.107343525 0.046494056 0.027076393 0.05567702 -0.13138175
0.014243279 0.07835657 0.08951171 -0.020152733 -0.0007730708 -0.08975437 0.031598825 -0.065021746
-0.067445524 -0.06892426 -0.091899596 -0.023083583 -0.05354809 -0.11711136 -0.018150179 -0.021175506
-0.001947275 0.054066982 0.012440723 -0.05307247 -0.08245899 0.041380614 0.11448778 -0.034811877
0.035866592 -0.0070826765 0.059322022 -0.07132274 -0.041842885 0.045563977 -0.10173396 0.009055836
-0.031690456 -0.00889471 -0.0057491143 -0.12104144 -0.028839527 -0.047457986 0.11550333 -0.012792464
0.13317184 0.040357243 -0.0019962806 -0.030657917 -0.080458686 -0.037272673 0.042009953 0.0017921325
-0.077152774 0.1530086 -0.022580052 -0.00587097 0.006054252 -0.054459143 0.016884105 0.0743211
-0.022696933 -0.11029257 -0.05452083 0.003129211 -0.013801746 0.08196191 0.013434381 -0.0009813549
-0.053627085 -0.013427014 -0.005322842 0.047349047 0.14565474 -0.026339442 -0.11257505 -0.09436407
-0.018980011 -0.037610143 -0.14475127 0.14332387 -0.0936047 -0.08497718 -0.17934433 -0.07862131

act_conv1.weight f4 [4, 128, 1, 1]
00000000: cbb8 13bd 503f 2f3d 8318 6ebd e484 c9bd
00000010: 098c 2abd 9cbf ac3e 0b61 bc39 e1fa 933e
00000020: 7805 e83d 324b a8bd 88d3 27bd ab14 053d
00000030: ff61 a33b ee72 aebd 2a3a 893d 1c6a d23c
00000040: aafb e03c 33f4 f43d 245c a1bd 42e7 28bc
00000050: 2657 4fbc 33a0 2cbd 2aa0 d8bc 96e2 a33c
00000060: 9fb1 c33d a515 e03d eaff df3d 2b96 17bd
00000070: fb5e aa3c 5619 babc 11d2 85bc 251d 483e
00000080: 1a45 ec3e 50a3 af3b a7c7 a0bc 8b35 fd3d
00000090: 70cf 81be e9a9 273d 651c 923d 2101 2e3d
000000a0: b9aa 4abd 3e19 9b3e d686 23be 6c5c 53be
000000b0: 9153 adbd 24c2 01be 264e c2bc d571 c5bd
000000c0: ee9e 9ebd bc16 d63d 58fb 503d 2274 99bd
000000d0: 6730 863d 69d2 413d 75ac a7bc 3091 45be
000000e0: 260a 90bc 332c 703d 6a77 36bd 490e 5bbd
000000f0: ebec c3bd 4ac6 eb3d 90f3 c43b cf29 433c
00000100: d3ca e63d 207d 09bd cd3e d13e 50a0 173c
00000110: 999f 333f f174 173d 508b 1ebc b8db 0a3e
00000120: 4c06 debc 04b4 cabc e203 cabc e793 6cbd
00000130: 4f52 3a3d 6cff 593d a245 dc3b d39e 473b
00000140: e837 c9bd 188b 11be 7b3e 813d f17b d23c
00000150: bbed 7f3d f35f 91be 2163 5c3d 9332 babd
00000160: af8d d43d c66c 33bd 203c e83d 8d9b 0abd
00000170: c5f3 c8bd 5489 90bc d2f5 8d3e 5ba2 8d3d
00000180: 9c36 143d 43ae 703c 50ef 40bd 199e 83bc
00000190: 1951 ba3d 492f cb3e 8531 6f3e 31fa 213d
000001a0: f34c 35bd 0395 823d ac83 783e 571a 3e3d
000001b0: 24da df3c ea84 713e 6e1a ab3c 3153 2f3e
000001c0: 99a5 1fbd e9da e13d 2b9b c63c 3862 b8bc
000001d0: d832 173e d9dd 3d3e a712 99bc 6739 08be
000001e0: dd86 f2bb b117 32bd 58e4 3dbe 9857 323e
000001f0: 711f 17bd de19 73ba edaa b1bd ca85 07be
00000200: 6d58 9c3c 5d48 a93c c38d ad3d 29fc 123c
00000210: 2c57 6d3c 431b 6dbd 0719 893e 7eac 343e
00000220: 0324 453e bfff 96bc 1604 83bc 66f9 483d
00000230: 80e7 36bd cbff 8d3e 9910 d4bd ebc6 30bb
00000240: 72da 7b3d 09ad 89be 0626 653b 6349 6cbd
00000250: 4533 4a3d 69c9 0d3d 00aa bcbd 12bc b03c
00000260: debf 81bd 3bdc 35be 5833 afbd 5a12 773c
00000270: a83d 8dbd ef27 cc3d 4f9c b43c 3fb7 47be
00000280: ddb9 e63d cafc 8cbc 4b5f 25bc 15e0 f6bd
00000290: ee98 b63e efa0 43bb 47b7 dc3d 7fa6 083d
000002a0: 0171 583c 94dc fe3c 45b2 a93d a86b 0d3e
000002b0: 8c3b 98bc c416 323e 8906 a73c 244c 08be
000002c0: 3bf6 a03e d4be e03d 47cd 563d d8e8 b5bd
000002d0: 6282 ddbd e262 9f3d c536 003d dac2 953d
000002e0: 1f81 d73d eba6 b83c 9ee6 1b3f 15a8 adbc
000002f0: b00e b13c 4b66 503d f239 70bc 9c51 bc3e
00000300: 2611 2d3c 4093 5dbd 2726 6c3d 6e11 78bd
00000310: b66f 67be ae7f 92bb 5ddb f5bd 8144 5c3b
00000320: d4d9 d7bc 0191 613b 34b0 2bbc 3de9 163d
00000330: 80a7 513c 1c4c 473e 397a b03b 97be a13c
00000340: 5670 473e e474 403e e1b2 953d e439 93bd
00000350: 3952 7d3c 5c0e 563e 6506 413e b55f 143e
00000360: 1802 ca3d 6b8e 983d 964d d83d 2e1a a8bb
00000370: 1df4 0f3e 40a9 f63c b1ef 5fbd 738f 1c3e
00000380: 7b99 783d bcd5 a03d 7f95 003e 7f45 ab3d
00000390: 7a6d 7dbe 458c 78be 1f84 91be 7b59 0ebe
000003a0: 401a b73b 849c 6dbc a4ca d03d ae7f 61be
000003b0: df37 323e d547 653e 8c5e b9bd 4fcb 4ebd
000003c0: ff01 a43c 1e1b f2bd 3bd7 b93c 9d9d 693e
000003d0: be93 ae3d fa76 533d d0a1 1c3c df2b 703c
000003e0: 4319 c33c e321 993a 577a aabc d5b7 3e3e
000003f0: 19a0 363d bc45 163d 5c3a 953d 8ec8 413e
-0.036064904 0.04278499 -0.058128845 -0.098398 -0.041637454 0.33739936 0.00035930457 0.28902343
0.11329168 -0.08217467 -0.040973216 0.032490414 0.0049860473 -0.08518015 0.06700547 0.025685363
0.027463753 0.1196064 -0.078789026 -0.010309042 -0.012655055 -0.042144965 -0.02644356 0.020005506
0.09555363 0.10941628 0.109374836 -0.037008446 0.020797243 -0.02271716 -0.016335519 0.19542368
0.4614647 0.0053600445 -0.019626452 0.12363728 -0.25353575 0.040933523 0.07134322 0.042481545
-0.04947922 0.30292696 -0.15969405 -0.20640725 -0.08463205 -0.12671715 -0.023718905 -0.09640852
-0.07745157 0.10453555 0.05102095 -0.07492854 0.06552201 0.047319803 -0.020467976 -0.19293666
-0.017582964 0.0586359 -0.044547476 -0.05348042 -0.09566673 0.1151243 0.00601048 0.011911823
0.112691544 -0.033566594 0.40868226 0.00925453 0.701654 0.03697676 -0.009676769 0.13560379
-0.027102612 -0.024744041 -0.024660055 -0.05775824 0.04548865 0.053222105 0.006722168 0.0030459657
-0.098251164 -0.14213216 0.06310745 0.025693865 0.062482577 -0.28393516 0.053805474 -0.090916775
0.103785865 -0.043804906 0.11339593 -0.03383975 -0.0981212 -0.017643608 0.2772661 0.069157325
0.036184892 0.014689985 -0.047103226 -0.016066598 0.090974994 0.39684513 0.23358734 0.03954524
-0.044262838 0.06376078 0.24268979 0.04641184 0.027325697 0.23585859 0.020886626 0.17121579
-0.038976286 0.11028082 0.024243912 -0.022507772 0.14765489 0.1854166 -0.018685652 -0.13303147
-0.007401331 -0.043479625 -0.18544137 0.17416227 -0.03689522 -0.0009273569 -0.0867518 -0.1323463
0.019085133 0.020664388 0.084743045 0.0089712525 0.014486115 -0.057887327 0.26776907 0.17643926
0.19252019 -0.018432496 -0.01599316 0.04906597 -0.04465437 0.27734217 -0.10354728 -0.0026974033
0.061487623 -0.26889828 0.003496529 -0.057687175 0.0493653 0.034615908 -0.092121124 0.021574054
-0.06335424 -0.17759793 -0.08554715 0.015080059 -0.068965256 0.09968554 0.02204719 -0.19503497
0.11265919 -0.017210383 -0.01009352 -0.12054459 0.3566355 -0.0029850563 0.10777145 0.033361908
0.013210536 0.03111104 0.08285955 0.13810599 -0.018583082 0.17391497 0.020388858 -0.13310295
0.3143786 0.109738976 0.05244186 -0.08882302 -0.10815884 0.07782532 0.031302232 0.073125556
0.10522675 0.02254053 0.6089877 -0.021198312 0.021613449 0.050878804 -0.014662253 0.36781013
0.010563171 -0.054095507 0.057653572 -0.060563497 -0.22601208 -0.004470787 -0.12004731 0.0033610167
-0.026348986 0.0034418704 -0.010479022 0.036843527 0.012796283 0.19462627 0.005385664 0.0197442
0.19476447 0.1879459 0.07309509 -0.07188776 0.015461498 0.20903915 0.18850096 0.14489634
0.098636806 0.07449039 0.10561673 -0.005130074 0.14057966 0.030110002 -0.054671947 0.15289097
0.060693245 0.078532666 0.12557028 0.08362865 -0.24748793 -0.24272259 -0.28421113 -0.13901322
0.005587846 -0.014502648 0.10194901 -0.22021362 0.17404126 0.22390683 -0.090512365 -0.05048686
0.020020483 -0.118215784 0.022685638 0.22814031 0.08524273 0.051627137 0.0095600635 0.014658897
0.023815757 0.0011683073 -0.02081029 0.18624814 0.044586275 0.036687598 0.07286522 0.18924162

act_conv1.bias f4 [4]
00000000: 32f2 5a3d 2462 813c c51f 233e 4a07 aabc
0.05345363 0.015793867 0.15930088 -0.020755429

act_fc1.weight f4 [81, 324]
00000000: a45c e53c 9a61 06bc 4173 9abc 43a7 15bd
00000010: eef0 b73b 5e7e 06bc a9d5 ab3a 9322 9ebd
00000020: 3123 8e3c ae3b 903d 7a4d 7cbc bdb4 36bb
00000030: 578e bf3b d21a d1bd 0e33 56bc 120d 083c
00000040: 4719 46bd abe5 1d3d 8849 4fbc 2441 d9bc
00000050: 444f 08bd c05a 8a3c c435 c8bc cee7 e43b
00000060: 5fb1 43bb 2204 02bc eeed 463c dc01 9d3b
00000070: 5a11 99bc a20f d5bd d7f7 14bd 37b2 f53a
00000080: 54d4 5c3d 13c3 bbbd e35b e9bb 480b 2d3c
00000090: 7d53 a23c a7cc 0dbd e6c5 81bd 4397 09be
000000a0: e892 46bd cdbe 963b 2b3a 45bd 8229 debc
000000b0: eaee 35bc 8259 983b 9059 40bd 960c 83be
000000c0: a9c4 0fbd e90f 43bb 344c 38bc 4d33 b8bc
000000d0: fe90 a9bc 61d7 94bc 45ab 753c cab1 edbe
000000e0: 7af8 cdbd d050 833d b6b7 79bb be89 723b
000000f0: 15c3 8cbb b429 d9bc fdce 5c3b 4d84 77bd
00000100: cf19 da3d c3da 403e 8522 443d 300d aebd
00000110: 0401 ba3c b64c 6e3c 9275 833c 9037 3ebc
00000120: b37f 003c 4c23 1abe 65c3 703d 88d3 a5bd
00000130: 40e8 e7bb a60d c1bc 34e5 3c3a c660 a03c
00000140: f876 3b3b e241 9abc 132a 0dbd cf0f a8bc
00000150: a254 c3bc 95f7 dbbc 2dc7 233c 98b6 2abd
00000160: bbcf 88bd 89f0 c2bb 250b 17bd cbc2 5cbd
00000170: 90ef 4cbc e10d d0bb cdfc 25bc 889f 023c
00000180: db5f d73c 8438 9d3c 64ac 3ebd e068 c0bb
00000190: d7d2 a03c 5a52 aa3c 97ea 0bbd b50f 603c
000001a0: e11b cf3c 118c b23c e73d 303b 9a99 ccbb
000001b0: 5541 45bc b6ce 583c 75e7 3f3d 9089 b83d
000001c0: 74fb ae3d fefe ddbb 71e4 0e3d ac46 9f3b
000001d0: cf47 1c3b 3ed0 dfbc 0a12 37bc ece8 f93c
000001e0: 87a4 843d 2b4d 133c b6ff 08bc fe34 cb3c
000001f0: a100 76bc ee64 8cbc 6ddc 2b3d 836c ea3c
00000200: 3a65 803d 5117 b53d efbf b13c 6caa 253d
00000210: 3727 d33c a91b 643b 9c3b 4abc c62a 513c
00000220: fa48 a93d 900c 4d3e 12a4 8dbc 37ef 2c3d
00000230: bb10 c1bc 1e12 47bc c2e2 ecbc 084a 31bd
00000240: 81cb 31bf 25a6 363e 4bb0 cebc 3c4a 593d
00000250: 6504 e83c 152f 7f3b 192d ac3b 8340 52bc
00000260: 5597 37bd 8041 dd3d e5e5 cf3d 878f d33c
00000270: f0a5 acbd e1a4 2ebc 5e23 c43c 5253 78bc
00000280: 36e7 12bc 52de 3bbc de15 313b d4ff d4bc
00000290: 2788 ecbc 2b9b c4bc dd61 2ebd 31dc 68bd
000002a0: 59ee 94bc b755 1ebd 3241 a33b 4180 c43a
000002b0: 7d65 e4bc 9dcc 5c3b e6b6 08bd 07ac d0bc
000002c0: 0fab 12bd c738 93bd d8a6 bebb 5aff 093c
000002d0: ab60 a63b c6a2 b1bc c358 ffbc 866b 42bd
000002e0: bcbf 87bd 3958 7a3c 101b 2cbd 1f87 4ebd
000002f0: e6ba 7bbd a005 d0bc fcb6 76bc 6499 1abd
00000300: 6a4b 45bd 637a 2cbd 439d cabd 02c6 07bd
00000310: aaf4 80bd efa4 00bd 8e2e 2b3c 49dc bfbd
00000320: 59b8 a6bd b622 c43c 9110 51bd d8a4 89bd
00000330: b87a 0bbd c0a8 3dbd f94f dbbc 4c48 ba3d
00000340: 8188 a7bd 566c 4e3d 2a47 28be 3240 8cbd
00000350: 8ae7 5ebd a88e 2ebd 4a78 d8bc 97d5 05bd
00000360: d5f2 ebbd 4cb0 3f3d 5d5e 55be 2e9f 16bd
00000370: e10a bfbc d89b 44bd c904 87bd 21e5 24bd
00000380: 221a 16bc af5c 87bf 7d71 90bd 7475 be3d
00000390: 91c7 0ebd ae0d acbc f050 6dbd 3e59 aebd
000003a0: f392 ecbc 1173 66bc ba93 173c dcc9 6f3d
000003b0: 08fa 3c3d dd51 21bc 63b3 8dbb 38f5 c8bb
000003c0: d06a 933c be15 833c 1860 f9b9 19c5 b5bc
000003d0: e93a c33a b563 fabc f740 2f3c 240b d63c
000003e0: f01c fb3b 440c ecbc 2216 11bd 0a3b 533d
000003f0: c532 f7bc 219b f43c 5f39 3b3c da7e 683d
0.027998276 -0.008201981 -0.018853785 -0.036536466 0.005613438 -0.008208839 0.001310994 -0.07721438
0.017350765 0.07042633 -0.015399331 -0.0027878725 0.0058458257 -0.10210194 -0.013073696 0.008303897
-0.04836395 0.038549107 -0.012651809 -0.02652032 -0.03327872 0.016888976 -0.0244397 0.006985641
-0.002986036 -0.007935556 0.012141688 0.0047914814 -0.018685032 -0.10403372 -0.03636917 0.0018745129
0.05391343 -0.09168067 -0.0071215495 0.010561772 0.019815201 -0.034619 -0.06336574 -0.13436608
-0.048479944 0.004600382 -0.048151176 -0.027119402 -0.011104325 0.004649342 -0.046960413 -0.2559554
-0.03509966 -0.0029764122 -0.011248637 -0.0224854 -0.02069902 -0.018169107 0.014994447 -0.46424705
-0.10057159 0.06411898 -0.0038103885 0.003700837 -0.0042957165 -0.026509143 0.003369271 -0.060428906
0.10649454 0.18833451 0.047884483 -0.08498609 0.022705562 0.0145446565 0.016047273 -0.011609927
0.007842946 -0.15052527 0.058780093 -0.08096987 -0.007077247 -0.023566078 0.0007205785 0.019577395
0.0028604846 -0.018830243 -0.034463953 -0.02051535 -0.023844067 -0.026851455 0.009996218 -0.04167804
-0.066802464 -0.005949084 -0.036875863 -0.053896707 -0.012508288 -0.0063493107 -0.010131073 0.0079726055
0.026290825 0.019191988 -0.046551123 -0.005871877 0.019631786 0.020791221 -0.03415927 0.01367562
0.025281848 0.021795304 0.0026892365 -0.0062438967 -0.012039502 0.0132328775 0.046851594 0.09010613
0.085440546 -0.006774782 0.034885827 0.0048607197 0.0023846512 -0.027320977 -0.011173734 0.030506574
0.064766936 0.008990566 -0.0083617475 0.024805542 -0.015014798 -0.01713797 0.04195826 0.028616196
0.062693074 0.08842338 0.021697966 0.04044573 0.025775535 0.0034806526 -0.012343314 0.012766546
0.08265872 0.20024323 -0.017290149 0.04222032 -0.023567548 -0.012150316 -0.02891672 -0.043283492
-0.6945115 0.17836817 -0.025230547 0.05304931 0.028322408 0.0038937975 0.0052543995 -0.012832764
-0.044822056 0.10803509 0.10151271 0.025825275 -0.084300876 -0.010659427 0.023942646 -0.015156584
-0.008966258 -0.0114665795 0.002702109 -0.026000895 -0.028873516 -0.023999771 -0.0425738 -0.056850616
-0.01818006 -0.038655963 0.004982137 0.0014991836 -0.027880425 0.0033691295 -0.03337755 -0.025472654
-0.035807665 -0.07188564 -0.005818229 0.008422697 0.0050774417 -0.021684062 -0.031170255 -0.047465824
-0.06628367 0.015279823 -0.042017996 -0.05042183 -0.061457537 -0.025393307 -0.015058275 -0.03774394
-0.048167624 -0.042108905 -0.098932765 -0.03314782 -0.06296666 -0.031407293 0.010448111 -0.09368188
-0.0814063 0.023942333 -0.05104119 -0.067208946 -0.03405258 -0.04630351 -0.026771532 0.09095821
-0.08180333 0.050396286 -0.16433397 -0.06848182 -0.05442003 -0.042616516 -0.026424546 -0.0326744
-0.11520926 0.04679899 -0.20836778 -0.0367729 -0.023320617 -0.048000187 -0.065927096 -0.040257577
-0.009161504 -1.057516 -0.07052896 0.09299746 -0.03485829 -0.021002617 -0.057938516 -0.08513115
-0.028878665 -0.01406552 0.009251529 0.058542117 0.046136886 -0.009846178 -0.004324363 -0.006132748
0.017995268 0.016001578 -0.00047564576 -0.02218871 0.0014894876 -0.030565122 0.010696641 0.02612836
0.0076633617 -0.028814442 -0.035421498 0.051569976 -0.030175576 0.029859127 0.011427253 0.0567616

act_fc1.bias f4 [81]
00000000: e778 5c3c 3426 51bd 7ab2 a5bd 2c2a 40bd
00000010: c367 41bd 4785 60bd c9ab 8cbd 860b 0abd
00000020: 49cd 243c 5b1f 2bbd 2ad1 e0bc 68e0 9bbd
00000030: 3c47 8a3d efe5 21bc 73cc 9b3d 4623 69bd
00000040: d449 1fbd 26e0 7cbc 072e 84bd a037 8fbd
00000050: 08f6 103e 5114 133d 6714 003e 2a4d 713c
00000060: 2475 cd3d 6ab1 ecbd fd47 18bd 8821 9fbc
00000070: 425a 5b3d 106f ab3b 8657 843d c9a7 203d
00000080: 4e94 623d c233 88bc 9048 593d 8d11 3bbd
00000090: a09c 93bc af6e 73bd 28aa 103e bd55 7a3c
000000a0: 2c66 923c bd8e 4f3d c30b 0e3e cfd3 80bd
000000b0: a70e 68bc 9842 35bd 5107 4a3d 5f54 7dbc
000000c0: 233f 603d 0d16 453d 9fc7 c83c 99f1 9e3c
000000d0: ce45 243b 524a 0fbd 6a71 85bd 340d 9cbd
000000e0: 501c 033e 7f38 3c3c c628 253e b6ab 5b3d
000000f0: a4e9 333e 8395 61bd e646 29bd 965b 35bd
00000100: 52a2 a9bc de79 c4bd b9d9 153d 2153 6ebd
00000110: 1e42 183d 19e1 96bd 4778 70bc 05b0 70bc
00000120: 60ed da3b fe59 7dbc 8c0a 4fbd f6fd fdbc
00000130: 0b62 fcbb 9dc2 3abd 1f22 87ba f2eb 1abc
00000140: 8ea6 8f3c
0.01345656 -0.051061824 -0.08090682 -0.04691522 -0.047218096 -0.054814603 -0.06868703 -0.033702396
0.010058709 -0.04177795 -0.027443487 -0.076111615 0.06751868 -0.009881481 0.07607355 -0.056918405
-0.038888767 -0.0154343005 -0.064540915 -0.069930315 0.14156353 0.035908047 0.12507783 0.01472787
0.100321084 -0.115572765 -0.03717803 -0.019425169 0.053552873 0.0052317455 0.06462006 0.039222512
0.055317216 -0.016626243 0.053047717 -0.045671035 -0.01801902 -0.059431728 0.1412741 0.015279231
0.017870985 0.050673235 0.13871674 -0.06290399 -0.01416365 -0.044252962 0.049323384 -0.01546201
0.054747712 0.048116732 0.02450925 0.019402312 0.002506602 -0.034982987 -0.06515773 -0.07619706
0.12803769 0.011488079 0.16128835 0.053630553 0.17569596 -0.055074226 -0.04132738 -0.044276796
-0.020707283 -0.09593557 0.03658459 -0.058184747 0.03717243 -0.07367153 -0.014677114 -0.014690404
0.0066811293 -0.01546335 -0.050547168 -0.031004887 -0.0077021173 -0.045595754 -0.0010309851 -0.009455668
0.017535474

val_conv1.weight f4 [2, 128, 1, 1]
00000000: 226c 733e 5768 42be a5f5 88be 062a 7abd
00000010: 0e39 923e 5e25 30bd 6704 e23a 1123 633e
00000020: 0540 7a3e b2bc 923e 248a d0be f89e 77bd
00000030: 94da b4be 8654 5fbd 03bc cf3e bbb7 adbd
00000040: 366b 81be 6c1e 133e f354 f2bb 3833 513e
00000050: e63d 8fbe bec6 5ebe b4f5 f23d 0cc6 453d
00000060: c80f b3bd 7a8c d0be 1afa bb3d 85da 413e
00000070: c854 7e3d 2448 c33d d0f0 d8bd ec8d be3d
00000080: a4b8 01ba 5de8 1b3e 8f74 fe3d 0b07 853e
00000090: 8351 873d c428 48be 8718 573e 0e87 36be
000000a0: 367e 86be 1042 733e 2731 1fbd 477c 283c
000000b0: 3439 2bbe ac4f 1e3e 674c d7be 2e5a c43d
000000c0: f380 bebb 3780 8bbe 55c7 9fbe e9fd 7d3e
000000d0: 24c4 abbd 9c51 e5bc 0687 a33e ba12 983e
000000e0: 225f 5b3e f1c3 bb3e 6d93 aa3b aad7 033e
000000f0: 63db a13e 0b30 41bc 3a0d 82be 16d1 7ebd
00000100: 8090 993d b3d0 ad3d da95 5c3e 32aa 5d3e
00000110: 0a7c cd3e d4fc f1bd 2028 6dbe ea75 3fbe
00000120: f292 81be 62a2 343e b8f4 dfbd ca47 d93e
00000130: eba0 acbe 2dfb a1bd ff14 083e 0709 4e3e
00000140: 0248 2d3d a834 453e a049 dfbe 1c9e 013e
00000150: 337e 643e 9e3d 043d 5ba2 e9bc 7525 37be
00000160: bf4a dd3b d991 32be 3944 2dbe a8a4 a33d
00000170: 631c 8e3d 0516 99be f008 103e 377b 54be
00000180: ea6e 813e 4265 133c eae0 2f3e 0720 f2bd
00000190: f4f1 e83b d890 df3a dd88 00bd 47e7 eebc
000001a0: 673c 01bd 0931 6bbd 05d8 7e3d 5547 503c
000001b0: 82a1 c6bd 8cff 1bbe 59f1 b93d 8d84 923d
000001c0: 1a76 83be 8c6d 463b 3222 f93c d7d9 8a3d
000001d0: 2e22 343b d79a 4f3e 5d7e 8dbd 155d 863e
000001e0: aaba 853e e50c 06bf 6df3 383e b72c 593b
000001f0: 6fb9 9e3e 97c2 dd3a 6f24 f83d d604 0f3e
00000200: 2c75 5b3e 1d83 34be b485 3d3e 2307 fcbe
00000210: 0a22 a03e 3891 05be 6274 de3d a30e e3be
00000220: bda3 17bd 4f19 523e a12a af3e 6cea dabe
00000230: 76e2 283e dba3 143d 0e31 babd ed69 8a3e
00000240: c55f 9b3e 766b 78be 48bb 933c 09fd fa3d
00000250: 7eea cf3d 4071 1bbe 634a a2be 8d1a b3be
00000260: d764 33be 70ec 733c 3391 a83e b04f f3be
00000270: 15cc 973e 7861 f2be 25f7 0dbf 2012 073e
00000280: 1815 3c3d 6278 b2be f81d 273e 622c a23d
00000290: fb6f 913d 3a21 513d 1c38 99be bd45 24bd
000002a0: 6633 c23e 6270 81be 0e38 b83e e3e6 b0bc
000002b0: 5916 a13c 571e 1c3e 6570 fc3d 5c94 333e
000002c0: f27c 83bd 3761 413e 3db2 2dbd 85f3 adbd
000002d0: 4ce0 873e a38c 11bf 1674 a83e e4e9 54be
000002e0: 7d2a b0bd 476f d4be fe0a 81bd 762c 0ebf
000002f0: 0714 eb3e 2dcb d93e e75b 2abe aa57 c2bd
00000300: 17db 83be 9486 de3e 6b96 99bc df08 ac3e
00000310: 8545 583e 90a8 c7be d0f2 153e 6129 40be
00000320: bed4 0dbe 6cac 99be b61a 0bbf d229 753e
00000330: ac8d 883e 3b20 ef3d 75ea f53d 93a0 05bf
00000340: ee56 3c3e 3b28 f2bc af18 7b3d f386 1fbe
00000350: 604d f3be 00d9 053c eb93 e2bc 41c1 213e
00000360: 7e2d 853b c25f 0f3e 6d88 cdbd ad5d 403e
00000370: a1f5 5a3e af30 3fbd a925 013e b307 003f
00000380: 7673 613e 1a99 a13b 0517 80be 0730 47bc
00000390: 5088 00bf 6780 30bd 0550 9b3d 4962 d9bd
000003a0: 4af6 023f 3200 0abf 5d83 233d 1283 aebd
000003b0: 0d33 3ebe b9c9 0d3c 21d9 d0be a964 90be
000003c0: 892a aebe 5013 1cbe 3e6e 623e 84e9 633d
000003d0: a7db ae3b 8b05 843e ad3e 0e3f 3026 e8be
000003e0: 560c 523c a376 843e 0a48 fcbe 0ed8 523b
000003f0: 83ac cbbe 5078 01bf 0d74 cf3e 2257 df3d
0.23771718 -0.18985115 -0.26749912 -0.061075233 0.28559154 -0.043004386 0.0017243744 0.22181346
0.24438484 0.28659588 -0.40730393 -0.06045434 -0.35323012 -0.054523967 0.4057313 -0.084823094
-0.25277108 0.14367074 -0.0073953806 0.20429695 -0.27976912 -0.21755502 0.118632704 0.048284575
-0.087432444 -0.40732175 0.091785625 0.18931015 0.062092572 0.09535244 -0.10592806 0.09304413
-0.0004948473 0.15225358 0.124245755 0.25981936 0.06607344 -0.19546801 0.2100545 -0.17824957
-0.26268166 0.2375567 -0.038865235 0.010283536 -0.1672104 0.1546008 -0.42050478 0.09587513
-0.005813712 -0.27246258 -0.31206766 0.2480389 -0.0838702 -0.027993016 0.31938952 0.29701787
0.21423009 0.3667293 0.005205563 0.12875238 0.3161269 -0.0117912395 -0.25400716 -0.06221112
0.07498264 0.08487072 0.21541539 0.21646956 0.40133697 -0.11815801 -0.23159838 -0.18697324
-0.25307423 0.17640069 -0.10935348 0.42437583 -0.3371652 -0.07909236 0.1328926 0.20120631
0.042305 0.19258368 -0.4361086 0.1265797 0.22313766 0.032285325 -0.0285198 -0.17885382
0.006753295 -0.17438449 -0.16920556 0.0799039 0.06939008 -0.29899612 0.1406591 -0.20750128
0.25279933 0.00899631 0.17175642 -0.11822515 0.007108921 0.0017056717 -0.031380523 -0.029163016
-0.031551745 -0.05741981 0.06221773 0.012712319 -0.09698774 -0.15234202 0.090792365 0.07154188
-0.25676042 0.0030277697 0.030411813 0.06779831 0.0027486193 0.2027391 -0.069088675 0.2624289
0.26118976 -0.52363425 0.1806161 0.0033138224 0.3100085 0.0016918954 0.12116324 0.13966689
0.21431416 -0.17628141 0.18508035 -0.49224195 0.3127597 -0.13043678 0.10862042 -0.44347104
-0.037021387 0.20517467 0.3421221 -0.42756975 0.16492638 0.036289077 -0.09091388 0.2703394
0.30346504 -0.24259743 0.018033639 0.12255294 0.10152148 -0.1517992 -0.31697378 -0.34981194
-0.17518936 0.014887914 0.32923278 -0.47521734 0.2964789 -0.47339988 -0.5545524 0.13190508
0.045918554 -0.3485747 0.16320026 0.079186216 0.07101437 0.051057078 -0.2992562 -0.04010557
0.3792984 -0.25281054 0.35980266 -0.02159447 0.019663977 0.15245949 0.12326125 0.17537063
-0.06420316 0.18884741 -0.04240631 -0.08493713 0.26538312 -0.5685522 0.32901067 -0.20792347
-0.08601854 -0.41491148 -0.06300925 -0.5553659 0.45913717 0.42537823 -0.1663662 -0.09489377
-0.2575309 0.4346205 -0.018748483 0.33600518 0.2112027 -0.3899579 0.14643407 -0.18765785
-0.13850686 -0.3001436 -0.5433763 0.23941734 0.26670587 0.11676069 0.1200761 -0.5219814
0.18392536 -0.029560199 0.061302837 -0.15578823 -0.4751997 0.008169413 -0.027658423 0.15796377
0.004064261 0.14001372 -0.10035787 0.18785734 0.21382762 -0.046677288 0.12612022 0.5001175
0.22016701 0.004931581 -0.25017563 -0.012157447 -0.50207996 -0.043091204 0.07583622 -0.106144495
0.5115706 -0.5390655 0.0399202 -0.085210934 -0.18574162 0.008654051 -0.40790656 -0.28201798
-0.34016827 -0.15241742 0.22112367 0.05564262 0.005336243 0.2578548 0.55564386 -0.45341635
0.012820324 0.25871763 -0.4927371 0.0032172236 -0.39780053 -0.5057421 0.40518227 0.10905291

val_conv1.bias f4 [2]
00000000: 8a75 b0bc 05bb 443d
-0.021540422 0.04802992
