current_policy.model (torch, 529587 bytes, 15 tensors)

conv1.weight f4 [32, 4, 3, 3]
0.4957056 -0.024294002 -0.09135948 -0.14059152 0.046075497 -0.015388001 0.23856185 -0.24289925
0.035736684 0.20228073 -0.34916085 -0.049091525 -0.25630033 0.020554628 0.06973457 -0.13947903
0.27818036 -0.20633762 -0.027128898 0.031067533 0.0460372 0.05050005 0.101948395 -0.110614255
0.062299695 -0.01929847 0.12130699 -0.13058808 -0.15317065 0.13015701 -0.0496964 0.018776238
-0.025605207 -0.20405486 0.1636327 0.12120231 -0.39649945 0.008695641 0.035181552 -0.22741245
-0.050989963 -0.3109507 -0.3422191 0.15032901 -0.13853244 -0.25544816 -0.09848513 -0.062685825
-0.13380188 0.17675315 -0.35723194 -0.3405025 0.07481521 -0.10951652 0.025989134 0.026424998
-0.00039836456 0.08920697 -0.076209284 -0.12646997 0.059305888 -0.042446636 0.011064968 -0.109981835
-0.0978752 -0.11369956 -0.029451072 0.22098458 0.1629675 0.14516088 0.060507264 0.20727883
0.16694531 -0.10409531 -0.2083236 0.19441223 0.16847076 0.19209813 0.17438693 -0.11048285
-0.19156551 -0.49709797 0.21920627 0.2527674 -0.4036096 0.23563133 -0.15548949 -0.08317068
-0.1218385 0.16630338 0.0014636419 -0.08135469 -0.04948982 0.01716365 0.115397826 0.07209179
0.026178025 0.061011724 0.029364148 0.12574986 -0.19104607 0.032485675 0.15677257 0.11554471
0.07851616 -0.09378071 -0.07211061 -0.09648831 -0.21743833 -0.14230245 -0.028728247 -0.10326023
-0.20960008 -0.15001819 -0.12082996 -0.2149189 0.21045487 -0.01000584 0.33055055 -0.031897128
-0.040200114 0.48542452 0.3108347 -0.13996023 0.29877225 -0.3859204 0.06349213 -0.03754174
0.097444005 -0.045837607 -0.031057764 -0.04433275 -0.039161086 -0.04954199 -0.08231227 0.13363026
0.085223205 0.12653197 0.03790032 -0.03290415 0.19263399 -0.111353025 -0.13797197 -0.16863535
-0.20189345 -0.21840255 0.0024537737 0.2865761 -0.18956575 0.121331364 0.032873336 0.19274685
0.16811295 -0.3035355 0.020081423 -0.26809135 0.06451471 0.19801354 0.23719831 0.11893079
0.36460572 -0.12903039 0.026781611 0.09152611 -0.010884786 -0.05248963 -0.03234313 -0.23835932
-0.025155066 -0.0770236 0.22887807 -0.11290116 -0.08680221 -0.059574246 -0.21667276 -0.08688694
0.054050732 -0.21485187 -0.032092847 0.089118265 0.49413243 0.19765557 0.37636203 -0.12431777
0.2911532 0.22781733 0.2767005 0.33195505 0.3815739 -0.27082303 -0.12298242 -0.15999345
-0.011317145 -0.07070593 -0.021401046 -0.019079255 -0.02071078 -0.09748008 0.05952919 -0.0063973535
0.19809934 0.034451026 0.15555723 0.00080818596 0.02210874 0.05774645 0.10686884 0.049489956
0.116884194 -0.12623815 0.04160767 0.0053750253 -0.07746293 -0.06874723 -0.066410065 0.16755685
0.17986225 0.19185919 -0.4973684 -0.04175441 -0.117780134 0.031263515 0.31195167 -0.057651084
0.013358282 0.058767285 -0.08010506 0.49076554 -0.24333695 0.050083954 -0.026842901 0.41355678
-0.117546454 0.054054502 -0.09365536 0.10427199 -0.043589395 -0.109348774 -0.048745383 0.077133805
-0.048827972 0.052755367 -0.07859295 -0.16194297 -0.047964167 -0.08457862 0.0668691 -0.15860677
-0.008083734 0.08198037 -0.09027339 0.01616854 -0.16925912 0.24582827 -0.08585114 0.08854325
00000000: 20cd fd3e 3704 c7bc ae1a bbbd 39f7 0fbe
00000010: a9b9 3c3d f41d 7cbc 8f49 743e 95ba 78be
00000020: a160 123d ae22 4f3e 36c5 b2be 3214 49bd
00000030: cc39 83be 2e62 a83c 00d1 8e3d 97d3 0ebe
00000040: a86d 8e3e 2b4a 53be 6c3d debc 5781 fe3c
00000050: 8191 3c3d 24d9 4e3d 52ca d03d ba89 e2bd
00000060: f72d 7f3d d317 9ebc cd6f f83d e2b8 05be
00000070: c4d8 1cbe e147 053e 748e 4bbd a0d0 993c
00000080: 03c2 d1bc c2f3 50be 558f 273e eb38 f83d
00000090: fa01 cbbe 2978 0e3c 881a 103d cfde 68be
000000a0: dada 50bd ee34 9fbe 5837 afbe d9ef 193e
000000b0: 73db 0dbe 1aca 82be 92b2 c9bd 6d61 80bd
000000c0: 5c03 09be c7fe 343e 1be7 b6be 5856 aebe
000000d0: b838 993d 324a e0bd 2ae7 d43c 3d79 d83c
000000e0: 96db d0b9 25b2 b63d 9d13 9cbd 5881 01be
000000f0: bbea 723d 86dc 2dbd d749 353c 283e e1bd
00000100: cb72 c8bd 51db e8bd 6043 f1bc c849 623e
00000110: f4e0 263e 0ea5 143e 77d6 773d e740 543e
00000120: b6f3 2a3e ec2f d5bd c852 55be 0014 473e
00000130: 9983 2c3e 5fb5 443e 7d92 323e d544 e2bd
00000140: c029 44be a083 febe 9c77 603e bb6a 813e
00000150: eba5 cebe 5749 713e a338 1fbe 6455 aabd
00000160: 7786 f9bd 6f4b 2a3e acd7 bf3a 4a9d a6bd
00000170: d6b5 4abd c89a 8c3c b255 ec3d dca4 933d
00000180: 4c73 d63c 6ee7 793d 158d f03c 92c4 003e
00000190: 95a1 43be b30f 053d fd88 203e b4a2 ec3d
000001a0: 15cd a03d 1a10 c0bd baae 93bd aa9b c5bd
000001b0: 27a8 5ebe bcb7 11be 8057 ebbc 197a d3bd
000001c0: 67a1 56be 5e9e 19be b375 f7bd b313 5cbe
000001d0: 7b81 573e 89ef 23bc ec3d a93e 90a6 02bd
000001e0: e0a8 24bd 9089 f83e ba25 9f3e bc51 0fbe
000001f0: adf8 983e 5c97 c5be 2908 823d 5ec5 19bd
00000200: b990 c73d 37c0 3bbd da6c febc 4296 35bd
00000210: 6067 20bd 8bec 4abd 5693 a8bd 5fd6 083e
00000220: 8189 ae3d 9991 013e 5e3d 1b3d 81c6 06bd
00000230: d841 453e 0e0d e4bd 8648 0dbe bfae 2cbe
00000240: 28bd 4ebe eba4 5fbe 7ecf 203b 1aba 923e
00000250: 861d 42be 947c f83d 31a6 063d 6e5f 453e
00000260: cd25 2c3e 0169 9bbe cc81 a43c 4543 89be
00000270: 4a20 843d 10c4 4a3e 1de4 723e fc91 f33d
00000280: 9aad ba3e 8b20 04be 1c65 db3c 0b72 bb3d
00000290: 1a56 32bc 5eff 56bd 3b7a 04bd 7714 74be
000002a0: ff11 cebc 8dbe 9dbd 035f 6a3e b938 e7bd
000002b0: 5bc5 b1bd 2004 74bd 77df 5dbe c8f1 b1bd
000002c0: 4d64 5d3d 2102 5cbe ca73 03bd a383 b63d
000002d0: edfe fc3e 3966 4a3e 86b2 c03e 519a febd
000002e0: 0812 953e f248 693e b0ab 8d3e 03f6 a93e
000002f0: a75d c33e 51a9 8abe 35de fbbd 53d5 23be
00000300: 8c6b 39bc 45ce 90bd 3f51 afbc 194c 9cbc
00000310: a7a9 a9bc a3a3 c7bd e1d4 733d e4a0 d1bb
00000320: 8eda 4a3e 851c 0d3d 654a 1f3e 71dc 533a
00000330: 631d b53c 8b87 6c3d 0dde da3d fbb5 4a3d
00000340: fb60 ef3d 9344 01be ce6c 2a3d fb20 b03b
00000350: e2a4 9ebd 59cb 8cbd 0002 88bd 0694 2b3e
00000360: cf2d 383e bc76 443e 12a7 febe ac06 2bbd
00000370: b636 f1bd 2c0e 003d 21b8 9f3e 8b23 6cbd
00000380: b2dc 5a3c f7b5 703d 1f0e a4bd 9f45 fb3e
00000390: 522d 79be d524 4d3d a5e5 dbbc b7bd d33e
000003a0: 32bc f0bd 4168 5d3d 62ce bfbd 8e8c d53d
000003b0: cb8a 32bd 40f2 dfbd 3da9 47bd 54f8 9d3d
000003c0: d7ff 47bd 0316 583d 57f5 a0bd 61d4 25be
000003d0: 1376 44bd 8e37 adbd abf2 883d d069 22be
000003e0: a371 04bc 53e5 a73d 41e1 b8bd e373 843c
000003f0: 4352 2dbe 68ba 7b3e b9d2 afbd 2a56 b53d

conv1.bias f4 [32]
0.026967423 -0.05742813 0.08771304 0.018955763 0.036090586 -0.16134283 0.1978664 -0.15867138
-0.2168869 0.18178317 0.07060774 -0.10071945 0.00701861 0.025681343 0.022168882 0.16329092
0.045268703 0.044756703 -0.13288045 0.050925132 -0.19098769 -0.08992571 -0.022993417 0.10395689
0.14756313 0.21456195 0.08672917 0.1621119 0.091226295 -0.18931292 -0.035452463 -0.18244001
00000000: c9ea dc3c c239 6bbd e5a2 b33d 1e49 9b3c
00000010: b9d3 133d 0e37 25be 7d9d 4a3e c07a 22be
00000020: 9917 5ebe 5e25 3a3e ca9a 903d 0046 cebd
00000030: 5efc e53b ae61 d23c 849b b53c bc35 273e
00000040: ad6b 393d ce52 373d d011 08be df96 503d
00000050: 4792 43be f82a b8bd b15c bcbc 5ae7 d43d
00000060: ca1a 173e 21b6 5b3e 109f b13d a900 263e
00000070: dad4 ba3d 3fdb 41be 9a36 11bd 8ed1 3abe

conv2.weight f4 [64, 32, 3, 3]
-0.076711394 -0.048060443 -0.088728756 -0.10668449 0.094082475 0.053528674 -0.023684748 -0.13080868
0.023277484 -0.22121227 -0.048874002 -0.12433168 0.04441976 0.19120963 0.124706425 -0.046460774
-0.13232368 -0.08651976 -0.14632325 0.11684649 -0.055632893 0.114215344 0.13188381 -0.12947026
-0.06407188 0.22637911 0.023070706 0.29709494 -0.061789107 -0.19466637 -0.20587017 -0.014073367
-0.107050285 -0.089955546 0.17687464 0.08297959 0.033351406 0.11471409 -0.028050797 -0.021431884
0.03671485 0.16878027 -0.034044303 -0.11314805 -0.008708436 0.070307836 0.103799306 0.14283474
0.10933428 0.024230441 -0.0053318106 0.24858844 0.18487678 0.03144236 0.08043151 -0.14458676
0.016061295 -0.0132307345 0.16949223 -0.025786666 -0.13426611 -0.20801522 -0.023542937 0.044559754
-0.119132474 -0.03960594 0.1772627 0.03139944 0.005328624 -0.06988257 -0.09241318 -0.068298906
-0.0036905743 -0.0007729431 0.07268202 -0.06712803 0.01125273 -0.1512306 0.074810885 -0.06187994
0.020208448 -0.023818672 0.04839566 0.15249342 0.06282865 0.10199925 -0.021528153 -0.081427805
-0.048728283 -0.032288536 -0.022709692 0.011997075 -0.056939624 0.013682486 0.14507711 -0.05311792
-0.18433188 -0.13344637 0.20845707 -0.0070007304 -0.15926401 -0.00974857 -0.18850088 0.06520943
0.18430571 -0.068310015 -0.09909342 0.19110529 0.1355472 0.07508346 0.33650815 -0.23274398
0.07849933 -0.03167036 -0.08164516 -0.091280766 -0.07509401 -0.032771993 0.18578334 -0.032068506
0.037313316 -0.112686105 -0.11471138 -0.010320346 0.039374825 -0.20432298 -0.29709277 -0.14860222
-0.0062773814 -0.053015076 -0.03698744 0.0676361 0.017081698 0.122326314 0.022736188 0.04694926
-0.16243196 -0.004434798 -0.15176998 -0.06311542 -0.3355171 0.03913122 0.14904079 0.0042379536
-0.030954242 -0.17650364 0.036059003 -0.09618461 0.030024186 0.11155578 -0.257877 0.01503485
-0.118052624 -0.13828261 -0.061277825 0.09022266 0.117031634 0.06668795 0.036026377 0.106173076
0.01595429 0.17460291 0.031884745 -0.07013861 -0.02060826 0.30825168 0.12603539 0.16268691
0.18493101 -0.099569045 -0.15736291 -0.09147755 -0.08265624 -0.09596845 -0.22842279 -0.043789584
-0.16109098 0.24462067 0.059284475 0.09881378 0.04605292 -0.26752374 -0.08352353 -0.060073208
0.022661094 0.025474051 0.08300807 0.2076088 0.19927746 -0.15521324 -0.099870734 -0.054804333
0.15303591 0.09947152 -0.017111843 -0.23597305 -0.11420045 -0.06333554 -0.13151182 0.15397088
-0.048270628 0.12600915 0.030787319 0.09455304 -0.06269456 0.09737406 -0.042239357 0.11561427
-0.08223318 0.14413427 -0.033052318 -0.081794046 -0.01154603 -0.12344956 -0.14249294 -0.18781148
0.08824759 -0.15469944 -0.031884246 0.17939478 -0.07231996 0.06392086 0.16676557 -0.18604268
-0.05982356 -0.30412373 -0.2007041 -0.054029465 -0.07053531 -0.0529814 -0.19634186 0.11297367
-0.0020167604 -0.022730792 0.101278014 -0.102316245 0.074933715 -0.29468435 -0.11313633 -0.02618382
-0.15945797 -0.015541958 0.0542553 -0.1845195 -0.10077213 0.07183387 0.045951758 0.0766162
-0.16915564 0.12515588 -0.024635026 0.0076990067 0.05720706 -0.13732986 0.07892196 -0.035653707
00000000: dd1a 9dbd 07db 44bd 6cb7 b5bd 667d dabd
00000010: 50ae c03d e240 5b3d 8406 c2bc b6f2 05be
00000020: 6cb0 be3c 7885 62be 1b30 48bd 9ca1 febd
00000030: 7ff1 353d 75cc 433e 1566 ff3d a74d 3ebd
00000040: dc7f 07be 4631 b1bd c3d5 15be 364d ef3d
00000050: 51df 63bd bce9 e93d 8d0c 073e da93 04be
00000060: 1e38 83bd edcf 673e c7fe bc3c d41c 983e
00000070: 9316 7dbd 9f56 47be a1cf 52be fb93 66bc
00000080: 2e3d dbbd 9d3a b8bd a01e 353e 34f1 a93d
00000090: 7c9b 083d 39ef ea3d c9ca e5bc eb91 afbc
000000a0: 5062 163d bcd4 2c3e 0a72 0bbd 2aba e7bd
000000b0: d4ad 0ebc 8efd 8f3d bb94 d43d 4543 123e
000000c0: a7ea df3d eb7e c63c 78b6 aebb f88d 7e3e
000000d0: 5750 3d3e b4c9 003d 47b9 a43d 8d0e 14be
000000e0: fa92 833c b9c5 58bc 5f8f 2d3e 8f3e d3bc
000000f0: 0e7d 09be f101 55be 1edd c0bc 4a84 363d
00000100: bafb f3bd d739 22bd 5a84 353e b39c 003d
00000110: bd9b ae3b 981e 8fbd 1f43 bdbd 4ce0 8bbd
00000120: 90dd 71bb 559f 4aba 50da 943d 6c7a 89bd
00000130: 5f5d 383c 32dc 1abe 7336 993d d275 7dbd
00000140: 308c a53c 601f c3bc 873a 463d 3c27 1c3e
00000150: 4fac 803d fce4 d03d cf5b b0bc 9fc3 a6bd
00000160: 4f97 47bd fc40 04bd ad09 babc 618f 443c
00000170: 8639 69bd 812c 603c 188f 143e 2d92 59bd
00000180: 7fc1 3cbe 2aa6 08be c575 553e 6266 e5bb
00000190: 1b16 23be 77b8 1fbc 6006 41be 868c 853d
000001a0: a3ba 3c3e 1fe6 8bbd 7ef1 cabd 1bb1 433e
000001b0: e3cc 0a3e 5bc5 993d cc4a ac3e 7054 6ebe
000001c0: 42c4 a03d c8b8 01bd 9435 a7bd 69f1 babd
000001d0: e3ca 99bd ed3b 06bd fd3d 3e3e 445a 03bd
000001e0: d9d5 183d f9c7 e6bd cded eabd ab16 29bc
000001f0: 7f47 213d 0b3a 51be 8b1c 98be 2e2b 18be
00000200: 7eb2 cdbb 5626 59bd 2480 17bd cc84 8a3d
00000210: ebee 8b3c 3886 fa3d 3e41 ba3c de4d 403d
00000220: 9054 26be c851 91bb 9769 1bbe a842 81bd
00000230: e6c8 abbe 0f48 203d 269e 183e 88de 8a3b
00000240: c093 fdbc 5fbd 34be 9bb2 133d 70fc c4bd
00000250: 48f5 f53c 5b77 e43d 7408 84be bb54 763c
00000260: 93c5 f1bd f599 0dbe 75fe 7abd a8c6 b83d
00000270: 48ae ef3d b193 883d 6590 133d 4571 d93d
00000280: 92b2 823c 1bcb 323e 9499 023d d5a4 8fbd
00000290: a7d2 a8bc 2ad3 9d3e 6c0f 013e 6697 263e
000002a0: 8e5e 3d3e dbea cbbd be23 21be 9558 bbbd
000002b0: ad47 a9bd 1b8b c4bd aae7 69be b55c 33bd
000002c0: 09f5 24be d77d 7a3e 47d4 723d e15e ca3d
000002d0: fda1 3c3d dff8 88be 620e abbd 530f 76bd
000002e0: c2a3 b93c f5ae d03c 2300 aa3d 6797 543e
000002f0: 640f 4c3e 38f0 1ebe 0789 ccbd 827a 60bd
00000300: 72b5 1c3e b9b7 cb3d 232e 8cbc eba2 71be
00000310: ede1 e9bd 10b6 81bd 09ab 06be 8baa 1d3e
00000320: 6cb7 45bd 8b08 013e b035 fc3c 06a5 c13d
00000330: 0166 80bd 0d6c c73d 2d03 2dbd 2dc7 ec3d
00000340: df69 a8bd ef97 133e de61 07bd a383 a7bd
00000350: 8f2b 3dbc 1fd3 fcbd abe9 11be a751 40be
00000360: 27bb b43d 8869 1ebe 0e99 02bd 44b3 373e
00000370: 7d1c 94bd f1e8 823d 98c4 2a3e f981 3ebe
00000380: 8d09 75bd 1bb6 9bbe 6085 4dbe 004e 5dbd
00000390: d174 90bd 0603 59bd d70d 49be bd5e e73d
000003a0: a02b 04bb ed35 babc d96a cf3d 2e8b d1bd
000003b0: d976 993d dee0 96be 05b4 e7bd 737f d6bc
000003c0: f348 23be b2a3 7ebc ce3a 5e3d aef2 3cbe
000003d0: 9e61 cebd a31d 933d e937 3c3d f4e8 9c3d
000003e0: 2337 2dbe dd28 003e 65cf c9bc f347 fc3b
000003f0: f351 6a3d 33a0 0cbe d6a1 a13d 9f09 12bd

conv2.bias f4 [64]
-0.033589665 0.038092766 -0.071470745 -0.029261243 -0.032472204 0.1116948 0.034889586 0.032515965
0.004880056 -0.09520398 -0.050961055 -0.044844594 0.058789205 -0.033472713 0.077996716 -0.04163529
-0.072981596 -0.02360984 -0.004675727 0.031545464 0.041406587 0.025068633 -0.111442074 0.094904035
-0.15888514 0.09067359 0.036933444 -0.060269263 0.032764677 0.009436635 0.09368687 -0.0055762962
-0.19005035 -0.040899437 -0.01466314 -0.042488046 -0.01823355 -0.12283705 -0.082340844 0.03547991
0.060518757 0.090870835 -0.0011836893 -0.0563779 -0.12187508 -0.04213859 -0.02404421 -0.033987395
0.0066637653 0.011534593 -0.009306165 -0.03671746 -0.060721096 -0.05692854 0.032874107 -0.035837736
0.008768585 -0.0011055478 -0.12593156 -0.2314311 -0.023095528 -0.016522093 -0.047408957 -0.063598596
00000000: 5195 09bd 2907 1c3d 415f 92bd 46b5 efbc
00000010: 9301 05bd 3ec0 e43d 62e8 0e3d 762f 053d
00000020: e0e8 9f3b 4efa c2bd 8abc 50bd f7ae 37bd
00000030: f3cc 703d af1a 09bd bebc 9f3d c489 2abd
00000040: 6077 95bd 6c69 c1bc d736 99bb d135 013d
00000050: f499 293d bc5c cd3c be3b e4bd 0c5d c23d
00000060: c9b2 22be 13b3 b93d 8647 173d e7dc 76bd
00000070: 4134 063d 1e9c 1a3c e7de bf3d 5db9 b6bb
00000080: 8f9c 42be 2b86 27bd ab3d 70bc f207 2ebd
00000090: 875e 95bc fe91 fbbd 51a2 a8bd 6253 113d
000000a0: 84e2 773d 7d1a ba3d 0626 9bba 83ec 66bd
000000b0: a499 f9bd 8499 2cbd 5df8 c4bc 5e36 0bbd
000000c0: b75b da3b 97fb 3c3c e378 18bc 0c65 16bd
000000d0: afb6 78bd e72d 69bd 00a7 063d 97ca 12bd
000000e0: 1caa 0f3c 07e8 90ba 34f4 00be 46fc 6cbe
000000f0: d532 bdbc 5759 87bc e52f 42bd fb3f 82bd

conv3.weight f4 [128, 64, 3, 3]
-0.055224556 0.024710033 0.05437296 -0.09928206 0.09094295 0.0119664585 0.030651247 -0.056908745
-0.13902219 -0.013247111 0.09291493 -0.08434051 -0.0107662855 0.0077331793 -0.026865697 -0.0068228706
-0.013092649 0.036839586 -0.09356482 -0.16993055 0.094634235 -0.05698063 -0.1327333 -0.0013859471
-0.12482435 0.0075796917 -0.050024647 0.04670946 0.07862789 -0.1412113 0.021163784 -0.09174495
0.085169844 -0.08448447 -0.0238421 -0.07612489 -0.09185014 0.080968164 -0.073518775 -0.08613304
0.05158848 -0.06148997 -0.10182708 -0.10481646 0.06413482 -0.014419561 0.112667754 -0.062353503
0.025060927 0.023344671 -0.06468526 -0.025317527 0.0023198603 0.088306695 -0.08078449 -0.050022352
-0.020199817 -0.019941946 0.06387789 0.00887541 -0.06935713 0.07063261 -0.026384056 -0.13666286
-0.07476575 -0.103714876 0.0062729884 -0.013715386 0.05441867 0.06400397 0.017374769 0.08984062
-0.062460285 0.07640931 0.09869523 0.1647773 0.10478972 0.0767322 -0.03353043 0.0066045653
0.0028685841 0.025307616 -0.06926493 -0.06868578 0.04323163 0.035793018 0.07427076 0.063936144
-0.0046056793 0.031990133 0.081980675 0.015816301 -0.038005475 0.014869019 -0.099887215 0.018849194
0.11387001 0.030277448 0.037337832 0.02940435 -0.11132394 0.1100112 0.01996287 0.07211127
-0.077966854 0.016724277 -0.08831331 0.15568681 0.05064809 -0.09958114 -0.09617408 -0.009122446
-0.20916755 -0.18304615 -0.008570764 -0.083850786 -0.055273462 0.023791645 0.0077466336 -0.037701886
0.052150637 -0.13468766 0.0539075 0.00783596 0.03986717 -0.16801375 0.02801518 0.018828996
-0.11783483 -0.015349616 -0.0829531 -0.16088535 -0.09918195 -0.11166969 -0.06995562 -0.06490108
-0.08715155 -0.12928836 0.087775916 -0.05673037 0.059219703 -0.017786153 0.065977015 -0.16297676
0.033795647 0.22763437 0.09819717 0.09133565 0.034166496 -0.005676365 -0.011354854 0.15129946
-0.17935093 0.09842492 -0.07825053 0.049693234 -0.041771755 -0.15272017 0.08794163 0.013212953
0.096043594 -0.005288696 -0.035321116 -0.037306387 -0.15473583 -0.07775752 -0.057812467 -0.0778678
-0.08212585 -0.1460781 0.0029510467 0.032762475 -0.10925831 -0.04930292 0.05246183 0.074780494
0.19722243 -0.18564992 0.03412989 -0.016693136 0.07937296 -0.16929838 -0.13257943 0.09512404
-0.076437555 -0.06871109 0.07433004 -0.042806014 -0.021287756 0.1215802 0.04036507 -0.15201375
-0.06466927 0.045792457 0.001026134 0.0003435856 0.14189006 -0.033266295 -0.046939757 0.16067083
0.13519311 -0.04912258 0.04319022 0.105726205 -0.0067808637 -0.051538378 -0.005449211 0.010637106
0.055033103 -0.022654057 0.05847405 0.009227402 0.035691272 -0.091969 -0.046368733 0.04824365
-0.01675875 0.12953041 0.15284352 -0.032204933 0.051482935 -0.056092612 -0.16909534 -0.14233159
-0.050949488 0.030028801 -0.13309015 -0.14336793 0.0088841 -0.046489462 -0.14571467 0.17242551
0.16796598 -0.009824087 -0.023644991 -0.115722746 -0.08524222 -0.007592374 -0.15493685 -0.11701888
-0.048206057 0.070190735 -0.12440319 0.03867773 -0.011031457 -0.0692572 0.0071941568 -0.10635226
0.09698582 0.09801168 0.055417098 -0.077871665 0.20728864 -0.12100269 -0.04973237 -0.021315949
00000000: 2533 62bd b26c ca3c 2eb6 5e3d 6554 cbbd
00000010: 4c40 ba3d f70e 443c 5318 fb3c 2519 69bd
00000020: d55b 0ebe 690a 59bc 2f4a be3d b8ba acbd
00000030: 1365 30bc 9c66 fd3b 7315 dcbc 6392 dfbb
00000040: 8d82 56bc 1be5 163d ea9e bfbd 4602 2ebe
00000050: 98cf c13d 8564 69bd 3deb 07be aba8 b5ba
00000060: e9a3 ffbd 105f f83b a5e6 4cbd 6b52 3f3d
00000070: a907 a13d b299 10be ac5f ad3c c7e4 bbbd
00000080: 876d ae3d 3206 adbd 8250 c3bc 5ee7 9bbd
00000090: ed1b bcbd a3d2 a53d 0391 96bd 8566 b0bd
000000a0: 714e 533d e8dc 7bbd b78a d0bd 03aa d6bd
000000b0: 1e59 833d 0640 6cbc 5abe e63d 6366 7fbd
000000c0: 934c cd3c 533d bf3c b579 84bd b466 cfbc
000000d0: cc08 183b 24da b43d 5772 a5bd 3de4 4cbd
000000e0: 167a a5bc 4b5d a3bc 69d2 823d 2b6a 113c
000000f0: 1c0b 8ebd d4a7 903d 6023 d8bc 59f1 0bbe
00000100: c91e 99bd 7768 d4bd a48d cd3b 80b6 60bc
00000110: 1ce6 5e3d 8314 833d 8855 8e3c 5cfe b73d
00000120: 5bd6 7fbd 7c7c 9c3d ba20 ca3d 61bb 283e
00000130: fe9b d63d c625 9d3d 3457 09bd 1c6b d83b
00000140: dbfe 3b3b eb51 cf3c c6da 8dbd 21ab 8cbd
00000150: a613 313d b39b 123d 451b 983d f4f0 823d
00000160: 3deb 96bb 1608 033d 7ce5 a73d 3091 813c
00000170: a1ab 1bbd 309d 733c ab91 ccbd a069 9a3c
00000180: ae34 e93d 6908 f83c 8eef 183d 64e1 f03c
00000190: cefd e3bd 8d4d e13d 2c89 a33c 13af 933d
000001a0: 16ad 9fbd 5a01 893c 9cdd b4bd 5d6c 1f3e
000001b0: 5f74 4f3d 32f1 cbbd ebf6 c4bd 5076 15bc
000001c0: 0530 56be 7370 3bbe 646c 0cbc f6b9 abbd
000001d0: 6d66 62bd b2e6 c23c 79d7 fd3b 4b6d 1abd
000001e0: e89b 553d 90eb 09be 1cce 5c3d 6662 003c
000001f0: c24b 233d cc0b 2cbe 1780 e53c 443f 9a3c
00000200: 6353 f1bd f57c 7bbc 51e3 a9bd 21bf 24be
00000210: e81f cbbd 14b3 e4bd e444 8fbd dcea 84bd
00000220: 837c b2bd 2b64 04be dcc3 b33d 1b5e 68bd
00000230: 5c90 723d 44b4 91bc f51e 873d 61e3 26be
00000240: 4e6d 0a3d fc18 693e 991b c93d 2f0e bb3d
00000250: 2bf2 0b3d cd00 babb b609 3abc 3fee 1a3e
00000260: c5a7 37be 0193 c93d d041 a0bd 228b 4b3d
00000270: dc18 2bbd ad62 1cbe be1a b43d 247b 583c
00000280: 81b2 c43d cc4c adbb e0ac 10bd 95ce 18bd
00000290: 1273 1ebe 563f 9fbd c4cc 6cbd 2779 9fbd
000002a0: 9931 a8bd 7f95 15be 5966 413b f231 063d
000002b0: d2c2 dfbd dcf1 49bd 37e2 563d 8426 993d
000002c0: adf4 493e 031b 3ebe c9cb 0b3d 0bc0 88bc
000002d0: 4a8e a23d 8e5c 2dbe e7c2 07be 65d0 c23d
000002e0: 4b8b 9cbd 66b8 8cbd 593a 983d 5c55 2fbd
000002f0: a963 aebc 0aff f83d d855 253d 7ea9 1bbe
00000300: 5271 84bd df90 3b3d 587f 863a 4723 b439
00000310: a14b 113e 3d42 08bd e743 40bd e586 243e
00000320: 1070 0a3e c234 49bd 3ae8 303d fb86 d83d
00000330: 0232 debb e819 53bd 4c8f b2bb 4247 2e3c
00000340: 646a 613d 0095 b9bc 7c82 6f3d 872e 173c
00000350: 0331 123d 3e5a bcbd 24ed 3dbd 229b 453d
00000360: a549 89bc 9fa3 043e 0383 1c3e 52e9 03bd
00000370: c5df 523d 5ec1 65bd 5427 2dbe 5fbf 11be
00000380: 69b0 50bd f6fe f53c c948 08be 0bcf 12be
00000390: 9e8e 113c bc6b 3ebd 3a36 15be 5090 303e
000003a0: 46ff 2b3e 35f5 20bc 24b3 c1bc 0c00 edbd
000003b0: 7993 aebd 73c9 f8bb c4a7 1ebe 98a7 efbd
000003c0: b773 45bd 29c0 8f3d 1ac7 febd 8a6c 1e3d
000003d0: 49bd 34bc b8d6 8dbd f6bc eb3b 37cf d9bd
000003e0: 80a0 c63d 59ba c83d 0afd 623d 2e7b 9fbd
000003f0: 7943 543e 42d0 f7bd 2bb4 4bbd c99e aebc

conv3.bias f4 [128]
-0.038977176 0.024833007 -0.16335352 -0.0007885652 -0.057130806 0.07436917 -0.033780918 -0.06594756
0.020145448 -0.0046958015 -0.039879635 0.046960153 0.022228634 0.03936164 -0.1535425 -0.009138806
-0.113172226 0.032526273 0.113449216 0.007834206 -0.01003568 -0.0119817285 0.045803193 -0.08711071
-0.011993402 -0.056980316 -0.016302837 0.02483534 -0.09807424 -0.070054516 -0.0676398 -0.022046052
0.06605983 -0.0076441094 -0.021014757 0.0042333743 -0.09585317 -0.0038085072 -0.05741908 0.02921048
0.008804142 -0.084015146 -0.17990686 -0.1042485 0.06118628 0.023919797 0.02676366 -0.1147262
0.0027618932 0.084089644 0.05468007 0.019396773 -0.022798104 -0.06979699 0.0039919303 -0.027781332
-0.060856488 -0.081249624 -0.07981687 -0.043016676 -0.046873614 -0.11610198 -0.00089762546 -0.05852648
0.0031457758 0.030165061 0.013093171 -0.048749845 -0.11877739 0.073313385 0.089238346 -0.03739464
-0.029994551 -0.036984887 0.018988412 -0.06114771 -0.03880809 0.0044071293 -0.04256832 -0.016772302
-0.040222943 -0.030587597 0.017097834 -0.10436578 -0.0058091185 -0.04160041 0.10932165 -0.014781038
0.1148323 0.034605764 -0.025089502 -0.066817485 -0.08137329 -0.063214324 0.06821845 -0.09770437
-0.073677324 0.13099147 -0.06118136 0.026230762 -0.0122187855 -0.056103617 0.01804014 0.06339587
-0.020102642 -0.11980197 -0.0595772 -0.009298646 -0.03303468 0.04688553 0.042452373 0.042880245
-0.038202394 0.011526039 -0.045698896 0.01738458 0.13037236 -0.06483096 -0.048657052 -0.07426316
-0.01964554 -0.027819019 -0.14677311 0.11624452 -0.09709091 -0.059647046 -0.14600098 -0.050433572
00000000: 88a6 1fbd 976e cb3c 2546 27be b7b7 4eba
00000010: fe01 6abd dd4e 983d dc5d 0abd 840f 87bd
00000020: 1108 a53c 3ddf 99bb d458 23bd 4a59 403d
00000030: d318 b63c ac39 213d 3f3a 1dbe eeba 15bc
00000040: d7c6 e7bd 453a 053d 1058 e83d 0b5b 003c
00000050: b16c 24bc 034f 44bc 219c 3b3d 1a67 b2bd
00000060: f97f 44bc 3164 69bd 878d 85bc 7c73 cb3c
00000070: 26db c8bd be78 8fbd bc86 8abd ec99 b4bc
00000080: 604a 873d 707b fabb 2427 acbc 1eb8 8a3b
00000090: ab4e c4bd 2698 79bb 4530 6bbd d14a ef3c
000000a0: 3f3f 103c 2210 acbd 8139 38be 3d80 d5bd
000000b0: 779e 7a3d 73f3 c33c 773f db3c 92f5 eabd
000000c0: e100 353b 3137 ac3d 36f8 5f3d fbe5 9e3c
000000d0: 17c3 babc b9f1 8ebd bdce 823b ad95 e3bc
000000e0: a744 79bd 3466 a6bd 0777 a3bd 4132 30bd
000000f0: 8cfe 3fbd e0c6 edbd a04e 6bba 76b9 6fbd
00000100: 5c29 4e3b b81c f73c bd84 563c ebad 47bd
00000110: 8f41 f3bd 5425 963d 98c2 b63d 1f2b 19bd
00000120: 22b7 f5bc 777d 17bd 968d 9b3c 0576 7abd
00000130: 3bf5 1ebd ae69 903b 1e5c 2ebd 1166 89bc
00000140: d0c0 24bd d792 fabc c210 8c3c babd d5bd
00000150: 6b5a bebb 3165 2abd 07e4 df3d 2b2c 72bc
00000160: 322d eb3d c6be 0d3d 8088 cdbc 9bd7 88bd
00000170: 0aa7 a6bd 8376 81bd 1db6 8b3d 3b19 c8bd
00000180: 23e4 96bd a122 063e 4e99 7abd e5e1 d63c
00000190: 4d31 48bc e8cc 65bd eac8 933c b2d5 813d
000001a0: 4cae a4bc bc5a f5bd 3907 74bd 5959 18bc
000001b0: 5f4f 07bd 0b0b 403d 8ae2 2d3d 32a3 2f3d
000001c0: 1d7a 1cbd b6d7 3c3c c42e 3bbd 1b6a 8e3c
000001d0: 5580 053e 18c6 84bd 9e4c 47bd 4917 98bd
000001e0: afef a0bc b6e4 e3bc b14b 16be 9b11 ee3d
000001f0: 99d7 c6bd 7650 74bd 4881 15be 6f93 4ebd

act_conv1.weight f4 [4, 128, 1, 1]
-0.08167672 0.062820144 -0.06168634 -0.06583041 -0.007989076 0.28632832 0.0059858966 0.22402664
0.06720216 0.008259379 -0.053830165 0.023682317 0.007743485 -0.08558956 0.028727505 -0.005358537
0.05090641 0.05725417 -0.10334666 -0.03929899 -0.051286887 -0.019202877 0.03962882 0.059811562
0.072469965 0.09260745 0.043032654 -0.09522586 0.06107592 -0.07405019 -0.031668305 0.18650953
0.45322695 0.045023467 0.009748534 0.10533417 -0.2688271 0.045522757 -0.00041271996 0.019320402
-0.0291127 0.17641711 -0.09914154 -0.23373538 -0.0826977 -0.09460304 -0.024781892 -0.077299505
-0.10284948 0.02516006 -0.02101526 -0.0920606 0.10428401 0.07329452 -0.008253686 -0.059369005
-0.015219586 -0.054703966 -0.01678778 -0.06981002 -0.07794445 0.13922763 -0.01263523 0.08973389
0.08519578 -0.005555323 0.44792473 0.040125072 0.5256237 0.06290764 0.029921573 0.12534119
0.004391246 0.012637418 -0.005366977 -0.03583653 0.06312412 -0.005817576 0.090575874 0.009602998
-0.07143898 -0.15015492 0.09105262 0.07007534 0.05027139 -0.23288924 0.039013196 -0.03602384
0.08823524 -0.014443583 0.07233956 -0.0021911461 -0.051593225 0.055749025 0.20970102 0.113936044
0.035729807 -0.007512341 -0.03358585 -0.018606873 0.22453505 0.3516503 0.26450625 0.032577742
-0.05317214 -0.00063390913 0.28152442 0.043831 0.0034788838 0.21709926 0.043249764 0.118948944
0.017372834 0.04946232 0.041069023 -0.045019098 0.13331239 0.23857492 0.046290472 -0.027804269
0.020234128 -0.01982352 -0.14921057 0.17036045 -0.03944423 -0.052149694 0.012732872 -0.10246497
-0.0035566883 -0.011503345 0.09147469 0.028486079 -0.015701475 -0.0777267 0.25987804 0.15550518
0.249842 -0.06043663 0.03429107 0.06329764 -0.033917774 0.29792488 -0.07131771 0.0449413
0.042650588 -0.14045592 -0.02355209 -0.044533186 -0.01162132 0.08353123 -0.08852329 0.054933615
-0.03512903 -0.11821085 -0.03524883 -0.041070566 -0.048357185 0.039471935 -0.044293243 -0.22943228
0.1324755 -0.008326701 -0.0030933297 -0.08955792 0.37564927 0.03300175 0.06172465 0.070337944
0.012834507 0.0004317447 0.12607771 0.1487194 0.0348313 0.17682499 0.032330163 -0.117889054
0.372939 -0.0037580084 0.012816619 -0.10793078 -0.045492016 0.03336991 0.011165417 0.05662135
0.09040232 0.026769064 0.59344125 0.05411064 0.046315547 0.016674927 -0.026383806 0.36333385
0.0582172 -0.020660594 0.13170658 -0.066104874 -0.08347014 0.0032127334 -0.067531064 0.00056836405
-0.028695336 0.022056391 0.017092561 0.049314756 0.013017992 0.22760458 -0.017677229 0.048915353
0.14533535 0.1419113 0.047243476 -0.09679396 0.020682367 0.23218217 0.23755741 0.075619176
0.10089198 0.06785054 0.08291186 -0.014392825 0.15702601 0.015601648 0.012716833 0.07700347
0.03050729 0.081945546 0.11806591 0.061503302 -0.18029588 -0.2820283 -0.27791217 -0.14128448
-0.030873442 0.011595824 0.07946018 -0.21938817 0.11034789 0.2604453 -0.08738616 -0.0655352
-0.00057852955 -0.069456756 0.045639385 0.22454883 0.087029636 0.0644731 -0.01547139 -0.010116006
0.01725041 -0.022858977 -0.08707452 0.19826518 0.11083667 0.021755833 0.049805023 0.16740574
00000000: 2046 a7bd d9a7 803d d1aa 7cbd 18d2 86bd
00000010: 9de4 02bc a099 923e 5725 c43b 3d67 653e
00000020: 49a1 893d 5952 073c 057d 5cbd 6b01 c23c
00000030: 0fbd fd3b 9449 afbd f255 eb3c ab96 afbb
00000040: 3d83 503d 5983 6a3d 6aa7 d3bd faf7 20bd
00000050: 3312 52bd 5a4f 9dbc d451 223d f8fc 743d
00000060: 226b 943d faa8 bd3d 0243 303d c705 c3bd
00000070: be2a 7a3d a0a7 97bd a0b6 01bd 5bfc 3e3e
00000080: 5d0d e83e 876a 383d 51b8 1f3c 71b9 d73d
00000090: b5a3 89be 1276 3a3d 5662 d8b9 d245 9e3c
000000a0: c27d eebc b0a6 343e b80a cbbd 5458 6fbe
000000b0: 695d a9bd 3dbf c1bd 6503 cbbc 344f 9ebd
000000c0: c0a2 d2bd 781c ce3c 3228 acbc 458a bcbd
000000d0: db92 d53d 701b 963d 783a 07bc ea2c 73bd
000000e0: 925b 79bc 4411 60bd 8786 89bc 8ef8 8ebd
000000f0: 57a1 9fbd b091 0e3e ff03 4fbc 67c6 b73d
00000100: 207b ae3d 6d09 b6bb 6456 e53e 305a 243d
00000110: 468f 063f b9d5 803d 161e f53c 7159 003e
00000120: 71e4 8f3b 2c0d 4f3c 77dd afbb 53c9 12bd
00000130: 3847 813d 5da1 bebb d87f b93d e555 1d3c
00000140: 9a4e 92bd 36c2 19be cc79 ba3d a983 8f3d
00000150: 5fe9 4d3d 847a 6ebe 4dcc 1f3d bc8d 13bd
00000160: adb4 b43d c7a4 6cbc c326 943d 5599 0fbb
00000170: 6b53 53bd 1759 643d ddbb 563e 4d57 e93d
00000180: 6b59 123d 152a f6bb 5191 09bd 716d 98bc
00000190: 84ec 653e 820b b43e 5d6d 873e 3d70 053d
000001a0: 08cb 59bd ec2c 26ba f823 903e 2288 333d
000001b0: fcfd 633b 454f 5e3e aa26 313d 819b f33d
000001c0: 7951 8e3c 0099 4a3d fe37 283d f265 38bd
000001d0: 0b83 083e fc4c 743e 149b 3d3d c7c5 e3bc
000001e0: 0bc2 a53c ef64 a2bc a8ca 18be f872 2e3e
000001f0: 4690 21bd eb9a 55bd 899d 503c 27d9 d1bd
00000200: 5417 69bb 8778 3cbc 1557 bb3d a35b e93c
00000210: 61a0 80bc 2d2f 9fbd bc0e 853e c03c 1f3e
00000220: 95d6 7f3e 668c 77bd cb74 0c3d 31a2 813d
00000230: 5ded 0abd 9c89 983e 050f 92bd 5e14 383d
00000240: 62b2 2e3d add3 0fbe 50f0 c0bc 6e68 36bd
00000250: 5967 3ebc 6c12 ab3d b34b b5bd 1202 613d
00000260: 75e3 0fbd 8818 f2bd 1461 10bd 9c39 28bd
00000270: 2f12 46bd 53ad 213d d56c 35bd 4cf0 6abe
00000280: a8a7 073e b76c 08bc 76b9 4abb 256a b7bd
00000290: 1a55 c03e d82c 073d fdd2 7c3d 570d 903d
000002a0: d347 523c cb5b e239 841a 013e e649 183e
000002b0: 44ab 0e3d 9c11 353e a26c 043d d16f f1bd
000002c0: dcf1 be3e eb48 76bb ccfc 513c d00a ddbd
000002d0: d655 3abd e3ae 083d 27ef 363c caeb 673d
000002e0: da24 b93d cc4a db3c c4eb 173f 1ea3 5d3d
000002f0: 5fb5 3d3d db99 883c da22 d8bc e506 ba3e
00000300: 2975 6e3d 6840 a9bc 17de 063e fe61 87bd
00000310: 65f2 aabd b98c 523b ba4d 8abd 44fe 143a
00000320: 7b12 ebbc 9baf b43c b305 8c3c 45fe 493d
00000330: 6a49 553c 2d11 693e d6cf 90bc 775b 483d
00000340: cad2 143e 3251 113e 6082 413d e93b c6bd
00000350: 116e a93c 2ac1 6d3e 4042 733e 3ade 9a3d
00000360: 74a0 ce3d 39f5 8a3d b1cd a93d e2cf 6bbc
00000370: 6dcb 203e 0e9e 7f3c 435a 503c ffb3 9d3d
00000380: 6dea f93c 11d3 a73d 8acc f13d e3ea 7b3d
00000390: 7c9f 38be 0366 90be 814a 8ebe e1ac 10be
000003a0: 4dea fcbc 69fc 3d3c 05bc a23d 4ba7 60be
000003b0: 13fe e13d 1659 853e 84f7 b2bd 5237 86bd
000003c0: 76a8 17ba 583f 8ebd 5df0 3a3d 21f0 653e
000003d0: 983c b23d 790a 843d b77b 7dbc 9bbd 25bc
000003e0: bb50 8d3c c042 bbbc 2054 b2bd 0706 4b3e
000003f0: 56fe e23d 4a39 b23c 5a00 4c3d 696c 2b3e

act_conv1.bias f4 [4]
0.056671977 -0.0023188794 0.15027043 -0.009250659
00000000: e020 683d 57f8 17bb 7ee0 193e 1390 17bc

act_fc1.weight f4 [81, 324]
-0.008896132 0.0039716978 0.05187659 0.0029600905 0.0086548515 0.032519758 -0.013391342 -0.024897162
0.03671533 0.041673895 -0.0019079649 -0.03026312 -0.017562773 -0.06655251 -0.007767999 -0.014205892
-0.018203033 0.040730067 0.015425437 -0.018195288 0.00270685 0.04209766 -0.02874548 0.011563022
-0.0036731747 -0.0064614895 0.044190973 0.041388474 0.005804898 -0.0700922 -0.045097098 -0.0048814644
0.0011893606 -0.111396275 0.04116169 0.057733286 0.013233419 -0.022423694 -0.068147406 -0.06933074
-0.06028288 0.012199553 -0.07514937 -0.038965896 -0.0017341555 0.047994547 0.010732495 -0.210954
-0.063478254 -0.013903776 -0.041246958 0.003915247 -0.015006254 0.020348897 0.05938755 -0.30029613
-0.050525047 0.11040931 -0.0068524624 -0.021730937 -0.0014551448 0.03708793 0.058869537 -0.06347085
0.116205595 0.182095 0.013743517 -0.07714686 0.0044993004 -0.006575169 0.018534482 0.00026828752
-0.023259237 -0.07430066 0.029566642 -0.048623588 -0.05033387 0.026479384 0.023598243 0.0015745336
0.02895702 0.018868785 -0.029255625 -0.00034151197 -0.007649857 0.010946183 0.029792534 0.011967211
-0.044781845 -0.002538932 -0.0063642603 -0.010825925 0.018905802 0.043738253 -0.016977165 0.020250376
0.065119706 0.015910236 -0.00022491254 0.0036205905 0.024057012 0.02280318 -0.038936805 0.014488741
0.022593914 0.052866474 0.026066342 0.020098506 0.014229543 0.031224895 0.032259736 0.06773311
0.11454839 -0.00619898 0.08032109 0.034617722 0.036047123 -0.02409793 0.011465758 0.036063954
0.043491572 -0.014067481 0.010155112 0.04400699 0.005000975 0.016151585 0.1164727 0.023081709
0.061292913 0.06785949 0.037728846 0.036843207 0.035541557 0.017340722 -0.0021970945 0.027871348
0.0313933 0.18810584 -0.057427928 -0.009665865 -0.0063896305 0.04330157 -0.01901557 0.010200906
-0.5004295 0.16431871 0.013265251 0.0482573 -0.008656999 0.04980185 0.01876367 0.0017742333
0.0011063428 0.083394356 0.041285194 0.012591068 -0.04454066 -0.008907074 0.06678188 0.03864318
0.036920134 -0.0016581747 -0.0008136814 -0.025051776 -0.018595912 -0.026006002 -0.030676205 -0.059136033
-0.037381776 -0.03503269 -0.014266622 0.014604995 0.009911228 -0.025541276 -0.021136697 -0.06699384
-0.04140084 -0.070337154 -0.02153359 0.0066838665 0.011944036 -0.02223128 -0.04272964 -0.049043022
-0.059721433 -0.0160687 -0.05965287 -0.0633076 -0.08387211 -0.011048154 -0.034770906 -0.06922481
-0.056180716 -0.021250594 -0.08710055 -0.060014643 -0.039830092 -0.053283833 -0.030888174 -0.06339342
-0.045930684 0.021553434 -0.03931306 -0.09081473 -0.025074901 -0.06969335 -0.002091804 0.13250054
-0.102244645 0.05857981 -0.12451564 -0.08263303 -0.06799753 -0.056451593 -0.037072506 -0.025129247
-0.09395019 -0.020724231 -0.19756687 -0.019273527 -0.02354625 -0.051966175 -0.059717674 -0.041647933
-0.013628368 -0.89814025 -0.07380486 0.10009989 -0.051758632 -0.031745546 -0.021961251 -0.07550726
-0.015126675 -0.024195863 0.0052535725 0.11050885 0.061073143 0.018713601 0.0051977006 0.004854908
0.037648704 0.009371164 0.010387573 -0.042069513 -0.009263917 -0.026151786 -0.02360321 -0.012240581
-0.055464786 0.028238896 0.03244964 0.0018331102 0.00054927904 0.003434337 -0.029660286 -0.017705115
00000000: 15c1 11bc 0425 823b 8c7c 543d 14fe 413b
00000010: 14cd 0d3c 7033 053d 5c67 5bbc 22f5 cbbc
00000020: d062 163d 3fb2 2a3d ae14 faba 5dea f7bc
00000030: cedf 8fbc af4c 88bd b38a febb d4bf 68bc
00000040: 871e 95bc 92d4 263d f9ba 7c3c 490e 95bc
00000050: 6865 313b 996e 2c3d a47b ebbc d472 3d3c
00000060: a5b9 70bb e7ba d3bb 9801 353d f686 293d
00000070: 0437 be3b 808c 8fbd bcb7 38bd b1f4 9fbb
00000080: 52e4 9b3a bb23 e4bd 2999 283d bd79 6c3d
00000090: fbd0 583c e5b1 b7bc de90 8bbd 46fd 8dbd
000000a0: 2eeb 76bd a2e0 473c eae7 99bd b49a 1fbd
000000b0: 9a4c e3ba ee95 443d 59d7 2f3c 5304 58be
000000c0: e300 82bd aacc 63bc 92f2 28bd 794b 803b
000000d0: cbdc 75bc bbb2 a63c 5c40 733d 6ac0 99be
000000e0: 5af3 4ebd 471e e23d 9f8a e0bb 1405 b2bc
000000f0: 8fba beba 83e9 173d 2f21 713d 01fd 81bd
00000100: 33fd ed3d 1d77 3a3e 7d2c 613c 2cff 9dbd
00000110: de6e 933b 8474 d7bb a0d5 973c f1a8 8c39
00000120: 288a bebc f22a 98bd be35 f23c 8729 47bd
00000130: e32a 4ebd 4beb d83c 1a51 c13c 9560 ce3a
00000140: 4637 ed3c b692 9a3c 7ea9 efbc f60c b3b9
00000150: a7ab fabb 9f57 333c 790f f43c 1f12 443c
00000160: 2b6d 37bd 3664 26bb 498b d0bb 385f 31bc
00000170: 57e0 9a3c e226 333d b213 8bbc 1ee4 a53c
00000180: 7b5d 853d 2f56 823c 80d6 6bb9 6e47 6d3b
00000190: 3613 c53c bccd ba3c 337c 1fbd 2f62 6d3c
000001a0: df16 b93c 848a 583d 1589 d53c 9fa5 a43c
000001b0: 0723 693c 5acb ff3c c922 043d a8b7 8a3d
000001c0: 5998 ea3d d020 cbbb 627f a43d 50cb 0d3d
000001d0: 26a6 133d 0669 c5bc e0da 3b3c ccb7 133d
000001e0: 3824 323d 4b7b 66bc a061 263c ac40 343d
000001f0: 38df a33b 5450 843c 3d89 ee3d da15 bd3c
00000200: 470e 7b3d ebf9 8a3d 9089 1a3d e7e8 163d
00000210: 0694 113d 210e 8e3c 21fd 0fbb 7452 e43c
00000220: 4396 003d d19e 403e 8c39 6bbd 945d 1ebc
00000230: 1b60 d1bb fd5c 313d 8ac6 9bbc b321 273c
00000240: 261c 00bf 2a43 283e 7f56 593c 72a9 453d
00000250: 16d6 0dbc 06fd 4b3d 45b6 993c 648d e83a
00000260: b402 913a a9ca aa3d aa1a 293d c44a 4e3c
00000270: 4470 36bd faee 11bc f0c4 883d 5048 1e3d
00000280: 9139 173d 1c57 d9ba 3c4d 55ba 6239 cdbc
00000290: 7456 98bc 8a0a d5bc aa4c fbbc a038 72bd
000002a0: a21d 19bd 707e 0fbd 8dbe 69bc ca49 6f3c
000002b0: b462 223c f03b d1bc de26 adbc 1134 89bd
000002c0: ed93 29bd ed0c 90bd 3667 b0bc 5604 db3b
000002d0: ebb0 433c 601e b6bc 4605 2fbd 56e1 48bd
000002e0: 769e 74bd 82a2 83bc 9156 74bd 6aa7 81bd
000002f0: 24c5 abbd 5103 35bc f06b 0ebd bdc5 8dbd
00000300: c01d 66bd ba15 aebc c661 b2bd ead1 75bd
00000310: e124 23bd 2640 5abd 3209 fdbc 69d4 81bd
00000320: d021 3cbd d490 b03c bb06 21bd 13fd b9bd
00000330: e169 cdbc 63bb 8ebd a616 09bb 39ae 073e
00000340: a465 d1bd 62f1 6f3d 0e02 ffbd 823b a9bd
00000350: 4a42 8bbd c939 67bd 57d9 17bd dadb cdbc
00000360: f568 c0bd ddc5 a9bc f84e 4abe 84e3 9dbc
00000370: 11e4 c0bc 7cda 54bd 859a 74bd 0697 2abd
00000380: 8549 5fbc 85ec 65bf 0127 97bd 2c01 cd3d
00000390: dc00 54bd 9e07 02bd 15e8 b3bc 8da3 9abd
000003a0: e0d5 77bc 6736 c6bc 2926 ac3b 7752 e23d
000003b0: d527 7a3d 444d 993c 7951 aa3b ec15 9f3b
000003c0: 8735 1a3d 8389 193c a430 2a3c 1551 2cbd
000003d0: afc7 17bc 453c d6bc 855b c1bc b88c 48bc
000003e0: 0b2f 63bd 4255 e73c eae9 043d f944 f03a
000003f0: 7efd 0f3a 9d12 613b 21fa f2bc 510a 91bc

act_fc1.bias f4 [81]
0.032285113 -0.054192707 -0.074621215 -0.052358516 -0.03385977 -0.048122145 -0.061722863 -0.033509158
0.029504389 -0.052408177 -0.013661866 -0.091897115 0.09502885 -0.01470362 0.10640494 -0.059188735
-0.021778302 -0.021823516 -0.06880504 -0.08292281 0.114247724 0.06180737 0.08562109 0.036040712
0.07839028 -0.117941216 -0.041016378 -0.022430507 0.07690057 0.030798702 0.06945148 0.042076375
0.04183365 0.008032936 0.08445153 -0.031669464 -0.013853589 -0.05368225 0.106995165 0.01854549
0.034214564 0.052374132 0.10517064 -0.06102307 -0.0014392856 -0.047581032 0.06639012 0.0007543606
0.04646988 0.043972183 0.0082943905 0.05707586 0.034415346 -0.039476607 -0.07778265 -0.08054448
0.099922284 0.045622103 0.11968203 0.08405802 0.123460606 -0.06982742 -0.056605745 -0.054516565
-0.010631483 -0.09923892 0.06338414 -0.059359554 0.062786505 -0.08513618 -0.0064107124 -0.028127916
0.021259477 -0.020420952 -0.056316294 -0.046290256 0.006557875 -0.040913846 -0.012843251 -0.015203957
0.026606204
00000000: 653d 043d 2cf9 5dbd 02d3 98bd e275 56bd
00000010: 8bb0 0abd ba1b 45bd 1dd1 7cbd e640 09bd
00000020: 30b3 f13c f5a9 56bd 05d6 5fbc 8e34 bcbd
00000030: 7c9e c23d 74e7 70bc d5ea d93d e36f 72bd
00000040: 6968 b2bc 3bc7 b2bc a8e9 8cbd 6fd3 a9bd
00000050: b6fa e93d ba29 7d3d 1c5a af3d 6d9f 133d
00000060: 158b a03d 2a8b f1bd ca00 28bd 2fc0 b7bc
00000070: 0c7e 9d3d 8f4d fc3c 943c 8e3d 4758 2c3d
00000080: c359 2b3d 939c 033c ecf4 ac3d d7b7 01bd
00000090: 2afa 62bc ebe1 5bbd 4820 db3d b6ec 973c
000000a0: 9224 0c3d 4286 563d b463 d73d 54f3 79bd
000000b0: 69a6 bcba 54e4 42bd 8bf7 873d 48c0 453a
000000c0: 3357 3e3d 2d1c 343d 32e5 073c 61c8 693d
000000d0: 1bf7 0c3d 39b2 21bd 834c 9fbd 81f4 a4bd
000000e0: 0ea4 cc3d 3ede 3a3d da1b f53d 9c26 ac3d
000000f0: ead8 fc3d ae01 8fbd 6ddb 67bd c34c 5fbd
00000100: ac2f 2ebc c63d cbbd 8bcf 813d 0123 73bd
00000110: 3696 803d e15b aebd f410 d2bb 846c e6bc
00000120: 5b28 ae3c d749 a7bc eaab 66bd da9a 3dbd
00000130: 71e3 d63b 4795 27bd 806c 52bc 051a 79bc
00000140: 41f5 d93c

val_conv1.weight f4 [2, 128, 1, 1]
0.25302398 -0.16859342 -0.16650884 -0.07121876 0.28708917 -0.03766118 0.043905377 0.17812145
0.24180478 0.30600494 -0.48551035 -0.11404087 -0.32695732 -0.041549098 0.39197457 -0.06716575
-0.18525948 0.1157994 0.014347754 0.17922194 -0.27179897 -0.20682 0.11219633 -0.0031315081
-0.09424483 -0.36758056 0.12930332 0.06896177 0.0036747027 0.10834253 -0.11570646 0.1150317
0.02347213 0.19558252 0.1384546 0.19782312 0.06970902 -0.22057292 0.24628407 -0.22987308
-0.21155152 0.25407436 -0.115263134 0.0055584293 -0.2885603 0.19731581 -0.5032029 0.1017645
-0.020666914 -0.26586092 -0.37366036 0.2544237 -0.11753408 0.004504507 0.3864926 0.31304348
0.25353366 0.42518744 0.011427837 0.16296053 0.30017567 -0.043940336 -0.24088033 -0.033425733
0.01184503 0.05555825 0.19971518 0.13234402 0.43081456 -0.17141189 -0.25771677 -0.18885393
-0.27936348 0.20198096 -0.10735337 0.38934276 -0.33830538 -0.09743796 0.14403832 0.16806781
0.01512195 0.23942234 -0.31851283 0.11221458 0.19903286 0.04928936 -0.003664751 -0.19576935
0.009748697 -0.20718639 -0.24690174 0.12746337 0.116144516 -0.36099836 0.16005976 -0.115205556
0.28846166 0.0115167545 0.15031166 -0.13130553 0.05759291 0.0010889914 -0.0042212107 -0.014484072
-0.080806054 -0.051663026 0.06807013 -0.004814629 -0.13164388 -0.16207156 0.031779308 0.06533479
-0.3134633 -0.0035274832 0.08950658 0.020061651 0.008994543 0.24654233 -0.08775559 0.30732808
0.27467424 -0.43182322 0.18121609 0.010698968 0.36996695 -0.007839296 0.11274085 0.08395005
0.24781694 -0.22260833 0.1647832 -0.44953442 0.39331245 -0.14939512 0.10969849 -0.42730767
-0.108648576 0.25890628 0.31935993 -0.4157337 0.15273607 0.05086082 -0.017196497 0.30308238
0.26829422 -0.22423425 0.028438427 0.10877661 0.17141746 -0.16031884 -0.25191867 -0.39885408
-0.14890884 -0.0055183675 0.2591844 -0.5194346 0.3056548 -0.6414307 -0.5992749 0.117541924
0.037910506 -0.3955772 0.1621738 0.1422936 0.07336031 0.08345254 -0.39274594 -0.0032229605
0.39269924 -0.33559617 0.36426798 -0.025147649 0.017478988 0.14373137 0.17357874 0.19083819
-0.059679 0.24612054 -0.047039974 -0.10909533 0.2488326 -0.51902264 0.29234222 -0.25945207
-0.117462575 -0.30675253 -0.051576808 -0.5782289 0.49829084 0.40232703 -0.19711138 -0.08787256
-0.27890256 0.34673196 -0.029129112 0.36295033 0.046883527 -0.3910638 0.15497029 -0.19006023
-0.12411199 -0.30133545 -0.6424463 0.29135036 0.24472806 0.13036478 0.106009856 -0.47215238
0.1611719 -0.08360428 -0.02229916 -0.14869812 -0.517876 0.016800756 -0.043382585 0.10725741
0.0069885966 0.072141975 -0.18402214 0.18604787 0.17285517 -0.0855083 0.15881918 0.45401102
0.24407037 0.0063351 -0.221891 -0.0171254 -0.5197558 -0.03914884 0.078821 -0.102109745
0.50702816 -0.47479483 0.03740741 -0.0586384 -0.13716166 0.041627403 -0.4221717 -0.22293985
-0.26553667 -0.13954324 0.22430763 0.07901826 0.007835169 0.3052966 0.6108394 -0.3376905
-0.033529937 0.27169353 -0.4701539 0.0044984184 -0.28161108 -0.42248526 0.41417554 0.12434438
00000000: 5c8c 813e c1a3 2cbe 4b81 2abe 24db 91bd
00000010: 5afd 923e 9c42 1abd 20d6 333d 7865 363e
00000020: ac9b 773e aeac 9c3e d094 f8be 428e e9bd
00000030: f366 a7be 632f 2abd e4b0 c83e 328e 89bd
00000040: a9b4 3dbe 3c28 ed3d d812 6b3c f585 373e
00000050: 3c29 8bbe 9fc8 53be 31c7 e53d fd39 4dbb
00000060: 6f03 c1bd 8533 bcbe 1768 043e d43b 8d3d
00000070: 48d3 703b b0e2 dd3d 82f7 ecbd bd95 eb3d
00000080: a048 c03c c946 483e 0bc7 0d3e 2592 4a3e
00000090: 9ac3 8e3d dedd 61be e431 7c3e d963 6bbe
000000a0: f6a0 58be 0916 823e 140f ecbd 7c23 b63b
000000b0: 2dbe 93be 280d 4a3e e8d1 00bf e869 d03d
000000c0: a94d a9bc ec1e 88be 6950 bfbe d343 823e
000000d0: b5b5 f0bd 8b9a 933b 5ce2 c53e 3c47 a03e
000000e0: 2acf 813e 2bb2 d93e d33b 3b3c 20df 263e
000000f0: a0b0 993e c8fa 33bd 55a9 76be 6ce9 08bd
00000100: a811 423c 0c91 633d 2382 4c3e 3185 073e
00000110: ba93 dc3e 9986 2fbe 74f3 83be ed62 41be
00000120: bb08 8fbe 19d4 4e3e 15dc dbbd ef57 c73e
00000130: 5d36 adbe 8e8d c7bd c87e 133e f819 2c3e
00000140: 0ec2 773c 212b 753e 1d14 a3be c2d0 e53d
00000150: 45cf 4b3e a4e3 493d 522c 70bb c377 48be
00000160: 00b9 1f3c ab28 54be cfd3 7cbe c285 023e
00000170: 2ddd ed3d c7d4 b8be b5e6 233e e4f0 ebbd
00000180: 3fb1 933e c5b0 3c3c 4deb 193e f574 06be
00000190: 8be6 6b3d 7dbc 8e3a 1552 8abb 9a4e 6dbc
000001a0: a57d a5bd 9c9c 53bd 5a68 8b3d 09c4 9dbb
000001b0: a7cd 06be 16f6 25be 052b 023d 3fce 853d
000001c0: 437e a0be 592d 67bb 3a4f b73d 5558 a43c
000001d0: d95d 133c 9875 7c3e 34b9 b3bd 1b5a 9d3e
000001e0: 1aa2 8c3e ef17 ddbe b690 393e b94a 2f3c
000001f0: 4f6c bd3e 6470 00bc ade4 e63d 01ee ab3d
00000200: b9c3 7d3e 70f3 63be edbc 283e 6029 e6be
00000210: 4060 c93e 09fb 18be 9aa9 e03d 12c8 dabe
00000220: 2583 debd 5d8f 843e 2583 a33e 0cdb d4be
00000230: d866 1c3e 6f53 503d abdf 8cbc 9d2d 9b3e
00000240: dc5d 893e aa9d 65be b4f7 e83c 45c6 de3d
00000250: 0f88 2f3e 9f2a 24be 7cfb 80be 9a36 ccbe
00000260: 8f7b 18be 6cd3 b4bb d1b3 843e aaf9 04bf
00000270: c97e 9c3e cd34 24bf 146a 19bf d2b9 f03d
00000280: 0c48 1b3d 1889 cabe e310 263e 6ab5 113e
00000290: ee3d 963d 2ae9 aa3d ff15 c9be 4e38 53bb
000002a0: e00f c93e 43d3 abbe 5581 ba3e 7102 cebc
000002b0: 1830 8f3c 512e 133e a0be 313e 166b 433e
000002c0: f871 74bd 0607 7c3e fdac 40bd 5f6d dfbd
000002d0: f9cd 7e3e abde 04bf e1ad 953e e7d6 84be
000002e0: 3890 f0bd ab0e 9dbe 3442 53bd cf06 14bf
000002f0: fa1f ff3e cffd cd3e 91d7 49be 87f6 b3bd
00000300: 51cc 8ebe da86 b13e 2da0 eebc a0d4 b93e
00000310: f108 403d 8439 c8be 88b0 1e3e 269f 42be
00000320: 6d2e febd a448 9abe 5c77 24bf e02b 953e
00000330: fe99 7a3e 587e 053e b21b d93d f5bd f1be
00000340: 3f0a 253e b938 abbd baac b6bc 5244 18be
00000350: 8693 04bf bda1 893c f0b1 31bd c6a9 db3d
00000360: 9900 e53b 2cbf 933d 4d70 3cbe 5583 3e3e
00000370: f200 313e fa1e afbd 7fa1 223e 2274 e83e
00000380: 95ed 793e ac96 cf3b 6537 63be 914a 8cbc
00000390: b70e 05bf 895a 20bd e86c a13d ea1e d1bd
000003a0: 99cc 013f 4f18 f3be 8338 193d d22e 70bd
000003b0: 1b74 0cbe 7f81 2a3d e426 d8be 584a 64be
000003c0: 6cf4 87be 6ce4 0ebe e6b0 653e 53d4 a13d
000003d0: 155f 003c d64f 9c3e f95f 1c3f c5e5 acbe
000003e0: b056 09bd 6a1b 8b3e 03b8 f0be 7867 933b
000003f0: 542f 90be fd4f d8be d10e d43e 44a8 fe3d

val_conv1.bias f4 [2]
-0.011607619 0.049622472
00000000: e22d 3ebc ef40 4b3d
