current_policy.model (torch, 529587 bytes, 15 tensors)

conv1.weight f4 [32, 4, 3, 3]
0	0x3ef4b40e	0.4779362
1	0xbd7e8856	-0.06214174
2	0xbd78ea1d	-0.060770143
3	0xbdc1eb72	-0.09468736
4	0x3d7dd86e	0.06197398
5	0xbcc19a15	-0.023633042
6	0x3e2ddb98	0.169783
7	0xbe866ea1	-0.26256278
8	0x3db787cb	0.08961447
9	0x3e2113fb	0.15730278
10	0xbe5014ed	-0.20320483
11	0xbd936c89	-0.07198436
12	0xbe7191ea	-0.23590818
13	0x3db67263	0.08908536
14	0x3d859eb1	0.065244086
15	0xbdfc8b00	-0.123312
16	0x3e4edaf3	0.2020071
17	0xbe92a41c	-0.2864083
18	0xbbcd4e2f	-0.0062654237
19	0x3dfe830a	0.124273375
20	0x3c4c3f11	0.012466208
21	0x3cf8d44a	0.030374665
22	0x3d82f57d	0.063944794
23	0xbe23152c	-0.15926045
24	0x3db55e39	0.08855862
25	0x3d0e7c11	0.034786288
26	0x39db3283	0.0004180857
27	0xbda281f4	-0.07934943
28	0xbe2525de	-0.16127726
29	0x3dfbfd59	0.123041816
30	0xbb25fd83	-0.0025328107
31	0xbaab0edd	-0.0013050694
32	0xbd37f602	-0.044912346
33	0xbe2fc38e	-0.17164442
34	0x3e0933a5	0.13398607
35	0x3dc644fb	0.09681126
36	0xbeae3043	-0.34021196
37	0xbe2954bf	-0.16536234
38	0x3c37875b	0.011201705
39	0xbeb5611e	-0.35425657
40	0x3d48e3be	0.049045317
41	0xbe9ea2ca	-0.30983573
42	0xbe5e81ce	-0.21729204
43	0x3d9a7b71	0.07543076
44	0xbe294387	-0.16529666
45	0xbe8814fa	-0.26578504
46	0xbdd88494	-0.10572162
47	0xbdf86fc0	-0.121306896
48	0xbdd938ef	-0.10606562
49	0x3d9854ac	0.07438025
50	0xbec16a01	-0.37776187
51	0xbef18349	-0.47170475
52	0x3d4faae7	0.050700095
53	0xbd6161ad	-0.05502479
54	0x3e199f5d	0.15002199
55	0x3d9e1a03	0.07719805
56	0x3c8e4356	0.017366093
57	0x3d117406	0.03551104
58	0x3cdc42f3	0.026887393
59	0xbde50ec0	-0.11184454
60	0x3c8f6e4f	0.017508654
61	0x3c5326d0	0.012887672
62	0x3e065dd4	0.1312173
63	0xbdd55b9a	-0.10417862
64	0xbdc2c230	-0.095096946
65	0xbe0616a8	-0.1309458
66	0xbcad7bf2	-0.021177266
67	0x3e681021	0.22662403
68	0x3e19883b	0.14993374
69	0x3e1f1594	0.15535575
70	0x3d772309	0.060336147
71	0x3e409208	0.18805707
72	0x3e176d5d	0.14787813
73	0xbe193810	-0.14962792
74	0xbe88010c	-0.265633
75	0x3e50a210	0.20374322
76	0x3dca3801	0.09873963
77	0x3e3f6d0f	0.18693946
78	0x3e35f82d	0.17770453
79	0xbdddb89b	-0.10826226
80	0xbe188f4f	-0.14898418
81	0xbef82421	-0.48465064
82	0x3e7fe960	0.24991369
83	0x3e5976d0	0.2123673
84	0xbee8ad81	-0.45444873
85	0x3e87a65a	0.26494104
86	0xbe45edff	-0.1932907
87	0xbe2ad588	-0.16683018
88	0xbe2fea0f	-0.1717913
89	0x3e09d684	0.13460737
90	0xbdeaefa5	-0.1147149
91	0xbdfb02bf	-0.12256383
92	0xbc4d1c79	-0.012518995
93	0x3cb7ffaa	0.022460777
94	0x3ddfe988	0.109332144
95	0x3d3dfa70	0.046381414
96	0xbd914a63	-0.07094266
97	0x3ca776b4	0.020442344
98	0x3d176b7f	0.03696775
99	0x3e083a22	0.13303426
100	0xbe3d7a91	-0.18503787
101	0x3d42e10f	0.047577914
102	0x3e1f6bce	0.15568468
103	0x3dd32e4a	0.10311563
104	0x3d8e2315	0.06940285
105	0xbdc6ba8a	-0.09703548
106	0xbdc187c0	-0.094497204
107	0xbde5db57	-0.112234764
108	0xbe9adb2c	-0.3024534
109	0xbe13a87e	-0.14419743
110	0xbc60176d	-0.01367746
111	0xbd947456	-0.07248752
112	0xbe00b52f	-0.12569116
113	0xbe210f05	-0.15728386
114	0xbd5d54f2	-0.05403609
115	0xbe5245d6	-0.20534453
116	0x3e26bac6	0.16282186
117	0x3d80a734	0.062818915
118	0x3eace543	0.33768663
119	0xbd4712ac	-0.04860179
120	0xbc024577	-0.007951132
121	0x3ee8d1ed	0.4547266
122	0x3eaf6b77	0.34261677
123	0xbe883614	-0.26603758
124	0x3eacecf5	0.33774534
125	0xbea9522d	-0.33070508
126	0xbc306b0c	-0.010767709
127	0x3b2ebdfa	0.0026663528
128	0x3d2abae6	0.041682146
129	0x3d6c1129	0.057633553
130	0xbd1512cf	-0.03639489
131	0xbcb1232e	-0.02162322
132	0xbc34e58a	-0.0110410545
133	0x3c965b76	0.018354159
134	0xbe1d1a04	-0.15341955
135	0x3dc29ace	0.09502183
136	0x3daef950	0.08543646
137	0x3e02e863	0.12783961
138	0x3b1f1f7d	0.0024280243
139	0xbd051ac4	-0.03249623
140	0x3e46f67f	0.19429968
141	0xbe14909f	-0.14508294
142	0xbe05c249	-0.13062395
143	0xbe255156	-0.16144308
144	0xbe795f5c	-0.24352783
145	0xbea2274d	-0.3167061
146	0xbe08f698	-0.13375318
147	0x3e67693f	0.22598742
148	0xbe0e19bf	-0.13877009
149	0x3dcbe2ba	0.09955354
150	0x3ce02e01	0.027365686
151	0x3d873972	0.06602754
152	0x3e0c9967	0.13730393
153	0xbe4d9dbe	-0.20079705
154	0xbd7bc913	-0.061471056
155	0xbe7628aa	-0.2403895
156	0x3d44fef4	0.048094705
157	0x3e194608	0.14968121
158	0x3ea2841c	0.31741416
159	0x3db07055	0.08615176
160	0x3e9eb462	0.30996996
161	0xbe47f3ee	-0.19526646
162	0x3dc31042	0.09524585
163	0x3d983a37	0.074329786
164	0x3c29faea	0.010374764
165	0xbb3e7db7	-0.002906663
166	0xbc7de80e	-0.015497221
167	0xbe4ecaf8	-0.20194614
168	0xbc430ad0	-0.011904433
169	0xbdc02d98	-0.09383696
170	0x3e3879d4	0.18015224
171	0xbd90e211	-0.07074369
172	0x3ce16f3c	0.027518861
173	0x3d6607b3	0.056159686
174	0xbe269e92	-0.16271427
175	0xbc345842	-0.01100737
176	0x3e09c066	0.134523
177	0xbe378a29	-0.17923798
178	0x3ccecb6d	0.025243485
179	0x3e19cd67	0.15019761
180	0x3ef22699	0.47295073
181	0x3e2f229d	0.17103048
182	0x3eb6570a	0.3561328
183	0xbe0c9ddb	-0.13732092
184	0x3e875974	0.26435435
185	0x3e465d38	0.19371498
186	0x3e8bc28a	0.2729686
187	0x3e96bed5	0.29442468
188	0x3ec0edb2	0.37681347
189	0xbe982d35	-0.2972199
190	0xbe15245c	-0.14564651
191	0xbe175e95	-0.14782174
192	0xbd183f79	-0.037169907
193	0xbd6f061a	-0.05835543
194	0x3cf89b13	0.030347383
195	0xbc8af756	-0.016963642
196	0xbd434531	-0.047673408
197	0xbdfe4a64	-0.12416533
198	0x3cf29206	0.029610645
199	0x3b551b62	0.0032517542
200	0x3e31cf6d	0.17364283
201	0x3db8f770	0.0903157
202	0x3db44361	0.08801914
203	0x3d4a5728	0.049399525
204	0x3d84086c	0.06446919
205	0x3c63a1b7	0.013893536
206	0x3d88fe79	0.06689162
207	0x3d38fbca	0.045162
208	0x3dfd949b	0.1238186
209	0xbe02ea29	-0.12784638
210	0x3d16a186	0.036775135
211	0x3c1e2c87	0.009654171
212	0xbda37e7a	-0.07983108
213	0xbd9507c8	-0.07276875
214	0xbd7d5b6e	-0.061854772
215	0x3e28c7f7	0.1648253
216	0x3e61d575	0.22054084
217	0x3e1a126a	0.15046087
218	0xbeb8b89a	-0.3607834
219	0xbda422ce	-0.08014451
220	0xbe44718a	-0.19183937
221	0xbc77b483	-0.015118721
222	0x3e862b77	0.26205036
223	0xbcb291d5	-0.021798054
224	0x3d2918b4	0.041283324
225	0x3d045849	0.032310758
226	0xbd7860bf	-0.06063914
227	0x3ee4f978	0.4472158
228	0xbe946d4c	-0.28989637
229	0x3dc1db33	0.09465637
230	0xbb834c30	-0.004006885
231	0x3ebfee79	0.37486628
232	0xbe29866d	-0.16555186
233	0x3cd22f7b	0.025657406
234	0xbe307c16	-0.17234835
235	0x3d7b663c	0.061376795
236	0xbdb5c9cd	-0.08876381
237	0xbd831aff	-0.064016335
238	0xbcfa510b	-0.030556222
239	0x3ceb824c	0.028748654
240	0xbd286e1a	-0.041120626
241	0x3db9f9d9	0.09080858
242	0xbdbafe1c	-0.09130499
243	0xbdd088b5	-0.10182325
244	0x3cbb16c6	0.022838008
245	0xbce851b5	-0.028359273
246	0x3db793c8	0.08963734
247	0xbe03fb15	-0.12888749
248	0x3c4b508d	0.0124093415
249	0x3dc640d6	0.09680335
250	0xbd8b72dd	-0.06809018
251	0x3d03f616	0.032217108
252	0xbe19ccce	-0.15019533
253	0x3e85b135	0.2611176
254	0xbe008be8	-0.1255337
255	0x3d175323	0.03694452

conv1.bias f4 [32]
0	0xbc8dcc1b	-0.01730924
1	0xbd977b5c	-0.07396576
2	0x3d8b8230	0.06811941
3	0x3d10191e	0.035180204
4	0x3c25133a	0.010075385
5	0xbe4067b6	-0.18789563
6	0x3e264d7b	0.16240494
7	0xbe2ba609	-0.16762556
8	0xbe668257	-0.22510658
9	0x3e2b5afd	0.16733928
10	0x3da8a934	0.08235398
11	0xbdf9ccda	-0.121972755
12	0x3a377282	0.0006997959
13	0x3dba4922	0.0909598
14	0x3ca8155e	0.020518001
15	0x3e026626	0.12734279
16	0x3d799579	0.060933564
17	0xbbc95398	-0.0061439984
18	0xbe2721f1	-0.16321541
19	0x3db8f43a	0.090309575
20	0xbe1761f1	-0.14783455
21	0xbdde8cad	-0.108666755
22	0xba26cc7a	-0.0006362867
23	0x3dc88355	0.097906746
24	0x3e0b7c1c	0.13621563
25	0x3e589047	0.21148787
26	0x3daa94be	0.083291516
27	0x3dfffb76	0.12499134
28	0x3d9247c0	0.071425915
29	0xbe2fbd82	-0.17162135
30	0xbdc39ca3	-0.095513605
31	0xbe25b18e	-0.16181013

conv2.weight f4 [64, 32, 3, 3]
0	0xbdb9e681	-0.09077168
1	0xbd6af3c1	-0.057361368
2	0xbd871d42	-0.06597377
3	0xbd7424fb	-0.05960558
4	0x3dfd6764	0.12373236
5	0xbd6b7937	-0.057488646
6	0xbd3e4a58	-0.04645762
7	0xbe2d786c	-0.16940469
8	0x3ce55e64	0.02799911
9	0xbe1db05e	-0.1539931
10	0x39c58811	0.00037676145
11	0xbe2067e3	-0.1566463
12	0xbd2e2601	-0.042516712
13	0x3dc95116	0.09829919
14	0x3d3533ef	0.04423898
15	0x3ae1b953	0.0017221369
16	0xbe896551	-0.2683511
17	0xbe126be6	-0.14298972
18	0xbd8c24b7	-0.0684294
19	0x3de692ce	0.112584695
20	0xbdae7e5f	-0.08520197
21	0x3d86c7a7	0.065810494
22	0x3dc3d3e3	0.095618986
23	0xbd85cd0f	-0.065332524
24	0xb9a548e8	-0.00031525572
25	0x3e851dba	0.25999242
26	0xbd7834f8	-0.06059739
27	0x3e5d0993	0.21585684
28	0xbdadca1c	-0.08485815
29	0xbdec66d3	-0.1154305
30	0xbe2c1f83	-0.16808896
31	0xbcb0a400	-0.021562576
32	0xbe43ef26	-0.19134197
33	0xbd8420fb	-0.06451603
34	0x3e3169e9	0.17325558
35	0x3d361e34	0.044462398
36	0xbd9f1d22	-0.077692285
37	0x3dfca118	0.12335414
38	0xbd31a91f	-0.043374177
39	0xbce2514b	-0.027626654
40	0x3db5d3ba	0.08878274
41	0x3d10a8af	0.03531712
42	0xbce5a9bd	-0.02803504
43	0xbe210549	-0.15724672
44	0x3d65a5d7	0.05606636
45	0x3d8256ef	0.063642375
46	0x3d91f69e	0.071271166
47	0x3e17b746	0.14816007
48	0x3e1022ae	0.14075729
49	0x3cdbe693	0.026843345
50	0xbc30511f	-0.010761528
51	0x3e8a42d1	0.27004102
52	0x3e2d7c77	0.16942011
53	0x3cc29282	0.023751501
54	0x3d8d564f	0.06901228
55	0xbe226fa3	-0.15862899
56	0x3b6b0292	0.0035859686
57	0x3c6375c0	0.013883054
58	0x3e51e45a	0.20497265
59	0x3d49bfc0	0.049255133
60	0xbb611b53	-0.0034348562
61	0xbe48b740	-0.19601154
62	0xbda711f7	-0.081577234
63	0x3cfb51ce	0.030678656
64	0xbdcaf06d	-0.09909139
65	0xbbcf45e7	-0.0063254717
66	0x3dc8b934	0.0980095
67	0x3d2c627e	0.042086117
68	0x3c10429d	0.008804944
69	0xbdbf1ab0	-0.09331262
70	0xbd8f4d6e	-0.069971904
71	0xbd8dca92	-0.06923403
72	0x3d2f566f	0.04280704
73	0xbd34f682	-0.0441804
74	0x3e10d926	0.14145336
75	0x3cc3f7d5	0.023921886
76	0x3dc66110	0.09686482
77	0xbe2b4f5c	-0.16729492
78	0x3d5361ac	0.05160682
79	0xbd819e52	-0.06329025
80	0x3d0105ec	0.03149979
81	0xba06733d	-0.0005128866
82	0x3d15f61f	0.036611672
83	0x3e064b01	0.13114549
84	0x3d64254b	0.055699628
85	0x3da64c62	0.081200376
86	0x3cb8093b	0.022465339
87	0x3c2da37d	0.010598061
88	0x3cce243b	0.02516376
89	0xbd2e8d56	-0.042615257
90	0x3c14ad50	0.009074524
91	0xbb09a7fe	-0.0021004672
92	0xbdcab328	-0.098974526
93	0xbb145b11	-0.0022637288
94	0x3dd8edd7	0.10592239
95	0xbdb35da8	-0.08758098
96	0xbe0435e3	-0.12911181
97	0xbcc8a590	-0.024493009
98	0x3e1af152	0.15131119
99	0xbe1b814e	-0.15186045
100	0xbe56ee1e	-0.20989272
101	0xba202d27	-0.0006110244
102	0xbe5f298f	-0.21793197
103	0x3e50af35	0.20379336
104	0x3e10b2d0	0.14130712
105	0xbda2891e	-0.07936309
106	0xbdd0ebaf	-0.10201203
107	0x3e35b10c	0.1774332
108	0x3d81fe06	0.06347279
109	0x3c87105d	0.016487295
110	0x3e8ca691	0.2747083
111	0xbe85a56a	-0.26102763
112	0x3d15574f	0.036460217
113	0x3cbd4da7	0.023108317
114	0xbd5c51af	-0.053788837
115	0xbd3aeeaf	-0.045637783
116	0xbdad8c09	-0.08473975
117	0xbc486e79	-0.01223337
118	0x3e39ee41	0.18157293
119	0x3d499103	0.04921056
120	0x3d77f0e9	0.060532484
121	0xbdc881b6	-0.097903654
122	0xbe1aa7cb	-0.1510307
123	0xbc8a6115	-0.016891995
124	0xbb4194fe	-0.002953827
125	0xbe7cc99c	-0.24686283
126	0xbec3ceb4	-0.3824364
127	0xbe42bef9	-0.19018163
128	0xbca753eb	-0.020425757
129	0x3da767f6	0.08174126
130	0xbd309a0f	-0.04311567
131	0x3dab7b6c	0.0837315
132	0x3d788a3f	0.060678717
133	0x3e159502	0.14607623
134	0x3d0c1768	0.03420201
135	0x3dbe0566	0.092783734
136	0xbe56e9cb	-0.20987622
137	0xbca8aecb	-0.02059116
138	0xbe1ac48c	-0.15114039
139	0xbd9dbeee	-0.077024326
140	0xbeac1f9f	-0.33617875
141	0x3cde377d	0.027126068
142	0x3e2738a3	0.16330199
143	0x3d68eb7e	0.056865208
144	0x3cdc25f6	0.02687357
145	0xbe846dad	-0.25864926
146	0x3da8d29d	0.08243296
147	0xbe6b3826	-0.22970638
148	0x3cedd197	0.029030604
149	0x3dbdc960	0.09266925
150	0xbe6e0d7d	-0.23247333
151	0xbc5c2241	-0.013435901
152	0xbb23c540	-0.0024989396
153	0xbc75b6bc	-0.014997181
154	0xbd34ef23	-0.04417337
155	0x3d89eb44	0.067343265
156	0x3e195221	0.14972736
157	0x3c386552	0.011254625
158	0xbc5634b2	-0.013074087
159	0x3e3a2f36	0.18182072
160	0x3d38d91d	0.04512893
161	0x3e5a3134	0.21307832
162	0x3b279409	0.0025570414
163	0xbd8f9438	-0.07010692
164	0xbd6e3ab5	-0.058161456
165	0x3e775901	0.24155046
166	0x3dc0ea63	0.09419706
167	0x3e2a1f8b	0.16613595
168	0x3e743957	0.23849998
169	0xbd4f27ab	-0.05057494
170	0xbe519403	-0.20466618
171	0xbdd187b0	-0.102309585
172	0xbda0e6e6	-0.078565404
173	0xbd27556a	-0.04085294
174	0xbe0ef0db	-0.13959067
175	0xbc0d6533	-0.008630085
176	0xbe888533	-0.26664123
177	0x3e471db4	0.19444925
178	0x3bed1ef1	0.0072363545
179	0x3dc6890e	0.0969411
180	0x3c938e5e	0.018012222
181	0xbe8d1db7	-0.27561733
182	0xbd9c3389	-0.07627017
183	0xbdb433f2	-0.0879897
184	0x392074c4	0.00015302288
185	0x3d64bf84	0.055846706
186	0x3d50f0e1	0.05101097
187	0x3e5bb918	0.21457326
188	0x3e3f8204	0.18701941
189	0xbe29ddc6	-0.16588506
190	0x3dadefb4	0.08492985
191	0xbe3914c0	-0.18074322
192	0x3e4d3907	0.20041285
193	0x3d6f2aeb	0.05839054
194	0xbc37103b	-0.011173303
195	0xbe54bad8	-0.207744
196	0xbc970653	-0.018435633
197	0xbb862991	-0.0040943106
198	0xbdb52b17	-0.08846109
199	0x3e2ddb89	0.16978277
200	0xbdeb081d	-0.11476157
201	0x3df2eed6	0.118619606
202	0xbb439e73	-0.0029849082
203	0x3dcd0faa	0.10012753
204	0xbc7c7e80	-0.015411019
205	0x3dd5d507	0.10441022
206	0xbd8b34a1	-0.067971475
207	0x3dcece63	0.10097959
208	0xbdd84c88	-0.10561472
209	0x3e305bd5	0.17222531
210	0xbd6f85ab	-0.058477085
211	0xbdb22ccf	-0.08699953
212	0xbc8f40bd	-0.017486924
213	0xbd4b5746	-0.049643777
214	0xbe4930fb	-0.19647591
215	0xbe559b0a	-0.20859924
216	0x3dfb0726	0.12257223
217	0xbdd7f018	-0.10543841
218	0x3c01c402	0.007920267
219	0x3e019255	0.12653477
220	0xbda230d2	-0.07919468
221	0x3da0f87e	0.07859896
222	0x3e2f1346	0.17097196
223	0xbe86bb72	-0.26314884
224	0xbd5af22c	-0.05345361
225	0xbe726f4c	-0.23675269
226	0xbe1397db	-0.14413397
227	0xbd2c20a0	-0.0420233
228	0xbd22a8e2	-0.03971184
229	0xbd9eb66c	-0.07749638
230	0xbe5ccd70	-0.21562743
231	0x3d54cece	0.051955037
232	0x3d0c3855	0.03423341
233	0x3c9fd262	0.019509498
234	0x3e081590	0.13289475
235	0xbdaebe3b	-0.08532377
236	0x3d2ac911	0.041695658
237	0xbe9e724a	-0.3094657
238	0xbdebf3a7	-0.11521082
239	0xbdad85db	-0.084727965
240	0xbe80c386	-0.25149173
241	0x3d399f96	0.04531821
242	0x3e17adda	0.14812413
243	0xbdcc2ab6	-0.09969084
244	0xbd3ae534	-0.04562874
245	0x3d989199	0.074496455
246	0x3d44f713	0.04808719
247	0x3d79337d	0.06084012
248	0xbe39196d	-0.18076105
249	0x3e2a083c	0.16604704
250	0xbdb01de4	-0.08599451
251	0xbd097b4d	-0.033564854
252	0x3d6b663e	0.057470553
253	0xbe24fa85	-0.1611119
254	0x3c197975	0.0093673365
255	0xbc94a043	-0.018142825

conv2.bias f4 [64]
0	0xbc64bc5c	-0.013960924
1	0x3d492367	0.049106028
2	0xbdce5f19	-0.10076732
3	0xbcfd21fd	-0.030899996
4	0xbd8fdb6f	-0.070242755
5	0x3d881dbc	0.066462964
6	0x3d2e66c3	0.04257847
7	0xbcab3c23	-0.020902699
8	0x3c858d85	0.016302833
9	0xbdd56677	-0.10419934
10	0xbd26d114	-0.040726736
11	0xbd0b163e	-0.03395676
12	0x3d97810f	0.07397663
13	0xbcd35958	-0.025799438
14	0x3d85b31a	0.065283015
15	0xbc2a770f	-0.010404362
16	0xbd452b04	-0.048136726
17	0xbd3f1fd3	-0.04666121
18	0x3c6c2a6a	0.014414409
19	0x3b750eb4	0.0037392797
20	0x3d4f760b	0.050649684
21	0x3ca144a2	0.019686047
22	0xbd902c8c	-0.07039747
23	0x3dba981d	0.091110446
24	0xbe1a7d2f	-0.15086816
25	0x3dbd006c	0.09228596
26	0x3d70e4be	0.058811896
27	0xbd45c0b8	-0.048279494
28	0x3d7bff66	0.061522864
29	0x3cfed8dc	0.031109266
30	0x3d59fe85	0.053221244
31	0xbcac788a	-0.021053571
32	0xbe33845c	-0.1753096
33	0xbd21b4ab	-0.03947894
34	0xbcfb231b	-0.030656388
35	0xbbea9e5c	-0.007159991
36	0xbd7a60f2	-0.06112761
37	0xbdd5f41f	-0.10446953
38	0xbdbd7f03	-0.09252741
39	0x3cd35bc6	0.025800597
40	0x3d88f125	0.0668662
41	0x3d92e9ce	0.07173501
42	0xbd1b1e41	-0.03787065
43	0xbd96c135	-0.0736107
44	0xbdaccc3e	-0.084373936
45	0xbcc59c6c	-0.02412244
46	0x3c9d50a7	0.019203497
47	0xbcdd703e	-0.02703106
48	0xbae732e9	-0.0017639074
49	0xbb5dd8df	-0.003385119
50	0x3c3ef86c	0.011655908
51	0xbcf26704	-0.029590137
52	0xbdb00f41	-0.085966595
53	0xbd54fd59	-0.051999424
54	0x3c9175d9	0.01775639
55	0xb9561ebb	-0.00020420078
56	0x3cd81c8f	0.026380805
57	0x3b45f0c4	0.0030203322
58	0xbdba886b	-0.09108051
59	0xbe651ed9	-0.22375049
60	0x3a45525e	0.0007527227
61	0xbc964cb1	-0.018347116
62	0xbb7ea571	-0.0038855935
63	0xbd3f140b	-0.046649974

conv3.weight f4 [128, 64, 3, 3]
0	0xbcda787a	-0.026668776
1	0x3cb8e22d	0.022568787
2	0x3cb5667d	0.022143597
3	0x3c725365	0.014790391
4	0x3dee9d20	0.11651063
5	0x3d1a163f	0.03761887
6	0xbbbfd591	-0.0058543165
7	0xbd43b233	-0.047777366
8	0xbe242e40	-0.16033268
9	0xbcc20221	-0.023682656
10	0x3d8983c1	0.06714583
11	0xbd7c2180	-0.061555386
12	0x3e06a6db	0.13149588
13	0x3b2ba95f	0.0026193482
14	0xbd2deb52	-0.042460747
15	0xbb92b679	-0.004477319
16	0xbd082457	-0.03323778
17	0x3d6557cd	0.055991936
18	0xbdf31499	-0.11869163
19	0xbe0a662a	-0.13515535
20	0xbb9f287c	-0.004857121
21	0x3d56d0e5	0.05244531
22	0xbe00daac	-0.12583417
23	0xbba01d7e	-0.0048863282
24	0xbdb3ebb3	-0.087851904
25	0x3cb9163c	0.02259361
26	0x3c18d6d6	0.009328565
27	0x3c74a1b1	0.014931128
28	0x3db2fae0	0.08739257
29	0xbd3f7fe7	-0.046752837
30	0x3c6c8ae9	0.014437416
31	0xbd814f49	-0.063139506
32	0x3d9cef64	0.07662848
33	0xbe1b073e	-0.15139481
34	0xbd1a6cdd	-0.037701476
35	0xbd8e0c55	-0.06935946
36	0xbe246d8d	-0.16057415
37	0x3da65445	0.08121542
38	0xbd9ef20c	-0.077610105
39	0xbe1770c1	-0.14789106
40	0xbcd4c3db	-0.025972297
41	0xbd7795c0	-0.060445547
42	0xbcf159ca	-0.02946176
43	0xbe2747b6	-0.1633595
44	0x3c4bf9df	0.012449711
45	0x3dca2b29	0.098715134
46	0x3db001ee	0.08594118
47	0xbd6d87eb	-0.05799095
48	0xbccefc3d	-0.025266761
49	0x3cd8e1e2	0.026474897
50	0x3d6809e6	0.056650065
51	0xbca8cc7e	-0.020605322
52	0x3e4375f0	0.19087958
53	0x3dab2477	0.083565645
54	0xbdb01199	-0.085971065
55	0xbe1be78f	-0.15225051
56	0xbb718ea7	-0.003685871
57	0xbc85a662	-0.01631469
58	0x3c843792	0.01613978
59	0xbcaeb345	-0.021325717
60	0xbd5f9f8c	-0.054595515
61	0x3cf5c42e	0.030000772
62	0xbce5f8d9	-0.028072761
63	0xbe000805	-0.12503059
64	0xbe2ec44c	-0.17067069
65	0xbde5767a	-0.11204238
66	0x3d3884b0	0.045048416
67	0xbd521659	-0.051290844
68	0x3d30c483	0.04315616
69	0xbb83c744	-0.004021557
70	0xbdaacfdd	-0.08340428
71	0x3d22af41	0.039717916
72	0xbdd7a0a9	-0.1052869
73	0x3dcd956c	0.100382656
74	0x3e2ffc73	0.17186145
75	0x3e325b71	0.17417695
76	0x3de822e7	0.11334782
77	0x3d8393e7	0.064246945
78	0x3d1ea12c	0.038727924
79	0x3d7a0c9c	0.06104718
80	0x3cbe6adb	0.023244312
81	0xbcd6cc2d	-0.026220405
82	0xbde238f8	-0.11046022
83	0xbd853f15	-0.065061726
84	0x3cd87120	0.02642113
85	0x3e04be20	0.12963152
86	0x3d891145	0.06692747
87	0xbcfa7593	-0.030573642
88	0x3d83461a	0.06409855
89	0x3da6a6a2	0.081372514
90	0x3d873838	0.0660252
91	0x3ccc3dc0	0.024931788
92	0x3ce6c3df	0.02816957
93	0xbcd92edd	-0.026511604
94	0xbe1d8cae	-0.15385696
95	0xbaebff5e	-0.0018005183
96	0x3b3cc5ac	0.0028804345
97	0x3d2951ad	0.041337658
98	0x3cae3682	0.021266226
99	0xbaaade0b	-0.0013036145
100	0xbdf76ee4	-0.120816976
101	0x3d131d46	0.03591659
102	0xbe137ca3	-0.14403014
103	0x3d173050	0.03691131
104	0xbcda0742	-0.026614789
105	0xbcde6e1f	-0.02715212
106	0xbde08e5a	-0.109646514
107	0x3e0361b6	0.12830243
108	0x3c4283a8	0.01187221
109	0xbdbf16b2	-0.09330501
110	0xbcfebf45	-0.031097064
111	0x3d63d324	0.05562128
112	0xbe46fd51	-0.1943257
113	0xbdec6add	-0.1154382
114	0xbd4e87d3	-0.0504225
115	0xbc1771b9	-0.009243422
116	0xbcad3339	-0.021142589
117	0xbd4a6c77	-0.049419846
118	0x3db07f1a	0.08617993
119	0xbd3a9a2e	-0.045557193
120	0x3d36f6c3	0.044668924
121	0xbe194e7c	-0.14971346
122	0x3cc44f37	0.023963554
123	0xbe168551	-0.14699294
124	0x3cd256b0	0.025676101
125	0xbe2140ef	-0.15747426
126	0x3ca93360	0.02065438
127	0xbd239782	-0.03993941
128	0xbd401392	-0.046893664
129	0xbda23315	-0.079198994
130	0xbd86a162	-0.0657375
131	0xbdd9b156	-0.10629527
132	0xbd6529fd	-0.055948246
133	0xbd7bead2	-0.06150324
134	0xbc434f9a	-0.011920834
135	0xbdafb2dc	-0.085790366
136	0xbdf32a03	-0.118732475
137	0xbe0af361	-0.13569404
138	0xbd868081	-0.06567479
139	0xbe1a9dde	-0.15099284
140	0xbdcc1c14	-0.09966293
141	0xbc86bc57	-0.01644723
142	0xbc771937	-0.015081695
143	0xbe0d4963	-0.13797526
144	0x3ddb098c	0.1069518
145	0x3e88e3a0	0.26736164
146	0x3de5ef6b	0.11227306
147	0x3e545388	0.2073499
148	0x3dad1689	0.08451564
149	0x3d271646	0.040792726
150	0xbdccf7a6	-0.10008173
151	0x3da02d5a	0.0782115
152	0xbe21c7bf	-0.15798853
153	0x3e1599a3	0.14609389
154	0x3d677d6c	0.056516096
155	0x3db4206b	0.08795246
156	0xbd6119a3	-0.05495609
157	0xbe1f0dc8	-0.15532601
158	0x3c8195a8	0.015818432
159	0x3e1b465a	0.15163556
160	0x3dac1871	0.08403099
161	0xbaa7c8a9	-0.001280089
162	0xbd16076f	-0.036628183
163	0xbbb86dd0	-0.005628325
164	0xbe2a0ba9	-0.1660601
165	0xbd1cd8cd	-0.038292695
166	0xbd5f942d	-0.05458467
167	0xbd3679ab	-0.044549625
168	0xbdd90901	-0.105974205
169	0xbe168b5d	-0.147016
170	0xbc83dace	-0.016095545
171	0xbbe8bd13	-0.0071026175
172	0xbdbbed28	-0.09176093
173	0xbd989f06	-0.07452206
174	0x3d263189	0.040574584
175	0x3d92c7b3	0.07166996
176	0x3dcbe4cf	0.09955751
177	0xbdeb28be	-0.1148238
178	0xbbfe23fc	-0.0077557545
179	0xbd72a979	-0.059243653
180	0x3dc349d7	0.09535568
181	0xbe555860	-0.20834494
182	0xbe00be33	-0.12572555
183	0x3d7373f8	0.05943677
184	0xbd9564a7	-0.072945885
185	0xbe0668a9	-0.13125862
186	0x3c29f317	0.010372899
187	0xbdb10210	-0.086429715
188	0xbca478f3	-0.020077204
189	0x3da0f9cb	0.07860144
190	0x3d2c166e	0.042013578
191	0xbdd3cd59	-0.10341901
192	0xbd3fa3ee	-0.046787195
193	0x3dca0a31	0.09865225
194	0x3d8cf462	0.0688255
195	0x3d7867cc	0.060645863
196	0x3e0d7b81	0.13816644
197	0xbd199474	-0.03749509
198	0xbd21e44a	-0.039524354
199	0xbb0996f8	-0.0020994525
200	0x3da32fff	0.07968139
201	0xbb924671	-0.0044639637
202	0x3def7fdf	0.11694311
203	0xbb620b53	-0.0034491613
204	0x3de9fcdd	0.11425183
205	0xbd45a87d	-0.048256386
206	0xbc56a9d2	-0.013102012
207	0xbc127e14	-0.008941192
208	0x3dc2345f	0.09482645
209	0x3cd080d3	0.025452053
210	0xbd0f9be5	-0.035060782
211	0xbc4487ec	-0.011995297
212	0xbc177b0c	-0.009245645
213	0xbdbb3e0c	-0.09142694
214	0xbde6130c	-0.11234102
215	0xbd0baffd	-0.034103382
216	0x3d436572	0.047704168
217	0x3db8a14b	0.09015139
218	0x3da456c8	0.08024365
219	0x3d9a3343	0.07529309
220	0x3e3a3132	0.18182829
221	0xbd9b2056	-0.07574527
222	0xbdb65770	-0.08903396
223	0xbda0c88d	-0.07850752
224	0xbbe2cc41	-0.0069213216
225	0x3e007a29	0.125466
226	0xbdcb3ced	-0.0992373
227	0xbd638efb	-0.05555628
228	0x3cc6259b	0.024187854
229	0xbcfe0c79	-0.031011807
230	0xbe233af0	-0.15940452
231	0x3e103ff4	0.14086896
232	0x3e251e4f	0.16124843
233	0xbd2c5f88	-0.042083293
234	0x3d68f404	0.056873336
235	0xbdae7ec8	-0.08520275
236	0xbddc184f	-0.10746824
237	0xbd87ffcb	-0.066405855
238	0xbe21fc83	-0.15818982
239	0xbe011d09	-0.12608732
240	0x3bb65939	0.0055648354
241	0x3c7a0241	0.015259326
242	0xbce729cb	-0.02821817
243	0x3c2dd178	0.010609023
244	0xbd13eef8	-0.03611657
245	0xbd174984	-0.036935344
246	0xbd984810	-0.0743562
247	0xbd276f04	-0.040877357
248	0x3e247f3b	0.1606416
249	0x3db88feb	0.09011825
250	0x3e059970	0.13046813
251	0xbb8d1ddd	-0.0043065385
252	0x3e05e392	0.13075092
253	0xbcaa6fa7	-0.020805193
254	0x3dc184e1	0.09449173
255	0xbdb7c6c9	-0.08973462

conv3.bias f4 [128]
0	0xbd1e80e4	-0.03869714
1	0x3d0d7b56	0.03454145
2	0xbe12d4cf	-0.14338993
3	0xbc340bc9	-0.010989138
4	0xbd4c526a	-0.049883284
5	0x3d4e4ea2	0.05036796
6	0xbd3809eb	-0.044931334
7	0xbd942267	-0.07233124
8	0x3be3e805	0.006955149
9	0xbc355c74	-0.011069406
10	0xbccb0cd1	-0.024786385
11	0x3d8bf8ef	0.0683459
12	0x3c8ad3d4	0.01694671
13	0x3d0a2877	0.033729997
14	0xbe0f3939	-0.13986672
15	0x3a7ed5b3	0.0009721175
16	0xbda62101	-0.08111764
17	0x3d4a893e	0.04944729
18	0x3e042ea1	0.12908413
19	0x3c367fa3	0.011138829
20	0x3ced0f7e	0.028938051
21	0x3c96debb	0.018416753
22	0x3cc7f286	0.024407636
23	0xbd4759ae	-0.04866951
24	0xbc555c02	-0.013022425
25	0xbce2a525	-0.027666638
26	0x3c9890a9	0.018623667
27	0xbd0732e9	-0.033007536
28	0xbda72678	-0.08161634
29	0xbdb7afc5	-0.08969072
30	0xbd1f0fbf	-0.038833376
31	0xbcc29492	-0.023752484
32	0x3ccd3a96	0.02505235
33	0x3d160077	0.036621537
34	0xbca52b78	-0.02016233
35	0x3ca58c7d	0.020208592
36	0xbe0c80f4	-0.13721067
37	0xbbce0476	-0.006287153
38	0xbcf63943	-0.030056601
39	0x3be50eff	0.006990313
40	0xbc8fa3ad	-0.017534101
41	0xbdc69e99	-0.09698219
42	0xbe18f8ec	-0.14938706
43	0xbdbbc720	-0.091688395
44	0x3d384d0a	0.044995345
45	0x3d39e05e	0.04537999
46	0x3cd1ffb2	0.02563462
47	0xbe1a59e9	-0.1507336
48	0x3c3e0533	0.011597919
49	0x3d582501	0.052769665
50	0x3d744de6	0.059644602
51	0x3c8407f0	0.016117066
52	0x3b298307	0.0025865452
53	0xbd979a01	-0.07402421
54	0x3c78567f	0.015157341
55	0xbd0519e1	-0.032495383
56	0xbd027ad4	-0.03185542
57	0xbe20a0eb	-0.15686385
58	0xbda95705	-0.08268551
59	0xbd80953f	-0.062784664
60	0xbd40d5a5	-0.047078747
61	0xbe0bedd3	-0.13664941
62	0xbc3d0c36	-0.011538556
63	0xbd48c209	-0.04901317
64	0x3c40884d	0.011751247
65	0x398e7204	0.000271693
66	0xbb06b798	-0.0020556208
67	0xbd4b9c1b	-0.04970942
68	0xbe0504af	-0.12990068
69	0x3cc6885b	0.024234941
70	0x3dcf123d	0.101109006
71	0xbd9f85c1	-0.077891834
72	0xbcb45285	-0.022012005
73	0x3cd20bfe	0.025640484
74	0x3d4bb7a6	0.049735688
75	0xbd9fdcf1	-0.07805813
76	0xbd237e9e	-0.039915673
77	0x3d3045ce	0.04303532
78	0xbd8e5dc6	-0.069514796
79	0x3cd15ba7	0.025556399
80	0xbd349db4	-0.04409571
81	0xbc5d0aa4	-0.013491306
82	0x3cd4e91b	0.02599006
83	0xbdc554af	-0.09635293
84	0x3b84275a	0.0040330114
85	0xbcfc5a33	-0.03080473
86	0x3dbc89de	0.092059836
87	0xbce1f256	-0.027581375
88	0x3dd7ce01	0.10537339
89	0x3cde924e	0.027169373
90	0xbd31ee76	-0.043440305
91	0xbd7af03c	-0.06126426
92	0xbd693b19	-0.056941126
93	0xbd201729	-0.039084587
94	0x3d5115e3	0.051046263
95	0xbd54bc04	-0.05193712
96	0xbdd65305	-0.104650535
97	0x3e0a25b3	0.13490944
98	0xbd2d30be	-0.042282812
99	0xbb0e2189	-0.002168747
100	0xbc5cb116	-0.013469955
101	0xbd698825	-0.057014603
102	0x3ac4273f	0.001496531
103	0x3dacf8eb	0.08445915
104	0xbd15cf39	-0.036574576
105	0xbdb88c39	-0.0901112
106	0xbd81ca17	-0.06337374
107	0x3c27a058	0.0102311
108	0xbcee56d7	-0.029094143
109	0x3d654b93	0.055980276
110	0x3d72a4f0	0.059239328
111	0xbc1454c1	-0.00905341
112	0xbd10b12e	-0.03532522
113	0xbb03454d	-0.002003032
114	0xbccec70e	-0.025241401
115	0x3c8cc21b	0.0171824
116	0x3df13ddb	0.11779376
117	0xbd7c5f00	-0.061614037
118	0xbd4e4499	-0.05035839
119	0xbd5ebcba	-0.054379202
120	0xbbf6d2b4	-0.007532442
121	0xbd0a4270	-0.033754766
122	0xbdef6356	-0.11688869
123	0x3db0b8ac	0.08628973
124	0xbdbdb88e	-0.09263717
125	0xbd95e0e9	-0.07318289
126	0xbe0814b1	-0.13289143
127	0xbd6470a6	-0.055771492

act_conv1.weight f4 [4, 128, 1, 1]
0	0xbd87c1e5	-0.06628779
1	0x3d334d58	0.043774933
2	0xbdb69d7e	-0.08916758
3	0xbd8fdbc8	-0.07024342
4	0xbd12f804	-0.035881057
5	0x3ea769b5	0.32697836
6	0x3ba93aec	0.0051644947
7	0x3e7d7a46	0.24753675
8	0x3d255803	0.040367138
9	0x3c0653df	0.008198707
10	0xbcfc0174	-0.030762412
11	0x3bd848c3	0.0066004707
12	0x3caa1715	0.02076296
13	0xbd87fd64	-0.06640127
14	0x3d87970f	0.06620609
15	0xbab24236	-0.0013600055
16	0x3bf8905a	0.0075855674
17	0x3ca254be	0.019815799
18	0xbd96f927	-0.07371741
19	0xbc64058c	-0.013917338
20	0xbbc3c3d0	-0.0059742704
21	0xbd8b7b1e	-0.06810592
22	0xbc410fa6	-0.011783516
23	0xbcad48da	-0.021152902
24	0x3db9d287	0.09073358
25	0x3df28ffb	0.11843868
26	0x3d8187c5	0.06324724
27	0xbd826dab	-0.06368574
28	0x3d16ce28	0.0368177
29	0xbd5ef85d	-0.054436076
30	0xbd039f8a	-0.03213457
31	0x3e4b92b8	0.19880188
32	0x3edf1cf4	0.43576777
33	0x3c450223	0.012024435
34	0x3b632d13	0.0034664317
35	0x3e0844a6	0.13307437
36	0xbe71bbb7	-0.23606764
37	0x3d90cfbd	0.07070873
38	0xbcaf16d5	-0.021373192
39	0x3c143f9c	0.009048369
40	0xbd603de9	-0.054746542
41	0x3ea661c8	0.32496476
42	0xbe159415	-0.1460727
43	0xbe3d7b81	-0.18504144
44	0xbdda6faa	-0.106658295
45	0xbe12f5e2	-0.1435161
46	0xbdc66e68	-0.09689027
47	0xbd4e7786	-0.050406955
48	0xbdc214fd	-0.094766594
49	0x39b9c2a3	0.00035430965
50	0x3d0ccbf8	0.034374207
51	0xbc8047d9	-0.01565926
52	0x3d9b4cfc	0.07583043
53	0x3dcae8ee	0.09907709
54	0xbcdedcb4	-0.027204849
55	0xbe54b3df	-0.2077174
56	0xbd0a38f2	-0.033745714
57	0xbde1f358	-0.11032742
58	0xbcbb4456	-0.022859734
59	0xbbf06f83	-0.007337512
60	0xbdb14ad8	-0.086568534
61	0x3e4b92f9	0.19880284
62	0x3d19f092	0.03758294
63	0x3c8d8e0d	0.01727965
64	0x3dc7bc50	0.09752715
65	0xbc777c6f	-0.015105351
66	0x3ee69c15	0.45040956
67	0x3d36f378	0.044665784
68	0x3f2f084f	0.6837205
69	0x3c3fa499	0.011696958
70	0x3b45c7e7	0.0030178966
71	0x3e1961bb	0.14978687
72	0xbd0481ea	-0.03235046
73	0xbce8bcfa	-0.028410424
74	0xbba8fe93	-0.0051573007
75	0xbd8470d8	-0.06466836
76	0x3dec12d5	0.115270294
77	0xbdb26ab8	-0.08711761
78	0x3dbaa344	0.09113172
79	0xbc9998cd	-0.018749619
80	0xbd96dfed	-0.07366929
81	0xbe48e210	-0.19617486
82	0x3c7e3942	0.015516581
83	0x3bd58178	0.006515678
84	0x3d3ff888	0.046867877
85	0xbe8cf41f	-0.2753
86	0x3cc4ba61	0.024014654
87	0xbc2b9c89	-0.010474333
88	0x3db395ef	0.08768832
89	0xbcda8525	-0.026674816
90	0x3dd15987	0.10222154
91	0x3c5abf5a	0.013351286
92	0xbdfc93d4	-0.123328835
93	0x3d0eb198	0.034837335
94	0x3e84ff13	0.25975856
95	0x3c903335	0.017602542
96	0x3d19ba29	0.03753105
97	0xba915a2d	-0.0011089497
98	0xbde4010b	-0.111330114
99	0x3c455cf7	0.01204609
100	0x3da4fb47	0.0805574
101	0x3ebed1c9	0.37269428
102	0x3e787210	0.24262261
103	0x3d1106b2	0.035406776
104	0xbd3ce4dc	-0.046116695
105	0x3c2f40ee	0.010696633
106	0x3e954280	0.29152298
107	0x3d83d685	0.06437401
108	0x3cafe74e	0.0214726
109	0x3e53b716	0.2067531
110	0x3c4c783c	0.012479838
111	0x3e416836	0.1888741
112	0x3c90b638	0.017665014
113	0x3d98782c	0.07444796
114	0x3d4e2258	0.05032572
115	0xbc8889ec	-0.016667329
116	0x3e052a13	0.13004331
117	0x3e8612c8	0.26186204
118	0x3dc36cec	0.095422596
119	0xbd73187d	-0.059349526
120	0xbd34f542	-0.04417921
121	0xbd48e75f	-0.049048778
122	0xbe578842	-0.21048072
123	0x3e144bd6	0.14482054
124	0x3d8fe3e3	0.07025888
125	0xbce7c2e7	-0.028291179
126	0x3c48c1e3	0.012253257
127	0xbddef0b8	-0.10885757
128	0xbbf03a06	-0.0073311357
129	0xbc770cbe	-0.015078722
130	0x3d4c2738	0.04984209
131	0xbc5bf382	-0.013424756
132	0xbc21c24c	-0.009872984
133	0xbdd744b8	-0.10511154
134	0x3e8542cb	0.26027521
135	0x3e078b33	0.13236694
136	0x3e40e6f2	0.18838099
137	0xb9ccf1ef	-0.00039090167
138	0xbc5acd72	-0.013354646
139	0x3b34956e	0.0027554887
140	0xbc70b398	-0.014691256
141	0x3e6e7fde	0.23290965
142	0xbda7508c	-0.0816966
143	0x3c5eecce	0.013606263
144	0x3ce30441	0.02771199
145	0xbe01568d	-0.12630673
146	0xba8a92c6	-0.0010572306
147	0xbda2dcd7	-0.07952278
148	0xbd04298c	-0.032266185
149	0xbc7b1fe7	-0.01532743
150	0xbda8f754	-0.08250299
151	0x3d94cff6	0.07266228
152	0xbdedbfea	-0.1160887
153	0xbe27de96	-0.16393504
154	0xbd251196	-0.040299974
155	0xbcec5bc0	-0.028852344
156	0xbd8130c0	-0.063081264
157	0x3d914027	0.07092314
158	0x3ce524ee	0.027971711
159	0xbe7180e2	-0.23584321
160	0x3dddb613	0.108257435
161	0xbcc27a85	-0.023740062
162	0x3c5501e8	0.013000943
163	0xbe41c89f	-0.18924187
164	0x3eabc9de	0.3355245
165	0x3c7b8510	0.015351549
166	0x3da2dae3	0.079519056
167	0x3cfd6864	0.030933566
168	0xbce3534a	-0.027749676
169	0xbcb45b23	-0.022016114
170	0x3d8d7228	0.06906539
171	0x3e05db92	0.1307204
172	0xbcb148d9	-0.021641182
173	0x3e34fcb7	0.17674528
174	0xbb2b8d26	-0.002617666
175	0xbe22ff4a	-0.15917698
176	0x3eb1f106	0.347542
177	0xbba44611	-0.0050132354
178	0x3db4251c	0.087961406
179	0xbdcf65a5	-0.10126809
180	0xbdcbbc95	-0.099480785
181	0x3d4d21c3	0.050081026
182	0x3c851d93	0.016249454
183	0x3d3b22c6	0.04568746
184	0x3d4878a6	0.048943184
185	0x3cf98f59	0.030463861
186	0x3f14d476	0.5813669
187	0xbd04cbdc	-0.032420978
188	0xbbb4b695	-0.0055149295
189	0xbb3f10f0	-0.0029154383
190	0xbc0da1c8	-0.008644529
191	0x3ea130a7	0.3148243
192	0x3db5a841	0.088699825
193	0xbc6f40c8	-0.014602847
194	0x3dbf8172	0.093508616
195	0xbd866656	-0.06562488
196	0xbe2f6240	-0.17127323
197	0x3cb0817c	0.021546118
198	0xbe030a65	-0.12796934
199	0xbaf57877	-0.0018727918
200	0xbda39dbe	-0.07989071
201	0xbc9ec12e	-0.019379225
202	0xbc0c60d1	-0.008568005
203	0x3d13bd53	0.036069226
204	0x3b4726bf	0.0030388085
205	0x3e96ce3f	0.29454228
206	0x3d376ba4	0.04478039
207	0x3d4e12b2	0.050310798
208	0x3e387ab8	0.18015563
209	0x3e455dee	0.19274113
210	0x3d2c07d7	0.041999664
211	0xbdc449b1	-0.09584368
212	0x3d14c6d0	0.036322415
213	0x3e49dfc7	0.1971427
214	0x3e42d8c9	0.1902801
215	0x3dd4528d	0.10367308
216	0x3dc240e8	0.09485036
217	0x3d372bc1	0.04471946
218	0x3de1cea2	0.1102574
219	0xbb25342c	-0.0025208099
220	0x3dd9d7b8	0.10636848
221	0xbc511ae7	-0.012762762
222	0xbd589f34	-0.052886203
223	0x3daf6fcb	0.08566245
224	0x3da7c372	0.08191575
225	0x3da25aba	0.07927461
226	0x3e286ef0	0.1644857
227	0x3d890dbf	0.06692075
228	0xbe93fa5e	-0.28901953
229	0xbe7b3c4d	-0.24534722
230	0xbe8b7f8a	-0.27245742
231	0xbdddac2a	-0.10823853
232	0xbd1cf197	-0.038316336
233	0xbc3e7ea6	-0.011626875
234	0x3dafa1b0	0.08575761
235	0xbe3ace6a	-0.18242803
236	0x3e385a90	0.18003297
237	0x3e6ea699	0.2330574
238	0xbdb755f5	-0.08951942
239	0xbd5cc41c	-0.053897962
240	0x3b927bbe	0.0044703176
241	0xbd9270c1	-0.07150412
242	0xbc8ab73d	-0.016933078
243	0x3e770d86	0.24126253
244	0x3daa8910	0.08326924
245	0x3b2adb9e	0.0026070843
246	0xbc2785cd	-0.010224772
247	0x3b8b3d59	0.0042492566
248	0x3d447041	0.047958616
249	0xbca269b9	-0.019825803
250	0xbcb80b02	-0.022466186
251	0x3e27c1f0	0.16382575
252	0xbb120742	-0.0022282158
253	0xbb14985a	-0.0022673816
254	0x3d8cb49d	0.06870387
255	0x3e263afa	0.16233435

act_conv1.bias f4 [4]
0	0x3cbf4fd2	0.023353491
1	0x3b8d8a4b	0.0043194643
2	0x3e123d0c	0.142811
3	0xbc84229d	-0.016129786

act_fc1.weight f4 [81, 324]
0	0xba4ab311	-0.00077323715
1	0xbd023a1d	-0.031793702
2	0xbd04342b	-0.032276314
3	0xbd23b513	-0.039967608
4	0xbce64831	-0.028110595
5	0xbbbc151b	-0.0057398207
6	0xbce9fb47	-0.028562201
7	0xbd24d732	-0.04024429
8	0x3b859275	0.004076297
9	0x3cbeb9be	0.023281928
10	0xbc9a1404	-0.018808372
11	0xbc8fb92c	-0.017544352
12	0xbc3e7e5f	-0.011626809
13	0xbd8ab271	-0.06772316
14	0xbc9f2db8	-0.01943098
15	0xbc8aea32	-0.016957376
16	0xbd5b6786	-0.053565525
17	0x3cf3a54c	0.029741906
18	0x3cd96ea8	0.026542023
19	0xbd22f8cf	-0.039788064
20	0xbaba4b86	-0.0014213182
21	0x3c62d322	0.013844283
22	0xbd3e43a6	-0.046451233
23	0x3cd22ba4	0.025655575
24	0xbcbc5f50	-0.022994667
25	0xbc84a76c	-0.016193114
26	0x3d01ba1f	0.03167164
27	0x3d46fc0e	0.04858022
28	0x3d04a5e9	0.032384787
29	0xbdb8360f	-0.08994686
30	0xbd963621	-0.07334543
31	0x39fb0f2e	0.0004788576
32	0x3d0ecccf	0.03486329
33	0xbddaf0a4	-0.1069043
34	0xbd027977	-0.03185412
35	0x3c827daa	0.015929062
36	0xbcb29a64	-0.021802135
37	0xbcb6d887	-0.022320045
38	0xbd8d63ce	-0.06903802
39	0xbdb183f4	-0.08667746
40	0xbd6a3ed0	-0.05718881
41	0xbcefdaad	-0.029279077
42	0xbdaeeb5f	-0.08540987
43	0xbd0b8e17	-0.034071054
44	0xbd51eeef	-0.051253255
45	0x3d25aee5	0.040449996
46	0xbd12f279	-0.03587577
47	0xbe8011df	-0.25013635
48	0xbd9a9c34	-0.07549325
49	0x3bea0bdd	0.0071425275
50	0xbd1e193d	-0.038598288
51	0xbb30ddaf	-0.0026987602
52	0xbd82d982	-0.063891426
53	0xbd213f3f	-0.039366957
54	0x3cfdfc66	0.031004142
55	0xbeccc423	-0.3999339
56	0xbde8a268	-0.113591015
57	0x3dc195be	0.09452389
58	0x3c569513	0.0130970655
59	0x3c185613	0.009297865
60	0xbd189bdd	-0.037258018
61	0xbc2e4452	-0.010636406
62	0x3bb42cad	0.00549849
63	0xbd7041ab	-0.058656376
64	0x3dfb16b3	0.12260189
65	0x3e3a18f6	0.18173584
66	0x3d7f992d	0.06240194
67	0xbd862d3e	-0.06551598
68	0xbb1b84fc	-0.0023730388
69	0x3af20cd6	0.001846696
70	0x3c9daf81	0.019248726
71	0x3c0aff02	0.00848365
72	0x3ba71ed1	0.005100109
73	0xbd6c7188	-0.05772546
74	0x3d9dc4fd	0.07703588
75	0xbd6b18d5	-0.05739673
76	0xbbe17da1	-0.006881431
77	0xbd05cac9	-0.032664094
78	0x3d25d4a8	0.040486008
79	0xbb88da96	-0.004176448
80	0xb98f9c56	-0.00027391565
81	0xbce55904	-0.027996548
82	0xbd1b4c24	-0.03791441
83	0xbc069c4f	-0.008215978
84	0xbd4ab011	-0.049484316
85	0x3b5f8d84	0.003411145
86	0x3c27b322	0.01023558
87	0xbc958a5a	-0.018254448
88	0xbdc27804	-0.094955474
89	0xbca4dca0	-0.020124733
90	0x3c6d6b63	0.014490935
91	0xbd92fa85	-0.07176689
92	0xbc5387e3	-0.012910816
93	0x3ca35cfa	0.019941796
94	0xbcd8faab	-0.026486715
95	0xbbd14219	-0.0063860533
96	0x3d1eaa24	0.038736477
97	0xbbdbf63f	-0.0067127044
98	0xbd42a849	-0.04752377
99	0xbcda5a74	-0.02665446
100	0x3c7cc16d	0.015426976
101	0x3c1cb9c9	0.009565779
102	0xbc21f3b0	-0.00988476
103	0x3cb50166	0.022095393
104	0x3d2f3aaf	0.042780574
105	0x3c15697d	0.009119389
106	0x3cd486e0	0.02594322
107	0xbbffd984	-0.0078079123
108	0xbc7941c9	-0.015213438
109	0xba4240fb	-0.00074101955
110	0x3d18c54f	0.037297543
111	0x3db53491	0.08847917
112	0x3d848741	0.0647111
113	0xbbecce18	-0.0072267167
114	0x3d125e3c	0.0357344
115	0x3c83656b	0.01603957
116	0xbc9d0dc2	-0.0191716
117	0x3c8a8455	0.016908804
118	0xbbb28bda	-0.0054488005
119	0x3d078d70	0.03309387
120	0x3d9c6b9a	0.07637711
121	0xbb8b340d	-0.0042481483
122	0x3ca7b5bd	0.020472402
123	0x3cb7bdae	0.022429314
124	0x3c139376	0.009007325
125	0xbb8aaef9	-0.004232284
126	0x3da2426f	0.079228275
127	0x3ce1aa90	0.02754715
128	0x3dc8cd23	0.09804752
129	0x3d78292d	0.060586143
130	0x3c9b6c23	0.018972462
131	0x3d5db125	0.054124016
132	0x3c881f0d	0.016616369
133	0x3cb02cee	0.0215058
134	0xbc574ab9	-0.013140374
135	0x3c8564ad	0.016283358
136	0x3d68ccd6	0.05683597
137	0x3e3ccf4a	0.1843845
138	0xbcaed2f3	-0.021340823
139	0x3cb4c053	0.022064364
140	0xbc7cffc9	-0.015441843
141	0x3c88503f	0.016639827
142	0xbc9c2441	-0.019060256
143	0xbd9d1c92	-0.07671465
144	0xbf101f88	-0.5629811
145	0x3e3afd36	0.18260655
146	0x3d1e5656	0.038656555
147	0x3d20ce7c	0.03925942
148	0x3c09848e	0.00839342
149	0x3d2b368d	0.04180007
150	0x3ce0f1c5	0.027459035
151	0xbca9ebab	-0.020742258
152	0xbd10a20d	-0.035310794
153	0x3dc3be18	0.09557742
154	0x3d92a904	0.071611434
155	0xbc128249	-0.008942195
156	0xbd5f9a61	-0.054590587
157	0xbd63cd48	-0.055615693
158	0x3ccd5a0c	0.025067352
159	0xbc66f8cf	-0.0140974065
160	0x3ceca6bf	0.028888104
161	0xbd153256	-0.036424957
162	0xbb551990	-0.0032516457
163	0xbb69df6b	-0.0035686146
164	0xbccb7c1d	-0.024839455
165	0xbd047a65	-0.032343287
166	0xbcc7f533	-0.024408912
167	0xbd6dfae3	-0.058100592
168	0xbcc812ed	-0.024423087
169	0xbcfc7ff1	-0.030822726
170	0xbc3ecf63	-0.0116461245
171	0x3cc72552	0.024309788
172	0xbce66660	-0.028124988
173	0xbc32677e	-0.010888932
174	0xbd0aea29	-0.03391472
175	0xbd070641	-0.03296495
176	0xbd42730b	-0.047472995
177	0xbd874956	-0.066057846
178	0xbcd2faf2	-0.025754426
179	0xbbba7cea	-0.0056911604
180	0x3ca01d9f	0.019545374
181	0xbce250f5	-0.027626494
182	0xbcf9ffda	-0.030517507
183	0xbd1f9cf2	-0.038968034
184	0xbd4b9f1d	-0.04971229
185	0x3d0acca5	0.03388657
186	0xbd668b5f	-0.05628526
187	0xbd234306	-0.03985884
188	0xbd8ac2c0	-0.06775427
189	0xbd1c731a	-0.038195707
190	0xbcecc771	-0.028903695
191	0xbd0106da	-0.031500675
192	0xbd328b65	-0.04358997
193	0xbd9e854e	-0.077402696
194	0xbd64b389	-0.05583528
195	0xbd5e3070	-0.054245412
196	0xbd27b7e3	-0.040946852
197	0xbd271789	-0.04079393
198	0x3c027d0d	0.007964385
199	0xbd46a5b4	-0.04849787
200	0xbda444aa	-0.08020909
201	0x3d54a224	0.05191244
202	0xbd3820fe	-0.04495334
203	0xbdb981c9	-0.09057958
204	0xbccda413	-0.02510265
205	0xbd2b0979	-0.04175708
206	0xbc4478e7	-0.011991716
207	0x3e00209e	0.12512442
208	0xbda00d4f	-0.078150384
209	0x3dbe9fda	0.09307833
210	0xbe1ef494	-0.15522987
211	0xbd9f2ed0	-0.07772601
212	0xbd7ab0d1	-0.06120378
213	0xbd1c99fa	-0.03823278
214	0xbd105bfe	-0.03524398
215	0xbce970bc	-0.028496139
216	0xbe149390	-0.14509416
217	0xbc24cd40	-0.010058701
218	0xbe7e744d	-0.24849053
219	0xbd0a6921	-0.033791665
220	0xbd4c9f6b	-0.04995672
221	0xbd7e11f2	-0.062028833
222	0xbda350a5	-0.07974366
223	0xbcfa60a5	-0.030563662
224	0xbd02d617	-0.031942453
225	0xbf6c6ebc	-0.9235647
226	0xbd2fc95b	-0.042916637
227	0x3d9d5bd5	0.07683531
228	0xbd61d3c6	-0.055133604
229	0xbd4ac7ed	-0.04950707
230	0xbd341a46	-0.04397037
231	0xbd8148de	-0.063127264
232	0xbd0e7a75	-0.034784753
233	0x3b67a195	0.0035344113
234	0x3cd4d09b	0.025978377
235	0x3dad0435	0.08448068
236	0x3cdbba4f	0.026822237
237	0xbbbce04a	-0.005764042
238	0xbca2cc97	-0.019872947
239	0xbc008793	-0.007844823
240	0x3ce8d324	0.028420992
241	0xbb1bc5ea	-0.002376909
242	0xbbbd3272	-0.005773836
243	0xbca73db7	-0.02041517
244	0x3c8c9b14	0.01716379
245	0x3d2df31f	0.042468186
246	0x3d03780d	0.03209691
247	0x3cb76832	0.022388551
248	0xba1d22d1	-0.0005994263
249	0xbb90f0fc	-0.004423259
250	0x3a19dfcb	0.00058698346
251	0x3cc2753c	0.023737542
252	0x3d3785b2	0.044805236
253	0x3c928c90	0.017889291
254	0x3b779778	0.0037779491
255	0x3d0a5221	0.03376973

act_fc1.bias f4 [81]
0	0x3c4e105e	0.012577144
1	0xbd1950e8	-0.037430674
2	0xbd98697b	-0.07441994
3	0xbd5307b1	-0.051521007
4	0xbcdd85e0	-0.027041376
5	0xbd60c4d9	-0.05487523
6	0xbd8c4688	-0.0684939
7	0xbcab7138	-0.02092801
8	0x3c851d8f	0.016249446
9	0xbd1845c8	-0.037175924
10	0xbcb8e14f	-0.022568373
11	0xbdcf4e1c	-0.1012232
12	0x3d907739	0.0705399
13	0xbbbaf46a	-0.005705406
14	0x3daba6be	0.08381413
15	0xbda0b42c	-0.07846865
16	0xbd364316	-0.044497572
17	0xbb498829	-0.0030751324
18	0xbd94813c	-0.07251212
19	0xbdb224e7	-0.08698445
20	0x3e1caf53	0.15301256
21	0x3d7c4826	0.061592244
22	0x3dc41f32	0.095762625
23	0x3d0111dc	0.031511173
24	0x3dce36c0	0.100690365
25	0xbe03d5dd	-0.12874551
26	0xbcd3141f	-0.02576643
27	0xbcfc0143	-0.03076232
28	0x3d9c65af	0.07636582
29	0x3cc2b93e	0.023769971
30	0x3d917368	0.0710209
31	0x3c61b885	0.013776903
32	0x3d18ac3b	0.037273627
33	0xb85b55a6	-5.2293435e-05
34	0x3d8ff5d7	0.07029312
35	0xbceb01c5	-0.028687367
36	0x39399f06	0.00017702216
37	0xbd1ed67e	-0.038778774
38	0x3df611a4	0.120150834
39	0x3bf33b9c	0.0074228775
40	0x3d097718	0.033560842
41	0x3d2289e1	0.039682273
42	0x3dea9dd2	0.11455883
43	0xbd4fdb53	-0.050746273
44	0x3c5e1463	0.013554665
45	0xbd3ae8fc	-0.045632347
46	0x3d84b5ec	0.06480011
47	0xbb0cc981	-0.002148241
48	0x3d1bcb32	0.03803558
49	0x3cb8b078	0.022545084
50	0x3c04b1d4	0.008099038
51	0x3d36a5b3	0.044591617
52	0x3c503c5a	0.012709701
53	0xbcf53fcd	-0.02993765
54	0xbd7fe19c	-0.062471017
55	0xbdb882ae	-0.090093
56	0x3e126e2f	0.14299844
57	0x3d1a7fae	0.03771942
58	0x3e07c910	0.13260293
59	0x3d954ef8	0.07290453
60	0x3e31a041	0.17346288
61	0xbd99eccf	-0.07515871
62	0xbce3ed05	-0.02782298
63	0xbd212935	-0.03934594
64	0xbc8308ba	-0.015995372
65	0xbde0f4b3	-0.10984173
66	0x3d49a76a	0.049231924
67	0xbd33a278	-0.043856114
68	0x3d3e06b3	0.046393108
69	0xbdbbc8f1	-0.09169186
70	0xbc61f7cd	-0.0137919905
71	0xbb41238c	-0.002947065
72	0x3bc4622a	0.0059931474
73	0x3c3e3d29	0.011611261
74	0xbd3b5dea	-0.04574386
75	0xbcf4fdeb	-0.029906234
76	0x3ca3b89e	0.019985493
77	0xbd1bd2dc	-0.038042888
78	0xbb4fdb84	-0.0031716535
79	0x3b91751d	0.00443901
80	0x3c2ddfa5	0.010612403

val_conv1.weight f4 [2, 128, 1, 1]
0	0x3e905015	0.28186098
1	0xbe361432	-0.17781141
2	0xbe45209c	-0.1925072
3	0xbb4cb443	-0.0031235374
4	0x3e92f6cf	0.28703925
5	0xbd25fc35	-0.040523726
6	0x3cf0cb6f	0.02939388
7	0x3e62c5b7	0.22145735
8	0x3e2c4400	0.16822815
9	0x3e8a6f92	0.27038246
10	0xbec86093	-0.3913618
11	0xbd76a598	-0.060216516
12	0xbeaa0e9d	-0.33214274
13	0xbd68f7cf	-0.056876954
14	0x3ed449ce	0.41462559
15	0xbdee3d1f	-0.11632752
16	0xbe3bc728	-0.18337691
17	0x3e379062	0.17926171
18	0xbbe277f7	-0.0069112736
19	0x3e6b500a	0.22979751
20	0xbe720816	-0.23635897
21	0xbe73650d	-0.23769017
22	0x3df8bf4a	0.121458605
23	0x3d317230	0.04332179
24	0xbd2ae83c	-0.041725382
25	0xbed854d8	-0.4225223
26	0x3dd3fe7b	0.10351273
27	0x3df2f81f	0.118637316
28	0x3d223cae	0.03960865
29	0x3d457bc8	0.04821375
30	0xbe2aaed6	-0.16668257
31	0x3e07d210	0.13263726
32	0x3c3cfcda	0.011534894
33	0x3dc510e3	0.096223615
34	0x3e129e0c	0.14318103
35	0x3e759a1c	0.2398457
36	0x3d87f561	0.06638599
37	0xbe2f045d	-0.17091508
38	0x3e627019	0.22113074
39	0xbdfe3bb2	-0.1241373
40	0xbea41c4e	-0.32052845
41	0x3e6a283e	0.22866914
42	0xbd5e02ca	-0.05420188
43	0x3bbddd30	0.00579419
44	0xbe626973	-0.22110538
45	0x3e2a6889	0.1664144
46	0xbee2b969	-0.44282082
47	0x3e0f2e5d	0.1398253
48	0xbd0ac81b	-0.03388224
49	0xbe823fe8	-0.25439382
50	0xbeb91cc1	-0.3615475
51	0x3ea38857	0.31939957
52	0xbd215a2d	-0.03939264
53	0x3bb2e8be	0.005459874
54	0x3ea6c2c3	0.32570466
55	0x3e8d9dc8	0.2765944
56	0x3e2eeae7	0.17081796
57	0x3ec54536	0.38529366
58	0xbc78d4a3	-0.015187415
59	0x3e8d5748	0.27605653
60	0x3e832a57	0.2561824
61	0xbdd2f241	-0.103001125
62	0xbe677a59	-0.22605266
63	0xbd2e222b	-0.042513054
64	0x3d88cc6b	0.06679615
65	0x3d90ed60	0.07076526
66	0x3e63c5ba	0.22243395
67	0x3e0a6420	0.13514757
68	0x3ec9b39f	0.39394853
69	0xbdaaf2d1	-0.08347095
70	0xbe7c8e6a	-0.24663702
71	0xbe3f9dfe	-0.18712613
72	0xbe902be4	-0.28158486
73	0x3e3c1321	0.18366672
74	0xbd6b7db1	-0.057492916
75	0x3ed5373e	0.4164371
76	0xbe89e059	-0.26928976
77	0xbd140ca2	-0.03614486
78	0x3df601fc	0.12012097
79	0x3e10f59a	0.1415619
80	0x3d02a801	0.031898502
81	0x3e4e8adf	0.20170163
82	0xbec49e42	-0.3840199
83	0x3e26b201	0.1627884
84	0x3e691c01	0.22764589
85	0xbbbc561a	-0.005747569
86	0x399f8695	0.00030427115
87	0xbdc2951e	-0.09501098
88	0x3c22841e	0.0099191945
89	0xbe682973	-0.22672062
90	0xbe0c9752	-0.13729599
91	0x3dc35a4a	0.09538706
92	0x3deaf5b9	0.11472649
93	0xbe943b06	-0.2895128
94	0x3e1585c8	0.14601815
95	0xbdfcbae1	-0.12340332
96	0x3e86e2b0	0.26344824
97	0x3c433cb6	0.01191633
98	0x3e55052a	0.20802751
99	0xbe043ccd	-0.12913819
100	0x3d25bd62	0.040463813
101	0xbd358d0f	-0.044323977
102	0xbb7bdaeb	-0.0038430046
103	0xbcf169bc	-0.029469363
104	0xbd085a83	-0.033289444
105	0x3d40d4d9	0.047077987
106	0x3d9550a4	0.072907716
107	0x3cf73102	0.030174736
108	0xbd8929b4	-0.06697407
109	0xbded88c1	-0.11598349
110	0x3cb49ff1	0.022048922
111	0x3d801faf	0.06256043
112	0xbe8972a8	-0.26845288
113	0xbb4d4dbc	-0.003132685
114	0x3dbd340e	0.09238444
115	0x3d8bf266	0.06833343
116	0x3bd46583	0.0064818277
117	0x3e3c9c03	0.18418889
118	0xbd87cf92	-0.06631388
119	0x3e94a3e7	0.29031298
120	0x3e5f137a	0.21784773
121	0xbf058aca	-0.521649
122	0x3e20c07d	0.15698428
123	0x3be4ecac	0.0069862213
124	0x3ea8f702	0.33000952
125	0xbd20c2cf	-0.039248284
126	0x3e21fcd8	0.15819108
127	0x3ddb7e92	0.10717501
128	0x3e681af3	0.2266653
129	0xbe58ce1d	-0.21172376
130	0x3e235ae0	0.15952635
131	0xbefb47b3	-0.4907814
132	0x3eb1f70d	0.34758797
133	0xbe076b80	-0.13224602
134	0x3de74bbf	0.11293744
135	0xbee0029f	-0.43752
136	0xbcccef91	-0.025016578
137	0x3e1c85ee	0.15285465
138	0x3eaebfbe	0.34130663
139	0xbec5dcc8	-0.38645005
140	0x3e0f327a	0.13984099
141	0x3d8dcc46	0.06923728
142	0xbe23f629	-0.16011871
143	0x3e9250ac	0.28577173
144	0x3e9cb8a4	0.3060962
145	0xbe7651e1	-0.24054672
146	0x3c74461b	0.014909293
147	0x3dde2a30	0.108478904
148	0x3e07aa8f	0.13248657
149	0xbe004253	-0.125253
150	0xbe9a9908	-0.3019488
151	0xbebfe672	-0.37480503
152	0xbe0f623f	-0.14002322
153	0x3c9d2fb2	0.019187782
154	0x3e9dbe17	0.3080909
155	0xbedcca30	-0.43123007
156	0x3ea64449	0.32473972
157	0xbeee1194	-0.46497786
158	0xbf0b7324	-0.54472566
159	0x3def6506	0.116891906
160	0x3d0b2de5	0.033979315
161	0xbebfe514	-0.3747946
162	0x3deaf400	0.114723206
163	0x3e15454e	0.14577219
164	0x3da94a41	0.08266116
165	0x3c8365aa	0.016039688
166	0xbe9cb2dd	-0.30605212
167	0xbd5b1482	-0.053486355
168	0x3ec67033	0.38757476
169	0xbe585d90	-0.21129441
170	0x3eafc052	0.34326416
171	0xbcc56177	-0.024094326
172	0x3ce2ba58	0.027676746
173	0x3e113f86	0.14184389
174	0x3db7488b	0.08949383
175	0x3e16a8e0	0.14712858
176	0xbd509a8d	-0.05092864
177	0x3e3864cb	0.180072
178	0xbd31027f	-0.04321527
179	0xbd792d40	-0.06083417
180	0x3e84cf49	0.25939396
181	0xbf142f4c	-0.5788467
182	0x3ea4e88d	0.32208672
183	0xbe5456a4	-0.20736176
184	0xbd6bdba3	-0.05758251
185	0xbe894ce3	-0.26816472
186	0xbd182031	-0.037140075
187	0xbef8c04d	-0.48584214
188	0x3f0cff64	0.55077195
189	0x3eee3d3e	0.465311
190	0xbe17700a	-0.14788833
191	0xbda01fb2	-0.078185454
192	0xbe9d99c3	-0.30781373
193	0x3eedbec2	0.464346
194	0xbb087b77	-0.0020825544
195	0x3ebbcef3	0.36681327
196	0x3e35578f	0.17709182
197	0xbed30387	-0.4121363
198	0x3e07469f	0.13210534
199	0xbe5147b8	-0.20437515
200	0xbdc36862	-0.09541394
201	0xbe87bd94	-0.26511824
202	0xbf0e2de5	-0.5553878
203	0x3e86eace	0.26351017
204	0x3eb16450	0.34646845
205	0x3dc14d14	0.094385296
206	0x3df62cfe	0.120203
207	0xbefad917	-0.4899375
208	0x3e4d8480	0.20070076
209	0xbd7c6eac	-0.061628982
210	0x3d93fb3f	0.07225656
211	0xbe248cff	-0.1606941
212	0xbef34dac	-0.47520196
213	0x3cdf6aed	0.027272666
214	0xbc1b9e4d	-0.009498191
215	0x3e3e1df8	0.1856612
216	0xbb6f701c	-0.0036535328
217	0x3e0c10be	0.13678262
218	0xbd9bdd81	-0.07610608
219	0x3e49cc98	0.19706953
220	0x3e491a1b	0.19638865
221	0xbd611970	-0.0549559
222	0x3e0faec3	0.1403151
223	0x3ee12fbe	0.43981737
224	0x3e51d11a	0.20489922
225	0xbb2bff8b	-0.0026244845
226	0xbe6dfb4e	-0.23240396
227	0xbcf4f0c3	-0.02989996
228	0xbee5fcb6	-0.44919366
229	0xbda25342	-0.079260364
230	0x3d9d8cd9	0.0769288
231	0xbdd452fb	-0.1036739
232	0x3ee8a817	0.45440742
233	0xbee6f7d9	-0.45110968
234	0x3d244992	0.040109225
235	0xbdb75801	-0.08952332
236	0xbe16d69e	-0.14730307
237	0xbcae56d4	-0.021281637
238	0xbec7ceb1	-0.3902488
239	0xbe6e62e8	-0.23279917
240	0xbe9f0392	-0.3105741
241	0xbe2b0fea	-0.1670529
242	0x3e59daca	0.21274868
243	0x3da574e3	0.08078935
244	0xbb2aadaa	-0.0026043453
245	0x3e8fbe93	0.28075084
246	0x3f0acc1b	0.5421769
247	0xbee2f7b2	-0.44329602
248	0xbda9c390	-0.08289254
249	0x3e4becd9	0.19914569
250	0xbf0d3ce3	-0.5517103
251	0xbbbec87f	-0.005822241
252	0xbea9baf9	-0.3315046
253	0xbef074f3	-0.46964225
254	0x3edc9158	0.43079638
255	0x3ddc8914	0.10768333

val_conv1.bias f4 [2]
0	0xbbf31cdc	-0.007419212
1	0x3d1fb374	0.0389895
