current_policy.model (torch, 529587 bytes, 15 tensors)

conv1.weight f4 [32, 4, 3, 3]
0.35701466 -0.0061484333 -0.00042435667 -0.15155624 0.11014664 -0.09470778 0.15737732 -0.28031668
0.12296882 0.17353152 -0.28523 0.06350493 -0.2721893 0.034079008 0.09003557 -0.09863901
0.07880108 -0.25913957 -0.0124243 0.1833254 0.0022806819 0.062874846 0.051151972 -0.101182155
0.11268117 0.061758276 -0.023065906 -0.05002967 -0.14878502 0.14783339 0.028947366 0.002431476
-0.032330766 -0.12637566 0.1532771 0.12426949 -0.24223767 0.022679405 0.023003906 -0.25780112
-0.08866002 -0.21755974 -0.24385802 -0.024826476 -0.08176958 -0.3271702 -0.21029253 -0.16006528
-0.16561285 0.14098999 -0.283262 -0.3581663 0.14911291 0.042356547 -0.11027559 0.07263474
-0.06973996 0.027035205 0.112178445 -0.08502305 0.014723559 -0.038886797 -0.020549523 -0.115743905
-0.10589144 -0.14609334 -0.022295332 0.2172169 0.13455023 0.14430831 0.041609675 0.16651295
0.15724324 -0.2504753 -0.30808583 0.13718235 0.14567252 0.11307226 0.16663389 -0.22391327
-0.13561995 -0.39419544 0.21974091 0.2135761 -0.4082834 0.09481538 -0.2383975 -0.11981332
-0.13946444 0.05351366 0.05621651 -0.07482898 0.066411674 -0.100114316 0.040389072 -0.026427222
-0.100382715 0.14969182 0.05987768 0.13616723 -0.17194748 0.079134434 0.1582884 0.12004208
0.10209338 -0.0934193 -0.079124674 -0.07950138 -0.22449522 -0.069215834 -0.03360407 -0.17809221
-0.22616076 -0.13712898 -0.01105933 -0.108768165 0.23008779 -0.060257547 0.39445052 -0.18083204
0.0010715759 0.32621878 0.30064797 -0.21731524 0.2540145 -0.28946197 -0.013265466 0.01475965
0.040472735 0.019123044 -0.056855686 0.003917182 -0.055140417 -0.0798744 -0.07445612 0.11445169
0.07579353 0.12391069 0.0022498176 -0.060545962 0.17712352 -0.11524082 -0.123527214 -0.16270125
-0.17807044 -0.27575466 -0.11700149 0.0918896 -0.100222826 0.107183784 0.10018926 0.102273025
0.10323789 -0.13971886 -0.10177702 -0.22144976 0.09047397 0.13486978 0.11839325 0.12918104
0.27124086 -0.2267105 0.01932432 -0.0017989058 -0.00076445926 0.0077462858 -0.10866573 -0.088253744
0.0014720379 0.010382342 0.13566482 -0.20681155 -0.23833114 -0.18495955 -0.15952338 -0.1659909
0.037388504 -0.14735857 -0.08287044 0.09261368 0.42327908 0.1445778 0.38654447 -0.10043496
0.25858253 0.17381795 0.18414107 0.23739949 0.35276148 -0.16235974 -0.16460273 -0.12973826
-0.12581086 -0.08320017 0.0019274582 0.058252387 -0.05398072 -0.14236067 -0.0060012634 -0.044084713
0.05914873 0.026517382 -0.06570321 -0.085583314 -0.07204717 -0.021668075 0.08554437 0.03211086
0.11050589 -0.1517056 0.036532175 0.0049416493 -0.09426427 -0.061696157 -0.054809693 0.16418418
0.12101241 0.22464542 -0.2834695 -0.13711207 -0.20189807 0.014775019 0.3589773 -0.065812804
-0.036418162 0.21192592 -0.17007062 0.31243837 -0.15649988 0.03202397 -0.033515677 0.3213576
-0.18370631 0.046229687 0.03547054 0.12292744 0.034398414 0.023197057 0.034368336 -0.024121493
-0.09129486 0.111027986 -0.037673146 -0.11162161 0.015227301 -0.0314725 0.09715989 -0.12048431
0.019890048 0.10284787 -0.06544123 0.029621236 -0.19130687 0.26329622 -0.07021299 0.009724556
00000000: a0ca b63e cc78 c9bb 307c deb9 8f31 1bbe
00000010: 9094 e13d 27f6 c1bd 8527 213e ab85 8fbe
00000020: 14d7 fb3d 3fb2 313e ab09 92be df0e 823d
00000030: 655c 8bbe 6e96 0b3d 9264 b83d 4003 cabd
00000040: 7662 a13d f1ad 84be 4b8f 4bbc a7b9 3b3e
00000050: 7e77 153b 87c4 803d bb84 513d 9738 cfbd
00000060: 63c5 e63d 3ff6 7c3d b6f4 bcbc e9eb 4cbd
00000070: 1a5b 18be a361 173e 0723 ed3c 6659 1f3b
00000080: 446d 04bd 9f68 01be acf4 1c3e 0181 fe3d
00000090: 270d 78be 29ca b93c b072 bc3c 82fe 83be
000000a0: 6293 b5bd fbc7 5ebe ebb5 79be e560 cbbc
000000b0: cf76 a7bd da82 a7be ed56 57be 27e8 23be
000000c0: 6a96 29be ae5f 103e b807 91be 9361 b7be
000000d0: 0eb1 183e 0f7e 2d3d 2bd8 e1bd 86c1 943d
000000e0: d3d3 8ebd ef78 dd3c d0bd e53d 9120 aebd
000000f0: 153b 713c c347 1fbd 7957 a8bc 240b edbd
00000100: 9cdd d8bd 7e99 15be b3a4 b6bc 1b6e 5e3e
00000110: 89c7 093e 8fc5 133e e86e 2a3d 5f82 2a3e
00000120: 5f04 213e 4c3e 80be 6dbd 9dbe 8879 0c3e
00000130: 2d2b 153e 6e92 e73d 13a2 2a3e 8549 65be
00000140: f5df 0abe fcd3 c9be c303 613e b1b3 5a3e
00000150: 860a d1be 912e c23d 791e 74be b060 f5bd
00000160: c4cf 0ebe 2431 5b3d 4843 663d f03f 99bd
00000170: d802 883d bc08 cdbd 036f 253d e77d d8bc
00000180: 7495 cdbd d048 193e 4c42 753d 6c6f 0b3e
00000190: 0013 30be 3c11 a23d 5b16 223e 9fd8 f53d
000001a0: 5616 d13d 9e52 bfbd 1e0c a2bd 9fd1 a2bd
000001b0: 13e2 65be 08c1 8dbd 6ca4 09bd ce5d 36be
000001c0: b096 67be 8a6b 0cbe 3132 35bc d8c1 debd
000001d0: 229c 6b3e 9ed0 76bd 6bf5 c93e 092c 39be
000001e0: 1f74 8c3a 2606 a73e 88ee 993e e387 5ebe
000001f0: 300e 823e 5c34 94be 6657 59bc 76d2 713c
00000200: bdc6 253d eea7 9c3c 82e1 68bd b45b 803b
00000210: ebda 61bd 3095 a3bd 737c 98bd a665 ea3d
00000220: a339 9b3d e3c4 fd3d ad71 133b 0bff 77bd
00000230: de5f 353e 6103 ecbd d6fb fcbd 289b 26be
00000240: 1958 36be b72f 8dbe 7a9e efbd 9d30 bc3d
00000250: a041 cdbd 2c83 db3d 0730 cd3d 8574 d13d
00000260: 636e d33d 7612 0fbe 7870 d0bd bac3 62be
00000270: 6b4a b93d 4e1b 0a3e 2978 f23d 0948 043e
00000280: 15e0 8a3e cc26 68be 094e 9e3c 43c9 ebba
00000290: fe65 48ba 8ed4 fd3b 238c debd 61be b4bd
000002a0: 65f1 c03a b31a 2a3c b8eb 0a3e 68c6 53be
000002b0: 140d 74be 0966 3dbe 195a 23be 85f9 29be
000002c0: b024 193d 2ae5 16be fab7 a9bd 3eac bd3d
000002d0: 09b8 d83e 340c 143e 28e9 c53e d8b0 cdbd
000002e0: ee64 843e 55fd 313e 7a8f 3c3e da18 733e
000002f0: 279d b43e a241 26be 9e8d 28be 1bda 04be
00000300: 90d4 00be da64 aabd c4a2 fc3a 0e9a 6e3d
00000310: e31a 5dbd ffc6 11be 3fa6 c4bb 2c92 34bd
00000320: f045 723d fb3a d93c 688f 86bd 4e46 afbd
00000330: 778d 93bd 3f81 b1bc e331 af3d ad86 033d
00000340: e950 e23d b658 1bbe c3a2 153d 8fed a13b
00000350: a00d c1bd 1cb5 7cbd 2180 60bd e61f 283e
00000360: 5bd5 f73d 7309 663e ea22 91be 1b67 0cbe
00000370: 5ebe 4ebe ec12 723c dfcb b73e ddc8 86bd
00000380: 362b 15bd 1c03 593e fe26 2ebe ecf7 9f3e
00000390: 8141 20be 912b 033d bc47 09bd fc88 a43e
000003a0: 821d 3cbe 575b 3d3d 8f49 113d 62c1 fb3d
000003b0: 5ae5 0c3d c107 be3c d0c5 0c3d 709a c5bc
000003c0: cdf8 babd a462 e33d 284f 1abd df99 e4bd
000003d0: ee7b 793c 4fe9 00bd c4fb c63d 7ac0 f6bd
000003e0: 74f0 a23c e7a1 d23d 0d06 86bd 3ca8 f23c
000003f0: f3e5 43be c3ce 863e d4cb 8fbd be53 1f3c

conv1.bias f4 [32]
-0.010095624 -0.056144502 0.06997981 0.041260976 -0.0132164555 -0.14353447 0.18518418 -0.14935055
-0.15850073 0.12805682 0.080638 -0.089134 -0.042630736 0.050456908 -0.017938323 0.14922152
0.067445375 -0.015338278 -0.17950793 0.03432724 -0.1265065 -0.011490227 -0.036497954 0.13973187
0.15086524 0.15797001 0.054062217 0.07194835 0.067292675 -0.14041895 -0.06127396 -0.19609551
00000000: 1e68 25bc c7f7 65bd 9351 8f3d 4501 293d
00000010: d589 58bc b3fa 12be eca0 3d3e 5aef 18be
00000020: 044e 22be 5421 033e 8925 a53d e38b b6bd
00000030: 919d 2ebd e7ab 4e3d 64f3 92bc 87cd 183e
00000040: cd20 8a3d 674d 7bbc edd0 37be b89a 0c3d
00000050: ec8a 01be 8141 3cbc e17e 15bd df15 0f3e
00000060: 6b7c 1a3e e4c2 213e 5870 5d3d a859 933d
00000070: bed0 893d fcc9 0fbe 67fa 7abd 43cd 48be

conv2.weight f4 [64, 32, 3, 3]
-0.097821854 -0.0059543643 -0.040921375 -0.1720782 0.13052866 -0.06532839 0.06967611 -0.17922628
0.039561197 -0.067656204 0.046452876 -0.037163675 -0.0011915453 0.035238203 0.12053976 0.1682852
-0.16145846 -0.028035149 -0.102805756 0.049064755 -0.056980725 0.03114554 0.09086921 -0.010171908
-0.04442776 0.18387471 -0.022122446 0.17041107 -0.09373716 -0.16389789 -0.212308 0.01408621
-0.17405939 -0.11578374 0.049888067 -0.009487089 -0.11243212 0.08776905 -0.06345705 -0.13969341
0.06435507 0.053037584 0.063721776 -0.06841424 -0.052188613 0.030615984 0.10894377 0.122628994
0.19723892 0.06251191 0.0853904 0.23278053 0.13247602 0.05102207 -0.03136649 -0.19982599
-0.026896428 -0.031372152 0.1842024 0.018676968 -0.09209893 -0.2257734 -0.10013014 0.07220316
-0.08165417 0.015773056 0.091546915 0.041058782 0.033734843 -0.08889712 0.008080471 -0.08689097
-0.02947675 -0.0511544 0.062186774 0.028026847 0.023040805 -0.14894463 0.09572818 -0.07330867
-0.039823435 -0.08403032 -0.04166023 0.08235267 0.06683246 0.06712528 0.0030744718 -0.06589158
-0.009371389 -0.037907116 -0.11529516 -0.105110906 -0.12395663 -0.06652403 -0.044573244 -0.12492937
-0.15850541 -0.1371188 0.07325297 -0.13201544 -0.23908104 -0.03993748 -0.29087734 0.15072112
0.086743064 -0.07526157 -0.12790981 0.21719037 0.065514304 -0.03386102 0.2755626 -0.18891145
0.06657596 0.060454138 -0.076044254 0.016817106 -0.0030613742 -0.011274574 0.1283188 -0.01346539
0.016339473 -0.091211244 -0.11453727 0.041227162 0.033193316 -0.15681924 -0.33812946 -0.18440945
-0.049159102 0.019674951 -0.028698573 0.00089492614 -0.010416503 -0.024761878 0.06713324 0.047731776
-0.15913148 0.09482272 -0.0958095 -0.14574301 -0.2646861 0.012035401 0.1341489 0.026911004
-0.019429969 -0.16174024 -0.021482145 -0.2257149 -0.0094902925 0.14258426 -0.19604932 -0.072404996
-0.02178018 -0.040161077 -0.011755973 0.090699084 0.14146614 -0.05744012 0.025334219 0.18291801
0.013477893 0.07697017 0.040553875 -0.0041920347 -0.028816251 0.24830262 0.14447963 0.19320685
0.24816602 0.027736578 -0.2010855 -0.077315986 -0.039938584 -0.10286062 -0.23206736 0.026260093
-0.23819354 0.22319527 0.0010074136 0.10045152 0.06849212 -0.3163036 -0.11726158 -0.12167873
0.002678944 0.11008114 0.09303773 0.19497779 0.15695632 -0.17083932 -0.003954075 -0.25321573
0.20965551 0.025387216 0.015385711 -0.130089 0.0024929447 -0.1473132 -0.07151107 0.11324125
-0.07281607 0.08029259 -0.017052293 0.10009506 0.008651225 0.15614499 -0.027239043 0.10094181
-0.071179874 0.19252244 -0.02832114 -0.039865617 0.0044171973 -0.06659401 -0.15022925 -0.09329276
0.13850905 -0.08191978 0.019961817 0.17818758 -0.044349533 0.07474324 0.18226999 -0.16661602
-0.03606144 -0.23884648 -0.17646733 0.00940684 -0.10666886 -0.123423964 -0.19643976 -0.045009293
0.030412506 -0.01413583 0.08448331 -0.06253568 0.015113799 -0.337694 -0.16756256 -0.10008183
-0.13608454 0.10558937 0.07116156 -0.090957955 -0.005512553 0.046037704 0.02594135 0.08452823
-0.13805187 0.16187629 -0.024707722 -0.07399524 0.051481787 -0.15803897 0.046087477 0.02160413
00000000: d356 c8bd d41c c3bb 2c9d 27bd 4535 30be
00000010: 4ea9 053e e4ca 85bd 59b2 8e3d 1887 37be
00000020: ec0a 223d 568f 8abd 5f45 3e3d f038 18bd
00000030: a02d 9cba ef55 103d 8ddd f63d f552 2c3e
00000040: 5e55 25be f8a9 e5bc d38b d2bd 20f8 483d
00000050: 9f64 69bd ee24 ff3c a319 ba3d 13a8 26bc
00000060: e2f9 35bd a749 3c3e 223a b5bc 3d80 2e3e
00000070: 45f9 bfbd d9d4 27be 4567 59be d9c9 663c
00000080: a03c 32be 0720 edbd 6e57 4c3d bc6f 1bbc
00000090: d042 e6bd 42c0 b33d c5f5 81bd ca0b 0fbe
000000a0: 97cc 833d f03d 593d 9080 823d c41c 8cbd
000000b0: bac3 55bd 5fce fa3c e91d df3d e924 fb3d
000000c0: 00f9 493e 3f06 803d 29e1 ae3d 055e 6e3e
000000d0: cba7 073e 85fc 503d 267a 00bd 2f9f 4cbe
000000e0: e655 dcbc 1680 00bd 8e9f 3c3e 7100 993c
000000f0: 5d9e bcbd 2431 67be 0811 cdbd 40df 933d
00000100: 4d3a a7bd 7f36 813c f37c bb3d 412d 283d
00000110: 8c2d 0a3d b10f b6bd f463 043c e5f3 b1bd
00000120: 3a79 f1bc 4787 51bd 8fb7 7e3d 8f98 e53c
00000130: 12c0 bc3c f184 18be 230d c43d db22 96bd
00000140: e61d 23bd 1718 acbd eba3 2abd 84a8 a83d
00000150: 75df 883d fb78 893d 147d 493b 2af2 86bd
00000160: 748a 19bc 7e44 1bbd de1f ecbd 6344 d7bd
00000170: f9dc fdbd c03d 88bd 6f92 36bd f8da ffbd
00000180: 3e4f 22be df68 0cbe a705 963d 0e2f 07be
00000190: a9d1 74be 7c95 23bd e0ed 94be a356 1a3e
000001a0: 59a6 b13d bd22 9abd cafa 02be 2767 5e3e
000001b0: 5d2c 863d dab1 0abd 8b16 8d3e 0172 41be
000001c0: fa58 883d c29e 773d 17bd 9bbd 07c4 893c
000001d0: 56a1 48bb feb8 38bc 0166 033e f09d 5cbc
000001e0: 5cda 853c f6cc babd 8492 eabd d0dd 283d
000001f0: b7f5 073d 3995 20be 4e1f adbe d5d5 3cbe
00000200: 0e5b 49bd 5d2d a13c 4519 ebbc 7a99 6a3a
00000210: fba9 2abc 6cd9 cabc 277d 893d 6582 433d
00000220: 5df3 22be 6a32 c23d c537 c4bd a83d 15be
00000230: f084 87be 2130 453c 545e 093e 7774 dc3c
00000240: 992b 9fbc 3c9f 25be 53fb afbc cf21 67be
00000250: 2c7d 1bbc 9c01 123e 27c1 48be 1249 94bd
00000260: 596c b2bc f17f 24bd 209c 40bc 71c0 b93d
00000270: 80dc 103e 5546 6bbd b589 cf3c dc4e 3b3e
00000280: 61d2 5c3c 89a2 9d3d d21b 263d 565d 89bb
00000290: 0f10 ecbc 0b43 7e3e 78f2 133e 04d8 453e
000002a0: 3c1f 7e3e d237 e33c 5be9 4dbe d857 9ebd
000002b0: a496 23bd 97a8 d2bd 11a3 6dbe 681f d73c
000002c0: 02e9 73be 4d8d 643e 310b 843a 87b9 cd3d
000002d0: 9945 8c3d 8cf2 a1be d726 f0bd b332 f9bd
000002e0: 3991 2f3b 3972 e13d 918a be3d 42a8 473e
000002f0: 28b9 203e 81f0 2ebe 2f91 81bb 7ea5 81be
00000300: efaf 563e daf8 cf3c 5914 7c3c 0d36 05be
00000310: ac60 233b 46d9 16be 6574 92bd 07eb e73d
00000320: 9720 95bd 7170 a43d 40b1 8bbc a4fe cc3d
00000330: debd 0d3c 79e4 1f3e 6a24 dfbc 94ba ce3d
00000340: c1c6 91bd 9a24 453e bc01 e8bc 214a 23bd
00000350: 23be 903b 7162 88bd b2d5 19be 4610 bfbd
00000360: 51d5 0d3e 8fc5 a7bd f786 a33c ce76 363e
00000370: dba7 35bd fc12 993d fca4 3a3e 649d 2abe
00000380: 29b5 13bd 2c94 74be dab3 34be 261f 1a3c
00000390: 3475 dabd b4c5 fcbd 8127 49be aa5b 38bd
000003a0: a623 f93c f899 67bc 9605 ad3d b512 80bd
000003b0: de9f 773c 3ae6 acbe 8595 2bbe b4f7 ccbd
000003c0: bf59 0bbe 3d3f d83d 27bd 913d 2a48 babd
000003d0: a5a2 b4bb 0892 3c3d f482 d43c 231d ad3d
000003e0: 785d 0dbe e6c2 253e d967 cabc d18a 97bd
000003f0: 91de 523d f8d4 21be 39c6 3c3d 25fb b03c

conv2.bias f4 [64]
-0.028726822 0.027942697 -0.065615036 -0.055641823 -0.0858087 0.06748636 0.019615924 -0.013293897
-0.010628718 -0.08163435 -0.043743383 -0.044391986 0.054395396 0.007042161 0.05947701 0.023971435
-0.05318912 -0.003979518 -0.030102 0.025584383 0.03914087 0.049781125 -0.04020142 0.092845954
-0.107112214 0.04952444 0.06794495 -0.03214125 0.0012063656 0.00081180444 0.0618137 -0.007755144
-0.10783963 -0.051411245 -0.02940847 -0.045887433 0.0022318864 -0.08988663 -0.08670443 0.04606851
0.045298107 0.044380285 0.02076537 -0.06021694 -0.06358442 0.023323063 -0.011281755 0.011367527
-0.0011935186 -0.07495393 -0.0045729033 -0.02635711 -0.06959157 -0.0054791523 0.029051444 -0.0063471594
0.021297136 -0.05675352 -0.09127694 -0.14316083 0.014280072 -0.012127453 -0.023044324 -0.048957385
00000000: 8354 ebbc 15e8 e43c 2d61 86bd aee8 63bd
00000010: 79bc afbd 4a36 8a3d 93b1 a03c a5ce 59bc
00000020: 1324 2ebc e92f a7bd 432c 33bd 5fd4 35bd
00000030: b5cd 5e3d eec1 e63b 2a9e 733d be5f c43c
00000040: d6dc 59bd 9e66 82bb 7898 f6bc 5796 d13c
00000050: 2d52 203d 4be7 4b3d 3faa 24bd 0526 be3d
00000060: a65d dbbd 24da 4a3d b926 8b3d 8ba6 03bd
00000070: ea1e 9e3a 46cf 543a 5d30 7d3d dd1e febb
00000080: 06db dcbd 9994 52bd 08ea f0bc 76f4 3bbd
00000090: d744 123b 7b16 b8bd 1892 b1bd 55b2 3c3d
000000a0: 828a 393d 1ac8 353d 231c aa3c 0aa6 76bd
000000b0: 8c38 82bd 0210 bf3c 1cd7 38bc dd3e 3a3c
000000c0: d76f 9cba 7281 99bd 4bd8 95bb deea d7bc
000000d0: 0686 8ebd 768a b3bb 4bfd ed3c d5fb cfbb
000000e0: 5577 ae3c 6176 68bd 68ef babd c198 12be
000000f0: f7f6 693c 3ab2 46bc 73c7 bcbc 8a87 48bd

conv3.weight f4 [128, 64, 3, 3]
-0.04884434 -0.16037463 -0.13194416 -0.0548603 -0.03805423 0.06454672 0.05452013 -0.054419797
-0.10255635 -0.013174978 -0.032353938 -0.022788119 0.06472441 0.04251406 0.06912128 0.037451565
0.015475549 0.1067493 -0.03265359 -0.080715716 0.08024651 -0.03811025 -0.09992987 0.006283177
-0.0026926182 -0.025369862 -0.014227305 0.091712296 0.0777076 0.04947675 0.040495813 -0.1718405
0.14231683 0.040511347 0.0013771064 -0.022477457 -0.0810006 0.056408342 -0.0404709 -0.10903815
-0.10586057 0.06886862 0.03138934 -0.056891296 0.05869573 0.014778857 -0.059383955 -0.07898734
0.016730174 0.011999198 0.029756313 0.040825665 0.008187997 -0.013971505 0.06497503 -0.054106664
0.00393107 0.014343843 0.056328095 0.09121476 0.03622587 0.065597035 0.03651407 -0.094983235
-0.10502301 -0.107840545 0.063852474 -0.13057305 0.10429556 0.039187264 0.023946306 -0.041487277
0.033473533 0.05811533 0.11111573 0.07337286 0.05392229 0.055622876 0.09106019 0.0017978374
0.045973122 0.039939076 -0.015259037 -0.039017856 0.02931713 0.14665344 0.089222856 -0.0049233786
0.09644722 -0.014455803 -0.05582153 0.019708224 0.033971 0.03995141 0.020608505 0.08992367
0.15611733 0.020198176 -0.04091968 -0.027229171 -0.053038932 0.06413664 -0.047268633 0.13256566
-0.0811407 -0.04351076 0.06750588 0.1145856 -0.08110626 -0.06298591 -0.07813506 -0.009387847
-0.17206189 -0.116046205 -0.068351515 -0.07170937 -0.081217185 0.03591379 0.07000488 -0.004174595
-0.03742981 -0.050712045 0.057038717 0.046224732 0.13525252 -0.050343234 -0.111482784 0.005787901
-0.08459652 0.016018234 -0.14201213 -0.06748237 -0.15921336 -0.06377205 0.06451861 -0.07303493
-0.18687157 0.015230754 0.0065077385 -0.072165266 -0.030848369 -0.030198636 -0.025352767 -0.12254268
-0.097211845 -0.09051258 -0.084677614 0.08076951 0.12378 -0.030110631 -0.11753036 -0.0047285524
-0.14600514 0.038657323 0.038642805 -0.022839332 -0.041132662 -0.1539437 -0.071499005 0.019374236
0.10140761 -0.036958996 0.0034110986 0.06888944 -0.112842806 -0.09075623 -0.05006025 -0.012511753
-0.050599385 -0.04647842 0.011565909 -0.0049158814 -0.07235963 -0.010102874 0.0059578475 0.054720275
0.11085521 -0.13677381 -0.07830769 -0.07534183 -0.014923335 -0.19497648 -0.106967546 0.052081667
0.018859211 0.013441554 -0.067354344 -0.06433951 -0.065259114 0.055752832 -0.017178291 -0.070136376
-0.042109363 0.06694221 0.13718922 0.057893906 0.1751173 -0.054304793 -0.06425373 0.012030699
0.10815002 0.055911355 0.06564085 0.092411466 0.10102527 -0.15258078 -0.08686627 -0.0778807
0.02531763 0.07433489 0.013500655 0.03066954 0.019032609 -0.03747687 0.0125795435 0.037828524
-0.102377154 -0.033877876 -0.04191833 -0.03965217 0.16724771 0.025671436 -0.03446761 -0.12738472
0.037330676 0.08555307 -0.14732862 -0.010634099 -0.022247346 0.021186177 -0.16076697 0.055133566
0.05862989 0.00840954 0.09337045 -0.06650139 -0.093376815 -0.12973475 -0.12987827 -0.12299225
0.09033447 0.06599354 -0.012022508 0.07094582 -0.02574137 0.005008108 -0.06988838 -0.021433061
0.099814296 -0.008205268 0.06855699 0.057695433 0.1204572 -0.04043965 -0.014052327 -0.09691984
00000000: 0111 48bd 3f39 24be 5f1c 07be 32b5 60bd
00000010: c1de 1bbd 1231 843d 8050 5f3d 4be7 5ebd
00000020: 1009 d2bd dddb 57bc 9085 04bd 26ae babc
00000030: 3b8e 843d 3923 2e3d 758f 8d3d d066 193d
00000040: 288d 7d3c 619f da3d c5bf 05bd 484e a5bd
00000050: 4858 a43d 7e19 1cbd 08a8 ccbd 1ce3 cd3b
00000060: a376 30bb 75d4 cfbc a419 69bc a8d3 bb3d
00000070: 2a25 9f3d 22a8 4a3d f0de 253d f5f6 2fbe
00000080: 81bb 113e 3aef 253d 0680 b43a a522 b8bc
00000090: a4e3 a5bd 6f0c 673d d0c4 25bd 654f dfbd
000000a0: 6dcd d8bd fe0a 8d3d 1c92 003d d906 69bd
000000b0: ef6a 703d 0523 723c 973c 73bd 1dc4 a1bd
000000c0: b80d 893c 4998 443c 83c3 f33c d038 273d
000000d0: f326 063c bde8 64bc a111 853d f39e 5dbd
000000e0: 35d0 803b 7002 6b3c 4ab8 663d cece ba3d
000000f0: 9461 143d bd57 863d c78f 153d 9286 c2bd
00000100: 4e16 d7bd 81db dcbd 16c5 823d f1b4 05be
00000110: e998 d53d d382 203d 0b2b c43c 90ee 29bd
00000120: 8b1b 093d 570a 6e3d a590 e33d 8344 963d
00000130: 9fdd 5c3d d0d4 633d c47d ba3d 6aa5 eb3a
00000140: 504e 3c3d 2897 233d 0a01 7abc 30d1 1fbd
00000150: 7a2a f03c 522c 163e 79ba b63d 4b54 a1bb
00000160: 1f86 c53d 08d8 6cbc 1ea5 64bd 2473 a13c
00000170: 2d25 0b3d 17a4 233d 2bd3 a83c e729 b83d
00000180: 39dd 1f3e a576 a53c 659b 27bd b60f dfbc
00000190: 5a3f 59bd 125a 833d c19c 41bd 4bbf 073e
000001a0: 182d a6bd 5738 32bd 8640 8a3d dbab ea3d
000001b0: 0a1b a6bd c2fe 80bd 4605 a0bd 7ccf 19bc
000001c0: fe30 30be a2a9 edbd e1fb 8bbd 5ddc 92bd
000001d0: 3255 a6bd 571a 133d b85e 8f3d 0acb 88bb
000001e0: 0050 19bd 6fb7 4fbd 6ea1 693d 2556 3d3d
000001f0: a37f 0a3e b534 4ebd 1651 e4bd 6fa8 bd3b
00000200: f140 adbd ac38 833c a16b 11be 3234 8abd
00000210: d408 23be ec9a 82bd 5522 843d 5693 95bd
00000220: 435b 3fbe 6a8a 793c de3e d53b 62cb 93bd
00000230: b8b5 fcbc 2163 f7bc 9bb0 cfbc a8f7 fabd
00000240: 0117 c7bd a95e b9bd 756b adbd 7c6a a53d
00000250: 5e80 fd3d 92aa f6bc c2b3 f0bd f9f1 9abb
00000260: 5f82 15be 2457 1e3d eb47 1e3d 8d19 bbbc
00000270: b97a 28bd 6ba3 1dbe 126e 92bd b8b6 9e3c
00000280: cbae cf3d 5162 17bd bd8c 5f3b e815 8d3d
00000290: 211a e7bd 67de b9bd fa0b 4dbd 18fe 4cbc
000002a0: 4d41 4fbd 2860 3ebd f07e 3d3c 6715 a1bb
000002b0: 4931 94bd 8686 25bc 0c3a c33b 5e22 603d
000002c0: 0e08 e33d 6f0e 0cbe c85f a0bd d14c 9abd
000002d0: 0181 74bc eaa7 47be cd11 dbbd 9653 553d
000002e0: a27e 9a3c f739 5c3c 13f1 89bd 6fc4 83bd
000002f0: 92a6 85bd 155d 643d 7db9 8cbc a9a3 8fbd
00000300: de7a 2cbd ff18 893d 557b 0c3e 2922 6d3d
00000310: f351 333e b46e 5ebd 7697 83bd 691c 453c
00000320: c27d dd3d 4e03 653d b66e 863d 3942 bd3d
00000330: 56e6 ce3d 233e 1cbe f1e6 b1bd eb7f 9fbd
00000340: eb66 cf3c e43c 983d da31 5d3c b03e fb3c
00000350: 46ea 9b3c 5981 19bd 6e1a 4e3c 15f2 1a3d
00000360: 1dab d1bd 87c3 0abd 8eb2 2bbd 506a 22bd
00000370: fc42 2b3e e74c d23c e92d 0dbd 2471 02be
00000380: 0de8 183d 7336 af3d 50dd 16be a53a 2ebc
00000390: 1140 b6bc a28e ad3c 19a0 24be bcd3 613d
000003a0: e525 703d 2bc8 093c 0239 bf3d e131 88bd
000003b0: 583c bfbd 30d9 04be cffe 04be 5ce3 fbbd
000003c0: 4701 b93d 9f27 873d 0efa 44bc 0b4c 913d
000003d0: 91df d2bc 0e1b a43b a421 8fbd 6394 afbc
000003e0: 706b cc3d 636f 06bc 9b67 8c3d 0c52 6c3d
000003f0: 44b2 f63d 0ca4 25bd bb3b 66bc e97d c6bd

conv3.bias f4 [128]
0.01863154 -0.010959609 -0.08824736 0.019491823 -0.10731758 0.08037618 -0.011620863 -0.07984623
0.029760173 0.032417595 -0.01583319 0.09549085 0.022991717 0.03885758 -0.107263915 0.0343532
-0.055362538 0.06749317 0.1350649 -0.0031733906 0.032675274 0.00059462094 0.024473827 -0.0650921
-0.0027028963 -0.058298446 0.028136455 0.004756063 -0.05275726 -0.14529127 -0.028879864 0.008238468
0.074057 0.02111673 -0.004210734 -0.0037972317 -0.07017547 -0.0015239613 -0.039296843 -0.0031503367
0.019811898 -0.049705468 -0.117500365 -0.09809558 0.01194758 0.06306944 -0.005647766 -0.10386596
0.023845332 0.043168355 0.068761595 -0.0015785794 0.021493303 -0.05765462 0.0032236709 0.012816667
-0.027515816 -0.040900618 -0.06707854 -0.010320681 -0.018277856 -0.0721293 -0.0119022345 -0.011518604
-1.42039935e-05 0.030792587 0.035695314 -0.035453968 0.005619224 0.019622304 0.063524894 -0.07730977
-0.032532148 -0.012778954 0.03434734 -0.002413532 -0.03291628 0.08318874 -0.056050252 -0.014283348
-0.019708678 0.0069256593 -0.0115512 -0.11367253 -0.021860026 -0.04386659 0.1419248 0.017417088
0.12155766 -0.011800536 -0.014220446 0.0038978637 -0.061040357 0.01161871 0.075175464 -0.042231604
-0.062217798 0.13345599 -0.049228888 -0.0025396713 -0.032680586 -0.041960772 -0.014225884 0.06904206
0.0073459717 -0.107602656 0.009939931 0.001421437 0.0008928398 0.09627453 0.032875184 0.015123136
-0.048200697 -0.028435213 0.015903257 0.036680475 0.13403073 -0.03751705 0.013194962 -0.040557016
-0.0024718926 -0.006403982 -0.13716666 0.16655503 -0.03100813 -0.10975527 -0.091324486 -0.026492609
00000000: 2ca1 983c ef8f 33bc 08bb b4bd 51ad 9f3c
00000010: 52c9 dbbd 449c a43d 6f65 3ebc 6c86 a3bd
00000020: 9bcb f33c 50c8 043d 9bb4 81bc b590 c33d
00000030: 2059 bc3c 2029 1f3d 2fad dbbd f1b5 0c3d
00000040: d4c3 62bd dc39 8a3d 744e 0a3e a9f8 4fbb
00000050: 82d6 053d 56e0 1b3a 567d c83c 024f 85bd
00000060: 1323 31bb 5aca 6ebd 6c7e e63c c0d8 9b3b
00000070: ff17 58bd 3cc7 14be 7795 ecbc a4fa 063c
00000080: 32ab 973d fefc ac3c 32fa 89bb fada 78bb
00000090: 28b8 8fbd a8bf c7ba baf5 20bd e175 4ebb
000000a0: 904c a23c f697 4bbd 08a4 f0bd 56e6 c8bd
000000b0: c8bf 433c 8d2a 813d e510 b9bb adb7 d4bd
000000c0: 4957 c33c 4dd1 303d e1d2 8c3d 56e8 ceba
000000d0: b912 b03c 4027 6cbd 3944 533b fffc 513c
000000e0: d968 e1bc 6887 27bd 7960 89bd 1318 29bc
000000f0: 71bb 95bc 87b8 93bd 9701 43bc 87b8 3cbc
00000100: b04d 6eb7 bc40 fc3c 4035 123d 2e38 11bd
00000110: 7821 b83b f4be a03c 5719 823d 9654 9ebd
00000120: 6e40 05bd d15e 51bc ccaf 0c3d 592c 1ebb
00000130: 39d3 06bd dc5e aa3d f394 65bd b404 6abc
00000140: 1874 a1bc a4f0 e23b 3f41 3dbc 25cd e8bd
00000150: cc13 b3bc 74ad 33bd bc54 113e 48ae 8e3c
00000160: 39f3 f83d 0957 41bc e0fc 68bc 4d73 7f3b
00000170: 7405 7abd 675c 3e3c 98f5 993d 0cfb 2cbd
00000180: 17d8 7ebd b0a8 083e 3ba4 49bd 9d70 26bb
00000190: 14dc 05bd 0fdf 2bbd af13 69bc ec65 8d3d
000001a0: 7ab6 f03b c85e dcbd 18db 223c 834f ba3a
000001b0: 770d 6a3a 952b c53d 21a8 063d 08c7 773c
000001c0: 186e 45bd f7f0 e8bc 8c47 823c 443e 163d
000001d0: 5a3f 093e 7aab 19bd af2f 583c 1d1f 26bd
000001e0: 7aff 21bb 7fd8 d1bb 6b75 0cbe 678d 2a3e
000001f0: c304 febc 5fc7 e0bd 5508 bbbd 0707 d9bc

act_conv1.weight f4 [4, 128, 1, 1]
0.027555145 -0.02300619 -0.07880338 -0.0063276403 -0.04424032 0.34726378 -0.08762256 0.15733127
0.0007103577 -0.0077571427 -0.0984691 0.055969536 -9.675281e-05 -0.07956183 0.066124745 0.085319504
-0.084524006 0.034993455 -0.06086057 -0.0028262616 0.057699703 -0.05281589 -0.017024772 0.029428506
0.050685856 0.1424779 0.17917326 -0.08494109 0.027342692 -0.08000443 -0.026794152 0.25050962
0.37180185 0.041137677 -0.00021125567 0.0010256541 -0.23663862 -0.0005289306 -0.0019216845 4.822514e-05
-0.044554126 0.2035556 -0.24139991 -0.16011867 0.0031371412 -0.18310602 -0.092349336 -0.061502364
-0.08346652 0.07004413 0.0397513 0.0094673615 0.16863938 0.16648436 0.055629995 -0.034142956
0.0024195572 -0.08525412 -0.06968331 -0.046667844 -0.02454272 0.21350639 0.06393805 0.028179256
0.08056346 0.018577505 0.40350005 -0.020794997 0.43460643 0.04595057 0.0427009 0.18851027
0.0031372684 0.0075195897 -0.05485607 -0.0681699 -0.046310026 -0.046010744 0.058915388 -0.050277926
-0.09730314 -0.26401612 0.056465875 0.046369374 0.021410335 -0.20535146 0.023775376 -0.08506176
0.09658659 -0.015868295 0.08572999 0.01627834 -0.21023229 -0.028535731 0.25932375 -0.01399242
0.109242424 0.032578688 -0.17765462 -0.0021513898 0.18722887 0.057678167 0.15725449 0.029913632
-0.095009565 0.06008119 0.060680952 0.033830944 -0.048488986 0.05234581 0.008572555 0.10194762
0.040279366 0.037815675 0.0023082949 -0.07962282 0.13387173 0.29428977 -0.016519057 -0.01411358
0.0013885039 -0.058740616 0.01496059 0.12656005 -0.1492929 -0.08998944 -0.024790587 -0.07096839
-0.020101244 0.009003471 0.09659018 0.049958978 -0.014093227 -0.13573089 0.24543189 0.025666839
0.3138483 -0.0051889075 -0.073035166 0.039404325 -0.04100469 0.29707855 -0.2849264 0.032870974
0.10082461 -0.1410858 0.045129027 0.00225842 -0.06268206 0.056371655 -0.11586035 0.008709783
-0.07157657 -0.30582586 0.013517226 0.017349977 -0.1314169 0.011356959 -0.0019422699 -0.28883877
0.13444322 -0.059069924 0.0009137291 -0.009305777 0.30135518 4.5092005e-05 0.13409202 -2.5391716e-06
-0.07741259 0.07016355 0.08623829 0.1075318 0.0043523363 0.23059893 -0.006176729 -0.1721037
0.32211277 0.05089157 0.13594565 -0.010287585 -0.2148559 0.06968023 -0.05959416 0.12409396
-0.024299446 0.09842038 0.5631873 0.0017926468 0.053514402 -0.026307836 -0.049635716 0.21262044
-0.014007356 0.052113984 0.096189156 -0.026879268 -0.3090171 0.012883524 -0.12700799 -0.06623086
-0.112876564 -0.025187869 0.03426287 0.020422306 -0.12987268 0.2619788 0.050757166 0.061250772
0.19680358 0.31680322 -0.061986424 -0.1466349 -0.11921212 0.113152236 0.18692793 0.14456879
0.10534253 0.083245076 0.094352454 -0.01272062 0.19700879 -0.037460115 -0.043116327 0.077805325
0.063190125 0.08298536 0.15302365 0.0022759382 -0.15728483 -0.02132818 -0.26254994 -0.055407282
-0.028956492 -0.036258537 0.08894562 -0.071132794 0.16379721 0.11947 -0.16161276 -0.11782577
0.0042546224 -0.11913949 0.03788982 0.23696704 0.097452365 0.007498291 -0.07030533 -0.0007877343
-0.0015127347 -0.06948907 -0.0061151804 0.1501717 0.060541615 0.107781895 0.054607674 0.21278335
00000000: 54bb e13c 7a77 bcbc ab63 a1bd 1858 cfbb
00000010: 5635 35bd 8fcc b13e 7573 b3bd 731b 213e
00000020: 4c37 3a3a a12f febb 2baa c9bd 5040 653d
00000030: c5e7 cab8 50f1 a2bd 696c 873d febb ae3d
00000040: ec1a adbd 4c55 0f3d ef48 79bd cd38 39bb
00000050: 8656 6c3d 7a55 58bd 8977 8bbc 0d14 f13c
00000060: f99b 4f3d bae5 113e 3279 373e 98f5 adbd
00000070: c8fd df3c 5dd9 a3bd 697f dbbc cc42 803e
00000080: d05c be3e fb7f 283d 8384 5db9 3e6f 863a
00000090: 6551 72be efa7 0aba 08e1 fbba 5a45 4a38
000000a0: 637e 36bd e170 503e 8a31 77be 26f6 23be
000000b0: 7f98 4d3b 2580 3bbe a621 bdbd e7e9 7bbd
000000c0: 7ff0 aabd 4c73 8f3d 42d2 223d fe1c 1b3c
000000d0: cdaf 2c3e e07a 2a3e 47dc 633d 7cd9 0bbd
000000e0: 6f91 1e3b b699 aebd 20b6 8ebd c826 3fbd
000000f0: d00d c9bc 6ba1 5a3e f4f1 823d 2fd8 e63c
00000100: 75fe a43d da2f 983c 8f97 ce3e 455a aabc
00000110: bc84 de3e aa36 3c3d 24e7 2e3d d608 413e
00000120: a19a 4d3b e466 f63b c2b0 60bd a99c 8bbd
00000130: 95af 3dbd c375 3cbd 4351 713d 3af0 4dbd
00000140: de46 c7bd 1f2d 87be c348 673d d0ed 3d3d
00000150: ba64 af3c a747 52be 94c4 c23c dc34 aebd
00000160: 31cf c53d 3afe 81bc 3493 af3d 275a 853c
00000170: 2247 57be c4c3 e9bc 15c6 843e 7740 65bc
00000180: 7eba df3d 3b71 053d 18eb 35be 55fe 0cbb
00000190: edb8 3f3e f13f 6c3d 5207 213e 6f0d f53c
000001a0: 6094 c2bd b217 763d 978c 783d 5192 0a3d
000001b0: 639c 46bd 8f68 563d e773 0c3c eac9 d03d
000001c0: fafb 243d 9ce4 1a3d c346 173b 4a11 a3bd
000001d0: ac15 093e 26ad 963e f952 87bc a53c 67bc
000001e0: 76fe b53a 009a 70bd 431d 753c f598 013e
000001f0: 3de0 18be 624c b8bd a115 cbbc e057 91bd
00000200: 5dab a4bc 4b83 133c 13d1 c53d c9a1 4c3d
00000210: 47e7 66bc 0afd 0abe 7f52 7b3e 4343 d23c
00000220: b9b0 a03e b607 aabb 7693 95bd 6e66 213d
00000230: 89f4 27bd ae1a 983e e0e1 91be b7a3 063d
00000240: 227d ce3d cc78 10be 37d9 383d 0002 143b
00000250: 745f 80bd f7e5 663d 3148 edbd 7ab3 0e3c
00000260: bd96 92bd 3595 9cbe 5b77 5d3c 8a21 8e3c
00000270: 2792 06be 8a12 3a3c c393 feba ade2 93be
00000280: 7cab 093e 4ef3 71bd 5287 6f3a 4277 18bc
00000290: 3a4b 9a3e 2c21 3d38 6b4f 093e a366 2ab6
000002a0: 7e8a 9ebd e8b1 8f3d b39d b03d a239 dc3d
000002b0: 0b9e 8e3b 2022 6c3e 2966 cabb f43b 30be
000002c0: f7eb a43e ae73 503d 5635 0b3e 428d 28bc
000002d0: 2f03 5cbe 82b4 8e3d 0219 74bd f924 fe3d
000002e0: a20f c7bc a090 c93d 0b2d 103f 3ff7 ea3a
000002f0: eb31 5b3d 8883 d7bc d24e 4bbd 2cb9 593e
00000300: 1c7f 65bc 7975 553d d2fe c43d e931 dcbc
00000310: 7d37 9ebe 6b15 533c 620e 02be 0ca4 87bd
00000320: d42b e7bd ca56 cebc 3957 0c3d ae4c a73c
00000330: 58fd 04be 1622 863e bfe6 4f3d 17e2 7a3d
00000340: e186 493e 0834 a23e 7ae5 7dbd 7627 16be
00000350: 7c25 f4bd 5cbc e73d 096a 3f3e d709 143e
00000360: d3bd d73d 657c aa3d dc3b c13d 266a 50bc
00000370: acbc 493e c76f 19bd bf9a 30bd 6658 9f3d
00000380: d369 813d 3af4 a93d 3bb2 1c3e e827 153b
00000390: 460f 21be 6fb8 aebc f26c 86be bff2 62bd
000003a0: 2a36 edbc d583 14bd 1f29 b63d 12ae 91bd
000003b0: 75ba 273e b0ac f43d d17d 25be a34e f1bd
000003c0: 5c6a 8b3b 68ff f3bd 5b32 1b3d 7da7 723e
000003d0: 1b95 c73d 39b4 f53b 3efc 8fbd f47f 4eba
000003e0: f446 c6ba 4950 8ebd da61 c8bb 9cc6 193e
000003f0: 7cfa 773d c1bc dc3d 4cac 5f3d e1e3 593e

act_conv1.bias f4 [4]
0.072533116 0.01925879 0.09665945 -0.0003425017
00000000: 3e8c 943d 9cc4 9d3c 64f5 c53d cd91 b3b9

act_fc1.weight f4 [81, 324]
-0.03137845 -0.03917501 -0.011719368 -0.08672504 -0.023185743 -0.053901345 -0.06933879 -0.09709195
-0.05068662 -0.013112621 -0.0703262 -0.03345534 -0.04694794 -0.04815237 -0.03754062 -0.0061908807
-0.05454112 -0.031108104 -0.0060841795 -0.026563419 -0.006133357 -0.02236185 -0.036392406 -0.021976063
-0.03619539 -0.022858502 -0.04225761 -0.054111794 -0.07242717 -0.039731488 -0.056971285 -0.030064814
0.0042137583 -0.09416947 -0.07217026 -0.011191256 -0.055322155 -0.028770944 -0.041639954 -0.09067555
-0.060146958 -0.018537022 -0.05780193 -0.078772135 -0.06312348 -0.08039854 -0.10584377 -0.17010044
-0.039161287 -0.0001688017 0.03886307 9.799254e-05 -0.028468266 -0.03324587 -0.112245455 -0.1952892
-0.05462279 -0.018680817 -0.016190628 -0.03229275 -0.07806248 -0.033786457 -0.05459917 0.07557063
0.11647643 0.075660646 0.0058848006 -0.04983078 -0.003043265 -0.013237211 0.012413848 -0.03506061
0.065458186 -0.08130294 0.014436917 0.0032349508 -0.054322895 -0.07631732 -0.05521833 0.017661132
-0.0208952 -0.05598131 -0.047327265 -0.014830823 -0.025999792 -0.037531078 0.029788652 0.001204607
-0.077277206 -0.02290785 -0.027181566 -0.024463799 -0.029288048 0.022012955 -0.043381963 0.0050101965
0.03473604 -0.0099217305 -0.0234623 -0.027232016 0.028928839 -0.0012297295 -0.012796344 0.0012537097
0.0019099901 0.0070663434 -0.009198117 0.03381988 0.006569661 0.03388281 0.036487922 0.06867333
0.07910991 0.016159074 -0.04337886 0.02764017 -0.034666155 -0.027476232 -0.006861371 0.002793898
0.060015637 0.01463066 0.06326999 0.037014503 0.025023181 0.021694034 0.09963342 0.0069165714
0.06365554 0.005208628 0.099395335 0.035529792 -0.016866833 0.028192883 -0.02032788 0.028617792
0.06451793 0.07779597 0.035400644 0.030431611 0.013204067 0.015786923 -0.027139483 -0.022266526
-0.19682479 -0.004623734 0.019173449 0.032189414 0.026491893 0.007339968 -0.003835053 -0.0023831045
-0.037371516 0.019841714 0.0963926 -0.005811766 -0.023673547 0.008475146 0.011520629 0.06494994
0.052361973 -0.012112128 -0.044165887 0.002961456 -0.042599883 -0.05440172 -0.04779306 -0.10444213
0.01025434 -0.06301685 -0.05114404 -0.03511398 -0.007118286 -0.046632033 -0.0078027723 -0.02878503
-0.025419835 -0.050425854 0.015629467 -0.043339565 -0.05706564 -0.047788665 -0.03568019 -0.044919163
-0.012969435 0.024944806 -0.03918399 -0.09231347 -0.06787227 -0.09270077 -0.038531344 -0.021944493
-0.044824153 -0.07336086 -0.0774466 -0.0050694277 -0.06703044 -0.060428116 -0.04743239 -0.041879214
-0.017157616 -0.026450938 -0.06364994 -0.07067645 -0.03556812 -0.035652507 -0.00012893902 0.031510115
-0.069694266 0.045608547 -0.052260228 -0.06832987 -0.11122052 -0.07904657 -0.043402787 -0.034881856
-0.07851743 0.034650292 -0.115447424 -0.060617235 -0.04047703 -0.06685411 -0.06230299 -0.03433248
-0.026343776 -0.4168544 0.02986085 0.049652006 -0.08390507 -0.065624274 -0.04918722 -0.05036972
-0.059106246 -0.027301058 0.0794229 -0.01174821 0.014569648 -0.00992945 -0.059054025 -0.042938754
-0.0063557713 0.011998348 -0.015644973 -0.0015910194 -0.002044212 -0.002126795 -0.0022115563 -0.0027862622
-0.0017146097 -0.0013842995 -0.00072194636 -0.0004770056 -0.002065674 -0.0020385017 -0.0022067048 -0.0020040623
00000000: b186 00bd fa75 20bd 9802 40bc e69c b1bd
00000010: 07f0 bdbc a8c7 5cbd 7f01 8ebd 25d8 c6bd
00000020: c69c 4fbd 52d6 56bc 2f07 90bd 7708 09bd
00000030: 7c4c 40bd 6b3b 45bd 31c4 19bd dfdc cabb
00000040: 8266 5fbd 6cd6 febc cc5d c7bb 879b d9bc
00000050: 54fa c8bb 3330 b7bc 3410 15bd 2507 b4bc
00000060: 9e41 14bd c141 bbbc 5116 2dbd 54a4 5dbd
00000070: b254 94bd 7cbd 22bd b95a 69bd 7c4a f6bc
00000080: 9113 8a3b ecdb c0bd 00ce 93bd 885b 37bc
00000090: 7c99 62bd 0bb1 ebbc a88e 2abd 1ab4 b9bd
000000a0: a85c 76bd f4da 97bc b7c1 6cbd 4953 a1bd
000000b0: e246 81bd fda7 a4bd 9ec4 d8bd cf2e 2ebe
000000c0: 9667 20bd 5c00 31b9 e22e 1f3d 5881 cd38
000000d0: 4836 e9bc d22c 08bd f2e0 e5bd e4f9 47be
000000e0: 26bc 5fbd 8308 99bc 35a2 84bc 6745 04bd
000000f0: 39df 9fbd ab63 0abd 61a3 5fbd c6c4 9a3d
00000100: 328b ee3d f8f3 9a3d 49d5 c03b 5c1b 4cbd
00000110: 8471 47bb e3e0 58bc 7463 4b3c b79b 0fbd
00000120: f10e 863d 2882 a6bd d288 6c3c 7801 543b
00000130: af81 5ebd 414c 9cbd 9e2c 62bd 14ae 903c
00000140: 692c abbc a84c 65bd 3cda 41bd fbfc 72bc
00000150: 84fd d4bc 30ba 19bd 5507 f43c e7e3 9d3a
00000160: 8343 9ebd 3ea9 bbbc e0ab debc 4e68 c8bc
00000170: 7ded efbc 8354 b43c 49b1 31bd 932c a43b
00000180: 6147 0e3d c18e 22bc 0234 c0bc ad15 dfbc
00000190: 2cfc ec3c e02e a1ba c2a7 51bc 8453 a43a
000001a0: a258 fa3a c98c e73b b3b3 16bc b786 0a3d
000001b0: 5046 d73b b4c8 0a3d 5c74 153d 9aa4 8c3d
000001c0: 6004 a23d 0960 843c 08ae 31bd a36d e23c
000001d0: 19fe 0dbd d615 e1bc 5ad5 e0bb d519 373b
000001e0: f5d2 753d 70b5 6f3c b293 813d 859c 173d
000001f0: 6afd cc3c b0b7 b13c 9b0c cc3d 68a4 e23b
00000200: d65d 823d 23ad aa3b c88f cb3d b087 113d
00000210: 502c 8abc c3f4 e63c a786 a6bc dc6f ea3c
00000220: fa21 843d 7e53 9f3d 4400 113d b74b f93c
00000230: df55 583c 9453 813c 9f53 debc 4a68 b6bc
00000240: 708c 49be b182 97bb a311 9d3c 0cd9 033d
00000250: 8705 d93c 1d84 f03b 8355 7bbb dc2d 1cbb
00000260: e012 19bd 178b a23c 7c69 c53d a070 bebb
00000270: 07ef c1bc 57db 0a3c 05c1 3c3c 7904 853d
00000280: 8279 563d f271 46bc 4ae7 34bd fd14 423b
00000290: 377d 2ebd 57d4 5ebd a8c2 43bd c1e5 d5bd
000002a0: d201 283c fa0e 81bd 6a7c 51bd add3 0fbd
000002b0: 8340 e9bb 3b01 3fbd 66ae ffbb 95ce ebbc
000002c0: 423d d0bc 578b 4ebd 5e09 803c d484 31bd
000002d0: a9bd 69bd 0cbe 43bd 6425 12bd 28fd 37bd
000002e0: c17d 54bc 0d59 cc3c 647f 20bd d80e bdbd
000002f0: 9e00 8bbd e7d9 bdbd 0bd3 1dbd f0c4 b3bc
00000300: 8899 37bd 383e 96bd 539c 9ebd 711d a6bb
00000310: 4147 89bd 7983 77bd 7748 42bd 8a89 2bbd
00000320: 218e 8cbc a3af d8bc e65a 82bd d1be 90bd
00000330: e1af 11bd 5d08 12bd ce33 07b9 c010 013d
00000340: debb 8ebd 07d0 3a3d d20e 56bd 88f0 8bbd
00000350: 96c7 e3bd 2be3 a1bd 1fc7 31bd 47e0 0ebd
00000360: bfcd a0bd 77ed 0d3d b36f ecbd c749 78bd
00000370: 3ecb 25bd cfea 88bd 6c31 7fbd 37a0 0cbd
00000380: e7ce d7bc f16d d5be be9e f43c e75f 4b3d
00000390: 6cd6 abbd 0566 86bd 8a78 49bd 7b50 4ebd
000003a0: 6419 72bd 78a6 dfbc 79a8 a23d 907b 40bc
000003b0: 88b5 6e3c 22af 22bc a2e2 71bd 8ce0 2fbd
000003c0: 1344 d0bb b894 443c e329 80bc c189 d0ba
000003d0: 30f8 05bb b361 0bbb c2ef 10bb b999 36bb
000003e0: c1bc e0ba 6271 b5ba 0041 3dba 9c16 fab9
000003f0: 4260 07bb 6298 05bb 5d9e 10bb 9656 03bb

act_fc1.bias f4 [81]
0.02172645 -0.06569936 -0.13477036 -0.050373014 -0.050359346 -0.07374936 -0.14613251 -0.05254489
0.026604682 -0.048801854 0.006891334 -0.119499 0.070876665 0.012919623 0.1075332 -0.09823833
-0.053897962 -0.02937426 -0.15742211 -0.106494226 0.18493453 0.06841233 0.11013766 0.03329857
0.1163628 -0.15136927 -0.10460984 -0.039932396 0.09171962 0.039366115 0.012127053 0.038607605
-0.0043179304 0.006467028 0.07407824 -0.0533894 -0.017779883 -0.01582054 0.14740105 0.0113726
-0.035698008 0.04646483 0.115565285 -0.03439268 -0.004727194 -0.03966085 0.08839985 -0.003981347
0.016465627 0.062605575 -0.008718485 0.031957366 0.035161454 -0.055873156 -0.11504758 -0.10585744
0.18453452 0.042318236 0.15899353 0.07549426 0.22861187 -0.08661713 -0.08896254 -0.060712185
0.014398967 -0.12149671 0.07391689 -0.002665858 0.08210696 -0.10637987 0.020109797 -0.035939317
0.012281208 -0.023438673 -0.12845173 -0.06595621 -0.023332138 -0.08546413 -0.06784471 -0.036871154
0.019832557
00000000: abfb b13c 638d 86bd 3e01 0abe ef53 4ebd
00000010: 9a45 4ebd e809 97bd c3a3 15be 5039 57bd
00000020: 10f2 d93c 74e4 47bd b3d0 e13b e4bb f4bd
00000030: c927 913d d4ac 533c 5e3a dc3d 2d31 c9bd
00000040: 1cc4 5cbd 4aa2 f0bc 4333 21be a519 dabd
00000050: 7a5f 3d3e c31b 8c3d da8f e13d 1564 083d
00000060: 9f4f ee3d 8c00 1bbe af3d d6bd 2790 23bd
00000070: 7fd7 bb3d 5d3e 213d 8cb0 463c 0223 1e3d
00000080: 6d7d 8dbb 5de9 d33b 55b6 973d d8ae 5abd
00000090: 1ea7 91bc 149a 81bc 4df0 163e 2454 3a3c
000000a0: 1338 12bd e851 3e3d 7ead ec3d 57df 0cbd
000000b0: 94e6 9abb 6a73 22bd fb0a b53d f675 82bb
000000c0: ece2 863c 5a37 803d fad7 0ebc bae5 023d
000000d0: 7505 103d 40db 64bd 119e ebbd c9cb d8bd
000000e0: 9ef6 3c3e e355 2d3d 33cf 223e bc9c 9a3d
000000f0: 3b19 6a3e 5264 b1bd fe31 b6bd 57ad 78bd
00000100: a5e9 6b3c 44d3 f8bd bd61 973d adb5 2ebb
00000110: b227 a83d b0dd d9bd 4dbd a43c 1b35 13bd
00000120: 1f37 493c 7602 c0bc da88 03be 0d14 87bd
00000130: 0a23 bfbc d107 afbd 2bf2 8abd 3506 17bd
00000140: e377 a23c

val_conv1.weight f4 [2, 128, 1, 1]
0.23854347 -0.12889798 -0.13856879 0.04424894 0.29806536 -0.037386082 0.0022085207 0.19727646
0.1743149 0.24280778 -0.3007661 -0.033787075 -0.3433321 0.040519703 0.3839956 -0.041353088
-0.13801451 0.07902718 0.013441309 0.002880723 -0.15383963 -0.16027665 0.06424777 0.033857834
0.029044323 -0.30527076 0.0046256282 0.08274829 0.03281037 -0.057753917 -0.013502904 0.12159551
0.0041062054 0.073917 0.0009562954 -0.0007123102 0.07445151 0.00040745854 0.16179523 -1.067324e-18
-0.18136586 0.14161648 0.0066589615 0.03546083 -0.071892954 0.046259634 -0.30073926 0.04138577
-0.020057999 -0.22770604 -0.11691787 0.008656108 -0.083444364 0.017289924 0.2641515 0.15060325
0.12783696 0.25105038 0.021881418 0.096495114 0.24148132 0.01593715 -0.25672856 -0.0307851
0.03978042 0.017883295 0.0418828 0.06028564 0.19883028 0.036284544 -0.15727459 -0.042474415
-0.24212286 0.16172339 -0.019798195 0.3791558 -0.141208 -0.034325425 0.067432374 0.23869011
0.041648 0.13227849 -0.24434909 0.11218292 0.12966031 0.029706016 0.008318249 -0.028112754
0.012792635 -0.18179445 -0.047564775 0.023876684 0.055439085 -0.22782439 0.039100405 0.004233644
0.12788361 0.017689446 0.10082486 0.002320164 0.070911564 0.0073279804 -0.037950523 0.011228062
-0.031426128 0.0056033055 0.071760006 0.029566959 -0.05789219 0.007988307 0.10461512 0.08596541
-0.15735355 0.05105325 0.034257527 0.007923433 0.007368936 0.22543636 0.0742866 0.23082784
-0.007732421 -0.33351752 0.037414845 -0.0016143227 0.2199652 0.06507066 0.049111944 0.11982292
0.15566237 -0.14147978 0.13283259 -0.40351638 0.23574595 -0.19352113 0.15287152 -0.31719896
-0.088168554 0.049204815 0.41245866 -0.41177517 0.22815613 0.049588162 -0.11111428 0.2135278
0.3419174 -0.06938448 0.01914837 -0.0033901238 0.14152768 -0.10371956 -0.14763941 -0.3177684
-0.07615419 0.0055756834 0.1603198 -0.34157422 0.2705443 -0.3574424 -0.4463655 0.11678109
0.03680397 -0.28014618 -0.00019272244 -0.0024053664 0.060945045 -0.0018980745 -0.22522677 -9.8345845e-06
0.43849146 -0.25172427 0.26942167 0.021889636 -0.007428961 0.114974774 0.20948948 0.14441225
-0.042076536 0.25829756 -0.029899256 -0.026229747 0.18921626 -0.4013025 0.3310183 -0.109275915
-0.029189836 -0.16632816 -0.03630464 -0.3828761 0.5098634 0.3551656 -0.14216362 -0.034998108
-0.16516279 0.25193664 -0.022237131 0.359457 0.16081117 -0.33036923 0.22961503 -0.1707145
-0.20988315 -0.21958543 -0.4763677 0.28867155 0.33175203 0.025876919 0.15774158 -0.42341492
0.16869509 -0.04545828 0.016077695 -0.097996205 -0.37277514 0.011379366 -0.10490531 0.1500603
0.016317656 0.15526359 -0.042605825 0.19891696 0.19158047 -0.07496486 0.04955446 0.47947106
0.2206282 0.02790526 -0.15204598 0.0040430874 -0.35225502 0.02888952 0.08959952 -0.052574147
0.46350828 -0.36149725 0.036473233 -0.035661384 -0.0896001 -0.007373395 -0.21791194 -0.15830067
-0.16063075 -0.052101668 0.22260468 0.03260496 0.009374498 0.26570278 0.4085414 -0.37731296
0.0065576117 0.15729186 -0.3355506 -0.004917032 -0.33373544 -0.38832685 0.35738924 0.029781763
00000000: bd44 743e d5fd 03be fae4 0dbe 603e 353d
00000010: 069c 983e 2622 19bd d4bc 103b d702 4a3e
00000020: 9b7f 323e 9aa2 783e 04fe 99be 5164 0abd
00000030: 3ac9 afbe fdf7 253d 129b c43e db61 29bd
00000040: ad53 0dbe 01d9 a13d f038 5c3c 83ca 3c3b
00000050: 2388 1dbe 901f 24be 5694 833d 83ae 0a3d
00000060: 5cee ed3c 734c 9cbe 9592 973b ef77 a93d
00000070: 2b64 063d 5f8f 6cbd 493b 5dbc 1107 f93d
00000080: 598d 863b cc61 973d e6af 7a3a 54ba 3aba
00000090: 097a 983d 29a0 d539 a6ad 253e 5c82 9da1
000000a0: f9b7 39be e903 113e 6b33 da3b 603f 113d
000000b0: 9d3c 93bd be7a 3d3d 7ffa 99be 2084 293d
000000c0: ac50 a4bc c62b 69be a372 efbd 59d2 0d3c
000000d0: e1e4 aabd 99a3 8d3c de3e 873e bd37 1a3e
000000e0: b1e7 023e ad89 803e a940 b33c 3b9f c53d
000000f0: e146 773e a08e 823c ed71 83be 0931 fcbc
00000100: cbf0 223d fd7f 923c 4d8d 2b3d 13ee 763d
00000110: 2a9a 4b3e 1a9f 143d 970c 21be a7f9 2dbd
00000120: 0eef 77be d19a 253e d32f a2bc b620 c23e
00000130: d498 10be d198 0cbd fc19 8a3d 2e6b 743e
00000140: 1897 2a3d 0374 073e a636 7abe 29c0 e53d
00000150: acc5 043e 085a f33c 4449 083c b84c e6bc
00000160: 3398 513c 5328 3abe 48d3 42bd 0999 c33c
00000170: 1814 633d cc4a 69be bf27 203d 61ba 8a3b
00000180: ecf3 023e 75e9 903c 447d ce3d e50d 183b
00000190: 153a 913d 8e1f f03b 0272 1bbd e8f5 373c
000001a0: afb8 00bd ef9b b73b e9f6 923d 6836 f23c
000001b0: 5c20 6dbd 63e1 023c 7440 d63d a20e b03d
000001c0: 4a21 21be 361d 513d 9f51 0c3d 49d1 013c
000001d0: 1e77 f13b cad8 663e 9323 983d 225e 6c3e
000001e0: 4060 fdbb cfc2 aabe 4f40 193d ae97 d3ba
000001f0: 8f3e 613e c443 853d 9b29 493d b865 f53d
00000200: f565 1f3e 13e0 10be 4405 083e b399 cebe
00000210: 6367 713e 672a 46be 5a8a 1c3e e767 a2be
00000220: b791 b4bd fd8a 493d c82d d33e 32d4 d2be
00000230: c3a1 693e f51c 4b3d e28f e3bd 08a7 5a3e
00000240: cc0f af3e 7319 8ebd 0bdd 9c3c d72c 5ebb
00000250: a2ec 103e ec6a d4bd c92e 17be 8ab2 a2be
00000260: baf6 9bbd 39b4 b63b e02a 243e d1e2 aebe
00000270: c884 8a3e b102 b7be 058a e4be ed2a ef3d
00000280: c2bf 163d 526f 8fbe 8915 4ab9 5aa3 1dbb
00000290: 83a1 793d d0c8 f8ba d9a1 66be 38ff 24b7
000002a0: f481 e03e 01e2 80be a3f1 893e e551 b33c
000002b0: a46e f3bb e577 eb3d 6984 563e cee0 133e
000002c0: 7258 2cbd 943f 843e 49ef f4bc c4df d6bc
000002d0: e8c1 413e 8577 cdbe 3b7b a93e 0dcc dfbd
000002e0: 861f efbc ee51 2abe 2db4 14bd 5608 c4be
000002f0: 6886 023f 44d8 b53e 5793 11be 2d5a 0fbd
00000300: 6f20 29be d7fd 803e a52a b6bc bf0a b83e
00000310: afab 243e 2826 a9be 3420 6b3e c8cf 2ebe
00000320: 9ceb 56be 01db 60be 78e6 f3be c2cc 933e
00000330: 67db a93e d5fb d33c 0287 213e d7c9 d8be
00000340: 68be 2c3e 7632 3abd 5fb5 833c 3cb2 c8bd
00000350: 62dc bebe 8570 3a3c 98d8 d6bd 68a9 193e
00000360: 9bac 853c 6bfd 1e3e 7283 2ebd e3b0 4b3e
00000370: ac2d 443e 2d87 99bd 9ef9 4a3d 3b7d f53e
00000380: 5cec 613e 9299 e43c f1b1 1bbe e07b 843b
00000390: c55a b4be b7a9 ec3c f47f b73d fd57 57bd
000003a0: f550 ed3e 2b16 b9be f564 153d ac11 12bd
000003b0: 4280 b7bd 859c f1bb 4f24 5fbe 9219 22be
000003c0: 637c 24be 8f68 55bd 7bf2 633e c78c 053d
000003d0: 7f97 193c 320a 883e 572c d13e 2a2f c1be
000003e0: 3ce1 d63b 1e11 213e 4acd abbe 0e1f a1bb
000003f0: 5fdf aabe c7d2 c6be b9fb b63e e2f8 f33c

val_conv1.bias f4 [2]
0.012521791 0.03724669
00000000: 3328 4d3c fc8f 183d
