current_policy.model (torch, 529587 bytes, 15 tensors)

conv1.weight f4 [32, 4, 3, 3]
0.51971716 -0.01124009 -0.05641367 -0.11558112 0.086495556 -0.06675745 0.33764353 -0.17140295
0.040196303 0.18428272 -0.29150432 -0.10208516 -0.26181066 0.033638224 0.13284248 -0.122947276
0.3083687 -0.19734807 -0.000268207 0.08095465 0.11588541 0.13021024 0.071909875 -0.0486665
0.04283589 -0.007970955 0.005224544 -0.14876942 -0.13897489 0.15064363 -0.069442816 0.035375718
0.0006385067 -0.2292062 0.15954271 0.12930724 -0.37053084 -0.00051637186 0.012929017 -0.19774982
-0.04332927 -0.3306361 -0.30969828 0.15516487 -0.1034535 -0.23964831 -0.11437613 -0.10988964
-0.13106711 0.17947121 -0.4071355 -0.29033703 0.033515684 -0.16870214 0.051075812 0.042060375
0.055282 0.119855955 -0.019131964 -0.10011873 0.008524178 -0.07039013 0.07334464 -0.09640718
-0.09912221 -0.104230106 -0.009579713 0.22753961 0.17835043 0.17119183 0.071442656 0.22631243
0.17018315 -0.0633843 -0.25739747 0.15833779 0.23480059 0.19552863 0.15608025 -0.094400786
-0.18114927 -0.42111644 0.15872665 0.24782573 -0.36473754 0.29258993 -0.17139278 -0.17315109
-0.11280988 0.14679843 0.009112767 -0.070786074 -0.035132438 0.05781169 0.1661159 0.12563173
-0.018848684 0.05226985 0.011630081 0.12613378 -0.18264769 0.03379585 0.14110973 0.10710546
0.06699623 -0.09359807 -0.06692686 -0.09943753 -0.19995493 -0.13946228 -0.040466707 -0.10941802
-0.20965737 -0.11061163 -0.13059694 -0.2944857 0.22210684 0.02783832 0.34298587 0.05198639
0.018423447 0.4835967 0.31954008 -0.087904036 0.32699513 -0.2796744 0.023095315 -0.015223947
0.040737685 -0.04060926 -0.052153796 -0.029333362 -0.024531849 -0.002447493 -0.1493983 0.1238842
0.08504908 0.1289028 0.028767321 -0.032091126 0.194327 -0.10237227 -0.12290591 -0.1491355
-0.18036254 -0.28820375 -0.107586436 0.18664221 -0.1675096 0.14405373 -0.051921744 0.14295429
0.14578189 -0.20489572 0.03511704 -0.21260218 0.06772406 0.30163562 0.30450106 0.050751142
0.35779485 -0.15394147 0.09903676 0.07751017 -0.008599484 -0.058549523 -0.04649468 -0.18138511
0.0026684855 -0.12663837 0.17917387 -0.19192769 -0.085448645 -0.061130386 -0.23985066 -0.056223504
0.07803063 -0.23668635 -0.01071229 0.10517312 0.51813316 0.18346281 0.40629077 -0.08345238
0.3199271 0.23118338 0.28504336 0.34822217 0.38198957 -0.26174864 -0.09691799 -0.18629803
-0.002512507 -0.06749427 -0.0008758649 -0.037112705 0.0021506061 -0.12285968 0.10603166 0.04229263
0.14832732 0.055520955 0.16064847 0.03953239 0.09174247 0.05588953 0.09989779 0.04972864
0.11373763 -0.12898645 0.038056914 0.001231153 -0.08260758 -0.074400336 -0.072408214 0.16461556
0.16644078 0.15743358 -0.41619897 -0.040438067 -0.05716374 0.03395415 0.35066268 -0.06412753
-0.03817472 0.015272981 -0.11490648 0.48853564 -0.26710615 0.08048222 -0.053773146 0.41172633
-0.09091636 0.057574477 -0.16947716 0.020686213 -0.021885961 -0.095678784 0.005094624 0.034941636
-0.039488733 0.03163151 -0.12951206 -0.17444031 -0.05695159 -0.10345103 0.071966775 -0.14647442
-0.010921237 0.084127575 -0.07642348 0.018169323 -0.17766939 0.24281712 -0.096029244 0.093668275
00000000: 2f0c 053f 5b28 38bc 0512 67bd cbb5 ecbd
00000010: 9524 b13d 21b8 88bd 9ddf ac3e 4184 2fbe
00000020: e1a4 243d 9cb4 3c3e 0e40 95be 0612 d1bd
00000030: 0c0c 86be 3cc8 093d dc07 083e c8cb fbbd
00000040: 81e2 9d3e 9d15 4abe 229e 8cb9 8dcb a53d
00000050: 5455 ed3d d555 053e 7c45 933d 8656 47bd
00000060: b074 2f3d 9c98 02bc a732 ab3b 0357 18be
00000070: 6f4f 0ebe 5342 1a3e 0938 8ebd 21e6 103d
00000080: 7661 273a 08b5 6abe 2a5f 233e 1e69 043e
00000090: 38b6 bdbe 215d 07ba 3ad4 533c ee7e 4abe
000000a0: 087a 31bd 2349 a9be c690 9ebe 8ae3 1e3e
000000b0: 6edf d3bd 5e66 75be 083e eabd d20d e1bd
000000c0: 7536 06be 4dc7 373e 1074 d0be 0ea7 94be
000000d0: be47 093d 41c0 2cbe df34 513d 8047 2c3d
000000e0: 616f 623d 0a77 f53d a3ba 9cbc 0c0b cdbd
000000f0: fea8 0b3c b328 90bd b735 963d 2171 c5bd
00000100: 9600 cbbd 9876 d5bd 3bf4 1cbc 2500 693e
00000110: 7fa1 363e e94c 2f3e 8750 923d 72be 673e
00000120: 7e44 2e3e a1cf 81bd 9ac9 83be 4d23 223e
00000130: 916f 703e a838 483e 80d3 1f3e 3355 c1bd
00000140: 327f 39be 939c d7be 3d89 223e 07c6 7d3e
00000150: e1be babe 59ce 953e 9781 2fbe 854e 31be
00000160: de08 e7bd 5452 163e b74d 153c 4af8 90bd
00000170: 08e7 0fbd f3cb 6c3d 491a 2a3e 9ba5 003e
00000180: 8e68 9abc e918 563d 188c 3e3c 3729 013e
00000190: ff07 3bbe 846d 0a3d 127f 103e 1b5a db3d
000001a0: 5235 893d 58b0 bfbd f310 89bd e7a5 cbbd
000001b0: fcc0 4cbe 33cf 0ebe 6bc0 25bd 8e16 e0bd
000001c0: 6cb0 56be 5a88 e2bd 34bb 05be d4c6 96be
000001d0: fa6f 633e 300d e43c d89b af3e aeef 543d
000001e0: c5ec 963c fd99 f73e c29a a33e 0807 b4bd
000001f0: e86b a73e 7c31 8fbe 6332 bd3c dd6d 79bc
00000200: 8fdc 263d e555 26bd 389f 55bd 854c f0bc
00000210: 04f7 c8bc 1e66 20bb defb 18be 00b7 fd3d
00000220: 362e ae3d 18ff 033e 72a9 eb3c fc71 03bd
00000230: a8fd 463e 8da8 d1bd 18b6 fbbd fab6 18be
00000240: f5b0 38be 718f 93be 4756 dcbd 231f 3f3e
00000250: a387 2bbe d282 133e e5ab 54bd 9c62 123e
00000260: d947 153e 2fd0 51be e3d6 0f3d 63b4 59be
00000270: e9b2 8a3d fc6f 9a3e 90e7 9b3e 6ee0 4f3d
00000280: e330 b73e d5a2 1dbe c9d3 ca3d a7bd 9e3d
00000290: dae4 0cbc a0d1 6fbd 3571 3ebd 05bd 39be
000002a0: c2e1 2e3b 7dad 01be 5b79 373e b188 44be
000002b0: b3ff aebd db63 7abd 699b 75be 9e4a 66bd
000002c0: 86ce 9f3d e85d 72be 9a82 2fbc 0165 d73d
000002d0: 60a4 043f addd 3b3e 5805 d03e 15e9 aabd
000002e0: 7ccd a33e 56bb 6c3e 34f1 913e 2d4a b23e
000002f0: 2394 c33e eb03 86be f07c c6bd e9c4 3ebe
00000300: dfa8 24bb 703a 8abd 4c9a 65ba 7e03 18bd
00000310: 2ff1 0c3b db9d fbbd 2127 d93d 093b 2d3d
00000320: 1ee3 173e f169 633d 0881 243e b7ec 213d
00000330: 7ae3 bb3d 6bec 643d 3697 cc3d 42b0 4b3d
00000340: 46ef e83d 0615 04be 91e1 1b3d a45e a13a
00000350: 2a2e a9bd 345f 98bd c24a 94bd fb90 283e
00000360: 746f 2a3e 4536 213e 0818 d5be 63a2 25bd
00000370: 8724 6abd 8213 0b3d 0f8a b33e 4b55 83bd
00000380: 185d 1cbd 863b 7a3c 1754 ebbd 5821 fa3e
00000390: 23c2 88be ddd3 a43d 3b41 5cbd cbcd d23e
000003a0: 5b32 babd 37d3 6b3d 6c8b 2dbe 2276 a93c
000003b0: 304a b3bc 3df3 c3bd cef0 a63b f61e 0f3d
000003c0: f0be 21bd 0b90 013d cf9e 04be 7ba0 32be
000003d0: 1246 69bd 22de d3bd 5163 933d 64fd 15be
000003e0: fdee 32bc 144b ac3d ea83 9cbd d5d7 943c
000003f0: f7ee 35be 0da5 783e fbaa c4bd 27d5 bf3d

conv1.bias f4 [32]
0.1008825 -0.04408218 0.13222912 0.04703792 0.08179701 -0.1361244 0.2199436 -0.15082052
-0.19028105 0.19447367 0.1078022 -0.09909688 0.06547626 0.05623814 -0.0006938145 0.1680971
0.04226972 0.068124026 -0.10208844 0.07973797 -0.19712634 -0.07811196 0.024745448 0.11181483
0.15102887 0.27640465 0.10462785 0.16565911 0.0875737 -0.18708692 -0.04419984 -0.20038006
00000000: 7c9b ce3d 848f 34bd 1267 073e d6aa 403d
00000010: 3185 a73d 3264 0bbe e538 613e b270 1abe
00000020: 09d9 42be 1b24 473e 66c7 dc3d 4ef3 cabd
00000030: 6b18 863d f759 663d 1ae1 35ba a521 2c3e
00000040: 0423 2d3d 9c84 8b3d be13 d1bd a94d a33d
00000050: 7ddb 49be 2af9 9fbd f7b6 ca3c 2cff e43d
00000060: 50a7 1a3e e984 8d3e 2047 d63d 8ba2 293e
00000070: d759 b33d b793 3fbe e40a 35bd 6e30 4dbe

conv2.weight f4 [64, 32, 3, 3]
-0.07025261 -0.044418845 -0.11105401 -0.06534311 0.07263799 0.10328342 -0.09113572 -0.17410204
-0.0022650908 -0.2117112 -0.009509159 -0.097811066 0.055840142 0.14258619 0.08301015 -0.048077572
-0.13287444 -0.03403523 -0.15912272 0.11842827 -0.068881586 0.12167265 0.13041735 -0.104077145
-0.054611463 0.20305629 0.022365633 0.33934432 -0.05637113 -0.16005611 -0.1449238 -0.022150816
-0.06560587 -0.072865434 0.18494385 0.08589107 0.018308528 0.053180978 -0.10556754 -0.056574
-0.0060771336 0.15432023 -0.109618224 -0.14892109 -0.016357971 0.07217074 0.1364287 0.12635735
0.16584481 0.036226645 0.026317146 0.23991919 0.1576459 0.034896217 0.025026683 -0.16658577
-0.0068971096 -0.010287481 0.16089731 0.00016269523 -0.18240401 -0.24552126 -0.03231911 0.0076343277
-0.10261941 -0.012137573 0.17297435 0.02018873 0.0028230005 -0.03948821 -0.1012738 -0.076257534
0.0071779215 0.0696243 0.051713616 -0.028118312 -0.0060530594 -0.14051406 0.061831005 -0.05860831
0.014212486 -0.01778071 0.038246438 0.14119877 0.03491379 0.09073057 -0.021484211 -0.112518914
-0.0780103 -0.019444026 -0.05313094 -0.040818963 -0.091841124 -0.0010871596 0.13077624 -0.067358695
-0.15125746 -0.119119115 0.20670673 -0.025494134 -0.1655257 0.024495067 -0.17166333 0.07295775
0.14937826 -0.08531772 -0.19968928 0.12005661 0.12176726 0.10251747 0.3340809 -0.18676835
0.086524904 -0.025621753 -0.08646982 -0.08830382 -0.052629888 0.01112364 0.2146689 -0.019279294
0.034957968 -0.12146587 -0.0755439 -0.035072193 0.009617531 -0.20105676 -0.2906815 -0.17188086
-0.004882466 -0.04834019 -0.07339481 0.06524158 -0.023937186 0.10828364 -0.024631666 0.030284038
-0.16112715 -0.011407617 -0.16137896 -0.07331148 -0.36528718 0.04790309 0.15683827 -0.018037643
-0.04344381 -0.1889345 -0.0071247546 -0.09678883 0.010488907 0.10398656 -0.28078473 0.017036993
-0.20779587 -0.15786496 -0.09514426 0.090330474 0.10856349 0.049302105 0.023011452 0.10683881
0.027386984 0.104461804 0.04141904 -0.06889647 -0.036035165 0.32699013 0.15491882 0.19483992
0.18846522 -0.11869763 -0.11679845 -0.086699106 -0.060774557 -0.08986762 -0.22547056 -0.09417228
-0.14371406 0.22191939 0.067904085 0.08948356 0.07617681 -0.20959581 -0.04584634 -0.033788826
0.03296357 0.001561157 0.103527196 0.2006932 0.18301463 -0.10408725 -0.2244412 -0.01796284
0.1287217 0.10933097 -0.066619046 -0.2019075 -0.06487726 -0.10581289 -0.01565258 0.09959239
-0.017047534 0.121865205 0.020756485 0.07910267 -0.073452435 0.10817194 -0.010898701 0.12676233
-0.085427895 0.13790016 -0.014076753 -0.09211143 0.0050529446 -0.093724474 -0.14724621 -0.1366479
0.09854831 -0.09169955 -0.017401375 0.16026756 -0.08101663 0.057869446 0.14174327 -0.17331083
-0.026596596 -0.30686727 -0.17998566 -0.072414055 -0.04715733 -0.07248176 -0.2057762 0.12940179
0.004392038 -0.032745127 0.03835312 -0.18126722 0.08277318 -0.34117046 -0.09118232 -0.04306337
-0.14020866 -0.0053190175 0.010841975 -0.1516247 -0.043681383 0.062988535 0.051971257 0.014104167
-0.17640878 0.07904829 -0.029202377 -0.00484917 0.043186482 -0.16738206 0.09714499 -0.017461717
00000000: 9ae0 8fbd 89f0 35bd 4970 e3bd 9cd2 85bd
00000010: 3ac3 943d 4286 d33d 5da5 babd ce47 32be
00000020: eb71 14bb d2ca 58be 4ecc 1bbc 2b51 c8bd
00000030: a2b8 643d 1d02 123e 3a01 aa3d fdec 44bd
00000040: 3d10 08be 8668 0bbd 11f1 22be 858a f23d
00000050: ca11 8dbd 832f f93d 208c 053e 6626 d5bd
00000060: 45b0 5fbd fded 4f3e 2238 b73c 8abe ad3e
00000070: 6ae5 66bd c0e5 23be e866 14be a175 b5bc
00000080: 5f5c 86bd 793a 95bd ec61 3d3e a8e7 af3d
00000090: c4fb 953c 4cd4 593d cb33 d8bd 23ba 67bd
000000a0: b122 c7bb 1f06 1e3e 857f e0bd c57e 18be
000000b0: 2701 86bc 41ce 933d f7b3 0b3e d263 013e
000000c0: 39d3 293e 6462 143d 0e97 d73c 60ad 753e
000000d0: ed6d 213e 56ef 0e3d c204 cd3c 7695 2abe
000000e0: 2601 e2bb d38c 28bc 44c2 243e 2b99 2a39
000000f0: 1ec8 3abe ed69 7bbe 0b61 04bd 6229 fa3b
00000100: 202a d2bd acdc 46bc 3020 313e d662 a53c
00000110: 1702 393b 64be 21bd a368 cfbd e92c 9cbd
00000120: c534 eb3b 2f97 8e3d a8d1 533d 6058 e6bc
00000130: be58 c6bb ebe2 0fbe 8242 7d3d 440f 70bd
00000140: 7ddb 683c daa8 91bc 4ca8 1c3d 6996 103e
00000150: c301 0f3d f3d0 b93d a8ff afbc 5170 e6bd
00000160: ddc3 9fbd 1449 9fbc d49f 59bd c931 27bd
00000170: 3317 bcbd 067f 8eba 35ea 053e 5bf3 89bd
00000180: 3ce3 1abe b9f4 f3bd eeaa 533e 13d9 d0bc
00000190: 927f 29be e1a9 c83c 83c8 2fbe df6a 953d
000001a0: 9df6 183e 0fbb aebd 597b 4cbe 3de0 f53d
000001b0: 1d61 f93d aef4 d13d a70c ab3e 3440 3fbe
000001c0: f833 b13d b6e4 d1bc 1717 b1bd a2d8 b4bd
000001d0: 7092 57bd ee3f 363c 2ad2 5b3e 9cef 9dbc
000001e0: 1630 0f3d 19c3 f8bd c3b6 9abd dca7 0fbd
000001f0: d992 1d3c d3e1 4dbe 35d4 94be 8901 30be
00000200: 18fd 9fbb 5d00 46bd 0550 96bd 619d 853d
00000210: eb17 c4bc d0c3 dd3d 59c8 c9bc 3b16 f83c
00000220: 84fe 24be 03e7 3abc 8740 25be 5424 96bd
00000230: ec06 bbbe 0836 443d 369a 203e aec3 93bc
00000240: 23f2 31bd 0c78 41be c676 e9bb 3939 c6bd
00000250: aad9 2b3c e8f6 d43d 04c3 8fbe 2a91 8b3c
00000260: 71c8 54be 5aa7 21be feda c2bd 2fff b83d
00000270: 8956 de3d 01f1 493d 8382 bc3c 4ece da3d
00000280: ab5a e03c 12f0 d53d 03a7 293d 9819 8dbd
00000290: 9c99 13bd 406b a73e 0aa3 1e3e 1e84 473e
000002a0: 07fd 403e be17 f3bd 0734 efbd 4d8f b1bd
000002b0: beee 78bd 840c b8bd c1e1 66be 65dd c0bd
000002c0: c729 13be d63e 633e 4c11 8b3d 2843 b73d
000002d0: 9602 9c3d 49a0 56be 5fc9 3bbd 2766 0abd
000002e0: cf04 073d bd9f cc3a 1106 d43d 8582 4d3e
000002f0: 3068 3b3e b22b d5bd ead3 65be ce26 93bc
00000300: 9fcf 033e eae8 df3d 916f 88bd d7c0 4ebe
00000310: 5ede 84bd 6eb4 d8bd d739 80bc 18f7 cb3d
00000320: 45a7 8bbc 7794 f93d 8109 aa3c 9500 a23d
00000330: 3b6e 96bd 4089 dd3d 7790 32bc fccd 013e
00000340: d2f4 aebd b335 0d3e 2ea2 66bc eba4 bcbd
00000350: 2c93 a53b 9ef2 bfbd b6c7 16be 6ded 0bbe
00000360: b2d3 c93d f9cc bbbd 548d 8ebc 2e1d 243e
00000370: 0cec a5bd 8308 6d3d 2625 113e 6578 31be
00000380: 1be1 d9bc b51d 9dbe 294e 38be d24d 94bd
00000390: 0b28 41bd 5171 94bd ffb6 52be e781 043e
000003a0: 16eb 8f3b c11f 06bd 2918 1d3d 1d9e 39be
000003b0: fc84 a93d e5ad aebe ccbd babd 3763 30bd
000003c0: dc92 0fbe 274b aebb 8aa2 313c 8143 1bbe
000003d0: 40eb 32bd 2200 813d d0df 543d 2a15 673c
000003e0: 81a4 34be 12e4 a13d d339 efbc c9e5 9ebb
000003f0: 4fe4 303d 3466 2bbe f4f3 c63d e00b 8fbc

conv2.bias f4 [64]
-0.04427391 0.033332482 -0.06198653 -0.0748459 -0.014286355 0.12202396 0.036260094 0.0125945285
0.016782898 -0.071376175 -0.04852281 -0.0093856305 0.0672128 -0.0149810705 0.07838875 -0.009519055
-0.0859793 -0.058481574 -0.0076587433 0.054865327 0.029998785 0.03800953 -0.13215773 0.10706642
-0.13808274 0.10218738 0.061392955 -0.049687084 0.071694 0.028525911 0.08311924 -0.004686055
-0.18110089 -0.032495577 0.020867812 -0.05745766 -0.036691133 -0.13894422 -0.09747019 0.055920318
0.037552577 0.09769128 -0.02151437 -0.0894825 -0.08898005 -0.045203272 -0.010705128 -0.061974633
0.021284051 0.0036147854 -0.029896628 -0.03806879 -0.06854272 -0.09271812 0.021544263 -0.038898766
0.022858303 -0.016473718 -0.11891617 -0.2549658 -0.0066889934 -0.0034503855 -0.06900059 -0.018459763
00000000: 8f58 35bd a487 083d 96e5 7dbd cf48 99bd
00000010: 5111 6abc b3e7 f93d 7785 143d 4859 4e3c
00000020: 4a7c 893c ac2d 92bd dbbf 46bd 30c6 19bc
00000030: dda6 893d 2a73 75bc 488a a03d cff5 1bbc
00000040: ea15 b0bd 608a 6fbd 32f6 fabb 77ba 603d
00000050: 03c0 f53c e2af 1b3d 5b54 07be a445 db3d
00000060: 9065 0dbe 9e47 d13d 2e77 7b3d af84 4bbd
00000070: 4ed4 923d 2caf e93c 6c3a aa3d 7a8d 99bb
00000080: 8372 39be 151a 05bd f9f2 aa3c b958 6bbd
00000090: 7149 16bd 6547 0ebe 739e c7bd b40c 653d
000000a0: bbd0 193d 5e12 c83d e73e b0bc 9a42 b7bd
000000b0: 2c3b b6bd 1127 39bd 9064 2fbc 1dd9 7dbd
000000c0: e45b ae3c 09e6 6c3b c6e9 f4bc 05ee 1bbd
000000d0: 2060 8cbd ffe2 bdbd 987d b03c 5054 1fbd
000000e0: 5641 bb3c e4f3 86bc 528a f3bd e18a 82be
000000f0: 582f dbbb dd1f 62bb 2e50 8dbd ee38 97bc

conv3.weight f4 [128, 64, 3, 3]
-0.03591768 -0.03415578 0.033056717 -0.05244886 0.013707089 0.019363537 0.13059764 -0.062291384
-0.069713034 0.0234043 0.043788277 -0.112273976 -0.021573652 0.019402126 -0.08222626 0.013558045
-0.066292696 0.07150602 -0.14079951 -0.09684195 0.067139044 -0.019603817 -0.13251035 -0.02802362
-0.10739458 -0.063144274 -0.0355756 0.026746463 0.056877397 -0.21788678 0.061873343 -0.006043647
0.11364034 -0.12077658 -0.03263198 0.045671847 -0.010259234 0.043057486 -0.16358668 -0.04713126
0.019451411 -0.048424046 -0.035463925 -0.08569039 0.067746595 0.051300537 0.14396389 -0.072955504
0.049061097 0.08378808 -0.023229593 0.06882088 -0.0039004567 0.137549 -0.027862707 -0.021337774
-0.031049153 -0.077667534 0.035352487 0.055621628 -0.11681093 0.07854998 0.0067108613 -0.14437015
-0.07944893 -0.1433987 0.03189884 -0.017005766 0.07862264 0.06144008 0.07122047 0.0074701263
-0.06760028 -0.019588336 0.054553036 0.16919303 0.105737776 0.077206984 -0.053982493 -0.037205387
0.10384278 0.04270509 -0.050787408 0.066505216 0.02975029 0.013333173 0.0744492 0.03295112
0.02255815 0.09213104 0.04980239 0.06456091 -0.050659083 -0.043874532 -0.09971427 0.11486323
0.13454555 0.04898498 0.039388258 0.045385208 -0.14907505 0.11741521 0.0129083935 0.04943112
0.002492918 -0.0009690353 -0.08892672 0.10941468 0.08620374 -0.078116775 -0.16291787 0.023095356
-0.1254933 -0.10536136 0.030730415 -0.07462671 -0.026567597 0.030483648 -0.014272014 -0.06884428
0.082458116 -0.08688102 0.05014759 0.045980446 0.097628385 -0.064183116 0.026838772 0.021605121
-0.111480646 -0.073489435 -0.051434353 -0.09508625 -0.07937329 -0.10810063 -0.023241969 -0.06873202
-0.14845757 -0.13621192 0.011358463 -0.07575042 0.04557608 -0.071653955 0.045463722 -0.15122457
-0.038379956 0.12972783 0.03735587 0.058793716 0.053666387 -0.116106085 0.014130465 0.08231064
-0.14109953 0.040908244 -0.12764917 0.07824716 0.028846635 -0.08721386 0.062350966 0.010432929
0.076490596 0.010528597 -0.016555026 -0.040327378 -0.11984597 -0.03545028 -0.07176491 -0.05751547
-0.14865541 -0.14334595 0.024366789 -0.009119607 -0.13992643 -0.08854626 0.03972751 0.07361728
0.18011895 -0.17820774 0.055694222 -0.005065003 0.090562634 -0.18869615 0.015730219 0.06967185
-0.11179883 -0.12877761 0.08206072 -0.068895236 -0.040789016 0.17203367 0.058476884 -0.14018913
-0.07487567 0.1117777 0.0526854 0.04513185 0.09761703 -0.027210198 0.009666463 0.12275507
0.08479178 -0.052288547 0.0010530325 0.08983266 0.0026185804 -0.02945118 0.011319221 0.11000614
0.024257964 0.01658171 0.079999804 0.0183867 -0.022461332 -0.08474687 0.02842952 0.03853705
-0.01782808 0.10360892 0.092125736 0.030506682 0.10904167 -0.020646308 -0.11550413 -0.119371705
0.019051634 0.005618516 -0.09280868 -0.040380556 -0.004880754 0.009365595 -0.092096694 0.17989303
0.17656837 -0.0027179834 -0.03809739 -0.048486937 -0.08790937 0.011947188 -0.12218463 -0.14121716
-0.075125575 0.09449914 -0.087457225 0.056064095 -0.0788287 -0.042141184 -0.022509346 -0.07889744
0.08000757 0.09922681 0.04506443 -0.04418161 0.20528829 -0.13746883 -0.05577317 0.009286497
00000000: 6b1e 13bd eee6 0bbd 7b66 073d 9ed4 56bd
00000010: b393 603c 48a0 9e3c 63bb 053e 4025 7fbd
00000020: b5c5 8ebd 60ba bf3c 565b 333d e6ef e5bd
00000030: 3abb b0bc 35f1 9e3c 3e66 a8bd 9022 5e3c
00000040: 77c4 87bd c071 923d bf2d 10be 1355 c6bd
00000050: 3280 893d 2f98 a0bc cbb0 07be ca91 e5bc
00000060: b1f1 dbbd c951 81bd b8b7 11bd 661b db3c
00000070: 46f8 683d b61d 5fbe e76e 7d3d c909 c6bb
00000080: 44bc e83d b659 f7bd 1ca9 05bd 6712 3b3d
00000090: 5916 28bc 0c5d 303d 4483 27be b50c 41bd
000000a0: 9158 9f3c 4b58 46bd 9f42 11bd 717e afbd
000000b0: babe 8a3d 8320 523d 456b 133e b269 95bd
000000c0: 4af4 483d 1699 ab3d fd4b bebc f6f1 8c3d
000000d0: ce9e 7fbb a5d9 0c3e 5540 e4bc 8ecc aebc
000000e0: cb5a febc 2810 9fbd c5cd 103d 81d3 633d
000000f0: 923a efbd d0de a03d c9e6 db3b c5d5 13be
00000100: 1fb6 a2bd 1cd7 12be 5ca8 023d ad4f 8bbc
00000110: e804 a13d 98a8 7b3d 0adc 913d f6c7 f43b
00000120: 0472 8abd b877 a0bc 0173 5f3d f040 2d3e
00000130: 0c8d d83d b21e 9e3d bf1c 5dbd ad64 18bd
00000140: 86ab d43d 88eb 2e3d 7506 50bd e333 883d
00000150: e1b6 f33c 6173 5a3c d278 983d c1f7 063d
00000160: dfcb b83c 33af bc3d 97fd 4b3d 8338 843d
00000170: e67f 4fbd c8b5 33bd ff36 ccbd 6a3d eb3d
00000180: 4fc6 093e 79a4 483d 9555 213d d7e5 393d
00000190: 21a7 18be 6377 f03d ba7d 533c 4978 4a3d
000001a0: 3960 233b dc06 7eba 361f b6bd ce14 e03d
000001b0: 968b b03d b0fb 9fbd f1d3 26be 7932 bd3c
000001c0: 5181 00be b2c7 d7bd 5abe fb3c e3d5 98bd
000001d0: 4aa4 d9bc d8b8 f93c 2ad5 69bc 3bfe 8cbd
000001e0: cddf a83d adee b1bd 8f67 4d3d fe55 3c3d
000001f0: 64f1 c73d 7072 83bd fcdc db3c 39fd b03c
00000200: f74f e4bd a181 96bd d4ac 52bd 94bc c2bd
00000210: 778e a2bd dd63 ddbd f165 bebc 60c3 8cbd
00000220: 4305 18be 237b 0bbe d918 3a3c 0923 9bbd
00000230: fcad 3a3d 4fbf 92bd 2b38 3a3d 9dda 1abe
00000240: 4d34 1dbd 5fd7 043e 7802 193d aed1 703d
00000250: 49d1 5b3d 07c9 edbd 7783 673c 7b92 a83d
00000260: 657c 10be 678f 273d 77b6 02be 0c40 a03d
00000270: c74f ec3c 2e9d b2bd ba63 7f3d e0ee 2a3c
00000280: 1aa7 9c3d 2380 2c3c 689e 87bc 522e 25bd
00000290: ce71 f5bd 5034 11bd 7bf9 92bd 5795 6bbd
000002a0: 2039 18be 48c9 12be dc9c c73c 676a 15bc
000002b0: e048 0fbe be57 b5bd 50b9 223d a8c4 963d
000002c0: 1a71 383e 177c 36be a01f 643d 53f8 a5bb
000002d0: e778 b93d 9039 41be a9dc 803c 1db0 8e3d
000002e0: c9f6 e4bd 47de 03be 730f a83d f218 8dbd
000002f0: 6212 27bd 9829 303e 7585 6f3d bd8d 0fbe
00000300: 6a58 99bd b5eb e43d a5cc 573d 2ddc 383d
00000310: 70eb c73d ece7 debc 1660 1e3c 0367 fb3d
00000320: 50a7 ad3d 842c 56bd e805 8a3a 30fa b73d
00000330: 7d9c 2b3b 9a43 f1bc 4174 393c e64a e13d
00000340: a3b8 c63c 5ed6 873c f0d6 a33d b49f 963c
00000350: d400 b8bc c48f adbd 06e5 e83c 07d9 1d3d
00000360: 320c 92bc ea30 d43d 6bac bc3d 26e9 f93c
00000370: 3d51 df3d 7222 a9bc 6e8d ecbd 2779 f4bd
00000380: 2c12 9c3c 871b b83b 7a12 bebd 1566 25bd
00000390: bbee 9fbb 2772 193c 319d bcbd e135 383e
000003a0: 57ce 343e 3220 32bb 020c 1cbd 3d9a 46bd
000003b0: d409 b4bd 23be 433c ef3b fabd 3b9b 10be
000003c0: 70db 99bd c488 c13d c61c b3bd 77a3 653d
000003d0: f170 a1bd 3c9c 2cbd 8565 b8bc fb94 a1bd
000003e0: 02db a33d 6d37 cb3d 7b95 383d c7f7 34bd
000003f0: 1837 523e a1c4 0cbe 6872 64bd 6426 183c

conv3.bias f4 [128]
-0.019117573 0.012987387 -0.15477207 0.003991254 -0.05685162 0.050725177 -0.04579767 -0.0359014
0.01351421 0.0174918 -0.026393583 0.047936074 0.033913676 0.033030104 -0.16616188 -0.013205988
-0.10171847 0.032353032 0.13091047 -0.010025366 -0.0051646973 0.0005551281 0.042922385 -0.07807491
0.00685951 -0.071954556 -0.029089022 0.020794416 -0.08339551 -0.09716793 -0.022259299 -0.02518343
0.07923104 0.018531095 -0.010947924 0.011789723 -0.10885551 -0.008288763 -0.052225854 0.027968425
0.006451762 -0.085393034 -0.19945338 -0.11671931 0.057216484 0.03105435 0.053050514 -0.12384069
-0.02857959 0.07025538 0.067723475 0.01439816 -0.016570894 -0.06970721 -0.032092452 -0.040233307
-0.07067455 -0.095187575 -0.057893146 -0.040179897 -0.05862018 -0.09794093 0.012742338 -0.059260536
0.0026817727 0.020577202 -0.0005058532 -0.045654874 -0.14543694 0.09462417 0.08369542 -0.03337382
-0.042643465 -0.034363426 0.038597424 -0.019018514 -0.027969537 0.022682583 -0.051331896 -0.03370499
-0.040492747 -0.032713417 -0.031392395 -0.11836138 -0.006684345 -0.036993556 0.10164688 -0.038364787
0.14488524 0.019626953 0.020252222 -0.0807686 -0.09271466 -0.037088607 0.07089256 -0.10385015
-0.08230574 0.1556097 -0.05757417 0.022309601 -0.020552868 -0.041186616 0.04151978 0.06720453
-0.02250132 -0.11895769 -0.07253763 -0.00994807 -0.025264695 0.028246759 0.04230236 0.022332128
-0.046088576 0.016256854 -0.047376435 0.0044600847 0.15895268 -0.053727467 -0.06250524 -0.041977078
-0.019308021 -0.042609714 -0.13803378 0.12901878 -0.10673812 -0.038269367 -0.12990998 -0.065194905
00000000: 759c 9cbc 0dc9 543c 927c 1ebe 11c9 823b
00000010: 3fdd 68bd 34c5 4f3d 5696 3bbd 590d 13bd
00000020: b46a 5d3c f74a 8f3c 5b37 d8bc 9e58 443d
00000030: 11e9 0a3d 934a 073d 5726 2abe ee5d 58bc
00000040: c651 d0bd 9d84 043d 650d 063e 6f41 24bc
00000050: 9f3c a9bb 0486 113a 62cf 2f3d bde5 9fbd
00000060: bec5 e03b e95c 93bd 1a4c eebc 0d59 aa3c
00000070: 44cb aabd fbff c6bd 2259 b6bc 7b4d cebc
00000080: e243 a23d 86ce 973c ec5e 33bc af29 413c
00000090: a3ef debd 98cd 07bc c7ea 55bd 0a1e e53c
000000a0: 4d69 d33b 8be2 aebd 823d 4cbe 890a efbd
000000b0: d55b 6a3d b165 fe3c 7f4b 593d 30a0 fdbd
000000c0: bf1f eabc 0de2 8f3d 9bb2 8a3d 43e6 6b3c
000000d0: afbf 87bc a7c2 8ebd 6073 03bd aecb 24bd
000000e0: d2bd 90bd b4f1 c2bd 5d21 6dbd ad93 24bd
000000f0: b71b 70bd 4195 c8bd 3dc5 503c 2dbb 72bd
00000100: aec0 2f3b 8591 a83c 3c9b 04ba 9b00 3bbd
00000110: 6ced 14be 51ca c13d 8168 ab3d fdb2 08bd
00000120: eaaa 2ebd aac0 0cbd 5518 1e3d b7cc 9bbc
00000130: 5f20 e5bc d3d0 b93c 6541 52bd 3e0e 0abd
00000140: b9db 25bd 81fe 05bd 5095 00bd 7467 f2bd
00000150: 5a08 dbbb 8e86 17bd 3d2c d03d 6524 1dbd
00000160: cc5c 143e b4c8 a03c fde7 a53c 026a a5bd
00000170: 2fe1 bdbd 39ea 17bd 1e30 913d 63af d4bd
00000180: e98f a8bd 2658 1f3e e5d2 6bbd a0c2 b63c
00000190: 7d5e a8bc 4cb3 28bd a510 2a3d 87a2 893d
000001a0: b054 b8bc 17a0 f3bd 9c8e 94bd 3bfd 22bc
000001b0: e8f7 cebc bf65 e73c 3d45 2d3d def1 b63c
000001c0: 60c7 3cbd 182d 853c cb0d 42bd e725 923b
000001d0: 7ec4 223e 5511 5cbd bf02 80bd 28f0 2bbd
000001e0: db2b 9ebc 8687 2ebd ba58 0dbe 801d 043e
000001f0: 8499 dabd 57c0 1cbd 1f07 05be e884 85bd

act_conv1.weight f4 [4, 128, 1, 1]
0.014361438 0.025712768 -0.062230162 -5.038263e-05 0.060864635 0.29097012 -0.013577803 0.2682151
0.05097327 -0.017102815 -0.03339339 0.065590486 -0.0074444856 -0.0948096 0.0170186 -0.034303866
0.010263766 0.10742031 -0.09186872 -0.052671038 -0.017802123 -0.045699175 -0.010720394 -0.019155333
0.07815333 0.1057909 0.026564721 -0.08658742 0.021036597 -0.046352062 -0.0074660857 0.14082402
0.47112247 -0.012579543 -0.014293432 0.10273021 -0.27249643 -0.0003313216 -0.011140646 0.023454808
-0.02007796 0.13477975 -0.08378097 -0.23119089 -0.053858507 -0.079505906 -0.024817245 -0.08557628
-0.118679054 0.048389718 -0.0047411257 -0.07275356 0.099248305 0.037109468 0.0016449298 -0.08886658
-0.023963025 -0.11787791 -0.010564226 -0.02274153 -0.047165226 0.10256036 -0.00443568 0.10185775
0.038410157 0.0026442606 0.5832157 0.030084008 0.59992397 -0.023055037 0.012399496 0.098132014
-0.011949779 0.0065074395 -0.0072370484 -0.0031103834 0.012839127 0.20892425 0.09264545 -0.035315935
-0.09774552 -0.1315853 0.014163405 0.118863255 0.06768106 -0.24152586 0.112556905 -0.16058601
0.09533502 0.00039088438 0.05864247 -0.06799907 -0.052084275 0.07051122 0.14943163 0.114659436
0.055717587 -0.00091568724 -0.056999285 -0.015709264 0.17321081 0.36556754 0.26893777 0.069724366
-0.017457623 -0.008477906 0.32491818 0.039473962 -0.00018239478 0.25935286 0.074565604 0.08530049
-0.098643206 0.03625486 0.014810187 -0.015590054 0.14264253 0.23216818 0.006679351 -0.14407353
-0.0058662114 -0.019172901 -0.19323051 0.19707046 -0.008662032 -0.110621646 0.098575875 -0.15473299
0.0009460211 -0.013572811 0.012767906 -0.017789086 -0.06287939 -0.08116313 0.32138163 0.19793652
0.16494665 -0.009033496 0.017625418 0.055076327 -0.02535722 0.26283008 -0.055938568 0.0699194
0.034833416 -0.20525984 -0.016149834 -0.043699466 -0.027002342 0.08648242 -0.097135656 -0.0009282585
-0.0545675 -0.1603033 -0.03586314 0.0025723872 -0.019506376 -0.04310741 -0.0058805444 -0.16345008
0.11224965 -0.015315424 0.018627321 -0.058752008 0.37379956 0.015753927 0.024842454 0.04514998
0.018187102 0.018670829 0.14044063 0.15015852 0.0130704 0.11567956 0.013663655 -0.086034805
0.39009064 0.009101302 0.0027588885 -0.036837045 -0.014212821 0.021459952 -0.0008093461 0.060968667
0.046955973 0.033314627 0.5947169 0.03381488 -0.006485536 0.04672953 0.06008776 0.3706568
0.050422933 0.00458594 0.1261241 -0.01627456 -0.07298103 -0.0093793245 -0.06375623 0.014982942
-0.019665966 0.020345181 -0.00043439138 0.02015275 0.014223747 0.23047365 -9.439456e-05 0.04836217
0.17820387 0.07589028 0.08653651 -0.100639105 0.011833825 0.22595221 0.24137805 0.052069627
0.1069218 0.047760163 0.08580798 -0.02060635 0.15589851 0.044393178 0.021154951 -0.0024897153
0.027836395 0.091499604 0.09377256 0.08091566 -0.20343904 -0.3048836 -0.25456232 -0.14613704
0.0099944 -0.006864976 0.06455109 -0.26622212 0.08256237 0.31031337 -0.04353928 -0.054712955
-0.06890252 -0.104696676 0.02443385 0.30518046 0.08723919 0.11205213 -0.009741289 -0.008300689
0.028881459 -0.07052299 -0.03740612 0.21616036 0.08711703 0.02622354 0.11937253 0.19239274
00000000: 3d4c 6b3c 95a3 d23c 0ee5 7ebd f051 53b8
00000010: 324d 793d 09fa 943e 6f75 5ebc 7d53 893e
00000020: 59c9 503d 341b 8cbc 82c7 08bd 4e54 863d
00000030: dff0 f3bb 892b c2bd 976a 8b3c 3682 0cbd
00000040: 5b29 283c 2eff db3d ab25 bcbd 96bd 57bd
00000050: c2d5 91bc 0f2f 3bbd 97a4 2fbc a5eb 9cbc
00000060: da0e a03d e6a8 d83d 429e d93c bf54 b1bd
00000070: f154 ac3c a9db 3dbd 11a6 f4bb 2c34 103e
00000080: f736 f13e 6d1a 4ebc 002f 6abc 3764 d23d
00000090: a784 8bbe 3bb5 adb9 4287 36bc 4c24 c03c
000000a0: 897a a4bc b403 0a3e 5b95 abbd 4ebd 6cbe
000000b0: bd9a 5cbd fed3 a2bd 894d cbbc 9e42 afbd
000000c0: 010e f3bd 4c34 463d 725b 9bbb d2ff 94bd
000000d0: b242 cb3d 1900 183d af9a d73a aeff b5bd
000000e0: 1b4e c4bc f969 f1bd 9315 2dbc 724c babc
000000f0: 5330 41bd 2b0b d23d 2e59 91bb cc9a d03d
00000100: f853 1d3d 554b 2d3b a04d 153f bd72 f63c
00000110: 9e94 193f ebdd bcbc 4127 4b3c 70f9 c83d
00000120: 01c9 43bc 5c3c d53b c324 edbb 93d7 4bbb
00000130: 345b 523c 3df0 553e e6bc bd3d 71a7 10bd
00000140: ce2e c8bd 4cbe 06be a00d 683c 946e f33d
00000150: 5e9c 8a3d 8e52 77be 3c84 e63d a970 24be
00000160: 023f c33d 9def cc39 1633 703d 1943 8bbd
00000170: 5256 55bd 3068 903d 9b04 193e 91d2 ea3d
00000180: 2038 643d bb0a 70ba 1578 69bd b7b0 80bc
00000190: 2d5e 313e ab2b bb3e 36b2 893e a6cb 8e3d
000001a0: 4a03 8fbc eae6 0abc ad5b a63e 73af 213d
000001b0: 3a41 3fb9 e6c9 843e dab5 983d 06b2 ae3d
000001c0: 7305 cabd fa7f 143d 6da6 723c 6d6d 7fbc
000001d0: e210 123e 7fbd 6d3e 75de da3b 0388 13be
000001e0: 5939 c0bb 7d10 9dbc 38de 45be d7cc 493e
000001f0: 32eb 0dbc 9a8d e2bd 26e2 c93d 5372 1ebe
00000200: 67fe 773a 7f60 5ebc 7b30 513c 6bba 91bc
00000210: e9c6 80bd db38 a6bd 228c a43e dfaf 4a3e
00000220: c6e7 283e 3a01 14bc 2e63 903c b797 613d
00000230: f2b9 cfbc aa91 863e d71f 65bd e731 8f3d
00000240: 7cad 0e3d a32f 52be a84c 84bc 36fe 32bd
00000250: 0434 ddbc b21d b13d 0fef c6bd 6056 73ba
00000260: 2c82 5fbd 8c26 24be 3ae5 12bd 7f95 283b
00000270: d6cb 9fbc 6591 30bd 95b1 c0bb 755f 27be
00000280: 25e3 e53d 8bed 7abc 5398 983c f2a5 70bd
00000290: a862 bf3e 610e 813c 6782 cb3c 2fef 383d
000002a0: 1efd 943c 91f3 983c abcf 0f3e 28c3 193e
000002b0: 3b25 563c 68e9 ec3d 86dd 5f3c 0433 b0bd
000002c0: f6b9 c73e a11d 153c 78ce 343b 71e2 16bd
000002d0: e4dc 68bc c8cc af3c 4c2a 54ba 48ba 793d
000002e0: e854 403d eb74 083d 5e3f 183f 7981 0a3d
000002f0: 9f84 d4bb 7767 3f3d 951e 763d bac6 bd3e
00000300: 4788 4e3d a745 963b ad26 013e 3a52 85bc
00000310: 1477 95bd bdab 19bc a092 82bd 037b 753c
00000320: 851a a1bc f0aa a63c 06bf e3b9 6117 a53c
00000330: b80a 693c 4901 6c3e b2f5 c5b8 6917 463d
00000340: 137b 363e 5d6c 9b3d 0e3a b13d e01b cebd
00000350: a9e2 413c 0460 673e cf2b 773e f646 553d
00000360: d1f9 da3d 29a0 433d 18bc af3d a6ce a8bc
00000370: dca3 1f3e 9fd5 353d 264d ad3c 7e2a 23bb
00000380: 2709 e43c 2564 bb3d d40b c03d 1cb7 a53d
00000390: 5352 50be b419 9cbe fe55 82be f3a4 15be
000003a0: 8dbf 233c 98f3 e0bb 5d33 843d 444e 88be
000003b0: 7616 a93d 65e1 9e3e 3e56 32bd b11a 60bd
000003c0: c41c 8dbd 366b d6bd 7f29 c83c 9d40 9c3e
000003d0: 76aa b23d 967b e53d ed99 1fbc 9dff 07bc
000003e0: cf98 ec3c 5b6e 90bd 2937 19bd 2459 5d3e
000003f0: 6a6a b23d c0d2 d63c 9679 f43d 9a02 453e

act_conv1.bias f4 [4]
0.07047821 0.00075119635 0.17743511 0.002957408
00000000: e156 903d efeb 443a 8db1 353e 13d1 413b

act_fc1.weight f4 [81, 324]
-0.0026620294 0.0028668104 0.016737554 -0.015913967 -0.022088818 0.0067860675 -0.041484155 -0.052848853
-0.00549537 0.021652548 -0.024120225 -0.03600653 0.002482579 -0.039858297 -0.004577696 -0.01753212
-0.044312708 0.018838184 -0.000340365 -0.020760056 -0.027184563 0.018158516 -0.028949412 -0.0022556216
0.023370476 -0.024742058 0.027860695 0.037757922 0.010825765 -0.074263595 -0.057823148 -0.053226493
0.001655501 -0.060772277 -0.0011429026 0.018613666 0.001062815 -0.018830586 -0.05054127 -0.07293592
-0.07052646 -0.0054669 -0.030210182 -0.03323863 -0.0067540654 0.05636795 0.021276154 -0.17508699
-0.06332432 -0.020692745 -0.0064531867 0.009677511 -0.029363612 -0.020859186 0.057041768 -0.3425156
-0.057138994 0.11775194 0.007876515 -0.020079102 0.008448767 0.018742535 0.035096016 -0.036308456
0.13551398 0.18661252 0.026580986 -0.029426388 -0.0060363556 -0.0025793887 0.020882422 -0.017094988
-0.020235278 -0.066661224 0.025506312 -0.05344826 -0.058874857 -0.0021248276 0.013545095 0.021401133
0.002826117 0.0004856255 -0.02483204 -0.023946183 -0.028869268 -0.0025124387 -0.00019282941 -0.003736393
-0.03700534 -0.009402234 -0.01814229 -0.01718046 0.031972885 0.016082078 -0.00427743 0.013941902
0.035289887 -0.020617997 -0.01509061 -0.018881526 0.0036361692 0.023044463 -0.0074670864 0.037502598
0.034157656 0.030889122 0.007857933 0.011239363 0.0064669517 0.004613916 0.031014213 0.06352169
0.10547432 -0.004208176 0.06707572 0.0189594 0.017071195 -0.055517793 -0.029822923 0.0059325895
0.060005266 -0.01083265 0.02772175 0.005683953 0.018117283 -0.00276725 0.032373313 0.02271856
0.032319747 0.072342135 0.0155329965 0.05796971 0.020916319 0.022114184 0.023425326 0.05845499
0.041432858 0.17458041 -0.07084254 0.012976913 0.015325302 0.02416562 -0.027129954 -0.02186928
-0.5479734 0.18905352 -0.030023053 0.057239138 -0.012371156 0.039065298 0.012568013 -0.010486984
-0.010489417 0.13938694 0.033759035 0.007115208 -0.05138164 -0.030967234 0.031655055 0.009616309
0.009914718 -0.0033795335 -0.007612195 -0.025688766 -0.043049913 -0.04748736 -0.028791538 -0.046377786
-0.029639937 -0.011354887 -0.026212215 0.021436306 -0.008330757 -0.02589431 -0.057981912 -0.044097736
-0.043084256 -0.07242996 -0.044298563 -0.036090683 -0.018748922 -0.03286662 -0.05134508 -0.043669406
-0.04259024 -0.025345067 -0.06662425 -0.074464984 -0.07657056 0.0074283765 -0.04178913 -0.07427923
-0.055160806 -0.054595657 -0.070668206 -0.038325205 -0.064683795 -0.049557954 0.0004004191 -0.076179676
-0.0860639 0.022651963 -0.028826103 -0.050057467 -0.053895988 -0.084526286 -0.03935672 0.10802882
-0.093362466 0.046935473 -0.1556825 -0.07743598 -0.075942166 -0.068187885 -0.06176614 -0.022440968
-0.088630155 -0.010703088 -0.20524772 -0.024342401 -0.02824275 -0.09243961 -0.068787195 -0.05283356
-0.018927716 -0.9036399 -0.06411854 0.082269534 -0.014841869 -0.016759815 -0.08431807 -0.05614182
-0.007776356 -0.03636315 -0.0120079955 0.055645812 0.054223645 -0.010045497 -0.015844112 -0.009030996
-0.007835091 -0.0034929202 0.0052119307 -0.028558228 0.022711573 0.017277164 -0.00063388597 0.012317011
-0.017825475 0.0065465476 0.08004975 0.0091963075 0.018557295 -0.010005572 0.03635637 0.039978113
00000000: 7175 2ebb 19e1 3b3b 321d 893c 025e 82bc
00000010: 9cf3 b4bc a95d de3b 4aeb 29bd 0a78 58bd
00000020: 8112 b4bb af60 b13c c797 c5bc 957b 13bd
00000030: c4b2 223b 7442 23bd 7f00 96bb 859f 8fbc
00000040: 3e81 35bd 8952 9a3c 0473 b2b9 fe10 aabc
00000050: 29b2 debc 2bc1 943c 5127 edbc 0dd3 13bb
00000060: 7173 bf3c dbaf cabc 1d3c e43c 0da8 1a3d
00000070: 8d5e 313c 8317 98bd f7d7 6cbd 0604 5abd
00000080: 65fd d83a 5aec 78bd 73cd 95ba b07b 983c
00000090: 274e 8b3a 9a42 9abc 5d04 4fbd 6d5f 95bd
000000a0: 2d70 90bd ae23 b3bb 587b f7bc 3b25 08bd
000000b0: 3551 ddbb 14e2 663d 544b ae3c 014a 33be
000000c0: 2eb0 81bd d583 a9bc 4175 d3bb 6c8e 1e3c
000000d0: f58b f0bc e2e0 aabc a1a4 693d 345e afbe
000000e0: 940a 6abd ee27 f13d 800c 013c ee7c a4bc
000000f0: b26c 0a3c f289 993c d7c0 0f3d 2db8 14bd
00000100: 2dc4 0a3e 5a17 3f3e 5ec0 d93c 9c0f f1bc
00000110: 9fcc c5bb f60a 29bb 9d11 ab3c ca0a 8cbc
00000120: 74c4 a5bc ae85 88bd 9df2 d03c 90ec 5abd
00000130: c326 71bd b140 0bbb 3fec 5d3c 6e51 af3c
00000140: 6036 393b 8d9b fe39 906c cbbc c92a c4bc
00000150: 3e7f ecbc baa7 24bb 4032 4ab9 46de 74bb
00000160: e992 17bd d40b 1abc 249f 94bc 09be 8cbc
00000170: 00f6 023d 90be 833c af29 8cbb 936c 643c
00000180: 218c 103d 13e7 a8bc 9b3e 77bc 6ead 9abc
00000190: cc4c 6e3b bec7 bc3c 76ae f4bb 539c 193d
000001a0: e6e8 0b3d 2f0b fd3c 8fbe 003c 4e25 383c
000001b0: b9e8 d33b 5530 973b 8511 fe3c a917 823d
000001c0: ec02 d83d bde4 89bb ff5e 893d be50 9b3c
000001d0: e4d8 8b3c a066 63bd 344f f4bc 2b66 c23b
000001e0: 15c8 753d 6d7b 31bc b918 e33c 7440 ba3b
000001f0: b26a 943c c05a 35bb e199 043d 461c ba3c
00000200: b661 043d 1d28 943d 1c7e 7e3c a671 6d3d
00000210: b358 ab3c ce28 b53c 78e6 bf3c 806e 6f3d
00000220: 80b5 293d 35c5 323e e515 91bd 1e9d 543c
00000230: fa16 7b3c faf6 c53c a33f debc 3427 b3bc
00000240: fc47 0cbf 3f97 413e e8f2 f5bc 9673 6a3d
00000250: 64b0 4abc ef02 203d 11ea 4d3c 99d1 2bbc
00000260: cedb 2bbc 73bb 0e3e ea46 0a3d b126 e93b
00000270: 8e75 52bd ffae fdbc bba8 013d b98d 1d3c
00000280: 5771 223c 2a7b 5dbb b86f f9bb 3f71 d2bc
00000290: 1b55 30bd 1b82 42bd 3bdc ebbc a2f6 3dbd
000002a0: 74cf f2bc d909 3abc 00bb d6bc 319b af3c
000002b0: ba7d 08bc 4e20 d4bc 717e 6dbd d49f 34bd
000002c0: 1e79 30bd 2956 94bd 6972 35bd d3d3 13bd
000002d0: 5797 99bc 269f 06bd 384f 52bd b1de 32bd
000002e0: 1a73 2ebd 75a0 cfbc 4b72 88bd 1981 98bd
000002f0: 07d1 9cbd bd69 f33b 142b 2bbd b51f 98bd
00000300: 4cf0 61bd b29f 5fbd 7eba 90bd e4fa 1cbd
00000310: f078 84bd 48fd 4abd 58ef d139 1704 9cbd
00000320: 4542 b0bd 9c90 b93c b824 ecbc 0f09 4dbd
00000330: 0ac2 5cbd 1e1c adbd 8334 21bd 373e dd3d
00000340: d234 bfbd 693f 403d 3c6b 1fbe c196 9ebd
00000350: 9187 9bbd 17a6 8bbd 7efe 7cbd 1fd6 b7bc
00000360: ba83 b5bd 015c 2fbc 752c 52be b769 c7bc
00000370: 575d e7bc fa50 bdbd 4de0 8cbd 0168 58bd
00000380: 4c0e 9bbc f254 67bf 9550 83bd ee7c a83d
00000390: 4f2b 73bc e14b 89bc f4ae acbd f7f4 65bd
000003a0: cdd0 febb 87f1 14bd 2fbd 44bc ddec 633d
000003b0: 9d19 5e3d de95 24bc 83cb 81bc bef6 13bc
000003c0: c15e 00bc 7ae9 64bb d8c8 aa3b f2f2 e9bc
000003d0: 9f0d ba3c d788 8d3c 5e2b 26ba 4acd 493c
000003e0: bb06 92bc 6c84 d63b 20f1 a33d 1cac 163c
000003f0: 7805 983c 69ee 23bc 6bea 143d 17c0 233d

act_fc1.bias f4 [81]
0.011404044 -0.03317206 -0.05671836 -0.034034677 -0.053885758 -0.029409226 -0.044169825 -0.021292254
0.014125499 -0.036094774 -0.016480612 -0.063837886 0.055925258 0.00798888 0.07194913 -0.035889916
-0.026203932 -0.011226171 -0.057047386 -0.061600585 0.12757447 0.048843026 0.08030108 0.02981031
0.094299674 -0.10529806 -0.028490797 0.0068337517 0.05286299 0.017263863 0.07793552 0.064908005
0.050183535 -0.0076677287 0.05037313 -0.006470442 -0.0387752 -0.036335118 0.10384307 0.04946184
-0.01079773 0.07192556 0.10533138 -0.04573203 -0.030041225 -0.032475136 0.03200357 -0.0064129434
0.056316383 0.060042698 0.01621075 0.039441068 0.007319627 -0.022167472 -0.068507135 -0.0715557
0.11355414 0.03058665 0.10630997 0.057172205 0.11552378 -0.06239301 -0.0438734 -0.031547848
-0.030700289 -0.07875659 0.040857513 -0.045831278 0.0350044 -0.070276424 -0.016372735 -0.004807694
-0.00465354 -0.009264341 -0.052486487 -0.018359294 -0.008262699 -0.005880144 -0.013467282 -0.0027983857
0.0124222655
00000000: 07d8 3a3c 6ddf 07bd 8351 68bd f267 0bbd
00000010: 50b7 5cbd 9eeb f0bc 6beb 34bd 186d aebc
00000020: a36e 673c 1dd8 13bd 5902 87bc 70bd 82bd
00000030: e211 653d cbe3 023c 115a 933d 4e01 13bd
00000040: a1a9 d6bc f9ed 37bc 85aa 69bd e550 7cbd
00000050: e2a2 023e a00f 483d e574 a43d c034 f43c
00000060: 3020 c13d 82a6 d7bd 8865 e9bc aaed df3b
00000070: dd86 583d f26c 8d3c a89c 9f3d 7dee 843d
00000080: 408d 4d3d 9241 fbbb 0e54 4e3d 0006 d4bb
00000090: bed2 1ebd 22d4 14bd adab d43d 8098 4a3d
000000a0: f6e8 30bc b54d 933d fbb7 d73d 8251 3bbd
000000b0: 0419 f6bc a604 05bd 2d16 033d ab23 d2bb
000000c0: 02ac 663d 55ef 753d 68cc 843c f58c 213d
000000d0: 7bd9 ef3b 8f98 b5bc 784d 8cbd cb8b 92bd
000000e0: 138f e83d db90 fa3c 0bb9 d93d 672d 6a3d
000000f0: bb97 ec3d d08f 7fbd 98b4 33bd 5138 01bd
00000100: 2c7f fbbc 234b a1bd 355a 273d 94b9 3bbd
00000110: c660 0f3d 16ed 8fbd 1d20 86bc dc89 9dbb
00000120: b97c 98bb 76c9 17bc 12fc 56bd 3b66 96bc
00000130: 4560 07bc 39ae c0bb e0a5 5cbc 1f65 37bb
00000140: c286 4b3c

val_conv1.weight f4 [2, 128, 1, 1]
0.30537313 -0.16906327 -0.18641736 -0.034407977 0.2586804 -0.03686978 0.045949426 0.19233933
0.23692259 0.29953814 -0.47296038 -0.17801738 -0.30534324 -0.037804376 0.43986052 -0.085677914
-0.16643047 0.12344788 0.024317864 0.20305027 -0.29162586 -0.24764526 0.12105025 0.0141732665
-0.1219177 -0.40220577 0.13302176 0.07683069 0.017966203 0.09792606 -0.16660638 0.11653969
0.019616282 0.13790295 0.13180408 0.19227165 0.07615876 -0.28602737 0.20713592 -0.259963
-0.18093942 0.23573335 -0.15363619 0.0067703654 -0.31955612 0.20291536 -0.6090503 0.06371858
-0.04853559 -0.35302058 -0.43564674 0.24772789 -0.11883965 0.005280842 0.36270493 0.34471953
0.30168417 0.43590328 0.0014563604 0.17500485 0.22682175 -0.0024851104 -0.25819063 -0.041527648
0.036080565 0.06677388 0.23634823 0.16200636 0.4809469 -0.13924034 -0.2683528 -0.1855944
-0.30060598 0.20004727 -0.11634446 0.3570267 -0.3960715 -0.18451694 0.15406501 0.21693958
0.0016819483 0.2667772 -0.39774543 0.13218567 0.18756688 0.064089194 -0.0028143195 -0.256623
0.007101036 -0.22505036 -0.27864864 0.10519613 0.12644273 -0.4244207 0.21307133 -0.07994658
0.28690448 0.009038131 0.191828 -0.17300326 0.094499536 -0.010153545 -0.002291479 0.03745361
-0.11451843 -0.080559745 0.07614232 0.0004266378 -0.1795146 -0.20002727 0.0812984 0.078477524
-0.31971914 0.00030695216 0.08313254 0.013222611 0.0066863243 0.18581867 -0.062161975 0.32945415
0.29729033 -0.3858334 0.26367426 0.006161735 0.32029468 -0.024541682 0.10944856 0.067209
0.30302906 -0.22415823 0.15776885 -0.47073114 0.40833792 -0.1454761 0.0989655 -0.53130054
-0.10053267 0.28926945 0.33085594 -0.4738003 0.12731406 0.049490176 0.02517706 0.36497602
0.25272876 -0.2883879 0.034909267 0.13156271 0.16074976 -0.16090122 -0.29645342 -0.4215288
-0.15284826 0.022238577 0.28340277 -0.5160609 0.29977584 -0.6769962 -0.72015595 0.14172852
0.03316017 -0.3849184 0.20590541 0.1534999 0.081955895 0.11223011 -0.37282953 -0.0026309905
0.38145995 -0.34981546 0.3669642 -0.022815665 0.013309784 0.20216437 0.1634004 0.20891494
-0.050059717 0.19175662 -0.071014605 -0.09631995 0.2480373 -0.52481335 0.30446103 -0.3148084
-0.124317385 -0.3229653 -0.04243022 -0.5148426 0.54537964 0.41099516 -0.19986011 -0.091660805
-0.29295126 0.35680634 -0.050232787 0.38835514 -0.006542121 -0.4593525 0.14326687 -0.19954813
-0.16015798 -0.40504152 -0.61369085 0.2870391 0.23189278 0.17064668 0.088473715 -0.47837156
0.17618112 -0.049750723 -0.038511287 -0.115657456 -0.49080914 0.015616596 -0.046894558 0.18463133
0.0059667733 0.1031454 -0.23130699 0.23553957 0.20701125 -0.052773446 0.18777896 0.4682076
0.2514758 0.0057911966 -0.33819643 -0.034739714 -0.5977561 -0.02281233 0.08935247 -0.16114956
0.471123 -0.46153632 0.060714357 -0.086033285 -0.15935673 0.031638525 -0.425427 -0.24566975
-0.27897125 -0.1367528 0.24701083 0.10548168 0.007661013 0.332344 0.64471376 -0.41239727
-0.025399873 0.27551836 -0.46181634 0.008689107 -0.31151316 -0.4635068 0.42971545 0.14498003
00000000: de59 9c3e ec1e 2dbe 31e4 3ebe 61ef 0cbd
00000010: c271 843e c404 17bd 7735 3c3d 9af4 443e
00000020: d69b 723e 105d 993e dd27 f2be 304a 36be
00000030: f355 9cbe c3d8 1abd 6635 e13e e777 afbd
00000040: c06c 2abe 3ed2 fc3d 4236 c73c 69ec 4f3e
00000050: fc4f 95be b896 7dbe 32e9 f73d fd36 683c
00000060: fdaf f9bd eaed cdbe db36 083e 6959 9d3d
00000070: dc2d 933c 758d c83d dd9a 2abe 5cac ee3d
00000080: 53b2 a03c 6e36 0d3e a6f7 063e dce2 443e
00000090: 20f9 9b3d 2e72 92be 701b 543e df19 85be
000000a0: 2f48 39be 1564 713e ce52 1dbe f1d9 dd3b
000000b0: dc9c a3be 0bc9 4f3e b8ea 1bbf e37e 823d
000000c0: 41cd 46bd 1dbf b4be 170d dfbe 61ac 7d3e
000000d0: 3462 f3bd ea0a ad3b 76b4 b93e 147f b03e
000000e0: 5976 9a3e b72e df3e 59e3 be3a 7934 333e
000000f0: f643 683e 3cdd 22bb 9031 84be e518 2abd
00000100: 37c9 133d bec0 883d 4505 723e ffe4 253e
00000110: ac3e f63e 0595 0ebe 8a65 89be 750c 3ebe
00000120: 07e9 99be 31d9 4c3e 0146 eebd 34cc b63e
00000130: e2c9 cabe 02f2 3cbe 38c3 1d3e 6925 5e3e
00000140: d274 dc3a 0597 883e 4aa5 cbbe ae5b 073e
00000150: 8811 403e 3241 833d 7270 38bb 1764 83be
00000160: cfaf e83b 9a73 66be 09ab 8ebe 1271 d73d
00000170: 347a 013e ac4d d9be 5f2f 5a3e 08bb a3bd
00000180: 25e5 923e ab14 143c 8f6e 443e c427 31be
00000190: f988 c13d 0e5b 26bc a32c 16bb f568 193d
000001a0: a388 eabd 82fc a4bd 81f0 9b3d 5bae df39
000001b0: add2 37be f3d3 4cbe c77f a63d d3b8 a03d
000001c0: 3ab2 a3be 6cee a039 6541 aa3d a6a3 583c
000001d0: f418 db3b 4047 3e3e 8e9d 7ebd 37ae a83e
000001e0: 7036 983e f58b c5be 5000 873e 61e8 c93b
000001f0: aafd a33e a30b c9bc 9126 e03d dfa4 893d
00000200: a026 9b3e bc89 65be 288e 213e ac03 f1be
00000210: ab11 d13e b0f7 14be 6dae ca3d 5003 08bf
00000220: 13e4 cdbd 201b 943e f365 a93e f495 f2be
00000230: 9e5e 023e 36b6 4a3d 1f40 ce3c 23de ba3e
00000240: aa65 813e 94a7 93be 05fd 0e3d 60b8 063e
00000250: 969b 243e 4ac3 24be bec8 97be 9fd2 d7be
00000260: 4184 1cbe ad2d b63c 2b1a 913e 911c 04bf
00000270: 387c 993e 9f4f 2dbf 245c 38bf 4821 113e
00000280: f5d2 073d 0614 c5be ded8 523e 142f 1d3e
00000290: 7ed8 a73d e6d8 e53d 83e3 bebe b26c 2cbb
000002a0: b84e c33e 031b b3be bbe2 bb3e ebe7 babc
000002b0: 4811 5a3c 2d04 4f3e 6f52 273e cced 553e
000002c0: 6b0b 4dbd d95b 443e 1b70 91bd 6543 c5bd
000002d0: 7dfd 7d3e 2b5a 06bf 51e2 9b3e 912e a1be
000002e0: 1d9a febd b55b a5be 4fcb 2dbd bacc 03bf
000002f0: 009e 0b3f f56d d23e 21a8 4cbe a9b8 bbbd
00000300: b5fd 95be 52af b63e e5c0 4dbd 7cd6 c63e
00000310: 4a5f d6bb 4030 ebbe 8db4 123e 5856 4cbe
00000320: 7400 24be 9a61 cfbe d81a 1dbf caf6 923e
00000330: 4d75 6d3e 01be 2e3e b531 b53d 1eed f4be
00000340: d368 343e 6ac7 4bbd 03be 1dbd d1dd ecbd
00000350: 564b fbbe c0dc 7f3c 8214 40bd ff0f 3d3e
00000360: ec84 c33b e53d d33d bddb 6cbe 4931 713e
00000370: c2fa 533e f828 58bd 2149 403e e8b8 ef3e
00000380: 70c1 803e 14c4 bd3b 1528 adbe 3b4b 0ebd
00000390: 8b06 19bf ece0 babc 6efe b63d 6404 25be
000003a0: 0937 f13e 7d4e ecbe 9eaf 783d 3832 b0bd
000003b0: 692e 23be 6697 013d 91d1 d9be da90 7bbe
000003c0: 52d5 8ebe ed08 0cbe 68f0 7c3e c706 d83d
000003d0: 3c09 fb3b fe28 aa3e f60b 253f bc25 d3be
000003e0: 6513 d0bc be10 8d3e 3173 ecbe c25c 0e3c
000003f0: a77e 9fbe c350 edbe aa03 dc3e a575 143e

val_conv1.bias f4 [2]
-0.016018197 0.056308173
00000000: 9838 83bc 66a3 663d
