current_policy.model (torch, 529587 bytes, 15 tensors)

conv1.weight f4 [32, 4, 3, 3]
0	0x3ed87db3	0.422834
1	0xbcb9074e	-0.022586491
2	0x3c4465ea	0.011987189
3	0xbdb7dc2a	-0.0897754
4	0x3dfd1db9	0.12359185
5	0xbe0aa5e8	-0.1353985
6	0x3e50cf50	0.20391583
7	0xbe8a6873	-0.27032813
8	0x3d1dccc5	0.03852536
9	0x3e590329	0.21192612
10	0xbe83fbcd	-0.25778046
11	0xbba48029	-0.0050201607
12	0xbe965077	-0.29358265
13	0x3db6e304	0.089300185
14	0x3ddb913a	0.10721059
15	0xbddb7d79	-0.107172914
16	0x3e1b9534	0.15193635
17	0xbe4a0ef2	-0.19732264
18	0x3cf3fc98	0.029783532
19	0x3de56890	0.11201584
20	0xbcf3be0e	-0.029753711
21	0x3d295d7b	0.041348916
22	0x3db403e2	0.08789803
23	0xbde94666	-0.113903806
24	0x3de42b0a	0.111410215
25	0x3d06780a	0.032829322
26	0x3ce35769	0.027751641
27	0xbdaca463	-0.08429792
28	0xbe2567a7	-0.16152821
29	0x3e0135ed	0.12618227
30	0xbbf0424e	-0.007332123
31	0xbb96ea52	-0.00460557
32	0xbd2564fa	-0.040379502
33	0xbe307277	-0.17231165
34	0x3e0ea809	0.13931288
35	0x3ddfd037	0.10928386
36	0xbe840f7f	-0.25793073
37	0xbda9e4eb	-0.08295616
38	0x3d5c58cd	0.053795625
39	0xbe5c18f5	-0.21493895
40	0xbd91698c	-0.071002096
41	0xbe9a1070	-0.30090666
42	0xbe58a3e1	-0.21156265
43	0x3c1dd9c2	0.009634437
44	0xbe0ddeae	-0.13854477
45	0xbe91f2d1	-0.28505567
46	0xbe17d7dd	-0.14828439
47	0xbdb3c60a	-0.08778007
48	0xbe8ebb0d	-0.27877083
49	0x3e446e7f	0.19182776
50	0xbeb5a11b	-0.35474476
51	0xbeb9fde4	-0.36326516
52	0x3e21473f	0.15749834
53	0xbdbd4c8b	-0.09243115
54	0xbd9b5676	-0.075848505
55	0x3cd35ad5	0.025800148
56	0xbce06deb	-0.027396163
57	0xbd56c6f7	-0.05243584
58	0x3deb9a9b	0.11504098
59	0xbd8bf32e	-0.06833492
60	0xbbf6890a	-0.0075236605
61	0xbcb4e385	-0.022081146
62	0x3d283e0d	0.0410748
63	0xbdab7e65	-0.08373717
64	0xbdbf3b57	-0.0933749
65	0xbdfaa59c	-0.12238619
66	0xbc035f71	-0.0080183605
67	0x3e5f92c5	0.21833332
68	0x3e14a913	0.14517622
69	0x3e2929e4	0.16519886
70	0x3d44cf03	0.048048984
71	0x3e3b0cd7	0.18266617
72	0x3e30605a	0.17224255
73	0xbe557195	-0.2084411
74	0xbe79c519	-0.24391593
75	0x3e40c0bf	0.18823527
76	0x3db1a475	0.08673946
77	0x3e42132c	0.18952626
78	0x3e2556d3	0.16146402
79	0xbe2a9464	-0.16658169
80	0xbe24adf6	-0.16081986
81	0xbed2373c	-0.41057765
82	0x3e80eaa1	0.25179008
83	0x3e7c62a0	0.24646997
84	0xbee3bf64	-0.44481957
85	0x3e239784	0.15975767
86	0xbe4a0ceb	-0.1973149
87	0xbe2df2c7	-0.16987143
88	0xbe3f2ea2	-0.18670133
89	0x3e1dd4ac	0.15413159
90	0x3c388b44	0.011263672
91	0xbdf976c2	-0.121808544
92	0x3d1cd887	0.038292434
93	0xbdab2679	-0.083569475
94	0x3d5d3309	0.05400375
95	0xbdbb3e8c	-0.09142789
96	0xbdad5797	-0.08463972
97	0x3d110327	0.035403397
98	0x3da3c41e	0.07996391
99	0x3e07805b	0.13232557
100	0xbe38d10e	-0.18048498
101	0x3d8457d7	0.064620666
102	0x3e2686f3	0.16262417
103	0x3df5d4cf	0.12003481
104	0x3dce7a14	0.10081878
105	0xbdc4beed	-0.09606729
106	0xbd9e801c	-0.07739279
107	0xbda8f031	-0.08248938
108	0xbe849691	-0.25896123
109	0xbda5fabd	-0.08104465
110	0xbd840fbe	-0.06448315
111	0xbdd32625	-0.1031001
112	0xbe849e6b	-0.25902113
113	0xbe32dd55	-0.17467244
114	0xbdb5d172	-0.08877839
115	0xbe4f8f3b	-0.20269482
116	0x3e790778	0.24319255
117	0xbc99e7a4	-0.018787213
118	0x3eb22ced	0.347999
119	0xbdd9a6e1	-0.10627533
120	0x3c0c1795	0.008550544
121	0x3ed79a5f	0.42109963
122	0x3eb0abe3	0.3450614
123	0xbe922999	-0.28547361
124	0x3e949bb2	0.29025036
125	0xbec0d0dc	-0.37659347
126	0x3c648256	0.01394709
127	0xba33dfc9	-0.00068616547
128	0x3dc8109f	0.09768795
129	0x3d6a0200	0.057130814
130	0xbc83f6f8	-0.016108975
131	0x3d867b7c	0.065665215
132	0xbddece5f	-0.10879206
133	0x3c9a45e7	0.01883216
134	0xbe3c029e	-0.18360373
135	0x3dfcd712	0.12345709
136	0x3db17b38	0.0866608
137	0x3e0e9867	0.13925324
138	0x3d04e3cc	0.032443807
139	0xbcf50572	-0.029909823
140	0x3e54536b	0.20734946
141	0xbdc12672	-0.09431161
142	0xbddf396b	-0.108996235
143	0xbe0e32f1	-0.1388662
144	0xbe7d9581	-0.24764062
145	0xbe91e677	-0.28496143
146	0xbe30d2d2	-0.17267922
147	0x3e41b2da	0.18915883
148	0xbdbade94	-0.09124485
149	0x3dffe42a	0.12494691
150	0xbd2a9da9	-0.041654263
151	0x3dafe2f1	0.085882075
152	0x3e54a71f	0.20766877
153	0xbe3db30c	-0.18525332
154	0xbdc71a6c	-0.097218364
155	0xbe377832	-0.17916945
156	0x3d649481	0.055805687
157	0x3dc25a73	0.09489908
158	0x3e92cca4	0.28671753
159	0x3dc699d0	0.09697306
160	0x3eb65d50	0.35618067
161	0xbe13b0e4	-0.14422947
162	0x3cf75d83	0.030195957
163	0x3c50a0e4	0.012733672
164	0xbd0e4a78	-0.034738988
165	0xbcd980a6	-0.026550602
166	0xbd86c9b0	-0.065814376
167	0xbe19741e	-0.14985701
168	0x3db17a2f	0.08665883
169	0x3d0d8901	0.034554485
170	0x3e34e3a7	0.17664967
171	0x3b503fce	0.0031776312
172	0x3b97e222	0.0046351114
173	0x3d0c440d	0.034244586
174	0xbe033d5f	-0.1281638
175	0xbd98e63f	-0.07465791
176	0x3d9798f9	0.07402224
177	0xbe042c6d	-0.12907572
178	0xbd2ce342	-0.042208917
179	0x3db14256	0.08655231
180	0x3ee65307	0.4498522
181	0x3e4e4817	0.20144688
182	0x3ebff04b	0.37488016
183	0xbd2dd18f	-0.04243618
184	0x3e922453	0.28543338
185	0x3e384a62	0.17997125
186	0x3e92beaa	0.2866109
187	0x3e8b9025	0.2725841
188	0x3eca201c	0.39477623
189	0xbe57253a	-0.21010295
190	0xbe075892	-0.1321738
191	0xbdbbc905	-0.09169201
192	0xbd390edf	-0.045180198
193	0xbd87e0c1	-0.06634665
194	0xbc881c51	-0.016615065
195	0xbb93e80e	-0.004513747
196	0xbc50bf83	-0.012740972
197	0xbe064c31	-0.13115002
198	0xbd92c3d6	-0.07166259
199	0xbd8bde7c	-0.06829545
200	0x3e267a5c	0.16257614
201	0x3db39b07	0.087698035
202	0x3bd07914	0.00636209
203	0x3d606d93	0.054791998
204	0x3bfcee1d	0.007718815
205	0x3cb90c0a	0.022588748
206	0x3d243ed7	0.04009899
207	0x3d060093	0.03271539
208	0x3dd1de2c	0.10247454
209	0xbe153534	-0.14571077
210	0x3ce694b4	0.028147079
211	0xbc34462b	-0.0110030575
212	0xbdc841a5	-0.09778146
213	0xbd9784b9	-0.07398362
214	0xbd969902	-0.07353403
215	0x3e1e4156	0.15454611
216	0x3dfc4635	0.123180784
217	0x3e338626	0.17531642
218	0xbeb64b42	-0.35604292
219	0xbc13c900	-0.00902009
220	0xbe1511cd	-0.14557572
221	0xbc3f0fd4	-0.011661489
222	0x3e9412ec	0.28920686
223	0xbde8febd	-0.113767125
224	0x3c8ff441	0.017572524
225	0x3dfef321	0.12448717
226	0xbe196a1b	-0.14981882
227	0x3ec8713d	0.39148894
228	0xbe6bb38a	-0.23017707
229	0x3d7ff1f2	0.062486596
230	0xbd0d19b5	-0.034448344
231	0x3ea2106b	0.3165315
232	0xbde0f015	-0.10983292
233	0x3d3ce66f	0.046118196
234	0xbdbaef40	-0.091276646
235	0x3cf4791a	0.029842902
236	0xbbea34e5	-0.007147419
237	0xbd37d58b	-0.044881385
238	0x3d696b39	0.05698702
239	0xbda9c678	-0.08289808
240	0xbcadb4aa	-0.021204311
241	0x3d34149d	0.04396497
242	0xbde4ac29	-0.111656494
243	0xbdebd548	-0.115152895
244	0x3c144d70	0.009051666
245	0xbd0f1588	-0.034932643
246	0x3dc29afa	0.09502216
247	0xbdf5fd18	-0.120111644
248	0x3cc3987a	0.023876417
249	0x3de525d8	0.11188859
250	0xbd5be709	-0.05368713
251	0x3d3b56c8	0.045737058
252	0xbe4bf7cb	-0.19918744
253	0x3e7fde97	0.24987255
254	0xbdb11a9d	-0.08647654
255	0x3cc22b5a	0.023702312

conv1.bias f4 [32]
0	0x3d0dd919	0.03463087
1	0xbd691a32	-0.056909747
2	0x3d37abdd	0.044841636
3	0x3d17ce6b	0.03706209
4	0x3d14c08b	0.036316436
5	0xbe369f08	-0.17834103
6	0x3e2c51b3	0.16828041
7	0xbe29a94c	-0.16568488
8	0xbe6fe6f6	-0.23427948
9	0x3e0b112e	0.13580772
10	0x3d9b21db	0.07574817
11	0xbd9d18e6	-0.076707646
12	0xbb3e2c3e	-0.002901807
13	0x3da1eae7	0.07906132
14	0x3d32f25f	0.043688174
15	0x3ddd9834	0.10820046
16	0x3d869d8c	0.065730184
17	0xbd81884b	-0.06324824
18	0xbe23b08a	-0.15985313
19	0x3d686043	0.056732427
20	0xbe127ecf	-0.14306186
21	0xbd40c4b6	-0.0470626
22	0xbcec5ca4	-0.028852768
23	0x3e029020	0.12750292
24	0x3e03f6f1	0.1288717
25	0x3e49e123	0.19714789
26	0x3da59443	0.08084919
27	0x3dbb2e94	0.091397434
28	0x3d87261d	0.065990664
29	0xbe315395	-0.1731704
30	0xbdcbd74e	-0.099531755
31	0xbe34be06	-0.17650613

conv2.weight f4 [64, 32, 3, 3]
0	0xbdccc5d9	-0.09998674
1	0x3bd379c3	0.006453724
2	0xbd9b7f09	-0.075925894
3	0xbe088336	-0.13331303
4	0x3e0905a5	0.1338106
5	0xbd7acd64	-0.061231032
6	0x3d145b88	0.036220104
7	0xbe128888	-0.14309895
8	0x3cfc7852	0.030819092
9	0xbde0ec49	-0.10982568
10	0x3c44435a	0.0119789485
11	0xbd1dc532	-0.03851814
12	0x3b7c679c	0.0038513904
13	0x3d8f3e66	0.069943234
14	0x3d113614	0.035451964
15	0x3d54b31b	0.05192862
16	0xbe2ac1b8	-0.1667546
17	0xbd944564	-0.07239798
18	0xbd49451f	-0.049138185
19	0x3dd0475e	0.10169862
20	0xbc2d7bdf	-0.010588615
21	0x3de075f2	0.10959996
22	0x3d9e7111	0.077364095
23	0xbd9fb26f	-0.077977054
24	0x3baa1c43	0.0051913573
25	0x3e8461ab	0.25855765
26	0xbc15371e	-0.009107379
27	0x3e5d78be	0.2162809
28	0xbdd5c691	-0.10438264
29	0xbe3ed467	-0.18635713
30	0xbe4ae689	-0.19814505
31	0x3ce0d8a2	0.027447049
32	0xbe13784c	-0.14401358
33	0xbd2cf443	-0.042225134
34	0x3e0d1263	0.13776545
35	0x3c9bbe9b	0.019011786
36	0xbdeea8d7	-0.116532974
37	0x3d636f23	0.05552591
38	0xbdd9786e	-0.10618673
39	0xbce98040	-0.028503537
40	0x3dc96058	0.09832829
41	0x3dff9ffb	0.12481686
42	0x3da173d6	0.07883422
43	0xbe31ec20	-0.17375231
44	0xbdb9e9d7	-0.090778045
45	0x3d572b0b	0.052531283
46	0x3dd5c9e1	0.10438896
47	0x3de8c8f1	0.113664515
48	0x3e57e8e5	0.21084936
49	0x3d6aa262	0.057283767
50	0x3d8da0d5	0.06915442
51	0x3e74b288	0.2389623
52	0x3e1d9e13	0.15392332
53	0x3c8af1e4	0.016961046
54	0x3d36b4fd	0.044606198
55	0xbe42b5d2	-0.19014671
56	0x3c954e6d	0.018225873
57	0xbdceb663	-0.10093381
58	0x3e31c6cd	0.17360993
59	0xbd0e3ea0	-0.034727693
60	0xbc07efbc	-0.008296903
61	0xbe2ad363	-0.166822
62	0xbdbe5831	-0.09294165
63	0x3da0cc09	0.078514166
64	0xbdfb7345	-0.12277845
65	0x3d0d4cad	0.03449695
66	0x3dce24ce	0.10065614
67	0x3d84ec62	0.06490399
68	0x3c20d52c	0.009816449
69	0xbda0fdc1	-0.078609
70	0xbc60510d	-0.013691199
71	0xbdb69807	-0.08915716
72	0xbda20527	-0.07911139
73	0xbc3f3522	-0.011670383
74	0x3d553e0b	0.052061122
75	0x3d68176f	0.056662973
76	0x3c18a419	0.009316468
77	0xbe0f0b17	-0.13969074
78	0x3d596767	0.053077128
79	0xbd502183	-0.05081321
80	0x3b4378b6	0.0029826588
81	0xbd4759c1	-0.04866958
82	0xbd200439	-0.039066527
83	0x3e0e93a0	0.13923502
84	0x3d12906f	0.035782274
85	0x3dca6f12	0.09884466
86	0xbc4f6702	-0.012658836
87	0xbd5111be	-0.05104231
88	0xbc81477f	-0.015781162
89	0xbcb8b6bc	-0.022548072
90	0xbd781d16	-0.060574614
91	0xbd8e94b9	-0.0696196
92	0xbdba686e	-0.0910195
93	0xbd9ebd87	-0.07750993
94	0x3dd3caeb	0.10341438
95	0xbe1906f0	-0.14944053
96	0xbe1723b5	-0.14759715
97	0xbe05fcf1	-0.1308477
98	0x3e0acc72	0.13554552
99	0xbde243ec	-0.11048111
100	0xbe1feb70	-0.15617156
101	0xbd008605	-0.03137781
102	0xbeabfbbe	-0.33590502
103	0x3dfd73aa	0.12375577
104	0x3e253f17	0.16137348
105	0xbd2513ae	-0.04030197
106	0xbd572a32	-0.052530475
107	0x3e484377	0.19556986
108	0x3dbda4f0	0.09259975
109	0x3d0948bd	0.033516634
110	0x3e968058	0.29394794
111	0xbe701b1a	-0.23447838
112	0x3cf6a16b	0.030106267
113	0x3de0ba00	0.10972977
114	0xbde3b213	-0.11117949
115	0x3b3920bd	0.0028248273
116	0xbc7cc93e	-0.015428839
117	0xbd952f70	-0.072844386
118	0x3e1a59ca	0.15073314
119	0xbc9c3bca	-0.019071478
120	0x3d1933a2	0.037402757
121	0xbdb6c003	-0.08923342
122	0xbda4f7e9	-0.080550976
123	0x3d0a534b	0.03377084
124	0x3dc158e8	0.09440786
125	0xbe5f5ca1	-0.21812679
126	0xbe99cbb7	-0.30038235
127	0xbe04fa76	-0.12986168
128	0xbd4a1af5	-0.049342114
129	0xbd2542f2	-0.040347047
130	0xbdee03e4	-0.11621836
131	0xbc965e29	-0.018355446
132	0x3d8168d8	0.063188255
133	0x3d778ce8	0.060437113
134	0x3d3ff668	0.04686585
135	0x3d876fa7	0.06613093
136	0xbe450211	-0.1923907
137	0x3c66d233	0.014088201
138	0xbda723b9	-0.081611104
139	0xbdbfd54b	-0.09366854
140	0xbe97a3b6	-0.2961709
141	0x3d03ab49	0.032145772
142	0x3e02fd06	0.12791833
143	0x3cdd5167	0.027016355
144	0xbd0a3cff	-0.033749577
145	0xbe4ddcf5	-0.2010382
146	0x3d1b27b2	0.037879653
147	0xbe59d664	-0.2127319
148	0xbb1b02fc	-0.0023652902
149	0x3d819b7f	0.06328487
150	0xbe86601c	-0.262452
151	0xbda119da	-0.07866259
152	0xbd0ab234	-0.033861354
153	0x3b56247b	0.0032675553
154	0xbd2c89da	-0.042123653
155	0x3de4cce7	0.111718945
156	0x3e2b163c	0.167077
157	0x3d114d5d	0.03547417
158	0x3c98461d	0.01858812
159	0x3e220425	0.15821894
160	0xbd694dc6	-0.056958936
161	0x3e070b8c	0.13187999
162	0x3db9108b	0.090363584
163	0xbd42f62a	-0.04759804
164	0x3c09012e	0.008362098
165	0x3e7cd1bd	0.24689384
166	0x3ddfa8aa	0.10920842
167	0x3e2dc032	0.16967848
168	0x3e761bb0	0.24034
169	0xbd3d8ad6	-0.046274982
170	0xbe475f34	-0.19469911
171	0xbe0e4231	-0.13892438
172	0xbdca241d	-0.09870169
173	0xbe370f7d	-0.17877002
174	0xbe09a856	-0.13443121
175	0xbcde06dd	-0.027102882
176	0xbe6b51dd	-0.22980447
177	0x3e72b104	0.23700339
178	0x3d6c8b14	0.057749823
179	0x3d8883ec	0.06665787
180	0x3d41ea4d	0.047342587
181	0xbe9edfbd	-0.31030074
182	0xbdc554a4	-0.096352845
183	0xbda31baf	-0.079642646
184	0xbbfbd2ea	-0.007685055
185	0x3dd9efc1	0.106414326
186	0x3dae9da3	0.085261606
187	0x3e857784	0.26067746
188	0x3e35b303	0.17744069
189	0xbe02735c	-0.12739319
190	0xbbd4244f	-0.006474055
191	0xbe19a2c0	-0.1500349
192	0x3e3404d8	0.17579973
193	0x3d289180	0.041154385
194	0x3b0b4256	0.0021249256
195	0xbe2ed08b	-0.1707174
196	0xbc7ab1e7	-0.015301204
197	0xbd984099	-0.07434196
198	0xbd4a307c	-0.049362645
199	0x3dfac474	0.12244502
200	0xbd8fa736	-0.07014315
201	0x3de1ec2e	0.11031376
202	0x3d268368	0.040652663
203	0x3e10e03e	0.14148042
204	0xbc16b71c	-0.00919893
205	0x3de81304	0.11331752
206	0xbd38ba8a	-0.045099773
207	0x3dc2dd6e	0.095148906
208	0xbd89e7c3	-0.06733658
209	0x3e634713	0.22195081
210	0xbd2f86b3	-0.04285307
211	0xbd9b54b5	-0.07584516
212	0xbc29e60e	-0.010369791
213	0xbdd54b1a	-0.10414715
214	0xbe3bb8ef	-0.18332265
215	0xbe396bf7	-0.18107592
216	0x3e04a04f	0.12951778
217	0xbe063b70	-0.13108611
218	0x3d323491	0.043507162
219	0x3e2c242e	0.16810676
220	0xbd127d40	-0.03576398
221	0x3db42bae	0.08797394
222	0x3e1e5b03	0.15464406
223	0xbe8318c5	-0.25604835
224	0xbd364a7c	-0.044504628
225	0xbe7a08a3	-0.24417357
226	0xbe2a0575	-0.16603644
227	0x3c1d5f74	0.009605277
228	0xbda719b0	-0.081591964
229	0xbdcba719	-0.09943981
230	0xbe30e45c	-0.17274612
231	0x3bf8b10d	0.0075894655
232	0x3c18a52c	0.009316724
233	0x3c97af32	0.018516157
234	0x3d92817a	0.07153602
235	0xbd3759dd	-0.044763435
236	0x3d7c9cc7	0.061672952
237	0xbe9b9697	-0.30388328
238	0xbdcfc2bb	-0.10144564
239	0xbd805100	-0.062654495
240	0xbe4af854	-0.19821292
241	0x3db7c62f	0.089733474
242	0x3dd7a6b4	0.10529843
243	0xbda80be5	-0.08205394
244	0xbcd7f343	-0.026361113
245	0x3d792da9	0.06083456
246	0x3d70f90b	0.058831256
247	0x3dce994c	0.10087833
248	0xbe2facdb	-0.17155783
249	0x3e57b38d	0.21064587
250	0xbd652c44	-0.055950418
251	0xbd0e50b0	-0.03474492
252	0x3ddae9e7	0.106891446
253	0xbe186def	-0.14885686
254	0x3d516cf3	0.051129293
255	0xbd26485a	-0.040596344

conv2.bias f4 [64]
0	0xbce1f7c9	-0.027583973
1	0x3ce2e891	0.027698787
2	0xbda347c6	-0.07972674
3	0xbd0303c0	-0.031986
4	0xbd82b271	-0.06381691
5	0x3d970cf4	0.073755175
6	0x3cc50195	0.024048606
7	0x3cecf70c	0.028926395
8	0xbc17064f	-0.009217813
9	0xbd8faef0	-0.070157886
10	0xbd3c9d3f	-0.0460484
11	0xbd3787bc	-0.04480718
12	0x3d9831b9	0.07431359
13	0x3c64f521	0.013974459
14	0x3d727f00	0.059203148
15	0xbb8fc866	-0.004387903
16	0xbd3cafbc	-0.04606603
17	0xbd5816a1	-0.052755956
18	0xbcbee4bb	-0.023302427
19	0x3d003d8f	0.031308707
20	0x3d842630	0.06452596
21	0x3d8d487c	0.06898591
22	0xbd487c16	-0.048946463
23	0x3dcb0796	0.09913556
24	0xbe013919	-0.12619437
25	0x3da715fe	0.081584916
26	0x3dba929d	0.091099955
27	0xbd7af944	-0.061272874
28	0x3cf3041a	0.029665042
29	0x3c266bcc	0.010157537
30	0x3cdfbcbc	0.027311675
31	0xbc924b9b	-0.017858317
32	0xbe21c066	-0.1579605
33	0xbcf33987	-0.029690517
34	0xbc0ac3e8	-0.008469559
35	0xbd1f94bd	-0.038960207
36	0xbd2d2fdd	-0.042281974
37	0xbdb01646	-0.08597998
38	0xbdb47ac3	-0.088124774
39	0x3cf18982	0.029484514
40	0x3d8d0953	0.06886544
41	0x3d844837	0.064590864
42	0x3be8f2e2	0.007109032
43	0xbd9e74ee	-0.07737146
44	0xbd8cc568	-0.0687359
45	0x3c88210d	0.016617322
46	0xbc9eceff	-0.019385813
47	0xbd131ce0	-0.03591621
48	0xb2934ae9	-1.7147118e-08
49	0xbd244ead	-0.040114094
50	0xbc42e1c8	-0.011894651
51	0xbcb1ad74	-0.021689154
52	0xbdab11d4	-0.0835301
53	0xbb2c7860	-0.0026316866
54	0x3cae32fb	0.021264544
55	0xbccebd5c	-0.025236778
56	0x3c856548	0.016283646
57	0xbd730e4b	-0.059339803
58	0xbd861b85	-0.06548218
59	0xbe4b6972	-0.19864443
60	0xb9d4a215	-0.00040556552
61	0xbd1b5d9c	-0.03793107
62	0xbb524b87	-0.0032088475
63	0xbda03c5e	-0.07824014

conv3.weight f4 [128, 64, 3, 3]
0	0x3c1d06af	0.009584113
1	0x3c0bd01c	0.008533504
2	0xbd95f544	-0.07322171
3	0xbd108725	-0.035285134
4	0x3e1eab00	0.15494919
5	0x3da89010	0.08230603
6	0x3de272d2	0.110570565
7	0xbd1d475b	-0.038398128
8	0xbe0b0ac4	-0.13578326
9	0xbc66c785	-0.014085655
10	0x3b9a8b3c	0.004716305
11	0x3c18ce34	0.009326506
12	0x3d36b2a3	0.044603955
13	0xbc98c128	-0.018646792
14	0xba16aeab	-0.00057480735
15	0x3c9d3243	0.019189006
16	0xbd94ea6d	-0.07271276
17	0x3d29e9a1	0.04148257
18	0xbda8a3f2	-0.08234395
19	0xbe10441c	-0.14088482
20	0x3d0f476f	0.034980234
21	0xbcc93c36	-0.024564844
22	0xbe10b342	-0.14130881
23	0xbc89a508	-0.016802326
24	0xbdb5821e	-0.088627085
25	0xbd5f57d3	-0.054527115
26	0x3bf128db	0.0073596067
27	0x3d1460a1	0.036224965
28	0x3db10ed6	0.08645408
29	0xbb8e2781	-0.0043382053
30	0xbc60c67c	-0.013719197
31	0xbdbaa386	-0.09113221
32	0x3de49a49	0.1116224
33	0x3c390ad0	0.011294082
34	0x3d51ba9d	0.05120336
35	0x3bca46e5	0.006173002
36	0xbddc9a07	-0.10771566
37	0x3ceab376	0.028650027
38	0xbd9b4825	-0.0758212
39	0xbe167ae8	-0.14695323
40	0xbdbebd9e	-0.0931351
41	0x3d9db18f	0.07699882
42	0xbc82cdcc	-0.015967272
43	0xbdc9deb7	-0.098569326
44	0x3d6ae70a	0.057349242
45	0x3cbc0461	0.022951307
46	0x3a80e605	0.0009834176
47	0xbd96b07c	-0.073578805
48	0x3ccc4da5	0.024939368
49	0x3c84c308	0.01620628
50	0xbcb8fc35	-0.0225812
51	0xbd223312	-0.039599486
52	0x3d9fb947	0.07799011
53	0xbca46ecd	-0.020072365
54	0xbcdc1cd6	-0.026869219
55	0xbda2a505	-0.07941631
56	0xbcd5aa22	-0.026082102
57	0xbbe3b8e1	-0.0069495295
58	0x3d92a15f	0.07159685
59	0x3d8288e2	0.063737646
60	0x3c5ce3ae	0.013482017
61	0x3d9eac9a	0.07747765
62	0xbcad4fda	-0.02115624
63	0xbe2eb621	-0.17061664
64	0xbe2838e0	-0.16427946
65	0xbdd69491	-0.104775555
66	0xbda9bb95	-0.082877316
67	0xbd635356	-0.055499397
68	0x3dcb39c9	0.09923131
69	0xbd17329c	-0.0369135
70	0xbd478a0d	-0.04871564
71	0x3d1d5e3b	0.038419943
72	0xbcf62edb	-0.03005164
73	0x3d9fd87a	0.078049615
74	0x3e28aec3	0.16472916
75	0x3dd5be9a	0.10436745
76	0x3dd24b03	0.102682136
77	0x3d8f0519	0.06983394
78	0x3dc8f421	0.09812189
79	0x3dbd83e4	0.09253672
80	0x3d75c77f	0.060004707
81	0x3da32e6c	0.07967839
82	0xbd8df1a9	-0.06930859
83	0xbd4906b1	-0.049078647
84	0xbc820086	-0.01586939
85	0x3e14aa25	0.1451803
86	0x3c9dc4c9	0.019258874
87	0x3bbfe297	0.005855869
88	0x3d0c6062	0.034271605
89	0x3db5dda9	0.08880169
90	0xbcdbd337	-0.026834114
91	0xbd019396	-0.03163489
92	0x3dac7833	0.08421364
93	0x3c675077	0.014118305
94	0x3c287231	0.010281132
95	0x3d7b33e8	0.0613288
96	0x3d71f8cb	0.059075158
97	0xbc2e33fb	-0.01063251
98	0x3cd62608	0.026141182
99	0x3d1db433	0.03850193
100	0xbdf48a50	-0.119404435
101	0xbcac8f23	-0.021064347
102	0xbd09c7b9	-0.033637736
103	0x3d8c7297	0.06857794
104	0xbc10afec	-0.008831006
105	0x3c3c0644	0.011476103
106	0x3cec786b	0.028866014
107	0x3dcf796b	0.101305805
108	0xbcc79648	-0.024363652
109	0xbdbe5ed2	-0.09295429
110	0xbd61bce8	-0.055111796
111	0x3d2d9de3	0.0423869
112	0xbe838a96	-0.2569167
113	0xbdf37fb6	-0.11889593
114	0xbda47621	-0.08030344
115	0xbdbd370c	-0.09239015
116	0xbdc81a08	-0.0977059
117	0xbd33f646	-0.043936037
118	0x3d99edad	0.07516036
119	0x3ca6a80d	0.020343805
120	0xbc1266dd	-0.008935657
121	0xbd83d3ae	-0.06436859
122	0xbb58457e	-0.0033000405
123	0xbc13617e	-0.008995412
124	0x3d9dbebb	0.077023946
125	0xbe0eca55	-0.13944371
126	0xbc994733	-0.018710708
127	0xbd2e4ad8	-0.042551845
128	0xbe20fedb	-0.1572222
129	0xbd979f57	-0.074034385
130	0xbdbb8b02	-0.09157373
131	0xbe21432b	-0.15748279
132	0xbdbc9851	-0.092087395
133	0xbe1a306e	-0.15057537
134	0xbca599da	-0.020214964
135	0xbe06d221	-0.13166095
136	0xbdae998a	-0.08525379
137	0xbdde8f28	-0.10867149
138	0xbc6edc94	-0.014578957
139	0xbdbe54a9	-0.092934914
140	0xbd7bb698	-0.06145343
141	0xbd286986	-0.04111626
142	0xbb8b1e4a	-0.004245554
143	0xbde32ada	-0.11092158
144	0xbda7ae44	-0.081875354
145	0x3de144df	0.10999464
146	0x3972c634	0.00023152755
147	0x3e300f1e	0.17193267
148	0x3ded73c2	0.11594345
149	0x3d8aaaa2	0.06770827
150	0xbcc6a003	-0.024246221
151	0x3dc745e6	0.09730129
152	0xbe268bac	-0.16264218
153	0x3d5a574f	0.05330592
154	0xbc9407ee	-0.018070187
155	0x3b8a2c8f	0.0042167376
156	0xbd86f0fa	-0.065889314
157	0xbe52b931	-0.20578457
158	0x3c23cb0c	0.009997141
159	0x3dafdb5a	0.0858676
160	0x3d0a95f6	0.03383442
161	0xbceb0acc	-0.028691672
162	0xbc5c1722	-0.01343325
163	0x3d05e05f	0.03268468
164	0xbe0de968	-0.13858569
165	0xbd967728	-0.07346946
166	0xbd8655dd	-0.06559346
167	0xbd91dc82	-0.07122137
168	0xbd8507e5	-0.064956464
169	0xbe074022	-0.13208058
170	0x3ce0e588	0.027453199
171	0xbcd6f20d	-0.026238466
172	0xbe033065	-0.1281143
173	0xbd189019	-0.037246797
174	0x3cfb2788	0.030658498
175	0x3dc62302	0.09674646
176	0x3d8b9855	0.068161644
177	0xbd8572bc	-0.065160245
178	0xbd26c81c	-0.040718183
179	0xbde9d8f3	-0.11418333
180	0xbca59538	-0.020212755
181	0xbe4cb32c	-0.19990224
182	0xbdefcb34	-0.1170868
183	0x3d811568	0.06302911
184	0xbc7a9b52	-0.01529582
185	0xbd168a77	-0.036753144
186	0xbc306eb4	-0.010768581
187	0x3ccd310b	0.0250478
188	0x3d6775b8	0.05650875
189	0x3d058974	0.03260179
190	0x3d33a610	0.04385954
191	0xbe32a0f0	-0.17444205
192	0xbcb76192	-0.022385392
193	0x3d816fc6	0.06320147
194	0x3da45988	0.08024889
195	0x3de37598	0.111064136
196	0x3e15d283	0.14631085
197	0x3c4fb6f6	0.012677899
198	0xbdaa8f24	-0.08328083
199	0xbd1b7fbc	-0.037963614
200	0x3e02bf94	0.12768394
201	0x3bb0d200	0.0053961277
202	0x3d1c14f6	0.038105927
203	0x3c9b3df0	0.018950433
204	0x3dd09466	0.10184555
205	0xbe2ca740	-0.16860676
206	0xbcae2573	-0.021258092
207	0xbdf1f845	-0.11814932
208	0x3c9583ab	0.01825126
209	0x3d434128	0.04766956
210	0xbda25760	-0.07926822
211	0xbc9403bb	-0.018068185
212	0x3cfa6c24	0.030569144
213	0xbdfd763a	-0.123760656
214	0xbcdccab2	-0.026952121
215	0x3d1fbb6d	0.038997103
216	0xbc3b39ae	-0.011427326
217	0x3c8de38d	0.017320419
218	0x3d3e60d3	0.046479058
219	0x3cf76d6e	0.030203547
220	0x3e24d180	0.16095543
221	0x3ce58013	0.028015172
222	0xbd9472ef	-0.07248484
223	0xbdf3b720	-0.11900163
224	0x3d1215c7	0.0356653
225	0x3d8a8d51	0.06765235
226	0xbe125a27	-0.14292203
227	0xbdec8c6f	-0.11550223
228	0xbcbe4d01	-0.023230078
229	0xbd0f9b3b	-0.03506015
230	0xbe4da86e	-0.20083782
231	0x3cf5902b	0.029975971
232	0x3da08310	0.07837498
233	0xbda9a309	-0.082830496
234	0x3c35da8a	0.011099467
235	0xbdedd8a3	-0.11613586
236	0xbe0ef429	-0.13960327
237	0xbe1d93df	-0.1538844
238	0xbe2592c2	-0.16169265
239	0xbe072135	-0.13196261
240	0x3dd19e88	0.102353156
241	0x3d01c71e	0.031684034
242	0xbd45de0d	-0.048307467
243	0x3de577ec	0.11204514
244	0xbd339943	-0.043847334
245	0xbd13635f	-0.03598344
246	0xbdd0097f	-0.10158061
247	0xbd6a6462	-0.05722464
248	0x3dc10650	0.09425032
249	0x3d2b7c26	0.041866444
250	0x3e122396	0.14271387
251	0x3da4b8e1	0.08043075
252	0x3e0e2160	0.13879919
253	0xbe0cb039	-0.13739099
254	0x3d066bbf	0.0328176
255	0xbe134fff	-0.14385985

conv3.bias f4 [128]
0	0xbd0c1aa9	-0.034205113
1	0x3b8f38f7	0.0043708044
2	0xbe0a6ca7	-0.1351801
3	0x3b32216e	0.002718057
4	0xbdae4d78	-0.0851087
5	0x3d935fcc	0.07196006
6	0xbd3007bd	-0.04297613
7	0xbd98cfdf	-0.07461523
8	0x3c975531	0.01847324
9	0xbc760948	-0.015016861
10	0xbc8e5a60	-0.017377079
11	0x3dc553bd	0.096351124
12	0x3d45b080	0.048264027
13	0x3d46e834	0.04856129
14	0xbe09f944	-0.13473994
15	0x3b8b43c6	0.0042500226
16	0xbdb8e17a	-0.09027381
17	0x3d6378ef	0.055535253
18	0x3e07e089	0.13269247
19	0x3bfed30f	0.007776625
20	0x3d1bcc73	0.038036775
21	0x3c4b9cd3	0.0124275265
22	0x3c72efdd	0.014827696
23	0xbdb0f1fd	-0.086399056
24	0x3bb56bd2	0.005536535
25	0xbd302a26	-0.043008946
26	0x3ce5194b	0.027966162
27	0xbb47dbde	-0.0030496041
28	0xbd6eb101	-0.058274273
29	0xbda02427	-0.078193955
30	0xbd25fab7	-0.040522303
31	0xbd41510f	-0.047196444
32	0x3d7dbcf9	0.061947796
33	0x3d7601d9	0.060060356
34	0xbc414323	-0.011795792
35	0x3d15b9be	0.03655409
36	0xbda7401d	-0.081665255
37	0x3c8be901	0.017078878
38	0xbd46248a	-0.04837469
39	0x3a30aca6	0.0006739594
40	0x3cb6dc02	0.022321705
41	0xbdc9db78	-0.098563135
42	0xbe226f75	-0.1586283
43	0xbdc29460	-0.095009565
44	0x3d457846	0.048210405
45	0x3d342b02	0.043986328
46	0x3bcc538e	0.0062355464
47	0xbe048fe3	-0.12945513
48	0x3be3357f	0.0069338675
49	0x3da7e249	0.08197457
50	0x3d4e79e0	0.050409198
51	0xbc822f49	-0.015891688
52	0xbb897b90	-0.004195638
53	0xbd909511	-0.07059682
54	0x3d80d8b8	0.06291336
55	0xbbee1b2e	-0.0072664237
56	0xbd3eef1d	-0.046614755
57	0xbda14472	-0.07874383
58	0xbd98372f	-0.074324004
59	0xbd7981f2	-0.06091494
60	0xbc28f7f7	-0.010313026
61	0xbda0f1ac	-0.07858595
62	0xbbb9a8a5	-0.005665856
63	0xbd1f8609	-0.038946185
64	0xbc7bc76b	-0.015367369
65	0x3c127ccc	0.008940887
66	0x3cc0d24b	0.023537776
67	0xbc543c4a	-0.012953827
68	0xbd9a5345	-0.07535414
69	0x3c999c4e	0.01875129
70	0x3de61337	0.11234134
71	0xbd6a4e08	-0.057203323
72	0xbc3f8aa5	-0.01169077
73	0xbd4b77d0	-0.04967481
74	0xbb07adb0	-0.002070289
75	0xbd6b7a28	-0.057489544
76	0xbd33d361	-0.04390276
77	0x3d319e8c	0.043364093
78	0xbd8473ee	-0.06467424
79	0xba98251f	-0.0011607743
80	0xbcf3f08f	-0.029777793
81	0x3c54b91a	0.012983585
82	0x3c83297a	0.016010989
83	0xbde1b765	-0.11021308
84	0xbae791a7	-0.0017667309
85	0xbd140bc7	-0.036144044
86	0x3df921c7	0.12164646
87	0xbc4214fe	-0.011845825
88	0x3e0012e9	0.12507214
89	0x3b859996	0.0040771468
90	0xbd42699f	-0.04746401
91	0x3bcbd88b	0.0062208823
92	0xbd92aea4	-0.07162216
93	0xbcb080dd	-0.021545822
94	0x3d8df6ba	0.06931825
95	0xbd2b3221	-0.041795854
96	0xbd10f635	-0.03539105
97	0x3e11a302	0.14222339
98	0xbd3d11dd	-0.046159614
99	0xbc85548e	-0.01627567
100	0xbd0c12a1	-0.034197453
101	0xbcbcf0ec	-0.0230641
102	0x3b906586	0.004406634
103	0x3d81be73	0.063351534
104	0x3b86aae8	0.004109729
105	0xbe04d2c3	-0.12971024
106	0xbb4f3ced	-0.0031622008
107	0xbbe4dcd0	-0.0069843307
108	0xbc3c2887	-0.011484272
109	0x3d91add1	0.07113231
110	0x3ce5080c	0.027957939
111	0x3aa2a55b	0.0012408899
112	0xbcc8833d	-0.024476642
113	0xbc3b498d	-0.01143111
114	0xbcb72b15	-0.02235941
115	0x3c381f20	0.0112378895
116	0x3e0bcd12	0.13652447
117	0xbd1948d6	-0.037422977
118	0xbd71fdd8	-0.059079975
119	0xbd532414	-0.05154808
120	0x3abd3f26	0.0014438375
121	0xbb503e31	-0.003177535
122	0xbdfe5528	-0.12418586
123	0x3e10827d	0.14112277
124	0xbdaec1c5	-0.08533052
125	0xbdac7ee8	-0.08422643
126	0xbe0f8c11	-0.14018275
127	0xbc88a355	-0.016679445

act_conv1.weight f4 [4, 128, 1, 1]
0	0x3cd2aa07	0.025715841
1	0x3d23929b	0.039934736
2	0xbd402a62	-0.04691542
3	0xbd8e6f7e	-0.06954859
4	0xbd0c04c9	-0.03418425
5	0x3eaef493	0.3417097
6	0xbd1f4abd	-0.038889635
7	0x3e71ccaa	0.2361323
8	0x3d9f9ff6	0.07794182
9	0xbdac175e	-0.084028944
10	0xbd9f0c74	-0.07766047
11	0x3c955aa8	0.018231705
12	0xbd34f084	-0.044174686
13	0xbd975f48	-0.0739122
14	0x3cce78aa	0.025204021
15	0x3cda71e4	0.026665635
16	0xbcdb10ae	-0.026741352
17	0x3ddc4ab4	0.10756436
18	0xbd3de817	-0.046363916
19	0x3c8dbecb	0.017302891
20	0x3c4276a7	0.011869109
21	0xbd3fa1c1	-0.04678512
22	0x3c569b1d	0.013098505
23	0x3d4bc4ba	0.04974816
24	0x3d6e1f25	0.05813517
25	0x3daa21aa	0.08307202
26	0x3df58444	0.11988118
27	0xbda8af08	-0.082365096
28	0x3d34d4de	0.04414832
29	0xbdc4c003	-0.09606936
30	0xbdad774a	-0.08470018
31	0x3e860577	0.26176044
32	0x3ed0aa8d	0.4075512
33	0x3d206b5a	0.03916488
34	0x3c908006	0.017639171
35	0x3dc4c758	0.09608334
36	0xbe86ca75	-0.26326337
37	0x3db26d87	0.08712297
38	0xbcf019ff	-0.02930927
39	0x3ca78bd8	0.020452425
40	0xbd3b9215	-0.04579361
41	0x3e54bd19	0.2077526
42	0xbe46fc52	-0.1943219
43	0xbe369b17	-0.178326
44	0xbd07ac7b	-0.033123475
45	0xbe13f55d	-0.14449067
46	0xbd90ce1d	-0.07070563
47	0xbdeafcb5	-0.11473981
48	0xbda9d0a0	-0.08291745
49	0x3d1ba540	0.03799939
50	0x3cde599f	0.027142344
51	0xbcb47a13	-0.022030866
52	0x3de7da78	0.113209665
53	0x3dc5ca77	0.09657758
54	0x3b3f3afc	0.0029179445
55	0xbe2bb8e8	-0.16769755
56	0xbcd2d197	-0.025734706
57	0x39b266bb	0.00034027346
58	0xbcea376e	-0.028590884
59	0x3d67e2d7	0.056612816
60	0xbda13228	-0.07870895
61	0x3e270562	0.16310647
62	0x3d55cc7e	0.052196972
63	0xbb59e094	-0.0033245431
64	0x3de2219e	0.11041568
65	0x3d7fa923	0.06241716
66	0x3f00b4e8	0.5027604
67	0xbcf27483	-0.029596573
68	0x3f161de5	0.58639365
69	0x3d121843	0.03566767
70	0x3c9db7db	0.019252708
71	0x3e2a716f	0.16644834
72	0xbd09d1a0	-0.03364718
73	0xbcc8c9f6	-0.024510365
74	0xbd31e62a	-0.043432392
75	0xbdc7b6b6	-0.09751646
76	0x3d30a6a7	0.043127682
77	0x3b6af565	0.0035851833
78	0x3d8f18a1	0.069871195
79	0xbd33d3ff	-0.043903347
80	0xbdd1cfaf	-0.102446906
81	0xbe6ecd1b	-0.23320429
82	0x3d61a74f	0.0550912
83	0xba506454	-0.00079495204
84	0x3d16d55e	0.036824577
85	0xbe84d9cb	-0.25947413
86	0x3d5261d2	0.05136282
87	0xbd177648	-0.036978036
88	0x3ddfd8c1	0.109300144
89	0xbd890c6f	-0.06691825
90	0x3dff5f15	0.12469307
91	0xbcfd82ff	-0.030946253
92	0xbe092f3f	-0.13396929
93	0xbcb4e652	-0.022082482
94	0x3e93b95b	0.28852352
95	0x3b272fb2	0.0025510606
96	0x3c83ac6f	0.016073434
97	0x3ceffc3e	0.029295083
98	0xbda372f4	-0.0798091
99	0x3c84fa1a	0.016232539
100	0x3e9655ed	0.2936243
101	0x3ea8a19f	0.32935807
102	0x3e4d6aa7	0.20060216
103	0x3d117111	0.03550822
104	0xbd8ea8be	-0.06965779
105	0x3ddb2b97	0.107016735
106	0x3e0d993d	0.13827987
107	0x3d9783cc	0.07398185
108	0xbb1d342b	-0.0023987393
109	0x3e1ce999	0.15323485
110	0x3be51354	0.0069908295
111	0x3e1b461b	0.15163462
112	0xbd3bba85	-0.045832176
113	0x3dad9def	0.08477389
114	0x3d5c1e70	0.053739965
115	0xbd106123	-0.035248887
116	0x3e17446f	0.14772199
117	0x3e937b7f	0.28805158
118	0xbcc388dd	-0.023868972
119	0xbdf1a886	-0.117997214
120	0x3c751f4c	0.014961075
121	0xbd6df2cb	-0.058092874
122	0xbd30b0a5	-0.04313721
123	0x3e21a886	0.15786943
124	0xbd5fa052	-0.054596253
125	0xbcf64f82	-0.03006721
126	0xbcdd7a25	-0.027035782
127	0xbdb2d2b0	-0.08731592
128	0xbd3faac2	-0.046793707
129	0xbd12a8c3	-0.035805475
130	0x3d2580b2	0.040405937
131	0x3d3750fe	0.044754975
132	0x3d361611	0.044454638
133	0xbdd07f98	-0.101805866
134	0x3e8ad2a6	0.27113837
135	0x3e3077ea	0.17233244
136	0x3e6816b5	0.22664912
137	0x3b0a0ad6	0.0021063588
138	0xbce0124b	-0.027352473
139	0xbccd0871	-0.02502844
140	0xbd21b871	-0.039482538
141	0x3e96e889	0.29474285
142	0xbe05c71e	-0.13064238
143	0x3d673569	0.05644742
144	0x3d975922	0.073900476
145	0xbe72aff9	-0.2369994
146	0x3b8386ef	0.004013888
147	0xbc53fb0c	-0.012938272
148	0xbd0212fe	-0.031756394
149	0x3d82f63b	0.06394621
150	0xbe23c93c	-0.15994734
151	0x3d95b9cf	0.07310831
152	0xbdcbe5d6	-0.09955947
153	0xbe3b685f	-0.18301533
154	0xbd4d9e93	-0.050200056
155	0xbcdbf393	-0.026849544
156	0xbd91fc0f	-0.071281545
157	0x3dae4bc9	0.085105486
158	0x3c2dd020	0.010608703
159	0xbeb18baf	-0.34676883
160	0x3dfb8fcf	0.12283289
161	0xbd93ecc5	-0.072228946
162	0xbd0fa87f	-0.0350728
163	0xbe7a427f	-0.24439429
164	0x3eb6d390	0.35708284
165	0x3ce2ffa0	0.027709782
166	0x3da413ca	0.08011587
167	0x3bdf30d9	0.006811243
168	0xbd5903d0	-0.05298215
169	0x3c2b78e8	0.010465838
170	0x3e129d0e	0.14317724
171	0x3e024c36	0.12724385
172	0x3cc66f01	0.024222853
173	0x3e9a5496	0.3014266
174	0xbcf7d694	-0.030253686
175	0xbdff121b	-0.12454625
176	0x3ea773fa	0.3270567
177	0x3bdc75c1	0.0067279045
178	0x3e23de53	0.16002779
179	0xbd707a6b	-0.058710497
180	0xbdf2983d	-0.118454434
181	0x3dfd27ae	0.12361084
182	0x3b4d6164	0.0031338567
183	0x3d9568c0	0.0729537
184	0x3dc4f8da	0.09617777
185	0xbc8c00fe	-0.017090317
186	0x3f17ba81	0.5926896
187	0x3d79c36c	0.060977384
188	0x3d76102a	0.06007401
189	0x3ce6caa6	0.028172802
190	0xbcdf042f	-0.027223675
191	0x3e8e26a3	0.27763852
192	0x3d9660a3	0.07342651
193	0xbca433c2	-0.020044211
194	0x3d6e8604	0.058233276
195	0xbd79572c	-0.06087415
196	0xbe8b45fc	-0.2720183
197	0xbb16a353	-0.0022985532
198	0xbe0bcc72	-0.13652208
199	0xbcaff5b9	-0.021479474
200	0xbdae0120	-0.08496308
201	0xbc17b6ba	-0.009259874
202	0x3cc91bad	0.02454933
203	0xbbc3de57	-0.0059774327
204	0xbd7d4917	-0.061837282
205	0x3e669169	0.22516407
206	0x3cd582c8	0.026063338
207	0x3ceeda84	0.02915693
208	0x3e69cf37	0.22832952
209	0x3e44f646	0.19234571
210	0x3d469659	0.048483226
211	0xbe166543	-0.14687066
212	0xbdacbb21	-0.084341295
213	0x3e42bbcc	0.19016951
214	0x3e428947	0.1899768
215	0x3e19a9a0	0.15006113
216	0x3dce36a7	0.10069018
217	0x3dc92d7a	0.09823127
218	0x3de2fa28	0.1108287
219	0x38d29ca2	0.000100427555
220	0x3e220959	0.15823878
221	0x3c033e55	0.008010467
222	0xbce82f2e	-0.02834281
223	0x3dcb7c22	0.09935786
224	0x3d8990d3	0.06717076
225	0x3daa347e	0.08310793
226	0x3e16c179	0.14722241
227	0x3dc358e6	0.095384404
228	0xbec28e38	-0.3799913
229	0xbe5d3988	-0.21603978
230	0xbe8d8e57	-0.2764766
231	0xbdc0a962	-0.09407307
232	0xbd61f1f0	-0.05516237
233	0xbc520622	-0.012818845
234	0x3dd104c5	0.10205988
235	0xbe284df1	-0.16435982
236	0x3e34880a	0.1763002
237	0x3e4953db	0.19660895
238	0xbdd27462	-0.102761045
239	0xbc8ee20b	-0.01744177
240	0xbca7e874	-0.020496584
241	0xbe1c8505	-0.15285118
242	0x3c1b6ff0	0.009487137
243	0x3e81558e	0.25260586
244	0x3db8ff89	0.090331145
245	0x3d073de7	0.03301802
246	0xbcaa0876	-0.020755988
247	0x3cbe8926	0.023258757
248	0x3d04acd4	0.032391384
249	0xbcdb9163	-0.026802724
250	0xbc6b5d26	-0.01436547
251	0x3e293229	0.16523041
252	0x3daccd33	0.08437576
253	0x3d547174	0.05186601
254	0x3ce01931	0.027355762
255	0x3e54430a	0.20728698

act_conv1.bias f4 [4]
0	0x3d786d5a	0.06065116
1	0x3c7f59b2	0.01558535
2	0x3e0380b1	0.1284206
3	0xbc5b6c6e	-0.013392551

act_fc1.weight f4 [81, 324]
0	0xbb8a4753	-0.0042199283
1	0xbd0da7c0	-0.034583807
2	0xbc7804cb	-0.0151378615
3	0xbd7e50d6	-0.06208881
4	0xbd6d383b	-0.057914954
5	0xbcf718f7	-0.030163271
6	0xbd693e84	-0.056944385
7	0xbd2a9731	-0.041648094
8	0xbbc117db	-0.0058927364
9	0x3ca24eb4	0.01981292
10	0xbd5a95ea	-0.053365625
11	0xbd085343	-0.03328253
12	0xbaba192f	-0.0014198179
13	0xbdbe2ae7	-0.09285527
14	0xbc929390	-0.017892629
15	0xbd39693e	-0.045266382
16	0xbd812e98	-0.06307715
17	0xbd295d17	-0.041348543
18	0x3c250fcd	0.010074568
19	0xbd3058c9	-0.043053422
20	0xbc78133e	-0.015141306
21	0x3b00eda4	0.0019672895
22	0xbb47ff39	-0.0030517115
23	0x3cf347bb	0.02969729
24	0xbd368790	-0.044562876
25	0xbce89bd0	-0.02839461
26	0xbc091183	-0.0083659915
27	0x3ce6b70c	0.028163455
28	0xbd255896	-0.040367685
29	0xbd72957c	-0.05922459
30	0xbd3512f6	-0.044207536
31	0xbb124aa2	-0.0022322317
32	0x3cff6a27	0.031178547
33	0xbe0e14b2	-0.13875082
34	0xbd88b938	-0.06675953
35	0xbccd3bfa	-0.025053013
36	0xbce24751	-0.027621897
37	0x3bafa7e7	0.0053605917
38	0xbd95deca	-0.07317884
39	0xbdf5588b	-0.11979779
40	0xbd994422	-0.074836984
41	0xbb73579d	-0.003713108
42	0xbd71e79f	-0.05905878
43	0xbd68ef77	-0.056868996
44	0xbcb09ef6	-0.021560173
45	0x3d4d7745	0.050162572
46	0xbdbcd3b4	-0.09220067
47	0xbe6e3587	-0.23262607
48	0xbd8ae5cd	-0.06782112
49	0x3cef98f2	0.029247735
50	0xbbd008d5	-0.006348709
51	0xbcfc4050	-0.030792385
52	0xbd0ec941	-0.0348599
53	0xbd16bcfd	-0.036801327
54	0x3c1e7ba0	0.009673029
55	0xbeae77ed	-0.3407587
56	0xbd45bc2d	-0.04827516
57	0x3d7a71b8	0.061143607
58	0x3c580663	0.013185116
59	0xbd6bee48	-0.05760029
60	0xbd0872ae	-0.033312492
61	0xbd1d64fd	-0.038426388
62	0x392f2c51	0.0001670581
63	0xbc8fc7ce	-0.017551329
64	0x3e0c3385	0.13691528
65	0x3e025f7b	0.12731735
66	0x3d840f5f	0.06448244
67	0xbd8f2b08	-0.069906294
68	0x3c887263	0.016656106
69	0x3c2e5a25	0.010641609
70	0x3d2625b1	0.04056329
71	0xbcb9e842	-0.022693757
72	0x3d31e49f	0.04343092
73	0xbdd6b27e	-0.104832634
74	0x3d577fd4	0.05261214
75	0xbd719309	-0.058978114
76	0xbcc43f8b	-0.02395608
77	0xbd478426	-0.04871001
78	0xbd11e687	-0.03562024
79	0x3bf79135	0.007555152
80	0xbcff764f	-0.031184344
81	0xbcb18447	-0.02166952
82	0xbd970508	-0.073740065
83	0xbc2740e7	-0.010208345
84	0xbcd366e4	-0.025805898
85	0x3b016152	0.0019741845
86	0x3c79b437	0.0152407205
87	0xbccf97a5	-0.025340864
88	0xbde07b1b	-0.109609805
89	0xbccd4115	-0.025055448
90	0xbca10b89	-0.01965882
91	0xbc885394	-0.016641416
92	0x3c44fac8	0.0120226815
93	0xbb8f8485	-0.004379811
94	0xbc5ce671	-0.013482676
95	0xbc1d629f	-0.009606033
96	0x3cdb4eab	0.02677091
97	0xbc1072f5	-0.00881647
98	0x3ccd4409	0.025056856
99	0xbc9de861	-0.019275846
100	0x3c967dba	0.018370498
101	0x3c525c0c	0.0128393285
102	0xbce5cd6f	-0.02805206
103	0x3cb5457f	0.022127865
104	0x3cc7acf1	0.024374457
105	0x3caa7f12	0.020812545
106	0xbbb85c95	-0.005626271
107	0xbba60759	-0.005066794
108	0xbd1fb95d	-0.038995136
109	0x3cdbccdd	0.026831085
110	0x3c9ea6b8	0.019366607
111	0x3d6e6f9c	0.058211908
112	0x3db1ddaf	0.08684861
113	0x3c7a361b	0.015271689
114	0x3ab565b1	0.001383951
115	0x3cb48e6c	0.022040568
116	0xbc6e2e83	-0.014537456
117	0xbd25f1d7	-0.04051384
118	0x3cd6744a	0.026178498
119	0x3c9224d5	0.017839829
120	0x3dc01fb7	0.09381049
121	0x3cb0ca1f	0.021580754
122	0x3cb6c795	0.022311965
123	0x3cf14863	0.029453462
124	0x3cd65572	0.02616379
125	0xbd473489	-0.048634086
126	0x3d7d0ecd	0.061781693
127	0x3cf4d6f5	0.029887656
128	0x3dc4e45d	0.09613869
129	0x3d3fe431	0.04684848
130	0x3d137bda	0.036006786
131	0x3d7bb394	0.061450556
132	0x3ccf466a	0.02530213
133	0x3d17daea	0.037074007
134	0xbb1c495b	-0.0023847434
135	0x3c93cb05	0.018041143
136	0x3d8c077e	0.068373665
137	0x3e0ad7a0	0.13558817
138	0x3d1c6013	0.03817756
139	0x3c7a3e58	0.015273653
140	0x3c37009b	0.011169578
141	0x3c7de2c3	0.015495959
142	0xbcf2ddaf	-0.029646723
143	0xbd150445	-0.036381025
144	0xbec74654	-0.38920844
145	0x3dc9128c	0.09817991
146	0x3d66f0af	0.056381878
147	0x3cc211aa	0.023690064
148	0xbc320416	-0.010865232
149	0x3d0d92a0	0.03456366
150	0x3c840f3c	0.016120546
151	0xbc7efe5f	-0.0155635765
152	0xbc860d1f	-0.016363679
153	0x3cec0024	0.02880866
154	0x3dc6327a	0.096775964
155	0xbc9a8a78	-0.018864855
156	0xbceccb2c	-0.028905474
157	0xba90cb97	-0.0011047003
158	0x3ca0195c	0.019543342
159	0x3d3ae3fa	0.04562757
160	0x3bd3d891	0.0064650257
161	0xbcd9ab67	-0.026570989
162	0xbbba0a12	-0.00567747
163	0xbd214bc1	-0.039378885
164	0xbc79d470	-0.015248403
165	0x3a9c7020	0.0011935271
166	0xbd02013c	-0.03173946
167	0xbd58824f	-0.052858647
168	0xbc5ba670	-0.013406381
169	0xbd7a2eec	-0.061079904
170	0xbca653ca	-0.020303626
171	0xbb9c0b01	-0.004762054
172	0xbc2c2526	-0.010506904
173	0xbbb2edc4	-0.005460473
174	0xbd0a915c	-0.03383003
175	0xbccc6a77	-0.02495311
176	0xbcc67b47	-0.024228705
177	0xbda6d067	-0.08145218
178	0xbce2f18a	-0.027703065
179	0xbb8dede9	-0.0043313396
180	0xbc6f65c0	-0.014611661
181	0xbd0c13fe	-0.034198754
182	0x3842468c	4.6318906e-05
183	0xbd74f003	-0.059799206
184	0xbc835faa	-0.016036827
185	0x3d038a3a	0.032114245
186	0xbd2a98f0	-0.04164976
187	0xbd563dc8	-0.052305013
188	0xbdc59ee3	-0.09649446
189	0xbd7e8605	-0.06213953
190	0xbccdef31	-0.02513847
191	0xbd45443c	-0.048160776
192	0xbd200720	-0.039069295
193	0xbd4070a5	-0.046982426
194	0xbd911166	-0.070833966
195	0xbd24d23e	-0.040239565
196	0xbd5f3454	-0.054493263
197	0xbd37a32c	-0.044833347
198	0xbc3d3255	-0.011547645
199	0x3c5e021c	0.013550308
200	0xbd9eedce	-0.077602014
201	0x3d1157ab	0.035483997
202	0xbdabf722	-0.08396746
203	0xbdc4fb46	-0.09618239
204	0xbd673792	-0.05644948
205	0xbd022905	-0.0317774
206	0xbcf8d1f7	-0.030373557
207	0x3da59717	0.08085459
208	0xbde60c48	-0.11232811
209	0x3df4bc4e	0.11949979
210	0xbe0f29a7	-0.13980733
211	0xbdc80994	-0.09767452
212	0xbd54d862	-0.05196417
213	0xbd66492b	-0.056222122
214	0xbc91e73f	-0.017810462
215	0x3bed3cb2	0.0072399015
216	0xbd74dc04	-0.059780136
217	0x3c2cfed2	0.010558801
218	0xbe311405	-0.17292793
219	0x3c2940cc	0.01033039
220	0xbd361f3e	-0.04446339
221	0xbd9e24c9	-0.0772186
222	0xbd6bc899	-0.05756435
223	0xbd833466	-0.064064786
224	0x3cc147d5	0.023593822
225	0xbf191ff1	-0.59814364
226	0x3b7806ea	0.0037845918
227	0x3dae52a9	0.0851186
228	0xbd14cbfb	-0.036327343
229	0xbd4790b5	-0.048721988
230	0xbd2afa84	-0.041742817
231	0xbd55db46	-0.05221107
232	0xbd5b1d5e	-0.053494804
233	0xbcc9e49c	-0.024645142
234	0x3d5aebcf	0.05344754
235	0x3cf29420	0.029611647
236	0x3cd5c4b3	0.02609477
237	0x3bdfe7ca	0.0068330513
238	0xbcf18654	-0.029482998
239	0xbd699265	-0.05702438
240	0xbd05ac5e	-0.032635085
241	0xbc2f090c	-0.010683309
242	0xbcb40543	-0.021975165
243	0xbb49568b	-0.003072175
244	0xbc84cbb8	-0.016210422
245	0xbc99c284	-0.01876951
246	0x3bc74851	0.006081619
247	0xbc5b3614	-0.013379592
248	0x3bd9bb52	0.006644645
249	0x3cee58cc	0.029095076
250	0x3cf82157	0.030289335
251	0x3c646dbd	0.013942179
252	0xbb8fe466	-0.004391241
253	0xbcbcf454	-0.023065723
254	0x3c9dd545	0.019266734
255	0xbcf6ef82	-0.030143503

act_fc1.bias f4 [81]
0	0x3c827d66	0.015928935
1	0xbd0841fc	-0.033266053
2	0xbdd7925e	-0.10525964
3	0xbd555888	-0.052086383
4	0xbcdc8e73	-0.026923394
5	0xbd8167e8	-0.06318647
6	0xbde88811	-0.113540776
7	0xbc97da94	-0.018536843
8	0x3c80e063	0.015731996
9	0xbd0ab2d2	-0.033861943
10	0xbb0e90cf	-0.0021753793
11	0xbdf93107	-0.12167554
12	0x3d741063	0.05958594
13	0x3d294653	0.041326832
14	0x3daa8ab8	0.0832724
15	0xbdd565e1	-0.104198225
16	0xbd387f9c	-0.045043573
17	0x3b5e6431	0.003393423
18	0xbdecc6ce	-0.115613565
19	0xbddd8268	-0.10815889
20	0x3e12a971	0.1432245
21	0x3d92cc70	0.071678996
22	0x3da27364	0.07932165
23	0x3d35d2cb	0.04439048
24	0x3dbc4320	0.091924906
25	0xbe24300c	-0.16033953
26	0xbd803420	-0.06259942
27	0xbc84454a	-0.01614632
28	0x3d9cbbbc	0.07652995
29	0x3d23386c	0.03984873
30	0x3cc0a9e7	0.023518516
31	0x3d47cb9d	0.048778165
32	0x3bf942ed	0.007606855
33	0x3c5fbf38	0.01365643
34	0x3d918404	0.07105258
35	0xbd068220	-0.03283894
36	0xbc36940c	-0.011143696
37	0xbc198812	-0.009370821
38	0x3dc61c88	0.09673411
39	0x3cb1c9c3	0.021702653
40	0x3c3daedb	0.011577333
41	0x3d6991cf	0.05702382
42	0x3db44ea0	0.08804059
43	0xbcc83e87	-0.024443878
44	0x3bd46d3b	0.006482748
45	0xbd19f4fb	-0.037587147
46	0x3d806ac9	0.06270368
47	0x3c7c2f9e	0.015392212
48	0x3ca232dd	0.019799644
49	0x3d6e39b4	0.0581605
50	0xbc779abe	-0.015112577
51	0x3d46ff2d	0.0485832
52	0x3b8d7e63	0.004318045
53	0xbd1ffaf7	-0.039057698
54	0xbdc0ec7a	-0.09420104
55	0xbdd606a2	-0.10450484
56	0x3e03ae6a	0.12859502
57	0x3d352c6e	0.044231825
58	0x3df9bdc6	0.121943995
59	0x3da63370	0.0811528
60	0x3e319ad7	0.17344223
61	0xbdb45e73	-0.08807077
62	0xbd6f0444	-0.058353677
63	0xbcaf1dc0	-0.02137649
64	0x3b39c6c2	0.0028347229
65	0xbdec2488	-0.11530405
66	0x3d65b70b	0.056082767
67	0x3c0058df	0.0078336885
68	0x3d4aa8e3	0.04947747
69	0xbdc14aeb	-0.094381176
70	0x3baefbf2	0.005340093
71	0x3c4139d8	0.011793576
72	0x3c3e3cd7	0.011611185
73	0x3c7cebbe	0.015437065
74	0xbda647c6	-0.081191584
75	0xbd3c7e88	-0.046019107
76	0xbb04e999	-0.0020280837
77	0xbd4f6444	-0.05063273
78	0xbd0f5182	-0.03498984
79	0x3c0ab61a	0.008466268
80	0x3c39c6a0	0.01133886

val_conv1.weight f4 [2, 128, 1, 1]
0	0x3e82266d	0.25419942
1	0xbe2c62a2	-0.168345
2	0xbe23756c	-0.15962762
3	0xbbb7c1d9	-0.0056078252
4	0x3ea0a84e	0.31378406
5	0xbd0e259c	-0.034703836
6	0x3c371e8b	0.011176716
7	0x3e596d82	0.2123318
8	0x3e2d47d2	0.16921929
9	0x3e9a0aad	0.3008627
10	0xbecf2af6	-0.40462464
11	0xbdfeeff7	-0.124481134
12	0xbebc2126	-0.3674404
13	0xbb6fd00f	-0.0036592518
14	0x3ecf0e05	0.40440384
15	0xbd50b376	-0.050952397
16	0xbe36057d	-0.17775531
17	0x3e0c25ab	0.13686244
18	0x3c72cd72	0.01481949
19	0x3e0c6741	0.13711263
20	0xbe40a1c1	-0.18811704
21	0xbe38ff83	-0.1806622
22	0x3e03520b	0.12824266
23	0x3d34dd2f	0.04415625
24	0xbc9bcbd1	-0.019018086
25	0xbebf9c02	-0.37423712
26	0x3d9603b7	0.07324927
27	0x3e126f2d	0.14300223
28	0x3ca893f0	0.020578355
29	0x3d22a11a	0.03970442
30	0xbd8bfbe0	-0.06835151
31	0x3dafb0ef	0.08578669
32	0x3ce58372	0.02801678
33	0x3e180427	0.14845334
34	0x3e15d41d	0.14631696
35	0x3d8e02a8	0.069341004
36	0x3da8ef6a	0.082487896
37	0xbe1fafd0	-0.15594411
38	0x3e54c176	0.20776924
39	0xbdd82632	-0.1055416
40	0xbe347d42	-0.17625907
41	0x3e610214	0.21973449
42	0x3c654fe7	0.013996101
43	0x3c3d75b1	0.011563704
44	0xbe1e4e68	-0.15459597
45	0x3dafee37	0.08590358
46	0xbee757ef	-0.45184276
47	0x3dd581cc	0.104251474
48	0xbcc926b6	-0.024554592
49	0xbe948847	-0.2901022
50	0xbe6a18e9	-0.22861065
51	0x3e5abb41	0.21360494
52	0xbd60030a	-0.0546904
53	0xba58326b	-0.0008247259
54	0x3e8a38ba	0.26996404
55	0x3e5701ce	0.20996782
56	0x3e440b4a	0.19144931
57	0x3e91bdd6	0.28465146
58	0x3bdc8390	0.0067295507
59	0x3e2a04f5	0.16603453
60	0x3eb06d99	0.34458616
61	0xbc255f5e	-0.010093538
62	0xbe87fc11	-0.265595
63	0xbd5851ea	-0.052812494
64	0x3c7e5bc3	0.015524807
65	0x3d14eab0	0.036356628
66	0x3ddebafc	0.10875508
67	0x3e0d41bf	0.13794611
68	0x3ea31d34	0.31858218
69	0xbd526e14	-0.05137451
70	0xbe6a5aa2	-0.22886136
71	0xbe3eb944	-0.1862536
72	0xbe7c28c3	-0.24624924
73	0x3e258061	0.16162254
74	0xbd8fec3c	-0.0702748
75	0x3eda51d5	0.42640558
76	0xbe8c1834	-0.27362216
77	0xbbee76b3	-0.0072773336
78	0x3d95c389	0.07312686
79	0x3e69504b	0.22784536
80	0x3d42221e	0.047395818
81	0x3e4c5cfe	0.19957349
82	0xbeb18844	-0.34674275
83	0x3e3952a7	0.18097936
84	0x3e1443f3	0.14479046
85	0x3803be42	3.1410025e-05
86	0xbc38c720	-0.011277944
87	0xbdba117f	-0.09085368
88	0x3c841935	0.0161253
89	0xbe43fcf5	-0.19139464
90	0xbda9916a	-0.08279689
91	0x3d821cba	0.063531354
92	0x3da4333b	0.08017584
93	0xbe8fc9f0	-0.28083754
94	0x3e0824cd	0.13295288
95	0xbe0063f1	-0.12538125
96	0x3e718c80	0.23588753
97	0x3c9ace45	0.018897185
98	0x3e1add2f	0.15123437
99	0xbda6c5a3	-0.08143165
100	0x3d335def	0.043790754
101	0x3c4f0cb0	0.012637302
102	0xbcf9d580	-0.030497313
103	0xbcde221d	-0.027115876
104	0x3d670928	0.056405216
105	0xbd40779a	-0.04698906
106	0x3da17801	0.07884217
107	0x3ceabc4e	0.028654244
108	0xbdafefd0	-0.085906625
109	0x3b93f031	0.004514717
110	0x3d628088	0.05529836
111	0x3d869c33	0.065727614
112	0xbe5b5c5c	-0.21421951
113	0x3cbe7cb8	0.02325283
114	0x3dc7b190	0.09750664
115	0x3d1e7bcb	0.038692277
116	0x3c60e26f	0.013725861
117	0x3e4080ac	0.18799084
118	0xbd2639f0	-0.040582597
119	0x3e4a7324	0.19770485
120	0x3e1ff2fa	0.15620032
121	0xbebb98e3	-0.3664008
122	0x3e0eb5e7	0.13936578
123	0x3c01c853	0.007921296
124	0x3e85d9ed	0.26142827
125	0x3cdc23a4	0.026872464
126	0x3db25242	0.08707096
127	0x3de7ffb7	0.113280706
128	0x3e2e8d80	0.17046165
129	0xbe373be5	-0.17893942
130	0x3e457085	0.19281204
131	0xbf0084a6	-0.50202405
132	0x3e8aab8c	0.27084005
133	0xbe1782a6	-0.14795932
134	0x3de823b4	0.11334935
135	0xbebe3363	-0.3714858
136	0xbd324d35	-0.04353066
137	0x3e14d2e6	0.14533576
138	0x3ea92c06	0.330414
139	0xbec40618	-0.382859
140	0x3e2d113d	0.16901107
141	0x3d51bfbc	0.051208243
142	0xbd985c03	-0.07439425
143	0x3e89ef3a	0.26940328
144	0x3ea069b2	0.3133064
145	0xbe2cf53a	-0.16890422
146	0x3c9010d9	0.017586159
147	0xbb9401f8	-0.0045168363
148	0x3e0bdc4c	0.13658255
149	0xbdc15b4f	-0.09441244
150	0xbe83dcdc	-0.2575444
151	0xbebbc5bc	-0.36674297
152	0xbda3ca04	-0.07997516
153	0x3d3c7aaf	0.046015438
154	0x3e9863a4	0.2976352
155	0xbeaf469a	-0.34233552
156	0x3e96472b	0.29351172
157	0xbedee459	-0.4353359
158	0xbefe5dfa	-0.49681073
159	0x3dcc28da	0.09968729
160	0x3d4271bb	0.047471743
161	0xbec26a42	-0.37971693
162	0x3d92e7e8	0.07173139
163	0x3caee548	0.021349564
164	0x3d882b46	0.06648879
165	0x3cba5655	0.022746244
166	0xbe99705e	-0.29968542
167	0xbccb9ae1	-0.024854125
168	0x3ec92d11	0.39292195
169	0xbe9e4d41	-0.30918315
170	0x3e97e259	0.29664877
171	0xbc0ee17b	-0.008720751
172	0xb9deab2e	-0.00042470678
173	0x3e028014	0.1274417
174	0x3e22a384	0.15882689
175	0x3e273f53	0.1633275
176	0xbd1fc6f6	-0.039008103
177	0x3e3701ca	0.17871776
178	0xbd2b6866	-0.04184761
179	0xbddac479	-0.106820054
180	0x3e6811d2	0.22663048
181	0xbed8669c	-0.42265785
182	0x3eb650c3	0.3560849
183	0xbe0ab7a0	-0.1354661
184	0xbd82c352	-0.06384911
185	0xbe6ec28b	-0.233164
186	0xbd45e9ff	-0.04831886
187	0xbedcc432	-0.43118435
188	0x3f12e883	0.57386035
189	0x3edc00db	0.42969403
190	0xbe29478b	-0.16531198
191	0xbd6e369f	-0.05815756
192	0xbe92a6d0	-0.28642893
193	0x3eb0ac5a	0.34506494
194	0x3cc28029	0.023742752
195	0x3ec0a96f	0.37629268
196	0x3e54b71e	0.20772979
197	0xbec06c1c	-0.3758248
198	0x3e2faee8	0.17156565
199	0xbe3a8311	-0.1821406
200	0xbe07732e	-0.13227531
201	0xbe49f59e	-0.19722602
202	0xbf0de1fd	-0.55422956
203	0x3e918f4b	0.28429636
204	0x3e852443	0.26004228
205	0x3d894919	0.067033954
206	0x3df06f3d	0.11739967
207	0xbee1130e	-0.4395985
208	0x3e2ecd13	0.17070417
209	0xbdb475de	-0.08811544
210	0x3d3a2712	0.045447417
211	0xbe1dd8f9	-0.154148
212	0xbef72619	-0.48271254
213	0x3c06686e	0.008203609
214	0xbd1ebb47	-0.03875282
215	0x3e22bc55	0.15892155
216	0x3bcae909	0.0061923307
217	0x3e011336	0.12604985
218	0xbd8690d4	-0.065705925
219	0x3e3d3452	0.1847699
220	0x3e3a1ea9	0.18175758
221	0xbd1c9450	-0.03822738
222	0x3d90c8fe	0.07069586
223	0x3ed2a5b0	0.41142035
224	0x3e51f489	0.20503439
225	0x3c20cd7f	0.009814619
226	0xbe3ae0dc	-0.1824984
227	0xbd3253b6	-0.043536864
228	0xbedaf0d3	-0.4276186
229	0xbd5db51e	-0.054127805
230	0x3da0ac60	0.07845378
231	0xbdb0da00	-0.0863533
232	0x3eed32e2	0.46327883
233	0xbecb7d31	-0.3974395
234	0x3ce16496	0.027513783
235	0xbdc7d95f	-0.09758257
236	0xbe134e43	-0.14385323
237	0x3b84fe0a	0.004058604
238	0xbeb1b007	-0.3470461
239	0xbe5bbf70	-0.21459746
240	0xbea54e03	-0.3228608
241	0xbe1ee735	-0.15517886
242	0x3e5f4fdb	0.21807806
243	0x3d4c7045	0.049911756
244	0x3b9ab8a3	0.0047217174
245	0x3e88eee4	0.2674476
246	0x3f0bf290	0.54666996
247	0xbebd1048	-0.36926484
248	0xbd9f39f8	-0.077747285
249	0x3e58ec15	0.21183808
250	0xbecb467a	-0.39702207
251	0x3af1bc22	0.0018442909
252	0xbebd5da5	-0.36985508
253	0xbec6fbab	-0.38863882
254	0x3eadb726	0.33928794
255	0x3d8614df	0.065469496

val_conv1.bias f4 [2]
0	0x3b922fed	0.0044612796
1	0x3d49aff2	0.04924006
