current_policy.model (torch, 529587 bytes, 15 tensors)

conv1.weight f4 [32, 4, 3, 3]
00000000: dfe3 bb3e 2092 933c 2767 6bbb ca1f b1bd
00000010: 1fc4 263e d0f5 0dbe 601c 6e3e 9f18 13be
00000020: 9866 f1bc b888 513e 6407 65be f5e9 6c3d
00000030: 8eae abbe 0245 08bd 50b7 df3d b285 83bd
00000040: 0fcd 373e 56de 8ebe e0a3 9fbd 78d4 343e
00000050: 516b 233d 65da 843c 6c66 98ba 253e 02be
00000060: 4394 c33d dd84 b83d baed 4e3c a2d9 43bd
00000070: 7bed 1fbe 4626 093e 9a0e 313d 4fd4 a93b
00000080: 0fd7 f7bc d35d f6bd 526c 163e 4281 ee3d
00000090: 73a0 76be eabf cabd 6340 3c3c 92a5 72be
000000a0: 1e82 47be 447a 8dbe 31b4 7abe 3e78 c7bd
000000b0: 0691 20be 8ad9 abbe 3a30 41be bb60 39be
000000c0: 6b65 aabe c206 a63d 502d c1be 8c86 eebe
000000d0: 7750 d53d 9fbc fabb 426f 4f3c ff60 3abd
000000e0: eb25 11bd 825b 61bd e414 c23d c003 cfbd
000000f0: 9e88 d13c 9228 2abd e81f 6c3d 818a c2bd
00000100: 85e7 dabd 45ac 12be 788e 2abc 5ac1 553e
00000110: a9f6 053e d645 223e ae5e 133d 9d55 2a3e
00000120: 78e1 2e3e 2c2e 29be e2df a6be 9117 8b3e
00000130: 65a2 973d a864 193e b99f 573e e0f1 3bbe
00000140: b2d5 e0bd 98ee d0be de27 7b3e 5238 373e
00000150: 2a84 dcbe 213a 433e 44aa 6abe 3b34 04bd
00000160: 924d 36be 62a8 f73d efd9 b2bc 1a69 30bd
00000170: d5a5 553c 1e55 683c 792f 6d3d deb1 9c3c
00000180: 3afe fbbd d794 b13c 3388 cd3c 9c48 163e
00000190: 58b6 26be 76ee 833d ddce 383e 932a 0b3e
000001a0: 5841 c53d e6db a6bd 13f5 8dbd df7c b3bd
000001b0: 985c 9bbe 8dc7 1dbd fc1f b6bd 75e1 1fbe
000001c0: 75f0 15be 8dec f3bd bced 15be d9d5 86be
000001d0: 2eea 323e 096c a9bd 3417 c73e dde2 f3bd
000001e0: 4135 a93c da7d da3e f8d0 b23e 03f7 91be
000001f0: 0fc7 943e e558 afbe d211 d4bc c954 0fbb
00000200: 6175 6e3d bfbb 9dbc 6778 15ba 8ab9 1d3d
00000210: df70 fdbc 7a28 1e3d ed02 88bd 73ff f03d
00000220: cfbc 633d ab45 cf3d c761 123c 13e5 a2bd
00000230: a6d7 1c3e efa7 dfbd 4702 15be 26ce 3abe
00000240: 4572 a4be 5c40 d1be 88b4 3fbe 9696 503e
00000250: ca16 02be 9353 153e a09b 803d aad1 263e
00000260: a721 2f3e 5d27 2bbd 51ef f9bd c41d 49be
00000270: a084 58bd 88de ce3d c89e 6c3e fba4 253e
00000280: 2dcb a23e 0ed0 55be e4bc cd3d 9484 b7bb
00000290: 48da 4db9 8d88 683c 3097 593d 41aa 12be
000002a0: a8f1 a63d 4ec0 db3a 18a0 043e c8e3 f3bd
000002b0: 7bf5 32be ebbc 18be 92bc 2dbe e4c2 e3bd
000002c0: 0ec3 0b3d ef14 26be 86e3 3abd fcff a03d
000002d0: 659b e03e b5f1 293e 1933 d93e 5ecb d0bd
000002e0: a5ed 963e bb33 2c3e fb13 813e aeff 8a3e
000002f0: 07b4 c53e 0934 25be d129 06be a804 9abd
00000300: e899 88bd e917 b2bd 4248 b3bb 0f58 fcbb
00000310: 2b3f 03bc 76f2 13be 5611 0cbe 9393 34bd
00000320: ed76 1a3e 5227 b43d 2bf8 743d 33b3 6c3d
00000330: f46c ccbc 6e24 fa3c a465 41bc 10c1 813c
00000340: d7f3 c03d faac 27be 9ae3 3c3c 98e6 9bbc
00000350: e5fd ebbd 9050 bbbd 0e27 abbd 55e1 093e
00000360: f5dd 133e b460 643e c774 c1be 5731 82bd
00000370: c184 2fbe 5359 5cbd dfd1 a73e b419 d9bd
00000380: 1211 193d 4b70 bd3d b139 2dbe 75f3 dd3e
00000390: 63da 93be 0488 5b3d 0b5b 0abd 3ea0 b13e
000003a0: a110 3abe 9bbe 2dbd 7d3b 3bbd f4e3 253c
000003b0: 7fd8 23bc 3fe7 85bd 4e08 333d 35bf 9b3c
000003c0: da3c 12bd 7976 e93b 4c5a fabd 1cf3 12be
000003d0: 0fcd 9fbc 69d2 3fbd 236e cf3d 7481 f2bd
000003e0: 1c62 323d 1ee5 d43d fde0 89bd 6677 4f3d
000003f0: 1f82 87be 6542 7b3e 4ab3 95bd 40ec 373d
0.3669729 0.018014014 -0.0035919638 -0.086486414 0.16285752 -0.13863301 0.23253012 -0.14364861
-0.029467866 0.2046231 -0.223661 0.057840306 -0.33531612 -0.033268936 0.10923636 -0.06421985
0.17949317 -0.27904004 -0.077949286 0.17659175 0.039897267 0.01621742 -0.0011627204 -0.12719019
0.09549763 0.09009717 0.012629921 -0.047814973 -0.15617935 0.13393506 0.043226816 0.00518278
-0.030253915 -0.12029614 0.14689758 0.11645748 -0.24084644 -0.09899886 0.01148996 -0.23695973
-0.1948323 -0.27632344 -0.244828 -0.09739731 -0.15680322 -0.33564407 -0.18866053 -0.18103306
-0.332805 0.08106758 -0.37729883 -0.46587026 0.10415738 -0.00765188 0.012660803 -0.04550266
-0.035436552 -0.05501891 0.09476641 -0.10108137 0.02557784 -0.041542597 0.057647616 -0.09499074
-0.1068869 -0.14323528 -0.010409944 0.20874539 0.13082375 0.15846953 0.035978965 0.16634221
0.17078197 -0.1652152 -0.32592684 0.27166417 0.07404021 0.14979804 0.21057023 -0.18353987
-0.10978259 -0.40807033 0.24526927 0.17892578 -0.43069583 0.19065143 -0.22916514 -0.032276373
-0.17803028 0.12092663 -0.021832434 -0.043068983 0.013040026 0.01418045 0.0579066 0.019127782
-0.12304349 0.021677418 0.025089359 0.14676136 -0.16280496 0.06441967 0.18047662 0.1359046
0.09631604 -0.08147411 -0.0693151 -0.08764052 -0.3034408 -0.038520385 -0.08892819 -0.15613349
-0.14642508 -0.11910353 -0.1464147 -0.26335028 0.17472145 -0.08272559 0.3888489 -0.11908505
0.020655276 0.42674142 0.34925056 -0.28508767 0.2905812 -0.3424751 -0.025887404 -0.0021870604
0.05821741 -0.019254563 -0.000570184 0.038507022 -0.03093761 0.03861282 -0.06641183 0.11767473
0.055599984 0.1012071 0.008934445 -0.07953849 0.15316638 -0.10920703 -0.1455165 -0.18242702
-0.3211843 -0.40869415 -0.18721211 0.20369944 -0.12704006 0.14582662 0.06279683 0.16290918
0.17102681 -0.041785587 -0.12203849 -0.19640261 -0.052860856 0.10101038 0.23107445 0.16176216
0.31795636 -0.20880148 0.10045794 -0.0056005213 -0.0001963164 0.0141927125 0.0531227 -0.14322759
0.08151561 0.0016765685 0.12951696 -0.1190868 -0.17476456 -0.14915816 -0.16966465 -0.11121157
0.034121566 -0.16218923 -0.04562714 0.07861325 0.43868557 0.1659611 0.42421797 -0.10195039
0.29478183 0.16816609 0.25210556 0.27148193 0.38613912 -0.16133131 -0.13101889 -0.07520419
-0.0666998 -0.08695967 -0.0054712603 -0.007700927 -0.008010666 -0.1444796 -0.13678488 -0.04408605
0.15084429 0.08796562 0.059806984 0.057788085 -0.024954297 0.03053495 -0.011804018 0.01583913
0.09421509 -0.16374579 0.011528874 -0.019030854 -0.11523036 -0.091462255 -0.083570585 0.13464864
0.14440139 0.22302514 -0.37784407 -0.06357067 -0.17140485 -0.053796124 0.32777306 -0.106006056
0.037369795 0.09249934 -0.16916539 0.43349805 -0.28877553 0.05359651 -0.03377823 0.34692568
-0.18170406 -0.042418104 -0.04571103 0.010125149 -0.010000347 -0.06538247 0.04370909 0.019012073
-0.035702564 0.0071247187 -0.12224254 -0.14350551 -0.01950696 -0.046831522 0.10128429 -0.118410975
0.043550596 0.10395263 -0.06732366 0.050650977 -0.26466462 0.24537046 -0.07309587 0.04490304

conv1.bias f4 [32]
00000000: 9de7 723c 18b3 cfbd 5753 9e3d 4e6e e93c
00000010: 662e f43b 4b24 3fbe 5a7f 363e 7fb3 29be
00000020: 72b0 5dbe d2d7 ef3d 54a0 ab3d 1fc0 cdbd
00000030: 7ebf a6bc 20ea ba3d 4642 11bc 0465 f83d
00000040: 15ed d73d dc91 0dbd 9333 3bbe 5d9b 9e3c
00000050: 05f3 0abe 1dc2 92bd 8064 84bc 135a 183e
00000060: 2882 ec3d 7a37 473e 867e 703d ba8a 893d
00000070: 3de4 b03d 66c3 31be b373 94bd e282 56be
0.014825729 -0.10141581 0.077307396 0.02849498 0.00745182 -0.18666188 0.17822018 -0.16572379
-0.2164934 0.11711086 0.083801895 -0.1004641 -0.020354982 0.09126687 -0.0088658985 0.12128642
0.10543267 -0.03456293 -0.18281393 0.019361192 -0.13569267 -0.071659304 -0.016161203 0.1487811
0.11548263 0.19454756 0.058714412 0.06715913 0.08637283 -0.17359695 -0.072486304 -0.20948365

conv2.weight f4 [64, 32, 3, 3]
00000000: 11bf 8abd 0640 2c3d 38df c6bd c680 1abe
00000010: 620f a23d eee5 753b ecaa 683d 3d79 30be
00000020: d57e 8ebc 84b7 d5bd adaf 193d c1b2 a0bc
00000030: 7476 fe3c 3862 a23d 755d 963d 2135 c13d
00000040: e76c f5bd ade3 6abb d7a7 33bd db91 b03d
00000050: 0c38 04bd 89d0 c53d dcfd d13d a4d1 5ebd
00000060: cc8d a1bc c106 6f3e 786a 74bd 0f79 593e
00000070: bedd 0cbe 4821 3cbe 9b72 8dbe c7c1 1d3d
00000080: 16ee 08be 6587 93bd 4fa4 893d 78df b43d
00000090: 97ec b8bd ab6f 793d 9219 07be 4e43 61bc
000000a0: ad3d 9d3d 8235 be3c 37c0 733d 5165 10be
000000b0: ee53 39bd 8437 2f3d 3054 013e c376 163e
000000c0: 371a fa3d bc26 87bb 607e 863c 9733 863e
000000d0: ecdc 1f3e 3080 ad3d 6cc7 233c f606 13be
000000e0: a880 33bc bac0 d0bd a485 683e dbcd 10bd
000000f0: 138e d5bd 51b0 50be 894f 87bd d2ed 993d
00000100: bbe0 06be d4a1 8a3c 2c98 be3d 6a30 ac3d
00000110: fd8c 543c b2a7 b9bd 192b 4cbb 293d afbd
00000120: d267 c5bd f42c ca3c 2b17 d03d 515f a73d
00000130: 2b41 a4bc 8b7c 0dbe 1425 763d 0572 d0bc
00000140: cffc 35bd 2ef0 8cbd e274 a13c 624c 243e
00000150: f60f 823d f455 b13d bdd9 34bd a681 a7bd
00000160: 290a 01bd e163 52bd f0a4 cfbd 589c 66bd
00000170: 5cf6 8dbd b145 95bd 64e2 b93c 5e30 f8bd
00000180: b4c3 f5bd fb9d afbd 2b27 1a3e b87d 16be
00000190: 0dcb 1fbe 57c9 213c c86c e5be d36c f03d
000001a0: a908 ec3d 194b babd b87a 2abd 8938 663e
000001b0: 12c9 b13d 3372 063c 3678 9f3e 3dee 62be
000001c0: 023b a33c 6eaa 113d 9e13 c7bd 907a 68bd
000001d0: 729d a8bd 06f0 99bd ad5f 0d3e 43c7 1b3c
000001e0: 70a0 473c 4382 bfbd 1e5c d1bd fae4 7abb
000001f0: 8b2d 1f3d 2271 32be 51ef 90be 69ba 15be
00000200: 78f2 06bd b073 11bc e8bb 86bd 03aa 7a3c
00000210: 4d8e d23d 3334 d83c d863 083c 1914 463d
00000220: ae6b e3bd 4e97 993d 4aa4 e8bd f9d8 cdbd
00000230: e287 6fbe 8519 3bb9 12ce 403e b27d 7d3c
00000240: a8d9 0cbd 5bb8 2cbe bd61 11bd 2add 45be
00000250: cb03 9f3d 7952 ca3d 4259 83be 9a70 9fbd
00000260: c7bf 9bbd 95fa 18bd d554 7bbd 0e10 a53d
00000270: a13f 303e c22f 3cbc 1281 563d b1d1 333e
00000280: ed50 703d 2e0f e13d 2570 9e3d 3c6c 8fbd
00000290: 8cab 0fbd 45ff 753e bf95 2e3e 9acf 333e
000002a0: db16 8b3e 85ad 97bb 4a63 71be a03a 05be
000002b0: ac0e bdbd b393 cebd 2ae9 fbbd 50ba 76bd
000002c0: 7268 6cbe 68df 593e 7389 033d 1931 c03d
000002d0: 7e70 7d3d 286e ccbe 7336 49bd c867 d8bd
000002e0: b676 c03c ddea 9f3d 7046 e03d 2000 593e
000002f0: 17aa 313e b136 2cbe be93 a7bc f47c eabd
00000300: cf30 113e 11e6 8e3d ba00 c13c 7174 1fbe
00000310: 0640 b23c e446 1abc 2edc 02bd 0dfd 173e
00000320: 17bc bbbc 4963 923d d64e e43c bf62 eb3d
00000330: 3ad9 c839 de1f 083e 3aae 19bd a326 a43d
00000340: 3631 13bd 86c2 113e b222 c4bc bbab 3ebd
00000350: 21d4 103d be0b 11be 170c 17be 27d7 6abe
00000360: fa4e 0b3e a68a dbbd 72ed c1bc ee1f 363e
00000370: 3939 95bd 0b2a ac3d 1c8c 243e 6399 52be
00000380: a96f 89bd 6794 8abe 15c3 33be 3384 a0bc
00000390: 147e a3bd 1e1f 08bd de1e 3abe b21c debb
000003a0: d76c d63d dcf9 e93c aa05 943d f7f9 c7bd
000003b0: 6f7e 2dbd 6bcc 78be 06bf 23be 8d6b 07be
000003c0: f612 2fbe 0efb db3d 3ea8 b53d ddab 99bd
000003d0: d84f 43bd ac1c 0e3e 79da 583d 16e4 0a3d
000003e0: d446 26be 09d7 533e ff95 9ebc 224f 1fbd
000003f0: 69cf 963d 97cf 0dbe a508 2e3d dd9a 72bd
-0.06774724 0.042053245 -0.09710544 -0.15088186 0.0791309 0.0037521082 0.05680363 -0.17233749
-0.017394463 -0.104353935 0.037521053 -0.019616487 0.031062342 0.0792889 0.07342044 0.09433962
-0.11983662 -0.0035841272 -0.043861236 0.0862157 -0.032280013 0.096589155 0.10253498 -0.054399148
-0.019720934 0.2334242 -0.05967185 0.21237586 -0.13756463 -0.18372071 -0.276265 0.03851488
-0.13372073 -0.07203559 0.067207925 0.08831686 -0.09029501 0.06089751 -0.13193348 -0.013748957
0.07677779 0.023218874 0.059509482 -0.14101149 -0.045246057 0.042777553 0.12629771 0.14693742
0.12212031 -0.0041244905 0.016417682 0.26211235 0.15611619 0.084717155 0.009996276 -0.14358124
-0.010955967 -0.1019301 0.2270723 -0.03535257 -0.10427489 -0.2037976 -0.06606967 0.07516064
-0.13171665 0.016922869 0.09306368 0.08407672 0.012973067 -0.090651885 -0.0031153618 -0.08556587
-0.09638943 0.024679638 0.10160669 0.08172477 -0.020050606 -0.1381704 0.060093954 -0.025444994
-0.04443055 -0.06881748 0.019709054 0.16044763 0.063507006 0.086589724 -0.044152964 -0.08179025
-0.03150383 -0.051364783 -0.10138881 -0.056301445 -0.06931755 -0.07288683 0.02269096 -0.121186
-0.12000218 -0.08575054 0.15054004 -0.14696395 -0.15604801 0.009874663 -0.44809556 0.117395066
0.11525089 -0.09096355 -0.04162094 0.22482504 0.08680929 0.008205938 0.311464 -0.22161193
0.019925598 0.035562925 -0.097205386 -0.05675751 -0.08233155 -0.07516484 0.13806029 0.009507957
0.012184247 -0.09351017 -0.10222648 -0.0038283453 0.038861793 -0.17425969 -0.28307584 -0.14621891
-0.03294608 -0.00887768 -0.06578809 0.015299323 0.10281048 0.026392078 0.008324586 0.04835901
-0.11104523 0.07499562 -0.11359461 -0.1005115 -0.23391679 -0.00017843216 0.1882861 0.015471863
-0.03438726 -0.16867201 -0.0354936 -0.19322649 0.07764395 0.09879012 -0.25654036 -0.07785149
-0.07604938 -0.03734835 -0.0613602 0.08059703 0.17211773 -0.011485996 0.052369185 0.1756046
0.058670927 0.109892234 0.077362336 -0.07003066 -0.03507571 0.24023159 0.17049311 0.17559662
0.27165875 -0.0046288394 -0.23573032 -0.13010645 -0.09231314 -0.10086765 -0.12300332 -0.060236275
-0.23086718 0.21276629 0.032113504 0.09384365 0.06187486 -0.39927793 -0.049124192 -0.1056667
0.023494106 0.078084685 0.10950935 0.21191454 0.1735004 -0.16817738 -0.020456191 -0.11449614
0.14178775 0.069774754 0.023559917 -0.15571763 0.021759044 -0.009416316 -0.03194826 0.14842625
-0.022916837 0.071478434 0.027869623 0.11493444 0.0003830882 0.13293406 -0.03751967 0.08015182
-0.035935603 0.14234361 -0.023942325 -0.046550494 0.035358552 -0.14164636 -0.14750706 -0.22933637
0.13604346 -0.107198045 -0.023672793 0.17785618 -0.07286305 0.084064566 0.16069072 -0.20566325
-0.067107506 -0.27066347 -0.17554887 -0.019594287 -0.07983032 -0.0332328 -0.18175837 -0.006778323
0.10469978 0.028561525 0.07227643 -0.09764474 -0.042356905 -0.2429673 -0.15990838 -0.13224621
-0.17097077 0.10741244 0.0886998 -0.075034834 -0.047683567 0.13878125 0.052942727 0.033908926
-0.16237956 0.20687498 -0.019358633 -0.038893826 0.07363779 -0.1384872 0.042488713 -0.05922972

conv2.bias f4 [64]
00000000: 3d8c c5bc 3c71 a7bc 15ae e3bd 1288 2cbd
00000010: fa22 9dbd be72 c93d c746 993c ef03 1a3c
00000020: 616a 24bc 251b 01be a3ad 54bd e3a9 1fbd
00000030: 0579 5d3d bc06 bf3c 40ed 7a3d 0c01 2fbb
00000040: 6f55 85bd 03ac 05bd 04f4 f0bc 4ed4 a83c
00000050: 94f7 103d b540 4b3d 6128 abbc 8266 d33d
00000060: 279a dabd a744 d53c 809f b53d 0a02 63bd
00000070: 1c3d 133b 5313 1a3c 13a1 de3c c45a c2bc
00000080: f286 15be e362 99bc 803b c23c aa8c 89bd
00000090: 960f 98bc 92f6 ecbd 308c b7bd 0681 043d
000000a0: 732c 3b3d 46a4 9a3d bac0 a2bc 05e8 65bd
000000b0: 99a4 8bbd 81c8 1e3c 904e 3e3b 9194 b03b
000000c0: cc6b bcba 4c5f 03bc c32b 833c 8993 61bb
000000d0: 3382 9ebd 4392 f9bb 7e60 b63c 3e78 a03b
000000e0: ecce 133d 970f 7abd 49bd aabd 7b58 35be
000000f0: ae93 27bd 82a2 a0bc 73b2 08bc e309 b4bd
-0.024114722 -0.020439737 -0.11117188 -0.042121954 -0.07672687 0.098363385 0.018710507 0.009400352
-0.010035128 -0.12608011 -0.051923405 -0.038980376 0.05407049 0.02331864 0.061261415 -0.0026703505
-0.06510436 -0.032634746 -0.02941323 0.020609047 0.03539236 0.049622256 -0.020893278 0.10322286
-0.106739335 0.026033713 0.08868313 -0.055421866 0.0022466844 0.009404021 0.027176416 -0.023724921
-0.14602259 -0.01872391 0.023710012 -0.06716283 -0.01856212 -0.11570467 -0.089622855 0.03234961
0.045696687 0.07550864 -0.01986729 -0.056129474 -0.06818504 0.009691359 0.0029038526 0.0053888042
-0.0014375388 -0.008018326 0.016012078 -0.0034420213 -0.07739677 -0.0076163127 0.022262808 0.0048971465
0.036086008 -0.061050024 -0.083368845 -0.17709534 -0.040912323 -0.01960874 -0.008343327 -0.08790948

conv3.weight f4 [128, 64, 3, 3]
00000000: dc86 cd3c a287 cfbc 491c 85bd 7e5b bcbd
00000010: 8853 9f3c f374 b8bc 6fbc f93d f736 28bd
00000020: e619 97bd 7c36 b1bd cf10 19bd 44a8 51bd
00000030: 310e aa3c c39b b3bd 90c1 0cbd 9785 74bd
00000040: cc23 7abd a67a b93d 7b8e a5bd 7cf1 73bd
00000050: 959a 48bd 2113 893d 4350 24be fa29 70bc
00000060: f99e 71bd 60c8 92bd 6691 a6bd 5631 963d
00000070: ed9e 793d 6db6 633d 4889 813d 9baa 6dbd
00000080: ef44 a83d c037 933d 6e52 153e bd5b 0fbd
00000090: 96b7 c8bd e73b 703d ca7c 75bc 6af4 febd
000000a0: 297f bcbd cf7a ea3c d1fa bb3b d39f 923b
000000b0: e2bf 0e3d d227 383d bb21 33bd 7cdd b2bc
000000c0: 3657 8dbb 2e43 753d c586 823d be5b 9b3d
000000d0: b4df 263d 396a cb3b a4eb 53bc f356 0fbe
000000e0: 45f3 003e a4a2 aa3d cd41 a13c 829d 543d
000000f0: df32 233d 0a98 e33c d4bc 483b afe1 1bbe
00000100: f59e 6dbe 5e2a edbd 44fd 2fbd c4a3 c7bd
00000110: 0269 983c edf3 693d c37e bbbc 7b1a 3c3c
00000120: cbd7 143d 56c3 9e3d 3e8e 093e 808c 953d
00000130: cd50 883d d737 ae3d 67dd 0e3d 0ef4 273d
00000140: c54a 89bc 65e9 953d 4aee eebb 89a9 523b
00000150: 7b48 97bc 9455 013e fba6 373d cd46 7bbd
00000160: 86bb e53d f099 2dbd e539 933b 04b9 de3d
00000170: 7604 043e a97c aa3c 0247 313c 04d9 413d
00000180: 07d1 8c3d 9b10 afbd f36c 12bd 9ec0 ca3d
00000190: 4fe2 29be e837 393d b3f7 83bd 0de7 273e
000001a0: 51da 34bd f5f5 b8bc 1233 3c3d 5b32 693d
000001b0: 1eac a8bd 3fc5 1abb 9d66 95bd 74ff b93d
000001c0: 327e 24be d2ae 84bd 407a d0bc 523e 963c
000001d0: 6303 4ebd 0415 dbbc 1322 c73d 1407 413b
000001e0: c0cc a13d 672f 0abe 8b85 1d3d a0b1 3c3d
000001f0: 00aa 1a3e 8aba d9bd 452d 69be c271 76bd
00000200: fc1d 22be 3ebd b7bd cd69 cfbd 6a1c 28be
00000210: 3e82 38be 32eb 99bd b3b4 aa3d 02b5 e8bc
00000220: 9e83 45bd 30f5 d3bc 2015 3b3b 9524 93bc
00000230: 920a 2dbd b301 603a 16e2 7bbc 14c8 ccbd
00000240: a66f a1bc c12b 93bd 3d9b a0bc 8e73 0f3e
00000250: 4702 f63d 1fe6 a23c d808 263c 98af a53d
00000260: bcbd 16be 1682 153e ca24 62bd 3cf3 00be
00000270: c527 fcbd 6762 c7bd 025a 0ebd 219c a33d
00000280: d086 a63b 8103 afbd 5cb4 70bd 3765 f63d
00000290: f928 92bd 34c9 0cbc feb2 ebbc b423 45bd
000002a0: e37c 3dbd bd3c 89bd 9d3d f8bb 7cde d33d
000002b0: e866 19be 059a f63c 521b e33a 8fd2 493c
000002c0: 01ee a53d 44da ad3c eb5f 8cbc f81b e3bb
000002d0: 1175 e0bc d0af 02be b3d8 1cbd d20e ff3c
000002e0: af05 6dbc 711c 85bd d186 6d3d 64f3 5cbd
000002f0: f962 36bd 69d0 c33d b8b0 98bb 63ad 43be
00000300: 321e 8a3c 21af 0f3c 06bb 803d 1f23 783d
00000310: fcff 043e 8105 87bd 642c 86bd 79cd 03bd
00000320: 7165 983d 8355 87bd f5b0 463d a084 04bb
00000330: da10 533e 324d 07be 32a0 07be e246 93bd
00000340: 1675 8b3d 2975 ad3c b43f ffbd 63d7 adbc
00000350: 656d 023d 11ce f1bd 0330 d6bc 1589 63bd
00000360: a7f1 f6bd b1b4 b3bc ab5b 643b 0378 cabd
00000370: fc9f b93d 9767 53bd 7dc0 64bd 4df7 5bbd
00000380: 3657 0cbd cf89 373e 501d 00be 61a4 b6bd
00000390: 0a00 d53d b381 3ebb af1d 4dbe f3d0 c13d
000003a0: fa7f c23d b498 5abd e894 003e 6357 20be
000003b0: 6f23 06be 49dd 81bd 747f 3cbe 1ee5 34be
000003c0: 31fe 4a3e e74c 283d c4af 17bc a48e dc3d
000003d0: 37d6 16bb d7c4 61bd 4f75 8ebd 9522 cd3c
000003e0: ea32 f93d 92dc 593c 6ce6 c23d 37b3 593d
000003f0: 73c7 4a3e d1cc 26be e11f 9b3d e056 d6bd
0.02508872 -0.02533323 -0.064995356 -0.09197138 0.01944901 -0.022516703 0.12194144 -0.041068044
-0.073779866 -0.0865297 -0.037369546 -0.05118586 0.02075872 -0.087699436 -0.034364283 -0.059697714
-0.061069295 0.090565965 -0.080838166 -0.05955647 -0.048975546 0.06693102 -0.16046242 -0.0146584455
-0.0589895 -0.07167125 -0.08133201 0.07333629 0.06094258 0.055593897 0.063250124 -0.05802403
0.08216273 0.07188368 0.14582226 -0.034999598 -0.09800641 0.058650877 -0.014983365 -0.12448962
-0.092039414 0.028623013 0.0057366868 0.004474619 0.034850962 0.04495985 -0.04373334 -0.021834128
-0.004313375 0.05987852 0.063733615 0.07585858 0.040740684 0.006207731 -0.012934599 -0.13998012
0.125928 0.083318025 0.019684697 0.051908024 0.039843436 0.027782459 0.0030630128 -0.1522281
-0.23205169 -0.115803465 -0.042966142 -0.09748033 0.01860476 0.05711739 -0.022887593 0.011480923
0.03633861 0.07752101 0.13433167 0.07302189 0.066560365 0.08506744 0.034879114 0.041004233
-0.016759286 0.07319907 -0.00729159 0.0032144508 -0.018467179 0.12630302 0.04483698 -0.061346818
0.11217408 -0.042383134 0.0044929856 0.10875133 0.12892327 0.020811396 0.010820152 0.047326103
0.06875806 -0.08548089 -0.035748433 0.0990002 -0.16590236 0.045219332 -0.06443729 0.16396733
-0.044153515 -0.022578219 0.045947142 0.05693279 -0.08235954 -0.0023616103 -0.072949626 0.09081927
-0.16063765 -0.06478657 -0.025448918 0.018340264 -0.0502962 -0.02674342 0.09723296 0.0029453682
0.07900381 -0.13494645 0.038457435 0.046067834 0.15103912 -0.10631283 -0.22771175 -0.06016708
-0.1583175 -0.08971642 -0.10127602 -0.16417089 -0.18018433 -0.07515563 0.08335247 -0.028406624
-0.048221223 -0.02587375 0.0028546527 -0.01796178 -0.04224641 0.0008545175 -0.015373727 -0.099990994
-0.019706558 -0.0718608 -0.019605273 0.14008924 0.12012153 0.01988512 0.010133944 0.080901325
-0.14720815 0.14600405 -0.055210866 -0.12592787 -0.12312273 -0.09735566 -0.034753807 0.079887636
0.005081989 -0.0854559 -0.058765754 0.12031024 -0.07136721 -0.008592892 -0.028771874 -0.048129752
-0.04626168 -0.06701038 -0.0075757043 0.1034517 -0.14980662 0.03010274 0.0017326868 0.0123182675
0.08102036 0.021222241 -0.017135581 -0.0069308244 -0.027399572 -0.1276238 -0.038292598 0.031134997
-0.014466687 -0.064995654 0.0579899 -0.053943053 -0.04452798 0.095612355 -0.0046597384 -0.1910911
0.016860101 0.008769781 0.06285672 0.06058037 0.12988275 -0.06592847 -0.065514356 -0.032178376
0.074412234 -0.06608107 0.048508603 -0.0020220652 0.20611897 -0.13213041 -0.13244703 -0.07191254
0.06809442 0.02117403 -0.12463322 -0.021220868 0.031842608 -0.11806882 -0.02614594 -0.055550653
-0.1205781 -0.021936746 0.0034844677 -0.09886172 0.09063718 -0.051612463 -0.055847634 -0.05370264
-0.03426286 0.17923664 -0.12511182 -0.089180715 0.10400398 -0.0029069006 -0.20030855 0.09463682
0.09497066 -0.053368285 0.12556803 -0.15658335 -0.13099454 -0.06341035 -0.18407995 -0.17665526
0.19823529 0.041088965 -0.009258214 0.10769394 -0.0023015866 -0.05511936 -0.069559686 0.025040904
0.12167914 0.013297217 0.09516606 0.05314943 0.19802646 -0.16289069 0.0757444 -0.10465789

conv3.bias f4 [128]
00000000: c62b 10bd 46ba 563c fad9 f4bd 9bc5 be3c
00000010: e026 d4bd 802c ae3d fb63 63bc ff69 61bd
00000020: 7a4d 9c3c b956 b4bc 1398 84bd 6b66 f33d
00000030: b23c 3bbc a45e 4a3d 2a71 ddbd f40d fabc
00000040: b6e1 d8bd 35e2 863d 1a3d 053e 0c0f 02ac
00000050: 59a3 d73b b573 0d3d f73e 923c d6c2 a1bd
00000060: a157 a4bc 4c8f 28bd 56e9 7b3b 5d7e 0b3d
00000070: 138f 51bd e7a5 1bbe 9161 a5bd 3486 dbbc
00000080: 7e04 8a3d 6fcd 903b 2361 653b 6266 853c
00000090: f00e 52bd 1503 e53c 2349 34bd f9a1 0bbd
000000a0: d85a c73c 2505 96bd e307 20be 5b1b dcbd
000000b0: 10aa 9b38 17ae ff3c 49a6 d23b 11f0 f0bd
000000c0: 4a42 9b3c 1e31 7e3d ab59 443d 491f 35bc
000000d0: 2373 a9bc 51b0 d0bd 096f 1e3d 90d9 98bc
000000e0: 5818 25bd 51d1 5fbd 9deb 92bd 1a6b 4ebd
000000f0: 70a1 29bd efa4 ecbd c812 64bd b97c dabc
00000100: e47c 9c3c 1491 0bbc 9d73 2e3d d577 67bd
00000110: 4970 86bd b073 023d db10 893d 13d7 3dbd
00000120: 3e77 aabc b448 113c 2d6a 4b3c 60d9 713c
00000130: ee28 a0bd cb24 333d e1cc 9abd 01c8 9bbb
00000140: f5ff afbc 5828 66bc 37e9 a6bc f472 e6bd
00000150: a965 d3bc 1815 2cbd b718 0a3e 4250 07bd
00000160: 9aa2 003e 5dca 4f3c 628e 06bd cecd 49bd
00000170: f757 97bd edac 5fba 1b4c 5a3d 67e8 9ebd
00000180: 141e 6abd be5e 083e 948a f5bc 69c1 0eb9
00000190: 7a99 53bd 9006 20bd c8b1 903c 5868 5a3d
000001a0: 46b9 3c3c bac0 e9bd 74f3 9d3c e293 903a
000001b0: 9041 c9ba 1ff7 d13d c024 393d b095 363c
000001c0: d015 67bc 2d07 3bbc 13c5 2ebd a20d 09bc
000001d0: 9040 0f3e 1e3f 95bd c7d5 d6bc 6a86 42bd
000001e0: d8f5 3cbb cb96 bebc b7d7 1abe ab45 163e
000001f0: 5aaf 51bd 1d7a 85bd 9648 03be 2343 05bd
-0.035197996 0.0131059345 -0.11955638 0.023287585 -0.10358977 0.085045815 -0.013878818 -0.055032726
0.019079912 -0.022014009 -0.06474318 0.11884769 -0.011428045 0.049406663 -0.108126 -0.030524231
-0.10589926 0.06586114 0.1301159 -1.8482464e-12 0.006580752 0.034534175 0.01785229 -0.0789849
-0.020061316 -0.041152284 0.003843864 0.034056056 -0.051161837 -0.15200005 -0.0807525 -0.026797391
0.06739138 0.004419021 0.0035000525 0.016284171 -0.051283777 0.027955571 -0.04401506 -0.034090016
0.02433531 -0.073252 -0.15628009 -0.10747405 7.4226526e-05 0.031210942 0.006428514 -0.11764539
0.018952508 0.06205856 0.047937077 -0.011054822 -0.020684784 -0.1018988 0.03868011 -0.01865843
-0.04030642 -0.05464298 -0.07173846 -0.05039511 -0.041413724 -0.11554896 -0.055681974 -0.0266708
0.019102521 -0.008518476 0.042590726 -0.056510765 -0.065643854 0.03184861 0.06692668 -0.04634769
-0.020808812 0.008867431 0.012415451 0.014761299 -0.07820307 0.04373626 -0.07558609 -0.004754067
-0.021484355 -0.014047705 -0.020374877 -0.11252394 -0.025805311 -0.042012304 0.1348599 -0.033035524
0.12562028 0.0126825245 -0.03285063 -0.049268536 -0.07389825 -0.0008532543 0.053295236 -0.07759171
-0.05715759 0.13317391 -0.029973306 -0.00013614226 -0.05166004 -0.03906876 0.017662898 0.053322166
0.011518782 -0.11413713 0.019281127 0.0011030401 -0.0015354622 0.10252213 0.045201063 0.011144087
-0.014104322 -0.011415285 -0.042668413 -0.008365067 0.13989472 -0.07287429 -0.026224984 -0.04749147
-0.0028833058 -0.023265263 -0.15121351 0.14675014 -0.05119262 -0.06517432 -0.12820658 -0.03253473

act_conv1.weight f4 [4, 128, 1, 1]
00000000: f64c 753d 0631 61bc db31 50bd 46e2 c7bd
00000010: 4e36 103d 2ae2 b23e d77e 1bbd 2907 2b3e
00000020: 4ffc 623d b51e 43bc 29f4 fdbd 3c3f 383d
00000030: 9448 4cbd 0442 bebd 843d bf3c f756 d73d
00000040: e279 cabd 2b5b 9f3d 8a6b 40bd 8efb 8cb0
00000050: c2bd 923d 2028 37bd 050c 713c ac1e c53b
00000060: ea78 1e3d 5f37 763d f8cd d53d 71ba 08be
00000070: 4895 6a3c d74f 2fbd db6f 91bd 99d1 3b3e
00000080: 7a09 d63e c1e6 bf3d af1b fc3c d646 803d
00000090: 355d 6bbe 42a4 e23d d244 24bd 292b 10bd
000000a0: 416b 463c c01a 5a3e a8a7 5ebe 3100 51be
000000b0: 3f9f c3bd 49a5 23be e1f6 babc dff4 30be
000000c0: 062f 5ebd 8f90 8f3d bb8a cb3d 1e19 febc
000000d0: 5e95 503e bbfd c93d f802 1f3d 0315 bfbd
000000e0: 2b1b b1bd fb96 4ebd ee69 a7bc f5ec 623d
000000f0: dd6a 21be 9027 673e 4336 473d 5051 49bd
00000100: f012 bf3d c145 fabc b5b6 0b3f 72a9 4fbd
00000110: 0655 0a3f 2904 903c 8a7a 323d e1b6 203e
00000120: 3e7a a13b 27f6 023c 0dac 6abd 6f9e e0bd
00000130: cc9c 3f3c ec5f 013d 0097 9f3d 3645 3bbd
00000140: e502 d7bd 63fb 7bbe 40ab ba3d 9212 d43c
00000150: 54e9 7cbc a9bb 91be 0da5 0f3d 91e9 72bd
00000160: fc2b d83d 76ad 84bd ccfa fa3d bc82 9f3a
00000170: c7f3 28be d6a6 d6bc 8001 a23e 7cf2 a03c
00000180: d8cc b03d b548 fb3c 0c58 05be e228 4680
00000190: de87 043e 9243 b13e 7936 4b3e e514 143d
000001a0: 8a8e ddbd 23f6 493d 2361 023e 6eb9 c53d
000001b0: 59a7 05bd 394c c93d 56df 5c3d 9334 583e
000001c0: d902 23bd edee f03d 1bc9 4e3d 6b13 edbc
000001d0: 746b 193e 20b0 9d3e 6545 bf3c b5b8 c9bd
000001e0: d4d9 e3b7 2d01 98bd dd08 8abd b8fc 1a3e
000001f0: 9b3a e4bc 25a4 0cbd c1ca 71bd 30b9 9cbd
00000200: 3b0d 09bd a1e6 2cbc e13c 803d 6feb d6ba
00000210: a9d7 39bd 3389 f9bd 461e 923e ee40 fb3d
00000220: 4e37 4b3e 27b9 0ebd 3381 a3bb 4839 1e3c
00000230: ffa4 f3ba 289a 993e 9189 00be 04f8 a83d
00000240: 59ff a03d 7456 4abe 77a5 0eba 8d80 8fb6
00000250: 70b1 b6bc 59bd 5a3d 7822 d7bd 65f1 6c3d
00000260: 356c abbd 694b 0dbe 780b 34bd d522 2e3c
00000270: 869c 2ebc 9b6a b33d 9840 9a3c 74c7 9cbe
00000280: 984b fe3d 5a5d 3cbc de11 19bd 2cab 9bbd
00000290: 8258 ba3e 12c2 e53c 7b57 513d c099 933d
000002a0: 802c 0fbd 3589 653d b2b2 483d 4d4b 0a3e
000002b0: 8d2f e23c e584 683e 58e7 75bc e4e3 32be
000002c0: 49e1 b33e 96cb 413d 21cf fe3d bf16 f9bd
000002d0: d8cc 41be c9c4 be3d 4761 ba3c 3e96 c83d
000002e0: 80de b63d 372c b73d 5a64 1a3f 1ee1 ed3c
000002f0: 1a44 9b3d 778d acbc 5b9c 0a3d 7b35 8c3e
00000300: b726 3f3d 1393 31bb a0b4 6a3d c96d 14be
00000310: 10e7 3bbe 6fff 8d3c 602c 15be 6060 63bc
00000320: 6f93 86bd f117 3bbd 27c0 cf3c d429 8bbc
00000330: 6ff9 6dbd bdbb 3e3e d089 f23c a23b c33c
00000340: 42a8 2f3e 8edf 973e 6eb0 443b 2aa8 e5bd
00000350: 614d 83bd fa8c 4c3e 6d73 3f3e f52e 383e
00000360: 16b5 c83d a8e2 a93d 6bf3 203e 054b 49bb
00000370: 4295 573e fbfd 763c b67e 2ebd 7c9b 883d
00000380: 8f57 c53d cd6f 9e3d 4eb7 0a3e 4c25 3480
00000390: e742 a1be e3ea d4bd 7207 86be d4be b8bd
000003a0: 4b89 013d f9ee 2438 bbc6 013e cae6 bdbd
000003b0: bfac 1e3e 90b4 473e e460 1cbe ee96 3c3b
000003c0: 0417 02bd 4271 00be 7c79 083d ba5a 713e
000003d0: b0bc b23d 8af6 c33a b642 9cbd 9b17 143d
000003e0: fe10 10af a0b6 24bc f96e 353d 3157 1f3e
000003f0: 9a2d ac3d 9dee 953d f095 bc3c 9d79 4f3e
0.05988785 -0.013744598 -0.050828796 -0.09759955 0.03520804 0.34938174 -0.03796276 0.1670195
0.0554164 -0.011909177 -0.124000855 0.04498218 -0.049873903 -0.09289935 0.023344763 0.10514634
-0.098865286 0.07781061 -0.046977557 -1.0257837e-09 0.071651 -0.044716 0.014712338 0.0060156193
0.03868953 0.0601114 0.10439676 -0.13352372 0.014317818 -0.04280075 -0.07101413 0.18341674
0.41804105 0.09370185 0.03077492 0.06263511 -0.22984774 0.11066486 -0.040104695 -0.03519741
0.012110532 0.21299267 -0.21743643 -0.2041023 -0.09551858 -0.1598102 -0.0228228 -0.17280911
-0.054244064 0.07009994 0.0993857 -0.031017836 0.20369479 0.09862848 0.03882119 -0.093301795
-0.0864776 -0.050436955 -0.020436253 0.05540176 -0.15763421 0.22573686 0.048635732 -0.04914981
0.09329784 -0.03055084 0.54575664 -0.050698705 0.54035985 0.017580109 0.043573894 0.15694763
0.0049279025 0.007993258 -0.057292987 -0.10967719 0.011695098 0.03158562 0.07792473 -0.0457203
-0.10498599 -0.24607615 0.091146946 0.025887761 -0.015436489 -0.28463486 0.035069514 -0.059304778
0.10555264 -0.064783975 0.12254867 0.0012169699 -0.16499244 -0.0262026 0.3164177 0.019646876
0.08632821 0.030674318 -0.13021868 -6.443151e-39 0.12942454 0.34621865 0.19844998 0.03615274
-0.10818203 0.049307 0.12732367 0.096545085 -0.0326303 0.098289914 0.053923927 0.21113805
-0.039797638 0.117643215 0.050484758 -0.028939923 0.14982396 0.30798435 0.02334852 -0.09849683
-2.7161943e-05 -0.07422099 -0.06739972 0.15135467 -0.027859977 -0.034336228 -0.05903125 -0.07652509
-0.033459883 -0.010553033 0.06261612 -0.0016397069 -0.045371685 -0.12184372 0.28538722 0.12268244
0.19845316 -0.034844544 -0.004989767 0.009657212 -0.0018588601 0.30000424 -0.12552477 0.0825043
0.07861204 -0.19759542 -0.00054415263 -4.2766974e-06 -0.022301406 0.053403232 -0.10504621 0.0578474
-0.08370248 -0.13798298 -0.04395625 0.010628422 -0.010657435 0.08760568 0.018829629 -0.3062092
0.12416762 -0.011496866 -0.037370555 -0.07601008 0.3639565 0.028046641 0.05110882 0.0720706
-0.034954548 0.056039054 0.048998542 0.13505287 0.027610565 0.22706945 -0.01500877 -0.17469746
0.35132816 0.047313295 0.124418505 -0.121625416 -0.18925798 0.093148775 0.022751464 0.097942814
0.08929157 0.0894398 0.60309374 0.029038008 0.07581349 -0.02106355 0.03384052 0.27384552
0.04666778 -0.002709572 0.057301164 -0.14495005 -0.18349862 0.017333714 -0.14567709 -0.013877958
-0.065710895 -0.04567713 0.02536018 -0.016987719 -0.058099207 0.18626304 0.02960673 0.023832146
0.17154029 0.29662746 0.0030012387 -0.112137154 -0.06411243 0.19975653 0.18696375 0.17986663
0.098001644 0.082951844 0.15717857 -0.003071488 0.21053031 0.015075202 -0.04260131 0.06670281
0.09635841 0.07736168 0.13546488 -4.788825e-39 -0.31496355 -0.103963636 -0.26177555 -0.090207726
0.031625073 3.9323208e-05 0.12673466 -0.09272535 0.15495585 0.19502473 -0.15271336 0.0028776485
-0.03176023 -0.12543204 0.03331898 0.23569766 0.087273955 0.0014950794 -0.076299116 0.036155324
-1.310276e-10 -0.010053307 0.044295285 0.15560605 0.08407135 0.073209025 0.023020715 0.20261236

act_conv1.bias f4 [4]
00000000: 3f7a 933d 45bc 0d3c 3fc6 fc3d 0302 6cbb
0.07201051 0.008650844 0.123425 -0.0036011941

act_fc1.weight f4 [81, 324]
00000000: f020 8dbc 8498 04bd 8c56 dabb c69a 33bc
00000010: 47a2 a0bc 83d4 303b f2ac 96bd aef0 a5bd
00000020: 66c6 053b 0213 893b 27e1 49bd e915 c7bc
00000030: cfb5 fc3a 27a3 83bd 57dc 62bd dee6 e6bb
00000040: 092b c5bd f8e9 793c 6bab a63c 39a3 d0bd
00000050: b2d3 9f39 08c9 d63c 3b33 e7bc eebf 89bc
00000060: 06f6 c33b 49b1 8b3c 4975 083d 24d5 153d
00000070: 401c 01bd fa92 01be 828a 843c 30a1 8b3d
00000080: 9b9c 953d e154 27be 7d0a dc3c f7f6 31bd
00000090: cfdf 4d3c 99f6 7ebc e4dd 23bd 42f1 04be
000000a0: a150 37bd 15c2 67bc 459d 83bd a385 a3bc
000000b0: 73a0 12bd 98eb 763c 0ea1 81bd 47c7 8bbe
000000c0: ccaf bebd 8f46 233c 74e0 3abc 3f0a 2e3c
000000d0: 54c3 773c f368 73bd 5b77 0ebe 095f b1be
000000e0: e6b0 59bd 4529 d93d 72f4 01bd c578 cabc
000000f0: 734a 49bd 1969 0cbc 7768 1fbd b44f 40bd
00000100: e7ef 043e 4d6b 3d3e 8c83 3d3d 74ec 6ebd
00000110: 4843 013d c1fe ecbc 5a35 063d 1afc b73b
00000120: 8a88 853d 009e 89bd be1a f23c a862 90bd
00000130: 21d4 9bbc 96f3 99bd 663d cd3b c77d ddbc
00000140: 476a 58bd 0d67 f23b 2378 d0bc 8198 793c
00000150: a627 b9bc 927d 823b ba65 dd3b f5b4 15bd
00000160: 5422 6fbd 305c 763c 5d00 d4bc ee02 b8bb
00000170: ae21 6bbc 4755 6d3c 0188 eb3b b638 723c
00000180: 2aa1 923d e22c 54bc 8c27 f4bc ed7e 16bd
00000190: 2f18 4e3d e734 db3b e598 a1bc 669d e73b
000001a0: c25f 3a3c 9fbc c1bc 6d9c 40bc b5fb 4cbb
000001b0: 433e f43b f8c9 383d 8fc9 5f3c 4da6 943d
000001c0: 4b24 353d bd8e f9bc e207 d23c 198a 5dbc
000001d0: b83a abbc 0267 81bd ae47 06bc 2184 153d
000001e0: bfe8 813d 5a96 36bc a740 683c f5e9 bb3c
000001f0: 80df 7e3c 6f9e 65bd ae45 e93d f5b9 1f3d
00000200: b665 b93d f605 913d 0a6e 0a3d f8dc 2d3d
00000210: 5ce2 103d 6cd7 043d 0880 e63c 13a7 b33d
00000220: aadc ae3d d053 363e 2b8d 3fbc 4e27 173d
00000230: ba8f 04bd b40b a23c bc3a 0bbc f4ff 62bd
00000240: d9c5 0fbf 81c8 193e 1fad 453d ecb3 7b3d
00000250: eb8f 1f3c 6497 153c 03aa 29bc efa7 a13c
00000260: 5b2d e6bc d10d f73d ebb0 083e 0507 adbc
00000270: 77f7 dfbd c650 4cbd 2dcb e73c 375c 223d
00000280: 2431 b73c b607 93bc 5f66 993c 20e6 ba3b
00000290: 101d 033c b1dc da3c c872 39bc 4d5d b9bd
000002a0: a65e 93bd 2655 48bd d6be e8bb 12fa 93bc
000002b0: ee56 813d c248 94ba 0657 44bc 912f 07bd
000002c0: f0aa 09bd 366e 883b f555 5abd 6bda 52bb
000002d0: 0ed3 4fbd 9f82 75bd c3aa 33bd 4e8b 80bd
000002e0: 3661 60bd d9ef 073c e5a9 64bd cf97 81bd
000002f0: f897 96bd cc37 38bd 5c35 f6bc 61cc 5bbd
00000300: 4ba4 21bd 1545 09bd ec51 96bd 7de4 b0bc
00000310: f3f9 36bd 1f62 19bd 4b43 29bc 016e 87bd
00000320: 4a04 40bd 7599 b93c 9b4c 18bd 20e4 85bd
00000330: 1058 d5bc 401c 09bc 01da b1bc 3d47 fb3d
00000340: a35e 5dbd d241 c13d c980 00be 7376 67bd
00000350: c04e 97bd f188 1ebd f61a 51bc 0421 ebbc
00000360: dc7a ccbd 7d4a 3d3d d67c f1bd e8a5 5fbc
00000370: e20a 18bd 7ae3 81bd 9e20 6ebd 139a 45bd
00000380: 028e 2dbd 2571 53bf 0b39 f43c cd25 ee3d
00000390: 3294 a2bc a786 11bd ea95 a4bd 5d00 bdbd
000003a0: 8806 05bd 3c2d dcbc fb7a 663d d3b2 a93d
000003b0: 7c73 7d3c 9457 ccbb f9de 80bd cf24 93bd
000003c0: 4c2b 81bd 066e 91bb bd3c 17bc 003e 4480
000003d0: 1f55 4480 47f8 2b80 6aa3 4e00 0ac2 1d80
000003e0: ff70 3e00 4af8 1400 120a 2080 5b2a 5800
000003f0: 2ad9 7780 6de5 0f80 d891 9400 6055 2280
-0.01722762 -0.032372013 -0.006663149 -0.010962194 -0.01960863 0.0026982136 -0.073572055 -0.08102547
0.0020412444 0.004183174 -0.049286988 -0.02430244 0.0019280257 -0.06427603 -0.055385914 -0.0070465645
-0.09627349 0.015253536 0.02034541 -0.10187382 0.0003048457 0.026218906 -0.02822267 -0.016815152
0.005980256 0.01705231 0.033314977 0.03658022 -0.031521082 -0.12653723 0.016179327 0.068178535
0.07305261 -0.16340972 0.02686047 -0.043448415 0.012565567 -0.015561723 -0.040006533 -0.12982658
-0.044754628 -0.014145394 -0.06426481 -0.019961184 -0.035797548 0.015070818 -0.06329547 -0.27300474
-0.09310874 0.009965553 -0.011406053 0.01062256 0.015122253 -0.05942626 -0.13912718 -0.3464282
-0.05314722 0.10603575 -0.03172726 -0.02471579 -0.049143266 -0.008569979 -0.038917985 -0.04695101
0.1298214 0.18497963 0.04626803 -0.058330968 0.031558305 -0.02893007 0.032765724 0.0056147696
0.065201834 -0.06719589 0.029553767 -0.07050067 -0.01902205 -0.075171635 0.006263423 -0.027037514
-0.05283573 0.0073975385 -0.02544791 0.015234114 -0.022601914 0.0039822543 0.0067565115 -0.036549527
-0.058382347 0.015036628 -0.02587908 -0.0056155836 -0.014351292 0.014485664 0.007187844 0.014784029
0.07159646 -0.012950154 -0.029804014 -0.03674214 0.050316032 0.006689656 -0.019726226 0.007068324
0.0113753695 -0.023649512 -0.011756045 -0.0031277959 0.0074537112 0.045114487 0.013658895 0.07258282
0.044224065 -0.03046357 0.025638524 -0.013521695 -0.020902023 -0.06318475 -0.008195801 0.03650296
0.06343221 -0.011144245 0.014175571 0.022938708 0.015556216 -0.056059297 0.113902435 0.0389957
0.09052603 0.07081215 0.033796348 0.04244706 0.035372123 0.032432005 0.028137222 0.08772101
0.08538182 0.1780541 -0.011691372 0.03690272 -0.03236363 0.019780971 -0.00849789 -0.055419877
-0.56161267 0.15017892 0.048260804 0.061450884 0.009738903 0.009130333 -0.010355475 0.019733397
-0.028097799 0.12063182 0.13348739 -0.021121511 -0.10935872 -0.04988172 0.028295124 0.039638724
0.0223623 -0.017948013 0.018725572 0.0057037026 0.0080025345 0.026716562 -0.01131887 -0.09050999
-0.07195787 -0.04890933 -0.0071028275 -0.018063579 0.06315409 -0.0011313187 -0.011983639 -0.033004347
-0.033610284 0.004163529 -0.05330463 -0.0032173644 -0.050738387 -0.059939023 -0.043864023 -0.0627657
-0.054780208 0.00829693 -0.055826087 -0.06327783 -0.073532045 -0.044975087 -0.03005474 -0.053661708
-0.039463323 -0.033513147 -0.07339844 -0.021593327 -0.044671964 -0.03744709 -0.010330985 -0.066127785
-0.04687909 0.022656182 -0.03718243 -0.06537652 -0.026042968 -0.008368552 -0.021710398 0.12269447
-0.05404533 0.09436382 -0.12549128 -0.056509446 -0.07388067 -0.038704816 -0.012762776 -0.028702267
-0.09984371 0.046213616 -0.11791389 -0.013650395 -0.037119754 -0.06342216 -0.058136575 -0.04824264
-0.042371757 -0.8259452 0.029812356 0.11628304 -0.019846056 -0.035528805 -0.08036406 -0.09228585
-0.03247693 -0.026877038 0.056269627 0.08286061 0.015469428 -0.006236026 -0.06292529 -0.07184755
-0.06307086 -0.0044381646 -0.00923079 -6.267055e-39 -6.27535e-39 -4.037991e-39 7.22179e-39 -2.732837e-39
5.734336e-39 1.925779e-39 -2.942348e-39 8.096718e-39 -1.1006328e-38 -1.459835e-39 1.3643972e-38 -3.153034e-39

act_fc1.bias f4 [81]
00000000: 88e1 873b c50e 3bbd 33c2 e1bd b741 94bd
00000010: 2b1b 03bd 2dbf a6bd bc9b f6bd 3e2c 12bd
00000020: d365 0f3c 1f5f 12bd a7c1 ab3b 3874 04be
00000030: a54e 963d 1fa1 c83b 7780 bf3d a137 f4bd
00000040: 85b5 4dbd 1455 093c 298c e6bd ec5b ddbd
00000050: 2691 313e ea47 693d 9986 063e c0b0 153d
00000060: 5a5c f13d 282e 32be 81d4 8ebd 669e c3bc
00000070: 8506 ad3d eedf 893c f30d 673d 7e22 e63c
00000080: 031a 123d 5f70 bfbb e9e0 9a3d 0df0 14bd
00000090: e29a cebb 868c 4dbd fa08 123e ef48 943b
000000a0: 5aaf 083d c6f3 2a3d 4c4c 163e 4b5f 6fbd
000000b0: c7a9 b43b 9cd0 4cbd e255 953d 8649 83ba
000000c0: 63f3 3c3d 0e6b 143d 9c27 653c de46 cc3c
000000d0: 236a b23c d7c2 63bd 98c9 b9bd e262 eebd
000000e0: fea0 223e 78c1 d13c 0b8f 2f3e 5a7b 863d
000000f0: 19d9 4a3e 639d e5bd 405d 7cbd 2716 26bd
00000100: 5e1c 643c 0c58 ebbd 61b5 8c3d 4235 11bd
00000110: 60db 763d 62bc e9bd bb8e d23b 0124 6bbb
00000120: e14e 303c 139f c53b 02d0 c8bd a029 57bd
00000130: bf5b 1ebc 9431 8dbd b3f4 70bd 228e b1bb
00000140: e0aa a73b
0.0041467585 -0.045668382 -0.11023369 -0.072390966 -0.03200833 -0.08141933 -0.12041423 -0.035686724
0.008752304 -0.035735246 0.005241591 -0.12934959 0.07339219 0.0061227228 0.093506746 -0.11924673
-0.05022194 0.008382101 -0.11257202 -0.10808548 0.17340526 0.05695335 0.13137282 0.036545515
0.11785193 -0.1740042 -0.06974126 -0.023879241 0.08448509 0.01683041 0.056409787 0.028092619
0.035669338 -0.005842253 0.075624295 -0.036361743 -0.0063050846 -0.05018284 0.14261237 0.004525296
0.033370353 0.041736387 0.14677542 -0.058440488 0.005513403 -0.050003633 0.072917715 -0.0010016419
0.04613055 0.036234908 0.013986494 0.024936136 0.021779126 -0.055605736 -0.09071654 -0.11639954
0.15881726 0.025604948 0.1714441 0.06566496 0.19809379 -0.1121166 -0.061612368 -0.04054847
0.013922779 -0.11491403 0.06870533 -0.03545118 0.060267806 -0.11412884 0.006425706 -0.0035879614
0.010760994 0.006030926 -0.09805299 -0.05252993 -0.009665429 -0.06894222 -0.058827113 -0.005418555
0.0051168054

val_conv1.weight f4 [2, 128, 1, 1]
00000000: 234f 6e3e 7c6b 24be 08c9 70be 9ead bf3c
00000010: b20e ae3e a573 e0bc 396a b93b 1202 3c3e
00000020: 1c1f 1c3e 5ef6 923e fa9c d6be f11d 66bd
00000030: 319e aebe e21e 1fbd 7cdd b83e 9b00 45bd
00000040: fa73 23be a718 b03d 67d9 b83b ebd4 083a
00000050: e2a2 3fbe 8bb3 31be 1425 0f3e 7175 3e3d
00000060: 353b a83b 6e45 c2be d632 1abc a38f db3d
00000070: 5216 4e3d ccdc 7e3d 5310 58bd f901 a93d
00000080: d5ab bc3c 5aaf 053e e464 fe3d cece 243e
00000090: f40b 5c3d c46d 35be bba4 3c3e b866 62be
000000a0: 0d45 9abe 07bc 3d3e f909 51bd 2e20 793c
000000b0: 7c33 28be b151 c33d b137 e3be 1f7c c13d
000000c0: fa52 a2bc 3e88 77be 049e 45be f2c9 2e3e
000000d0: d2b6 a2bd d7e1 78bd ce0b c93e 3d42 453e
000000e0: ceef 513e 0ca2 8a3e c522 293c 2b0c 073e
000000f0: e108 6f3e 718a 57ba 5add 5bbe 19ef 5fbd
00000100: 620c 253c 3945 993c 15a7 f83d 2c55 fe3d
00000110: eb67 883e 7c6b 7dbd eff8 20be 1169 17be
00000120: cfc7 80be c603 113e 6b82 febd 65bd dc3e
00000130: e2a1 46be 3f3b 6abc 76b9 bc3d e839 653e
00000140: 4b33 4f3d e431 073e 2095 b3be 05b3 1c3e
00000150: 4343 b03d 3275 75ba 6099 e33b d2dc 1abd
00000160: 7323 4e3c a0dd 64be ebfc 00bd 4d02 963d
00000170: 72a4 b83d 9a61 89be a61d e53d 9bea 47bd
00000180: 52dd 6c3e ee33 833c fdaa 0f3e 0eef 2404
00000190: 342c c1bc 11b8 30bc fe42 bcbc ea6f e9bc
000001a0: 6846 0d3c 9702 3bbb d173 9d3d 1160 983d
000001b0: 3e0c 02be 2f2b 7f3b 1a3f 6d3d 1362 4d3d
000001c0: 5953 47be 1278 6a3d 0f61 2b3d 937a 063d
000001d0: 6900 303c 6feb 5f3e a222 2e3d d467 4d3e
000001e0: 370f 023b 1fb7 c0be 119a 0c3e 1e9c 073c
000001f0: 2ebd 0f3e 5b62 a3bd 1ea0 a43d e0e3 043e
00000200: 5812 363e b301 15be 03a2 263e ec9d fcbe
00000210: 44eb 8c3e 5a69 22be b5e4 fa3d 2f7c f6be
00000220: 671b 0fbd 6d67 dc3d c7ff dd3e d7d9 d6be
00000230: 91c9 0a3e a741 9b3d 4905 33bd a1fb 933e
00000240: 94e9 9d3e 2145 bbbd a790 dd3c 99b4 df3a
00000250: 9f89 373e 085c b2bd def1 6fbe a783 bdbe
00000260: 01b3 b9bd 475b ac3b 0687 a73e 5c90 c5be
00000270: 99bc bd3e 38e6 d5be 1a2a febe 5326 343e
00000280: a357 e53c 6285 d1be 21f4 ba3d 4969 2cbd
00000290: 845b a13d ebd2 5fba 5a59 a5be 80ec 293d
000002a0: e3eb cc3e 059a 92be aa86 8e3e ee16 a63c
000002b0: cdca 25bd 37e3 1d3e bad1 503e a214 3a3e
000002c0: dcbd cdbc 7dab 483e 17fc e8bc e92f 45bd
000002d0: d6a5 663e 0911 f9be 8a39 9e3e e82e 88bd
000002e0: 16c2 9e3c 5134 99be 39f6 05bd 46ca b4be
000002f0: 5cc2 0c3f 059b ca3e 203f 1cbe 01a9 8bbd
00000300: 9ec5 83be 99af 9a3e db35 0d3d 767a af3e
00000310: 54fc 533e 04c0 a9be 1dea 613e aa9f 44be
00000320: 286f 29be 7f30 35be 01aa 10bf 8d3b 7a3e
00000330: e91f c53e 7c63 423d 1667 043e 821d f9be
00000340: 75bd 283e 7f9c ebbc 7054 c639 b64c ebbd
00000350: 0b3b e8be 1809 dc3c 3a25 70bd 7ca5 253e
00000360: 3e48 713c ddb6 ec3d c554 e0bd 77de 3c3e
00000370: 2ac5 3a3e d5e0 03be 5d96 953d 3841 f93e
00000380: a6ec 693e d52f a43c 8264 83be 33c3 062e
00000390: 252d c7be e771 d7bc c21d c53d 04cd 78bd
000003a0: 7859 f63e ffaa c9be 2547 033d a8fe 5cbd
000003b0: ecb5 08be 9f99 073c 0c10 b5be 6549 83be
000003c0: ea1c a2be a58e 24be 4a39 873e aa7c 9c3d
000003d0: 69ae 303c 02d8 563e 8713 043f 0bad b3be
000003e0: a9b6 bbba 8c8d 483e c728 c9be e112 65ba
000003f0: 6d7f efbe e9e7 cdbe d243 b33e de91 903d
0.23272376 -0.16056627 -0.23514187 0.023398217 0.33995587 -0.027398894 0.0056584147 0.18360165
0.15246242 0.28703588 -0.4191664 -0.056180898 -0.34105065 -0.03884781 0.3610648 -0.04809628
-0.1596221 0.08598452 0.0056411508 0.00052197155 -0.18714479 -0.17353646 0.13978988 0.04649872
0.005134011 -0.37943596 -0.009411534 0.10720756 0.050314255 0.062222287 -0.052749943 0.082523294
0.023031155 0.13055173 0.12421587 0.16094515 0.053722337 -0.17717654 0.18422215 -0.22109497
-0.30130807 0.18528758 -0.0510349 0.015205426 -0.1642589 0.09537066 -0.44378427 0.09447502
-0.019814957 -0.24173066 -0.1929856 0.17069224 -0.079450265 -0.060762253 0.3926682 0.19263549
0.20501634 0.27076757 0.010323231 0.13188235 0.23343231 -0.00082222285 -0.21471158 -0.05467138
0.010073753 0.018709766 0.12141243 0.12418589 0.26641783 -0.061870083 -0.1571996 -0.14786173
-0.25152442 0.14161596 -0.12427219 0.43113247 -0.19397691 -0.014296352 0.09215061 0.2238537
0.050586026 0.13202626 -0.3507471 0.15302666 0.08606579 -0.0009363472 0.006945774 -0.037808247
0.012581694 -0.22350168 -0.0314912 0.073246576 0.090157405 -0.26832277 0.111872956 -0.04880772
0.23131302 0.016015973 0.1403007 1.9387876e-36 -0.023580648 -0.010786072 -0.022981163 -0.028495748
0.008622743 -0.002853548 0.07688106 0.07440198 -0.12699983 0.0038935652 0.057921506 0.05014236
-0.19465388 0.057243414 0.04184061 0.03283174 0.010742285 0.21867155 0.042513497 0.20059139
0.0019845495 -0.3763971 0.13730647 0.008276967 0.1403701 -0.07977744 0.080383524 0.12977552
0.17780435 -0.1455143 0.1627274 -0.49339235 0.27523243 -0.15860501 0.12250654 -0.4814162
-0.034938242 0.107619144 0.43359205 -0.41963074 0.13553454 0.075808816 -0.043706212 0.28902915
0.30842268 -0.09144045 0.027046515 0.0017067372 0.17923592 -0.0870896 -0.23432109 -0.37014505
-0.090673454 0.0052599045 0.32720202 -0.385867 0.3705795 -0.41777205 -0.49641496 0.17592745
0.02799589 -0.40922076 0.09128595 -0.042092595 0.07878783 -0.0008538204 -0.32294732 0.04148531
0.40023717 -0.28633133 0.27837116 0.020274606 -0.04047661 0.15418707 0.20392504 0.18171933
-0.025114946 0.19596668 -0.028440518 -0.048141394 0.22524199 -0.4864581 0.30903274 -0.06649572
0.019379657 -0.29922727 -0.03270552 -0.35310572 0.5498407 0.39571396 -0.15258455 -0.06819344
-0.25736707 0.30212095 0.03447519 0.34273118 0.20701724 -0.3315431 0.22061963 -0.19201532
-0.16546309 -0.17694281 -0.56509405 0.2443678 0.38500908 0.047458157 0.12929949 -0.48655325
0.16478522 -0.028761147 0.00037828414 -0.11489241 -0.45357546 0.026859805 -0.058629252 0.16176409
0.014726697 0.11558316 -0.109536685 0.18444239 0.18239275 -0.12878735 0.0730407 0.4868257
0.2284418 0.02004234 -0.2566262 3.0641444e-11 -0.3890163 -0.02629943 0.096248165 -0.060742393
0.48115134 -0.39388272 0.03205027 -0.053953797 -0.13350648 0.008276372 -0.35363805 -0.25641933
-0.31662685 -0.1607004 0.26410896 0.07640965 0.01078377 0.20980838 0.51592296 -0.3509296
-0.0014321405 0.19585246 -0.39288923 -0.000873847 -0.46776906 -0.40215996 0.3501268 0.07059072

val_conv1.bias f4 [2]
00000000: c5bc 7cbb e0be 2e3d
-0.0038564664 0.0426625
