current_policy66.model (torch, 422131 bytes, 15 tensors)

conv1.weight f4 [32, 4, 3, 3]
00000000: d8a2 29be 0f5c f73e 2bad a23e e75c 74be
00000010: 2c24 df3e f840 2f3e 47b4 67be c314 d53e
00000020: 0663 95be 43aa 6bbe c700 3dbe ef17 d5bd
00000030: ef23 423c 2881 913a 386a 71be dd67 4b3e
00000040: c908 32bf 4e24 8b3e 0eb8 f6bc 8a33 033e
00000050: fcf5 b83d cc0d 053e af0f 143c 3c44 1c3c
00000060: bc86 75bd 808f 36bd 3992 a63d bc3f 88bb
00000070: 57e9 1b3e 5c9b dfbc 01a9 b6bd b755 f33d
00000080: b2f2 babc 02a0 833c 6f17 1dbd f89f 02be
00000090: 4285 aa3d c717 33be 85b4 19be 902f 473c
000000a0: d2f2 40be b4f5 ee3c 156a 8dbd ab48 bb3c
000000b0: 7473 1f3f 4f33 be3d ed5f 683e 8171 efbe
000000c0: ff78 c13e 6bcd 7a3e af03 ef3e 90ec 5dbd
000000d0: 044a e4be 2082 d8bd a30f 96bc 8829 133d
000000e0: 4c2f 9fbd f56d 003d 1f3a e93d 8a67 6bbd
000000f0: c287 743d 26f1 b33d 6f8b 243d 2541 2bbd
00000100: f8de fdbc d293 d63d 10bb 47bd 4360 133d
00000110: 53ad 04be c53e 1e3e 636d 19bd 23dc c83d
00000120: 3901 013f ef92 ddbd 6294 a1be 03a3 92be
00000130: e0f4 5b3e 1c97 88bd 2919 9f3d 3d76 73be
00000140: e982 183f e413 51bf f89c c53e f2b6 923e
00000150: 377a 333e 33d9 bebe 5a4f 40be 3fee 773e
00000160: 1850 41be 62f8 89be 61c5 e03d 0402 adbd
00000170: 4287 b93d f497 433c fff7 a13d 6e64 a13d
00000180: cfb9 aa3c 7fec 443e a7a1 10bd 30d0 fdbd
00000190: 54c7 093e 2479 043b 3d73 593d a20d 8e3c
000001a0: f3f2 163e eace a0bc 749c 88bc 6e69 fabc
000001b0: 60a4 b43e 2ff7 0ebc 3554 093e a82c b43d
000001c0: 458a bf3c 11b5 e5bd 3af5 eebe 610e b53e
000001d0: 1609 b33e 21c3 7b3d 024a 84be 7025 c23e
000001e0: 75fd 01be 6081 41be a75b 62bd 4322 043f
000001f0: f9d0 103d 2710 71be b197 edbd 8ac1 9b3c
00000200: 6ff4 76bd 45e6 843c 56ac b73d 570b 80bc
00000210: faa1 50bd eb7b 2bbc 70a2 cc3d 3439 b03c
00000220: 6943 b9bd 4fe0 93bd 3909 3f3d cc33 0e3d
00000230: f356 fbbd 07e1 923d f033 f13d 0cfc aa3c
00000240: 255c ad3e 6101 04bf 5630 9ebd 1bcd f83e
00000250: 1287 d33d b217 b53e 0caf 34be a965 eb3c
00000260: 8367 94be ce9f 6ebe 51df 95be afa9 be3d
00000270: cb8f c3be 2bea bd3d 66aa d1bd b582 27be
00000280: 96d9 ebbc 58ca 05be c11e 09be f15c 003e
00000290: 8cf1 a93d dc89 debd 8f0d 113d a963 e13c
000002a0: ea1a bbbd f72d c23b b051 96bd 7223 123e
000002b0: dfa3 2a3e 6325 08be c087 0a3b 9d69 063e
000002c0: 034e 0ebd 5e04 893b 2d24 1b3e 9279 f2bd
000002d0: 5f44 8dbe d590 3a3d b661 31be 40b7 b53d
000002e0: 842b edbd 50e3 69be f952 833c 4710 efbe
000002f0: 4fa8 2d3e ac74 023e 863f cf3d 3c75 d5be
00000300: 3e68 603e d063 debd 4ae0 fe3d 9fc5 673e
00000310: deaf e1be b68c 703e 4f4c 38be 9b40 ed3c
00000320: 7897 bebd 9f46 93bc cead 4bbd 37bf b53d
00000330: 2f87 d23d be87 98be 934d 05be 3b41 b3bd
00000340: 7d88 d33d 30bc 04be 4c74 5a3d 2384 043e
00000350: 9c09 df3c c1bb 83bc fa30 9ebd 40af 2fbe
00000360: d970 30be 7872 e53e 73aa 77be 9a7d 263e
00000370: 5a7f b83d d4ab aa3e 7716 36be ecb2 8e3e
00000380: 785f afbe c33a a83e a274 c93d a32c 153f
00000390: 4557 a53c ef8e 173e 04a9 713d 21ab e2bc
000003a0: 93f9 cebd 810e bf3e 54f9 93bd 3231 4e3d
000003b0: 47be 1bbe e27b 8f3c 7520 833d db36 04bd
000003c0: 2319 f63d 5909 703c c7e3 2abe 6647 32bd
000003d0: 936f 153e e328 103e 85fc 0abd 1837 eebc
000003e0: 70d7 f6bd 559c dcbd ec7f 6a3d bceb 2abd
000003f0: d314 963e f950 e0bd 75a9 54be 6fa3 023e
-0.16566026 0.48312423 0.31772742 -0.23863564 0.43582284 0.17114627 -0.22627364 0.41617402
-0.2917711 -0.23014168 -0.18457328 -0.104049556 0.011849388 0.0011101114 -0.23575675 0.1986384
-0.69544655 0.27176136 -0.030117061 0.1281263 0.09031293 0.12993544 0.009036942 0.009537753
-0.059942946 -0.044570446 0.081333585 -0.0041579884 0.15225731 -0.02729576 -0.08918954 0.11881583
-0.022820804 0.016067509 -0.038352426 -0.12756336 0.08326198 -0.17489539 -0.15010269 0.012157336
-0.18842629 0.029169895 -0.06904999 0.0228618 0.6228554 0.0928713 0.22692843 -0.46766284
0.37787625 0.24492423 0.46682498 -0.05418068 -0.4458772 -0.105716944 -0.018318003 0.03592828
-0.07772693 0.031354863 0.11388039 -0.05747179 0.05969978 0.0878623 0.040172037 -0.041810174
-0.030990109 0.10477413 -0.04876238 0.035980474 -0.12956743 0.15453632 -0.037457835 0.09807613
0.5039249 -0.10819041 -0.3155852 -0.28639993 0.21480131 -0.06669447 0.07768471 -0.23775573
0.59574753 -0.81670976 0.3859632 0.286552 0.1752709 -0.37275085 -0.1878027 0.24211977
-0.1887821 -0.26947314 0.10975147 -0.0844765 0.090590015 0.011938084 0.079086296 0.078804836
0.020840554 0.19230841 -0.035310414 -0.12393224 0.13454944 0.0020213807 0.053088415 0.017340485
0.14741115 -0.019629914 -0.016676165 -0.03056785 0.35281658 -0.008725925 0.13411029 0.0879758
0.023381362 -0.11216176 -0.46671468 0.35362533 0.3496787 0.061465386 -0.25837713 0.37919188
-0.12694342 -0.18897009 -0.055263188 0.5161478 0.03535554 -0.23541318 -0.116011985 0.019013185
-0.060291704 0.016223082 0.08968417 -0.015630407 -0.050935723 -0.010466556 0.0999192 0.021511652
-0.090460606 -0.07220518 0.046639655 0.034717366 -0.122724436 0.07171827 0.117774844 0.020872138
0.33859363 -0.51564604 -0.07724063 0.48593983 0.10328497 0.3536964 -0.176449 0.028734999
-0.28985223 -0.23303148 -0.2927194 0.09309708 -0.38195643 0.092731796 -0.10237579 -0.16358455
-0.028790276 -0.1306547 -0.13390638 0.12535454 0.082980245 -0.10866138 0.03541332 0.027513342
-0.09135993 0.0059258896 -0.073397994 0.14271334 0.16664074 -0.13295512 0.0021138042 0.13126226
-0.034742367 0.004181429 0.15150519 -0.11839594 -0.27591226 0.04554828 -0.1732243 0.08872843
-0.115805656 -0.22840619 0.016030775 -0.46692106 0.16958736 0.1273982 0.10119538 -0.41691005
0.21914765 -0.108588815 0.124451235 0.2263398 -0.4407949 0.23491177 -0.1799786 0.02896147
-0.09306234 -0.01797801 -0.0497263 0.08874362 0.102796905 -0.29791063 -0.13017873 -0.08752676
0.103287674 -0.12962413 0.053333566 0.12941031 0.027226262 -0.016080739 -0.07724185 -0.17156696
-0.17230548 0.44813895 -0.24186115 0.1625885 0.090086654 0.3333422 -0.17782007 0.27870882
-0.34252524 0.32857332 0.09836699 0.58271235 0.020183215 0.14800619 0.058999076 -0.027669491
-0.10106196 0.37315753 -0.0722529 0.050339885 -0.15209304 0.017515127 0.06402675 -0.032278877
0.12016513 0.014650666 -0.16688453 -0.043525122 0.14593343 0.14078097 -0.033932228 -0.029079005
-0.1205281 -0.107720055 0.057250902 -0.04172872 0.29312763 -0.10952944 -0.20767768 0.12757657

conv1.bias f4 [32]
00000000: 91e6 c7bd 2dd0 a2bd 84ba 09be 4990 76bd
00000010: 6356 c6bc ba2c 0e3e c8da e5bd b42a ef3b
00000020: de7f cfbc e50b 923e d99f 01be 11f4 74be
00000030: a4ce d53c daa0 79bc 9beb 07be e604 35bd
00000040: a882 043e 0689 82bd 420f f83d 516b 51bd
00000050: 3f27 18be d075 41be 8427 4abe 3c01 c73d
00000060: b507 3c3c 38e6 3f3d 32fb 4dbc 08d6 83be
00000070: 4acd b73d e44b e4bd 4fb2 3cbe 7cc0 0abe
-0.09760774 -0.07949863 -0.13450056 -0.060196195 -0.024211114 0.1388425 -0.1122337 0.007298792
-0.025329527 0.285247 -0.12658633 -0.23921229 0.02609951 -0.015236104 -0.1327347 -0.044194125
0.12940466 -0.063737914 0.12112285 -0.051127736 -0.14858721 -0.18892598 -0.19741637 0.09717032
0.011476447 0.046850413 -0.012572097 -0.2574923 0.08974703 -0.111472875 -0.18427394 -0.1354999

conv2.weight f4 [64, 32, 3, 3]
00000000: 6b49 b3bd bc30 dd3e 70a2 d0bc e27d a03d
00000010: 3524 a13e 0089 433e d6e0 81bd 5cb3 b73d
00000020: 1749 67bd 9643 423e 70be cf3d 0368 f8bd
00000030: b8a1 473e 72c1 46be 2b44 72be a4f6 bbbb
00000040: 659c 8abd 9b84 20bd 5303 403e 3f7a debe
00000050: 36e0 0cbe 78d1 183e ffaa 90bd 7baf b4ba
00000060: 8f00 bfbc 486f dbbd 3b13 b23c 4eaa a43d
00000070: 0806 8f3d ae76 bfbe 0cbc 98bd 9992 773e
00000080: 780a a6bd aed6 ef3d 3a3e 223c b6b9 10be
00000090: f37d 6c3d e2cf f93d 070c 0e3e 89f3 e53c
000000a0: cc2d d7bb 9594 103b 0906 9bbc 5ca9 b1bd
000000b0: fe47 0fbe 7c9f 803d 3776 80bc 6d48 05be
000000c0: dbe2 8fbe 1862 863d d28f 3f3b 8f69 2b3d
000000d0: 82cb 08be 0fc7 15bd 49d9 58be 7bbe 4b3d
000000e0: 0712 55be 1c4e b2be 8c1b 813d e9df 17be
000000f0: e899 f2bd e889 413e bb05 fd3d ba6d 92be
00000100: ef5a 6b3b ea89 5bbb a684 33bd e527 e7bd
00000110: 0b58 4fbd df48 9dbd b31d 9dbd 6fda 283e
00000120: 7988 a8bd 954e febc 3701 053e 13ea d63d
00000130: 16ee 11be eab5 8b3d ae81 65be ba79 b8bd
00000140: 86f8 af3d fd15 86be 6c0b c43e b153 623c
00000150: 654f 17be 6893 adbd acba 83bc df47 4cbd
00000160: d2cf 8abd d3e3 263e 6bf8 00be 93d2 ce3d
00000170: d03d 523d 34fa 04be 24c6 4abe 02b9 67be
00000180: 8e98 823d 53d1 913c 0a16 97be 723c 003d
00000190: 4079 393d 881f eabd d2dc f03e 0218 283d
000001a0: 87b0 863e 3a37 11bc dc86 8ebe 5727 0cbe
000001b0: 6ac4 4d3e d47e c03d d2e6 07be 7cda 4fbe
000001c0: 321f 3fbd f307 0dbd 52a1 cebd 0ddb 0b3e
000001d0: c472 b6be 6ed9 abbc de8b 8b3d c766 22be
000001e0: dcb2 183e 44f3 353d 8b7f 1e3d e845 153d
000001f0: 90c6 353e 340f 60be 0858 213d deca 1f3e
00000200: bd95 2abe 33d1 27bd d38f 113e 0098 813d
00000210: 78fa a83d 59b1 a83d 9f7c 0e3e eb76 b6bd
00000220: 044a 98be e4e8 29be 6ed0 9cbe 21f7 5ebe
00000230: 99ca 2bbe 9900 6bbd b6cc b2bd 8096 2dbc
00000240: adc6 22be 920a 1d3d aa95 43bd 9c0f 013d
00000250: ef91 1e3d 6977 ac3d 2fb2 183d 0b4d 4dbd
00000260: 06c2 f03b 8475 d5bc 3914 6b3e 1361 7dbe
00000270: 87c1 febd 3aa8 db3d 9586 1dbd b5e4 0abe
00000280: 2d63 a73c 718c b6bd c408 923d ab21 d23d
00000290: 6f72 17be b01e 083e 385a 2bbe 994b d0bd
000002a0: 7d59 6fbd bf4f 063d 169c b1bd 7e3c e03b
000002b0: 77aa 3e3e f455 e5bc 02f1 20bd f6dc 773e
000002c0: ebad 46be 4296 513e a891 d23d 11b7 96bd
000002d0: c701 b53e 8c8e 4a3e 52fc 613e 328f 283d
000002e0: 0b1d b53d 2a9f 29be a6e7 d63b 1d09 743d
000002f0: ee93 50bd 1912 553e 2b67 75bd c316 9e3d
00000300: 5280 9b3d 0a8f 00be 09b9 ebbd 971f 43be
00000310: 8249 e3bd 158d 4cbe 1330 063e a998 1f3e
00000320: 5a24 2b3e b08a 3f3e 00b6 113e bccf afbd
00000330: f6af 1abe a559 87bd 2702 4bbe 8408 a7bd
00000340: 759d 3cbe c562 33be d164 fa3e be35 56bc
00000350: abf9 423e 2f09 e0bd bcc4 08be 0d56 adbd
00000360: 930f 38be c8df 443d a22c adbe de89 943d
00000370: 0102 0cbd af07 89bd 4357 9d3d 8bce 02be
00000380: a1fe d1bd 5903 8e3d 3552 533d 4c65 4e3c
00000390: 19bd 473c f345 fdbd 4a09 223d f570 ecbd
000003a0: 6d1b 8c3d 73f7 bfbe 4862 393e 2343 523e
000003b0: 09ed 433c e959 c3be 0666 bc3d 6c82 00be
000003c0: d370 30be 1179 0f3e a4b1 c2ba 2a77 523e
000003d0: 3074 91bc c289 443e 1e83 2a3e 1eaa 0ebc
000003e0: f4eb d33d 2ec7 39be 0df9 163e ba4f 23bc
000003f0: b201 6d3c 8b85 0e3d 0df1 e83d 2b00 e9bd
-0.08754238 0.43201244 -0.025468081 0.0783651 0.31472936 0.1909523 -0.06341712 0.08969757
-0.05646619 0.18971094 0.10143745 -0.12129214 0.19495285 -0.19409731 -0.23658817 -0.005736189
-0.06768111 -0.039188962 0.18751268 -0.4345264 -0.13757405 0.14923656 -0.07063865 -0.0013785207
-0.023315696 -0.107145846 0.021737685 0.080402955 0.06983572 -0.37395233 -0.07457742 0.24177016
-0.081074655 0.11710869 0.009902531 -0.14133343 0.057737302 0.121978536 0.13871776 0.028070228
-0.0065667387 0.0022061218 -0.018923776 -0.08674881 -0.13992307 0.06280419 -0.01568137 -0.1301591
-0.28102764 0.06561679 0.002923001 0.041848715 -0.13358882 -0.03656679 -0.21176638 0.049742203
-0.20807658 -0.34825218 0.06304082 -0.14831509 -0.118457615 0.18900263 0.123546086 -0.2859934
0.0035912355 -0.0033498951 -0.043827675 -0.11286906 -0.050621074 -0.07679915 -0.0767168 0.16489576
-0.08229155 -0.03104333 0.12988745 0.10493865 -0.14250979 0.06821807 -0.2241275 -0.090075925
0.08592324 -0.2618865 0.38289964 0.013813899 -0.1477638 -0.08475381 -0.016080223 -0.04987323
-0.0677792 0.16297846 -0.12594764 0.100987576 0.05132848 -0.1298607 -0.19802147 -0.22629169
0.06376754 0.017800009 -0.29509002 0.031307645 0.04528165 -0.11431795 0.47043473 0.04103852
0.26306555 -0.008863265 -0.27837265 -0.13686882 0.20094457 0.093991905 -0.13271645 -0.20298189
-0.04666061 -0.03443141 -0.10089363 0.1365778 -0.35634434 -0.020977702 0.06813787 -0.15859519
0.1491198 0.04442145 0.038695853 0.03644362 0.17751527 -0.218808 0.039390594 0.15604731
-0.16658683 -0.040970992 0.14215021 0.0632782 0.08250898 0.082369514 0.13914727 -0.089094006
-0.2974397 -0.16592747 -0.3062777 -0.2177396 -0.16776504 -0.057373617 -0.08730452 -0.010594964
-0.15896101 0.03834016 -0.047750153 0.031509027 0.038713392 0.08421213 0.037279304 -0.050122302
0.007347348 -0.026057012 0.22956933 -0.24744062 -0.12439256 0.10725446 -0.038458426 -0.13563807
0.020433033 -0.08913506 0.07130578 0.10260328 -0.14789747 0.13292956 -0.16733634 -0.10170669
-0.058434952 0.032790896 -0.08672349 0.0068431487 0.18619715 -0.027995087 -0.039292343 0.24205384
-0.19402282 0.20467475 0.10281688 -0.07359136 0.35352919 0.1978094 0.22068909 0.041152187
0.0884343 -0.16564623 0.0065583764 0.059579004 -0.050922327 0.20807685 -0.05991284 0.07719185
0.075928345 -0.12554565 -0.11509902 -0.1905502 -0.11098005 -0.19975694 0.13104276 0.15585579
0.16713086 0.18705249 0.14229584 -0.08584544 -0.15106186 -0.06608895 -0.1982504 -0.08155921
-0.1841944 -0.17518146 0.48905042 -0.013074337 0.19040553 -0.10939252 -0.13356298 -0.084636785
-0.17974691 0.048064977 -0.33823115 0.072528586 -0.0341816 -0.06690919 0.076826595 -0.12774102
-0.10253645 0.06934232 0.05159207 0.012597393 0.0121910805 -0.123668574 0.03955964 -0.11544982
0.068411686 -0.37493476 0.18103898 0.20533423 0.011958369 -0.38154534 0.09199147 -0.12549752
-0.17230539 0.14011027 -0.0014853966 0.2055327 -0.017755598 0.19193175 0.1665158 -0.008707551
0.10347739 -0.18142387 0.14743443 -0.009967739 0.014465736 0.034795325 0.11374102 -0.11376985

conv2.bias f4 [64]
00000000: c9d1 fd3c 558d 56bd e776 96bc 4f63 5a3c
00000010: 8959 5793 41ef efb3 61ff 7eab 1b57 0abe
00000020: 2697 acbd 324c b5bd 263a 149d 5050 06b8
00000030: 28a6 87bb bc9a 9cb1 d8f9 bdbb 296b f6bc
00000040: 6a2d 283d c89a c7bc 3130 24bd bcd6 0abe
00000050: 672d 6ea1 beb1 7f3d 04fc a03c 25c8 c53d
00000060: 0d10 b7bc 23d5 06be e6e2 62bd 44ad 2ebe
00000070: 1f66 11bd 930f a5ae cb83 6abd 4d9b 0f3d
00000080: c779 853d ea05 1cbd bc62 f5bc 0d3e 80bd
00000090: c6a5 61bc 9d78 b7bc 3e04 61bd 87c6 38b8
000000a0: b63f 59bd 9b2d 73bd 8547 75bd 52ec 27b2
000000b0: 0a66 38bd f860 06be 3e32 693d 24c1 10be
000000c0: 16f2 c5bd 7b9a 5cbe e1bc b6bc 0bae 90bb
000000d0: 5d74 07b2 336c 0e3c 64ea 1dbd ecdc b6bd
000000e0: 4675 8f3c 99bf fbbc 9dbc e63c 7562 24af
000000f0: d368 bbbd 190b 52b5 3f5e 01ae 25c6 e0bd
0.030983822 -0.05238088 -0.018367244 0.013329341 -2.718096e-27 -1.1172825e-07 -9.0593337e-13 -0.1350979
-0.08427267 -0.08852424 -1.9617699e-21 -3.2022886e-05 -0.0041396804 -4.557789e-09 -0.005797606 -0.030080395
0.041058935 -0.024365798 -0.04008502 -0.13558477 -8.0697626e-19 0.062425368 0.01965142 0.09657315
-0.02234652 -0.13167243 -0.05539217 -0.17058283 -0.03549778 -7.506098e-11 -0.057254594 0.035060216
0.06517368 -0.038091578 -0.029954307 -0.06261835 -0.013772434 -0.02239638 -0.054935686 -4.405391e-05
-0.053039275 -0.059369665 -0.05988266 -9.774412e-09 -0.045019187 -0.13122928 0.05693268 -0.14136177
-0.09665315 -0.21543305 -0.022306861 -0.004415279 -7.884492e-09 0.008692789 -0.03855361 -0.08928856
0.017511975 -0.03073101 0.02816611 -1.4950692e-10 -0.09150853 -7.8247245e-07 -2.941491e-11 -0.10975293

conv3.weight f4 [128, 64, 3, 3]
00000000: 8407 a83d ae33 2a3d 2b2b fbbd 5fcf abbd
00000010: eeae 413d b862 a23d 8f98 c5bd ce93 f8bd
00000020: 7f88 123e 123e 893d 04ae 8c3c b9d2 9fbe
00000030: 83b6 ab3b 6e99 843d 5180 733d fc13 98bd
00000040: 22ba acbd 91f3 a4bc ace6 a6bd 704a 9bbd
00000050: 739a c2bd 26ee 67be 41ed 22be 6d3d 643d
00000060: fc46 a0bc fa54 123d 91b9 e0bd 56bd bfbd
00000070: 589d 2b3e 8252 4d3e 863f b4bc ef2f 6c3d
00000080: 349b 04bd db31 5b3a 83b3 1bbe e6f5 8bbe
00000090: f978 1180 9474 1e00 cf10 0b80 49d2 1b80
000000a0: 2a23 3380 1b66 1e80 f579 0a00 3489 0b80
000000b0: 878e 1b80 f4ae 0200 8bd8 5400 2cd5 3280
000000c0: 3d16 3800 dbf4 2000 e305 1080 6876 1b00
000000d0: 846c 1300 1172 0900 6c2e 0200 5128 4d00
000000e0: f107 1700 bc6f 1200 97cb 1480 3b34 4c00
000000f0: 414e 5000 5b0c 2600 449a 2d80 8070 203d
00000100: 7068 58be fba9 5fbe 0b5e e0be e229 7d3d
00000110: 5aca 57bd 25c4 aebb 5dd0 03bd 9d89 98bb
00000120: f299 923e 85c6 003e c6da 843d 356b d73c
00000130: b5f4 9d3c 459f adbd 0b3a 3fbd 36e1 be3d
00000140: 30a2 483e 91fb e73d 23df 833d 02c0 97bd
00000150: 60aa 80be fb6e 783e d9d0 9cbd 7734 f7bc
00000160: 59c2 323e 8f92 02bd 0191 3600 58ec 2580
00000170: 3d33 1c80 032c 4b00 ec1f 4180 6f95 1e80
00000180: ecf7 2780 2956 1a00 e6ef 2080 40a9 1700
00000190: ea99 0600 1736 1c80 0e42 2e00 3e4f 5000
000001a0: 59dc 1d00 1855 3f00 a8ca 5300 5be8 1b00
000001b0: 8fba 2a3c a320 12be 18ac afbe 51e3 d93a
000001c0: 686e babc d6be 123e f70a 79bc 3e24 b73d
000001d0: 947f a63e 9d00 2e00 3667 1a00 3a4f 1600
000001e0: 49f8 3f00 b79f 1c00 5bc6 3c80 c5fb 3300
000001f0: c111 1e00 a3e9 3800 fe0e f22a 4bfa c52b
00000200: 8f62 d4ac e45e 80ab 64ec 94ad 385f 812d
00000210: 76cd 4d2d 2a3d 8fad ff84 22ad 2417 e5bc
00000220: f890 42bc 2685 4d3b 45ad 2bbd e25e b5bc
00000230: 5795 a1bc 7dba 38bd a2c8 18bd 963d 2cbd
00000240: d41c 883d 19df 30bd ba33 603a 8756 e3bd
00000250: 6ce9 f63c ce8f df3d 8bfe 71be 986f 5dbe
00000260: 525c c4bd 0e80 84be 18fb 97be 12c8 e5bc
00000270: b7d5 353d 3d39 30be 54bf 793d d8ab 7fbe
00000280: d457 dcbc 6304 ee3c f9be 2a3e 3360 183e
00000290: f021 20be 5c97 293d ecfa 2e3e 8c6b a4be
000002a0: 0236 e33d 7cc9 88bd 50b0 dc3d bd01 253e
000002b0: cdcf 1abe d886 abbe 9f36 3dbc d295 6bbd
000002c0: b595 663d b096 a7bd 6710 a63d d16a 5f3e
000002d0: 1ead 2500 b48b 3400 33ba 3f00 bc48 0300
000002e0: bda3 2400 5154 2480 a98b 1300 20c4 0780
000002f0: e1ae 2300 9159 0fbe 090a eb3e 9bcc c33d
00000300: 0c07 9f3d e6a4 dfbd e361 31be 45d2 373e
00000310: a44d e43d 2ded 68be 20f1 5abd 894a 5abd
00000320: 24ce ae3d 8ee5 ccbd f1ae 33be c32e d3bd
00000330: 3d85 5cbc dd0c 5bbd b347 373e 3345 d5bd
00000340: 3c06 3ebe 6368 cb3d 8946 6cbe 21a8 fdbd
00000350: 0358 1e3d 65c5 883e e29f 923d a709 4bbe
00000360: 666d d339 1ca4 073b a1aa c73b 434c e4b7
00000370: 7c4e f43a da8b 563b 3bad e639 2259 353b
00000380: 6f06 253b 2ab3 2ebe a765 4cbe c586 45bd
00000390: 97c5 f2bb 380c 6dbd 2ccd 2f3b 8e99 14be
000003a0: edae 55be 13fe 04be 73a6 2c3d 4a7d 0e3d
000003b0: 5c4c 373c 7d2f 3a3d 34e3 973c 526d 2ebc
000003c0: f106 d53c 1f2c c7bc 6588 6bbc 960b c0bc
000003d0: 5a64 3ebe 93f5 abbc 78e2 503d 85c1 833d
000003e0: 841c b93c adf8 75be e535 afbd fa02 21be
000003f0: c037 1cbb 982d 6b3b 2278 a13b f3a3 103a
0.082045585 0.04155319 -0.12264093 -0.08389162 0.047285967 0.07928985 -0.09648239 -0.121375665
0.14309882 0.06701292 0.01717282 -0.31215456 0.005240263 0.06474577 0.059448544 -0.07425687
-0.084339395 -0.020135673 -0.08149466 -0.07582557 -0.09502115 -0.2264944 -0.15910818 0.055722643
-0.019565098 0.03572557 -0.10972894 -0.09362285 0.1675924 0.20051005 -0.022002947 0.0576629
-0.032374576 0.0008361616 -0.15205197 -0.27336043 -1.6046e-39 2.796885e-39 -1.01622e-39 -2.554994e-39
-4.696225e-39 -2.791693e-39 9.62105e-40 -1.05941e-39 -2.530688e-39 2.46432e-40 7.791863e-39 -4.668246e-39
5.150765e-39 3.026573e-39 -1.47148e-39 2.522035e-39 1.783802e-39 8.67439e-40 2.00324e-40 7.085796e-39
2.115065e-39 1.693122e-39 -1.909744e-39 6.998234e-39 7.374912e-39 3.494181e-39 -4.187937e-39 0.03916979
-0.2113359 -0.21842186 -0.4382175 0.06180752 -0.052683212 -0.005333441 -0.032181133 -0.0046550767
0.28633076 0.12575729 0.0648704 0.026296237 0.019281724 -0.08477644 -0.046686213 0.09320299
0.1959312 0.11327279 0.06439044 -0.074096695 -0.25129986 0.24261086 -0.07657022 -0.030176384
0.1745695 -0.03187805 5.011134e-39 -3.482698e-39 -2.589775e-39 6.90345e-39 -5.980759e-39 -2.808672e-39
-3.670522e-39 2.418631e-39 -3.024795e-39 2.172932e-39 6.06227e-40 -2.590798e-39 4.248129e-39 7.375266e-39
2.742275e-39 5.816162e-39 7.695046e-39 2.562912e-39 0.010420456 -0.14270262 -0.34310985 0.0016623532
-0.022757724 0.1433061 -0.015200368 0.089424595 0.3251921 4.224653e-39 2.424748e-39 2.048802e-39
5.874704e-39 2.628689e-39 -5.581286e-39 4.773928e-39 2.761434e-39 5.226601e-39 4.2998238e-13 1.4067162e-12
-6.0363446e-12 -9.121284e-13 -1.693063e-11 1.4707888e-11 1.1698522e-11 -1.628438e-11 -9.238165e-12 -0.027965136
-0.011875384 0.003135988 -0.04191329 -0.02213997 -0.019724531 -0.045099724 -0.037300713 -0.04205092
0.066461235 -0.043181513 0.000855263 -0.11100488 0.030140601 0.109161004 -0.23632257 -0.21624601
-0.09587921 -0.25878948 -0.29683757 -0.028049503 0.044393267 -0.17209335 0.06097348 -0.24967897
-0.026897348 0.029054826 0.16674413 0.14880447 -0.15637946 0.041404113 0.17087907 -0.32113302
0.110942855 -0.06679055 0.107758164 0.16113944 -0.15118332 -0.33501315 -0.011548667 -0.057515927
0.056295116 -0.08183038 0.08108597 0.21818091 3.460016e-39 4.825562e-39 5.852432e-39 3.01599e-40
3.364816e-39 -3.336325e-39 1.794975e-39 -7.13205e-40 3.276977e-39 -0.1399901 0.45906094 0.0956051
0.07765016 -0.10920124 -0.17322497 0.17951305 0.11147621 -0.22746725 -0.05345261 -0.05329374
0.08535412 -0.100047216 -0.17547204 -0.103116535 -0.013459501 -0.053479064 0.17898445 -0.10413589
-0.18557066 0.099320196 -0.23073782 -0.12385584 0.038658153 0.267131 0.071594015 -0.19827901
0.00040326564 0.0020697182 0.0060933386 -2.721523e-05 0.0018639113 0.0032737167 0.00043998085 0.0027671535
0.0025180837 -0.17060533 -0.19960652 -0.04822423 -0.0074088085 -0.05787298 0.0026825173 -0.14511701
-0.2086751 -0.12987547 0.042150926 0.034787454 0.011187639 0.045455445 0.018540956 -0.010646181
0.026004286 -0.02431303 -0.014375781 -0.023443025 -0.18592969 -0.020991122 0.050997227 0.06433395
0.022596605 -0.24020644 -0.085552014 -0.15723792 -0.002383694 0.003588533 0.004927651 0.00055175944

conv3.bias f4 [128]
00000000: 9009 813c 7177 d9bd 02d1 16be 32bb 8fbe
00000010: 1b14 02bd 9018 c5bd f1ed a23d 2521 afbe
00000020: 73d9 02be 0c5e b7bd a6c1 abbb 28b3 8a3c
00000030: 1806 12be be9d 16be 7045 813d 0b42 0a3d
00000040: ebf9 da3d 71cf 153e 3f4d 14bc 333b 60bd
00000050: d438 97ac 779f 19bd 4c5c 6abd 1f4c 313e
00000060: 913e 81be 7661 92bb 32d0 373e b50b 3abd
00000070: 1734 9ebc 4b57 43bd 213a 483d 8295 1fbe
00000080: bbcc d63d a09f 1ebe 3ff5 37be d08b cebd
00000090: fbfd ca3d b127 a13d 8da5 b63d 8494 2ebe
000000a0: 0fbd 003e 80a2 6f3e e757 8ebd 0909 cbbd
000000b0: d959 61be 5ad0 613e fb59 903d ead1 d7bc
000000c0: 2227 97bc d2e1 9cbd 5aba 133e 2040 51be
000000d0: 0bf9 d2bc f026 39b5 a8a1 753c 4977 853b
000000e0: f530 f1bd 3936 a3bd 2935 82be 2d85 2b3e
000000f0: 20a5 a03c 46a3 4d3e e751 4fbe 9cca 483d
00000100: 5368 22be 9ef6 a7bd 4d12 fbbd bed8 5f3d
00000110: b8b3 753e 753a 03bc cc27 1f3d c513 d3bc
00000120: d54d 273d e7e5 b9bd cbc0 0fbb 026b be3d
00000130: f343 80bb 15a2 65bd 4cb8 d43c 5027 e33d
00000140: 2630 d1bd 78b2 92bd 8bea 03be c9e7 023e
00000150: 4216 693b fc60 88bd ab09 ec3c a971 bfbc
00000160: c43e 4a3e 37bf 163c 95d8 20bd b513 963b
00000170: 60a7 5cbb 1aea 0d3e 003a 64bc 6648 f9bb
00000180: 0de5 eabd afd0 f03c c602 76bd 3760 c3bd
00000190: 16b1 28bc 0dad 00be f940 d53c 0313 ad3c
000001a0: 7701 d7bd dfea 2abe 6edc 9cbc e09d 0abe
000001b0: 96a0 963d 7bd6 9abd b25b 41be 7e0e 68bd
000001c0: e52d 5d3e c0eb 3c3d 9656 c93d 33af 7ebd
000001d0: 4229 3c3d 510b abbd aa83 433d 5709 043d
000001e0: f0b0 24bc dd65 d4b3 be57 1dbe 50dd 37bd
000001f0: 210f 003c 7ea7 0c3e 479f 803d 5ba3 6bbd
0.01575163 -0.10618485 -0.14728168 -0.28072506 -0.031757455 -0.096238256 0.0795554 -0.34204975
-0.12778263 -0.08953485 -0.0052415906 0.016931131 -0.14260137 -0.14708611 0.06312072 0.03375439
0.10692199 0.14629914 -0.00905162 -0.054743957 -4.2979873e-12 -0.037505593 -0.057216927 0.17314194
-0.25243047 -0.0044671847 0.17950514 -0.04542132 -0.019311948 -0.04769067 0.04888356 -0.15584376
0.10488268 -0.1549058 -0.17964648 -0.10085261 0.09911724 0.07868899 0.08918295 -0.17048842
0.1257212 0.23401833 -0.0695036 -0.09913833 -0.2200693 0.22052136 0.070484124 -0.026345212
-0.018451277 -0.07660259 0.14426556 -0.20434618 -0.025753519 -6.897453e-07 0.014992155 0.004073058
-0.11776916 -0.079693265 -0.25431183 0.16750021 0.019609988 0.20081815 -0.20246087 0.04902135
-0.15860109 -0.08201335 -0.1225935 0.05465006 0.23994339 -0.008009543 0.038856313 -0.025766263
0.04084571 -0.090770535 -0.0021934982 0.09297754 -0.00391435 -0.056062777 0.025966786 0.11091483
-0.10214262 -0.071629465 -0.1288244 0.12783732 0.0035566245 -0.06659123 0.028813204 -0.023369627
0.19750506 0.009200863 -0.03926905 0.004579986 -0.00336691 0.13858834 -0.013929844 -0.0076075075
-0.11469469 0.029396383 -0.06006124 -0.09539836 -0.010296127 -0.12566014 0.026031958 0.02112723
-0.10498326 -0.16691159 -0.019148078 -0.13536787 0.07354848 -0.0756044 -0.18882635 -0.056654446
0.21599539 0.046123266 0.09830968 -0.0621788 0.045937784 -0.08351768 0.047732987 0.03223547
-0.010051951 -9.890548e-08 -0.15365502 -0.044888794 0.007816107 0.13735768 0.0628038 -0.057528835

act_conv1.weight f4 [4, 128, 1, 1]
00000000: e6ad f53d bf6c 9b3c 4d41 acbc bcc6 84bd
00000010: 8e12 ecbc fa43 c4bc db8e d0bd e671 6e3e
00000020: 0ab4 ab3d c6f0 5ebd bc04 773c 20dd ef3e
00000030: fd8b abbe 2442 e7bc 74b1 fd3d b38d e9bd
00000040: 374f ef3b 79d3 f0bd d1ff 0bbe 0f57 a9bc
00000050: 8428 3b85 4cdc 2f3e 419e 2ebd e1bf de3d
00000060: b27c 813d 0991 d3bc ed03 21bf 402a 9fbd
00000070: 5e71 a0bc fc17 933d f4f9 a23d 5cbc 873e
00000080: dec7 183e bc9b 2ebd 1cf5 823d 04a2 d1bd
00000090: 459f af3d d8df 5fbd e6dd 0f3c 974c 1bbe
000000a0: 8ec9 f93d 3975 66be 7a7f 1cbc fb7d cfbd
000000b0: 12de 62be 0589 bb3c aff4 dd3d 6660 5c3e
000000c0: 9d51 03bd 93f0 0bbe 9a2a 123e ecc7 0bbe
000000d0: b606 d23e 6d41 2eb6 9fd5 2e3e d80d d73d
000000e0: feb5 353e 76fc 23bc 928f 883c 8ba1 3a3e
000000f0: 085f 67be 8f3e c13e c679 ebbd 325b ab3d
00000100: 1a78 613e d6fc 0a3e 278c 1c3e d950 7fbd
00000110: dd29 bc3e 8767 5b3b c95b c4bd 0810 f7bc
00000120: ca83 ea3d 7cbb 8f3d 64ac cebc 21f8 04be
00000130: 7441 97bb 598b 423e de9c b63d 2d55 4bbf
00000140: 791c 9fbd c48c 33bd 8017 47be 7685 15bf
00000150: 2abb 0c3d ea7c 0cbd 487e c03d 0215 1bbe
00000160: 7997 003d 98a0 86bd 619c bc3b ac6a 473d
00000170: 7cc4 3e3d 7c23 d7be 2074 7abe 48b0 93bd
00000180: c420 6e3e de4a afbe f0dc bebb 4104 803c
00000190: 32a8 17bd f120 3ebe 046f be3d cd05 043e
000001a0: c79d ff3b 1568 b93d d5e6 213e 56e3 af3c
000001b0: febb 8b3d 2850 b4bd 5654 0e3e 1861 763d
000001c0: 83b3 ee3d 38cc 74be 5511 a73d 6dac 4ebe
000001d0: 1105 61bd 3da7 7b3e 902c af3d b799 453e
000001e0: d44b 283e 723c a02f 2e5e b53e 2e3b 90be
000001f0: e8ff 5d3e 9e50 15be 1875 403d 5200 82bc
00000200: b798 a4be ee22 21be 5583 3bbe 415d 5dbe
00000210: 948d 973c 5cf3 d5bd e807 23bd 50db 7ebe
00000220: aac7 c43c 75a7 fe3c 0408 df3d a9ab 6e3d
00000230: 3fdf 943c f793 8abd 9ec9 ac3d 26a1 cb3d
00000240: 8a60 27bc 6485 d9be 8f38 203c e47e 0d3e
00000250: f457 13ae f498 7cbd 2f7d fabe 289f f63e
00000260: 1a3b 4b3d 365d 20be 20f9 a73d d3c5 2f3d
00000270: ae70 f0ba 8252 9b3e 23d7 debb e2c6 90bd
00000280: 6e6d 94be 1c2a 76bd 0550 5a3e 6082 60be
00000290: 5e31 b93c 6da6 7e3c 9fbb bebd 4587 703c
000002a0: f80f 9b3e 2896 2e3e 7c9c 103d ab2b 14be
000002b0: 48b9 80bd 43f3 8f3e 1e20 1c3e d489 73bd
000002c0: 6423 afbc 170e 983b 13c0 bdbe 1485 353d
000002d0: cff8 003e e83b 8339 a963 b8bd e4f1 4abd
000002e0: 860c adbd e3b9 9cbc 63b3 4fbd da9e e63e
000002f0: cf20 e13d 8e11 403e 1fda 7c3e c2bd b8bc
00000300: 3c07 16bf eef6 05bd 7380 eabb 53a6 e83e
00000310: 5060 833e 7ca5 83bc 8d3d 5a3e 875e 093e
00000320: 5e25 02be d17a 8bbe 0098 1cbe a23d 0dbd
00000330: fef2 ccbc 9e42 d1bd 687a bf3d 5cc6 8d3e
00000340: 9c4a a23d ad4f ea3e b1a8 6c3c 35a6 9f3e
00000350: 992b df3d 72a6 a23d 151c 1bbe 82f0 433d
00000360: c6bc 80bd 73dd 84be 48cd 603d 4020 08bd
00000370: cffe 2f3e 3fdb 073e 1b42 9c3c ed89 b03c
00000380: 4e8e f4bc 189c bc3d 2ca2 e9bd 1ce8 e5bc
00000390: 6ad1 063f 1105 633e c4fa eebe 4fa0 963e
000003a0: ed11 5dbc 42f5 01be b259 903e fb10 87bd
000003b0: 6d6b 73bd d1a5 033d eca3 013d 8a3a 513d
000003c0: 8de8 353e 3944 0f3e a064 67bd bf02 4c3b
000003d0: a266 663e 4955 08be b4bd 813e 78d8 da3c
000003e0: 60b7 25be c1a3 3aa5 7315 b9bd 95e1 c03e
000003f0: 20a3 abbe e669 053e 4c92 033f 6228 b83e
0.11996059 0.018972753 -0.021027232 -0.06483218 -0.028817441 -0.023958195 -0.101834975 0.23285636
0.08383949 -0.05442884 0.015076812 0.46848392 -0.3350524 -0.02822978 0.12387362 -0.1140398
0.0073031443 -0.11759085 -0.13671805 -0.020671396 -8.800139e-36 0.1717388 -0.04263139 0.10876442
0.06322612 -0.025825994 -0.62896615 -0.077717304 -0.019585308 0.07182309 0.07957831 0.26510894
0.14919993 -0.04262899 0.06394407 -0.1023598 0.085753 -0.054656833 0.008780932 -0.15165935
0.12196647 -0.22505654 -0.009551877 -0.10131451 -0.22155026 0.022892484 0.10837685 0.21521148
-0.032060254 -0.1366599 0.14274064 -0.13650483 0.41020745 -2.5966103e-06 0.17073677 0.10500687
0.17745206 -0.010008922 0.016670022 0.18225686 -0.22594845 0.3774304 -0.11497836 0.083670035
0.22018471 0.13573012 0.15287839 -0.06233296 0.3675069 0.0033478455 -0.09587819 -0.030159011
0.11450918 0.07018182 -0.025228687 -0.12985279 -0.004615957 0.1899847 0.08916639 -0.7942684
-0.077691026 -0.043835416 -0.19442558 -0.5840677 0.03435818 -0.034298815 0.09399086 -0.15144733
0.031394456 -0.065735996 0.0057559465 0.048685715 0.0465741 -0.4201926 -0.2445836 -0.07211357
0.23254687 -0.34236807 -0.0058246776 0.015627028 -0.037025638 -0.18567254 0.09298518 0.12892838
0.007800791 0.09053055 0.15810712 0.021470707 0.06822966 -0.08804351 0.13899359 0.06015119
0.11655333 -0.23906028 0.08157603 -0.20182963 -0.054936472 0.24575515 0.085534215 0.19296919
0.16435176 2.914678e-10 0.35423416 -0.2817015 0.21679652 -0.14581534 0.04698667 -0.015869293
-0.32147762 -0.15735981 -0.18311818 -0.21617605 0.018500127 -0.10446808 -0.03980246 -0.24888349
0.024020988 0.03108571 0.10890201 0.058269177 0.018172858 -0.06766503 0.08436893 0.09942846
-0.010215888 -0.4248458 0.00977911 0.13817936 -3.350205e-11 -0.061669305 -0.48923633 0.48168302
0.04961691 -0.15660557 0.08201814 0.04291327 -0.0018344128 0.30336386 -0.0068005486 -0.07069184
-0.28989738 -0.060098752 0.21319588 -0.21924734 0.022606548 0.015542609 -0.0931313 0.014680688
0.3028562 0.17049468 0.035305485 -0.14469783 -0.062853396 0.2811528 0.15246627 -0.059457615
-0.02137918 0.0046403515 -0.37060603 0.044316366 0.12594913 0.000250309 -0.09003384 -0.04954709
-0.08449654 -0.019131606 -0.050708186 0.4504307 0.10992586 0.18756697 0.24692582 -0.022551421
-0.5860479 -0.032706194 -0.0071564256 0.45439395 0.25659418 -0.01607012 0.21312542 0.13414966
-0.12709567 -0.2724214 -0.15292358 -0.034482606 -0.025018211 -0.10217784 0.09349519 0.276904
0.07924387 0.45763913 0.014444516 0.31181493 0.108969875 0.07941903 -0.15147431 0.047836788
-0.06286006 -0.25950202 0.05488327 -0.03323388 0.17187046 0.1326723 0.01907449 0.021550143
-0.029853012 0.0920946 -0.11407885 -0.02806478 0.5266329 0.22169901 -0.46675694 0.2941918
-0.013493043 -0.12691215 0.28193432 -0.06595036 -0.05942862 0.032140557 0.03165047 0.051081218
0.17764492 0.13990869 -0.056492448 0.0031129566 0.22500089 -0.13313784 0.25340044 0.026714548
-0.16183233 -1.618841e-16 -0.09037294 0.37672105 -0.33522892 0.13028678 0.51395106 0.3596831

act_conv1.bias f4 [4]
00000000: f6b1 09bd 715e 9d3e 0ce4 b23e 7320 933e
-0.033616982 0.30736116 0.3493961 0.28735694

act_fc1.weight f4 [36, 144]
00000000: e958 9f3d a11b bd3c b829 7d3d b47a ab3d
00000010: 4c82 e8bc 2ae4 ca3b 53a6 c43c 030a 8a3d
00000020: cccf 093e 2257 0b3e 24c6 113e a8bb 6dbd
00000030: e692 2e3e 33a0 393d 80f6 dd3c 04d9 973d
00000040: c3c7 6b3e 8695 623d b2de 413c 1d98 0cbe
00000050: b098 713d e18f 4b3d 3d73 523d 7fba f13c
00000060: 0424 303e d583 efbd 889b 383c 9dae b3bc
00000070: 433c 013d ca27 da3b 351f ed3e 8338 833e
00000080: eca6 92bd b6f7 abbc c642 d23d ec6f bebd
00000090: 4c75 32be 3899 183d 22d6 133c aeb1 84bd
000000a0: db83 b3bc 8803 d5bd a068 433d 2dfb 86bc
000000b0: dc99 86bd 9fab fcbd 29f1 f73c c6b8 813d
000000c0: eaa0 c63d 5481 d83d 24ea ddbd 754f a33c
000000d0: a26f c9bb 326a a13c 826d 0cbd fe0f 8cbd
000000e0: 6f59 4c3d 0684 083d 3ee4 bd3d eaa8 ddbd
000000f0: cd53 4cbe 1115 2d3d 8641 de3d b4d7 8039
00000100: c997 66bd 5d75 72ba 633e 47bf 2e91 76bf
00000110: c442 cb3e 2d3f 5d3d ae55 58bd 39c1 2d3e
00000120: 33f1 4bbd f1be 10be ba63 f5bd 0676 61be
00000130: 16c8 79be 8c89 12be 6311 ae3d 7e1a 1bbd
00000140: 412f 433d 5a49 0cbc 7fb9 1cbe f3b0 76bb
00000150: f52d d6bd 19e8 153d 45cb 0b3d 51dc cdbc
00000160: b332 f7bc b85f 51bd f3fe 7f3c f23c 7a3c
00000170: 5a97 4ebc af5a 003d a51c d6bd 8484 aebc
00000180: 4331 88bd 44e5 943e e4d1 3dbd a12e 40bd
00000190: d206 04bc 021b 0e3e 308d d23c 9ae0 6b3e
000001a0: 04fa 6b3d 9e90 cebd 5cb6 443c a48e 6abd
000001b0: bc72 08be dc7a fc3c a3fc 47be b8ec 2cbd
000001c0: c9be 0a3e 38dc 39be 3896 68bc 6eb1 29bd
000001d0: f261 5dbd 5bdd 873e c053 25bd 591c 093e
000001e0: 5ebb 8d3d d1f9 05bd ff19 33be bf16 1ebe
000001f0: 11a6 8dbd 8373 5dbe c775 09be 3553 77be
00000200: 008b 83bd 435c f6bc 2586 0cbe cd08 97bd
00000210: b4a4 8bbe 3887 c13e ce11 5fbe 50d0 d9bd
00000220: 266e 4dbd 4022 04be 4535 363e 84c2 6f3d
00000230: d1b0 193e 8bb4 c23d c417 8abd a261 50bd
00000240: 2ba4 003e 8d46 c33d 1e59 48be de01 3e3d
00000250: 867d d73d e06b c43c 6f66 a93d 12b3 023d
00000260: 00f0 5b3d 156d 0e3d 8703 293e 48c2 9fbd
00000270: 9850 bfbb 20c4 093e 1ab8 4e3d bf3a 613d
00000280: 921d 6c3d 3bac ae3e da9f dbbd dfad 34be
00000290: e2ab 59be 967d 86bd 4aca ae3d dc3d 823c
000002a0: c18f f53c 7e65 e83c d16f 33bd 5968 a13d
000002b0: 367e f4bd b615 bebd df94 bf3c 1b4d a43e
000002c0: ee63 d53d 1895 6dbd ddec 86bc 76fe bbbd
000002d0: 0aa7 c83a 09c7 8abc c66b 833d 71ea 87bd
000002e0: 95f6 173c b34f dcbd 877f 54bd 4801 09bd
000002f0: 6fb8 a5bc c2d0 abbd eb22 26be 4564 a83d
00000300: 61c9 0e3d c51b 923d 22c1 37bc 5825 84bd
00000310: fd05 abbc 155e 393e a619 493e 2eb9 ca3d
00000320: 60fa aabd e18a 30bc c9f8 fe3d c4cd 743d
00000330: 793d ab3e 2df5 e8bd 034b 17bc e6e4 cb3d
00000340: f19c 0c3d 8d6c 45bd 9c89 ecbe c776 2dbe
00000350: 39e2 38bf 7d92 763e 1382 243e 6f94 7abe
00000360: bf43 a5bc 9663 943c 6952 8bbc 1b15 27be
00000370: 2b55 2cbe 1135 b0bd 1d82 75bd 4e4b ae3c
00000380: 2b6b a93c dfe6 fb3c 1397 e239 7c5b 573d
00000390: 1210 50bc 59f7 77bd e993 1fbc 1429 2a3d
000003a0: 941b 303d 0517 53be a15d 88bd d6ab 373d
000003b0: 2f9e b83d 3156 cb3d f2c7 49bd e2d5 3abc
000003c0: a34f 31be 6dbf 6abe 1133 663e d48e 26b9
000003d0: f1c7 e2bd 6ec9 3dbd f2ad 883c 039c 243d
000003e0: d965 d63d 8c32 7f3c 39d9 acbd 9ee5 8b3d
000003f0: 7b42 26be 5022 0bbe 8ce5 0bbc 912c 9fbd
0.0778063 0.023084464 0.061807364 0.08373013 -0.028382443 0.00619175 0.02400509 0.06740191
0.13458174 0.13607457 0.14235741 -0.05804029 0.17048225 0.045318794 0.02709508 0.07414439
0.23025422 0.055318378 0.01183288 -0.13729902 0.058983505 0.04969776 0.05137943 0.029507874
0.17201239 -0.11695067 0.01126755 -0.021933848 0.03155161 0.0066575753 0.46312872 0.25629053
-0.07160744 -0.020992141 0.10266642 -0.09298691 -0.17427558 0.037255496 0.009023221 -0.06479202
-0.02191346 -0.10401064 0.0477072 -0.016477192 -0.06572315 -0.123374216 0.030266361 0.06334071
0.09698661 0.105715424 -0.108356744 0.019935349 -0.006147341 0.019703958 -0.034284122 -0.06838988
0.049889978 0.033329032 0.09272049 -0.108232334 -0.19953842 0.04225642 0.10852341 0.00024574774
-0.056297097 -0.0009249056 -0.7782957 -0.96315277 0.39699376 0.054015327 -0.052816086 0.1696824
-0.049790572 -0.14135338 -0.11981912 -0.22017679 -0.24392733 -0.14310282 0.0849941 -0.03786706
0.047652487 -0.00856241 -0.15305136 -0.003764209 -0.10457984 0.0365983 0.0341294 -0.02512947
-0.030175542 -0.051116675 0.0156247495 0.01527332 -0.012609327 0.031336483 -0.10454682 -0.021303423
-0.06650021 0.29081166 -0.046342745 -0.04691947 -0.008058267 0.1387749 0.02570209 0.23034897
0.05761148 -0.10086177 0.0120063685 -0.05726494 -0.13325018 0.030820303 -0.19529967 -0.04221794
0.13549341 -0.18150413 -0.014195971 -0.041428976 -0.054048486 0.26536068 -0.040363073 0.1338972
0.06920503 -0.032708947 -0.17490385 -0.15438364 -0.0691644 -0.21626095 -0.13423835 -0.24152835
-0.064229965 -0.03007329 -0.13723047 -0.073747255 -0.27274096 0.37798476 -0.21784136 -0.106354356
-0.050153874 -0.1290369 0.17793758 0.058535114 0.15008856 0.09507092 -0.06742814 -0.05087436
0.12562625 0.09534941 -0.19565246 0.0463885 0.105219886 0.02397722 0.08271491 0.031909056
0.05369568 0.034771997 0.16505252 -0.07800728 -0.005838465 0.13453722 0.05046854 0.054987665
0.057645388 0.34115776 -0.10723849 -0.17644452 -0.21256974 -0.06566922 0.08534677 0.015898637
0.029975774 0.028368708 -0.04380781 0.07881231 -0.11938135 -0.09281485 0.023386417 0.32090077
0.10419451 -0.058003515 -0.016470367 -0.09179394 0.0015308571 -0.01694061 0.064170405 -0.06636513
0.009275098 -0.10757389 -0.051879432 -0.033448488 -0.020229546 -0.08389427 -0.16224258 0.0822225
0.03486002 0.07134203 -0.01121548 -0.06452435 -0.020876879 0.18102296 0.1963869 0.098986015
-0.083485365 -0.010775299 0.12449796 0.059766546 0.33445337 -0.113748886 -0.009234193 0.09955768
0.03432936 -0.048199225 -0.46198738 -0.16939841 -0.7222019 0.24079318 0.16065244 -0.24470685
-0.020173905 0.018113893 -0.01700707 -0.16316645 -0.16829364 -0.086038716 -0.05993854 0.021276142
0.020680984 0.030749736 0.00043218638 0.05257748 -0.012699144 -0.060538623 -0.009739854 0.04154308
0.04299505 -0.2061425 -0.06658483 0.04484161 0.09014546 0.09928549 -0.04926295 -0.011403533
-0.17315535 -0.22924586 0.22480418 -0.00015884201 -0.11073292 -0.046334676 0.016684506 0.040187847
0.10468645 0.015576016 -0.084398694 0.068309054 -0.16236298 -0.13587308 -0.008538615 -0.07772172

act_fc1.bias f4 [36]
00000000: 9df9 b9be 3e1c 76be cc9a 33bc c2f6 0cbd
00000010: bff2 bbbd e036 90be 086a 0ebe 99bf 56bc
00000020: 18a7 00bd 040c 423d 790a 4dbd eed8 31be
00000030: 3389 fd3c 3d26 b2bc c6c5 583e c48d 2b3e
00000040: 75ae 133a 882b 193d 8bba 113d e2bb f33c
00000050: abbd 263e 22e8 0e3e dbe5 28bd 6e16 11bc
00000060: 45f0 26be 07af 18bc aabc 4dbd c7f2 3bbd
00000070: c2f9 fd3c 760b 90bd a6a4 71be 0d7d 413d
00000080: 03a3 f83d c5bc a83d 27fb 80bd 976f 96be
-0.36323252 -0.24034211 -0.010962199 -0.034415014 -0.091771595 -0.28166866 -0.13907635 -0.013107204
-0.031409353 0.04737474 -0.050058816 -0.17367908 0.03094921 -0.021746749 0.21169195 0.16753298
0.0005633601 0.03739503 0.035578292 0.029752675 0.1628329 0.13955739 -0.041234832 -0.008855445
-0.16302593 -0.0093190735 -0.050228752 -0.045885827 0.031002883 -0.07033436 -0.23597965 0.0472384
0.12140467 0.0823913 -0.062979035 -0.2938201

val_conv1.weight f4 [2, 128, 1, 1]
00000000: 4c9a a3be 4530 4abe 0b0a 833e 40c8 153e
00000010: 4a26 303c 40c2 da3c 7070 15bf eabd 153d
00000020: fe78 0fbf 9610 363e 6001 45be ed3b 2bbd
00000030: 49ca 34be 90c3 2cbf 38e6 b4be 27cd 9dbe
00000040: e93a 463e e9ba d8bd aaa1 4e3e 1119 8dbe
00000050: 540d 47b8 d6e5 cfbc f299 583e a923 e93b
00000060: 53a8 813e 4104 c63d ea18 a5bc ef67 4cbd
00000070: b907 2b3c 1963 043e 492c eebe 5a33 083e
00000080: d4af 183e e337 f73e b326 c7bc 54d4 143e
00000090: b9f4 333c ddb1 be3e 20d7 f23b 87cc 7bbe
000000a0: 2c1c 823c de20 e8bb 2552 d63c 9a56 8ebe
000000b0: afbe bf3e 9bc2 aabd 4c8a 213d ec05 e93d
000000c0: d1f0 9ebe b76a 81be 253c c53d 3c58 6e3e
000000d0: 84e2 91bc 3ddf 8cbb 6269 8b3e e6c6 7fbe
000000e0: 34dd b1bd 181d 823e 0388 943e de92 5a3e
000000f0: d4fe 763e aac4 59bb cab7 e33e 584d 8bbe
00000100: 4f08 df3d 6622 1bbf 8104 0c3d 7ed0 5c3c
00000110: 5172 513d 22c0 1c3c d674 5bbe cca7 203e
00000120: b69c bbbe e5f0 24bd 4c08 28bf 0400 27bf
00000130: fa5c 04bc 6252 85be fac3 d13e a00a 8b3b
00000140: 9587 acbe 71e4 0f3e a8fd dc3d 3bca 573d
00000150: a3bc b03e 02db be3e 9481 2ebe c99b 923d
00000160: 9c53 abbb afef 0a3e 8c8e 56bb b201 a5be
00000170: 6f9e a7be aaf7 46be 3fbf c53d 92d9 c6be
00000180: f3a6 d4be 4bb7 5f3c 995a 1d3e be05 dcbe
00000190: e665 99bc d455 b23d 5c57 29bd 6edd 19be
000001a0: 5baf d9be 8828 8d3e fbd0 5f3e 2fc9 1ebf
000001b0: 2bca 7bbe 72a9 143d 6ddb 883e 2483 c93e
000001c0: bf58 2ebd 95de 583d 8a16 cc3b 474c 733e
000001d0: 9508 1c3e 858c 1bbe a17d 4ebe c6aa c53e
000001e0: 7fe7 07bf 27df 5aba f72a 773e 5064 bebd
000001f0: 11a3 903c e5c9 38bd 81b8 89bd 34e4 5b3d
00000200: 1438 07bb 4c91 3880 a797 59ba 1b5f 6239
00000210: d4b6 8501 6ca1 d6ba e121 a6bb d111 9fbc
00000220: 0aa1 4bbb 2204 4100 eb06 9abc 5c54 13bb
00000230: da8e d1bb 9637 9db9 7177 da3b 6b41 51b9
00000240: a901 72b7 93ea 32bc 2ef9 78bb c53a aebb
00000250: 86da 4b80 4e2e 39b9 80d9 4ebc 3beb b3ba
00000260: d47c 31bc 5c56 b7ba c0b9 f5bb 5f91 2b80
00000270: 58e7 2200 d857 5301 eb93 08bc 6c5c 0dba
00000280: d8da 01bb d63d 42bb 6b47 28b9 7f77 a0ba
00000290: 2664 72bc 70ac 4bbb 90e5 3abb 4f6f f8bb
000002a0: d3fc 73bc fe56 ecbb 4454 4c80 0bc9 70ba
000002b0: ad1f d9b9 9396 fbbb 210a 0ebc 0f6a a5bb
000002c0: 27e8 b2ba 2553 4980 c7af 84bc 8332 8a38
000002d0: b3c4 0fbb 3e6c 4700 4fa6 11b9 50ed 77b9
000002e0: feaf 52bc 1b97 83ba 2320 86bb 1235 01bc
000002f0: 4cb7 74bb 0505 75bc a70a b8b7 aaa8 f2bb
00000300: 8f93 ffbb e3f4 0ebc 2582 3b80 17b5 a3b9
00000310: d409 87bc add7 1500 41c7 78bc 58b7 0bbb
00000320: f17a 3abc 733d 3c00 920e 48b8 6d0a b5bb
00000330: 7f18 2600 3400 5100 cc4f a838 d8ca 87bc
00000340: c39a cd38 983c 9ebc d62f c4bb 8201 69bb
00000350: d4bf 25b9 3b55 28b8 19a5 34bc 5e8a 1080
00000360: ab15 2bbc 268f 2c80 005a 48bc 8a28 2d80
00000370: 5e33 42bc 8371 26bc a7a8 0100 f7e8 79bb
00000380: acc1 c5ba edd9 9cbb f1a3 55bb 5a26 72ba
00000390: 64f1 02bc 9d8f b73b 137d 95bb 07b6 31bc
000003a0: 411b 1bbb aa96 dcbb 0005 52b9 0005 5aba
000003b0: a256 223b 4156 4600 6215 2bb5 6c25 deb4
000003c0: a8b2 80bc 1ca9 87bb f786 99bc 25a6 9bb8
000003d0: 1b5c 32bb 96d9 4b00 156c 8eba 2a10 8139
000003e0: 047e 21bb 8bfa 3800 2c4e 2639 7025 efbb
000003f0: 1f15 afba fcbc 3dbb 31e6 2800 0b67 27b2
-0.31953657 -0.19744976 0.255936 0.1462717 0.010751316 0.026703954 -0.5837469 0.03655807
-0.56043994 0.17779765 -0.19238806 -0.041805197 -0.1765529 -0.67485905 -0.35331893 -0.3082058
0.1935841 -0.10582525 0.20178857 -0.27558187 -4.745771e-05 -0.025378149 0.21152475 0.0071148467
0.25323734 0.0966878 -0.020153482 -0.049903806 0.010438853 0.12928428 -0.46518162 0.13300839
0.14910823 0.48284826 -0.024310445 0.14534122 0.010983639 0.37245074 0.007410899 -0.2458974
0.015882574 -0.007083996 0.026162216 -0.27800447 0.37450168 -0.08337899 0.03943853 0.11378083
-0.31043103 -0.2527673 0.09630612 0.23275846 -0.017808206 -0.004299073 0.27228838 -0.24978217
-0.08684769 0.25412822 0.2901002 0.21345088 0.24120647 -0.0033228793 0.44476157 -0.27207446
0.108902566 -0.6059936 0.034183983 0.013477443 0.05113441 0.009567292 -0.21431288 0.1568901
-0.36642998 -0.040268797 -0.6563766 -0.652344 -0.008078808 -0.26039416 0.4096983 0.00424321
-0.3369719 0.14051987 0.107905686 0.052683096 0.34518918 0.37276465 -0.17041618 0.0715862
-0.005228473 0.13567995 -0.0032738773 -0.32227856 -0.32738063 -0.19430414 0.09655618 -0.38837868
-0.41533622 0.01365454 0.15366592 -0.4297313 -0.018725347 0.08707777 -0.041343078 -0.15025875
-0.42516598 0.27569985 0.21857063 -0.6202573 -0.2458884 0.03629441 0.2672991 0.39357865
-0.042565104 0.052946646 0.006228273 0.23759566 0.15237649 -0.15190323 -0.20165111 0.38606852
-0.5308761 -0.00083492923 0.24137484 -0.09296477 0.017655881 -0.045114417 -0.067246445 0.05368443
-0.002063279 -5.19491e-39 -0.0008300491 0.00021588469 4.911883e-38 -0.0016375012 -0.0050699566 -0.019417675
-0.0031071329 5.97079e-39 -0.018802127 -0.0022480702 -0.006395203 -0.00029986788 0.0066670706 -0.00019956163
-1.4424711e-05 -0.010920185 -0.003799032 -0.0053170645 -6.966054e-39 -0.00017660225 -0.012625098 -0.001372672
-0.010832984 -0.0013987529 -0.0074989498 -4.001076e-39 3.205397e-39 3.8817604e-38 -0.008336048 -0.0005392495
-0.001981428 -0.0029638908 -0.00016048334 -0.0012242644 -0.014794385 -0.0031078123 -0.0028518178 -0.0075816284
-0.014891821 -0.0072125187 -7.009727e-39 -0.0009185231 -0.00041413066 -0.007677862 -0.008669407 -0.0050480436
-0.0013649509 -6.733818e-39 -0.016197098 6.589761e-05 -0.002193731 6.55915e-39 -0.00013890232 -0.00023644161
-0.012859343 -0.001003954 -0.0040931865 -0.007886188 -0.0037340699 -0.01495481 -2.193947e-05 -0.00740536
-0.007799573 -0.008725378 -5.464981e-39 -0.00031224705 -0.016484179 2.005915e-39 -0.015184225 -0.0021318998
-0.011381851 5.532174e-39 -4.7697285e-05 -0.0055249245 3.498536e-39 7.438748e-39 8.0257276e-05 -0.016576216
9.803988e-05 -0.019316003 -0.005987148 -0.0035553877 -0.00015807088 -4.01337e-05 -0.0110256905 -1.519005e-39
-0.010442178 -4.092114e-39 -0.012228489 -4.14714e-39 -0.011853067 -0.010158899 1.52337e-40 -0.0038133243
-0.0015087626 -0.004786721 -0.0032598937 -0.0009237282 -0.007992122 0.005601837 -0.004562029 -0.010846621
-0.0023667368 -0.0067318277 -0.00020029023 -0.0008316785 0.0024770875 6.459427e-39 -6.373358e-07 -4.137795e-07
-0.01571019 -0.0041400325 -0.018741114 -7.421923e-05 -0.0027215544 6.965717e-39 -0.0010865951 0.0002461684
-0.0024641762 5.232666e-39 0.00015860115 -0.007298164 -0.0013357735 -0.0028951755 3.755997e-39 -9.744109e-09

val_conv1.bias f4 [2]
00000000: f8d1 98bc f71c 6fbc
-0.018654808 -0.014594308
