current_policy99.model (torch, 529587 bytes, 15 tensors)

conv1.weight f4 [32, 4, 3, 3]
0.24719892 0.023900693 -0.020131053 -0.1600465 0.108115956 -0.04520298 0.12872133 -0.21019931
0.101716645 0.1593317 -0.34100583 0.063501544 -0.37858096 -0.05150836 0.04548385 -0.119143315
0.10116424 -0.21597154 -0.0214681 0.04933118 0.041322917 -0.0102035925 0.09176722 -0.09522322
0.14612088 0.006259198 0.020809922 -0.048662197 -0.15617669 0.13294639 0.04230872 0.00797262
-0.035619885 -0.10651716 0.1692961 0.13218206 -0.15349014 0.15338181 0.13340025 -0.21679373
-0.022074038 -0.23756516 -0.2536586 -0.0017000512 -0.057529148 -0.24300689 -0.19083585 -0.043203723
-0.22587669 0.09341297 -0.22223692 -0.36057806 0.15007952 0.030289764 -0.095969595 0.010224213
-0.025760125 0.06787541 0.059267562 -0.06812331 0.037234403 -0.042484 -0.022869093 -0.08333881
-0.066734575 -0.089352146 -0.026974963 0.21614334 0.15723883 0.131768 0.03079919 0.17999366
0.1554856 -0.19657664 -0.22901058 0.08084605 0.17287642 0.090767235 0.16011843 -0.19372255
-0.16080195 -0.39611587 0.28534523 0.08430557 -0.37739617 0.08756022 -0.23058891 -0.024266282
-0.1633148 -0.077257834 0.06571138 -0.018368876 0.03523402 -0.12880985 -0.025531322 -0.051234305
-0.12845492 0.06591165 0.07107422 0.13367495 -0.1607728 0.057966173 0.16602615 0.1436546
0.08881376 -0.08223124 -0.05959721 -0.097125925 -0.13830248 0.027405672 0.029701699 -0.20501181
-0.19293773 -0.070197605 -0.047798898 -0.1551308 0.178784 -0.04375111 0.35673675 -0.20042084
-0.048009224 0.33913 0.15737836 -0.36596683 0.29184902 -0.20048244 0.0038889337 0.044304207
0.0033448027 -0.02076534 -0.021484716 -0.05322974 -0.028191917 -0.08697878 -0.06391426 0.106792666
0.07435822 0.11757308 -0.014424289 -0.06903762 0.1676401 -0.12893467 -0.13131514 -0.17153813
-0.20650086 -0.25164285 -0.12040131 0.17453948 -0.0072788363 0.10976475 0.10145247 0.114460014
0.09029504 -0.063831955 -0.024071548 -0.17651214 0.029606678 0.13325371 0.08053545 0.14805157
0.210819 -0.24205859 -0.11889708 0.029390477 -0.13279597 -0.0974241 -0.09084541 -0.013223644
-0.10095695 -0.025652641 0.121612184 -0.30603996 -0.20412405 -0.13714711 -0.090387344 -0.06750243
0.14196587 -0.077367 0.018247634 0.19897443 0.3124883 0.18786725 0.31823438 -0.07117244
0.24056351 0.21762525 0.17246936 0.2833743 0.25132048 -0.16474189 -0.09848052 -0.13643852
-0.048834726 -0.09116609 0.0027856217 0.09157639 -0.08726798 -0.12949604 -0.011051594 0.0028243554
0.058103528 0.12726805 0.09220919 -0.104964554 -0.07177926 0.0022764788 0.02679255 0.0032608968
0.08697068 -0.1870257 0.010259087 -0.013087531 -0.12155058 -0.09044356 -0.0756677 0.1399995
0.12469558 0.19993542 -0.35677007 -0.23544511 -0.2532154 0.050373897 0.30237707 -0.07903127
-0.0675099 0.17942974 -0.25021887 0.2547805 -0.1769062 -0.012229031 0.014323073 0.2568145
-0.14503844 0.069601685 0.054917134 -0.015934562 0.04850708 0.02991047 -0.0153680695 0.07082074
-0.08536759 0.038710885 -0.06791073 -0.1575482 -0.017205602 -0.10925811 0.09898819 -0.10947907
-0.013132973 0.10974992 -0.048393276 0.004482584 -0.08796898 0.24964398 0.032227278 -0.019661527
00000000: b721 7d3e 63cb c33c e1e9 a4bc 3be3 23be
00000010: e66b dd3d c326 39bd 86cf 033e 7d3e 57be
00000020: d150 d03d d927 233e 5198 aebe 190d 823d
00000030: 5dd5 c1be 6efa 52bd 464d 3a3d 6901 f4bd
00000040: 322f cf3d a527 5dbe dedd afbc 7e0f 4a3d
00000050: 3842 293d f82c 27bc 74f0 bb3d 6404 c3bd
00000060: b6a0 153e f519 cd3b 9279 aa3c 0352 47bd
00000070: c8ec 1fbe 1923 083e e94b 2d3d 989f 023c
00000080: 28e6 11bd ab25 dabd f55b 2d3e bc5a 073e
00000090: 852c 1dbe 1f10 1d3e 139a 083e 2dff 5dbe
000000a0: 9dd4 b4bc 4844 73be 8adf 81be 41d4 deba
000000b0: afa3 6bbd ccd6 78be 796a 43be 63f6 30bd
000000c0: 384c 67be 4d4f bf3d 1392 63be b09d b8be
000000d0: 72ae 193e 3d22 f83c b58b c4bd 7583 273c
000000e0: e606 d3bc 4302 8b3d 8bc2 723d 3c84 8bbd
000000f0: 1a83 183d b403 2ebd f757 bbbc 8aad aabd
00000100: 23ac 88bd 42fe b6bd 99fa dcbc ae54 5d3e
00000110: 3703 213e 31ee 063e 954e fc3c 4250 383e
00000120: 9e37 1f3e 634b 49be c081 6abe 9d92 a53d
00000130: 8406 313e 2ce4 b93d 16f6 233e 345f 46be
00000140: 44a9 24be b3cf cabe c518 923e 66a8 ac3d
00000150: 123a c1be c652 b33d 801f 6cbe 15ca c6bc
00000160: ff3b 27be 5b39 9ebd b093 863d 537a 96bc
00000170: 8c51 103d bbe6 03be 1027 d1bc 10db 51bd
00000180: b089 03be b0fc 863d 5c8f 913d 16e2 083e
00000190: a0a1 24be f06d 6d3d c202 2a3e 311a 133e
000001a0: fde3 b53d da68 a8bd 341c 74bd f5e9 c6bd
000001b0: 2a9f 0dbe dc81 e03c fa50 f33c 9eee 51be
000001c0: 7891 45be c3c3 8fbd c7c8 43bd 9cda 1ebe
000001d0: 2713 373e 5d34 33bd 33a6 b63e 1f3b 4dbe
000001e0: 52a5 44bd 73a2 ad3e cb27 213e 0160 bbbe
000001f0: 3c6d 953e 454b 4dbe 7bdd 7e3b 5478 353d
00000200: 7a34 5b3b 131c aabc b700 b0bc 6e07 5abd
00000210: bcf2 e6bc ee21 b2bd 7be5 82bd 1db6 da3d
00000220: 1f49 983d 28ca f03d da53 6cbc 9963 8dbd
00000230: d9a9 2b3e 7307 04be 7a77 06be b1a7 2fbe
00000240: f674 53be 55d7 80be f694 f6bd 7aba 323e
00000250: 4e83 eebb 57cc e03d 50c6 cf3d 036a ea3d
00000260: 9bec b83d 54ba 82bd b231 c5bc 99bf 34be
00000270: b489 f23c a973 083e c5ef a43d d59a 173e
00000280: f0e0 573e 35de 77be 5080 f3bd 4cc4 f03c
00000290: abfb 07be 4986 c7bd 290d babd fca7 58bc
000002a0: 84c2 cebd 7d25 d2bc cf0f f93d 45b1 9cbe
000002b0: e505 51be 4b70 0cbe 001d b9bd b73e 8abd
000002c0: 805f 113e 9772 9ebd 107c 953c f4bf 4b3e
000002d0: 77fe 9f3e 4660 403e 9eef a23e dbc2 91bd
000002e0: 4856 763e 27d9 5e3e cf9b 303e 7016 913e
000002f0: 14ad 803e 19b2 28be 28b0 c9bd 8ab6 0bbe
00000300: ec06 48bd 49b5 babd fa8e 363b 678c bb3d
00000310: 8eb9 b2bd 9c9a 04be bf11 35bc d218 393b
00000320: f7fd 6d3d 8e52 023e 2cd8 bc3d a8f7 d6bd
00000330: 0101 93bd fa30 153b 0d7c db3c c5b4 553b
00000340: af1d b23d aa83 3fbe bb15 283c 156d 56bc
00000350: 83ef f8bd 793a b9bd abf7 9abd 075c 0f3e
00000360: 6560 ff3d dfbb 4c3e 91aa b6be 8618 71be
00000370: 73a5 81be dc54 4e3d 2bd1 9a3e 26db a1bd
00000380: a142 8abd 6ebc 373e b01c 80be 9772 823e
00000390: e626 35be 465c 48bc 53ab 6a3c 317d 833e
000003a0: f584 14be 548b 8e3d caf0 603d 3389 82bc
000003b0: 5caf 463d cd06 f53c 5bca 7bbc 770a 913d
000003c0: 34d5 aebd 4e8f 1e3d c814 8bbd 5154 21be
000003d0: c3f2 8cbc b7c2 dfbd 52ba ca3d 9036 e0bd
000003e0: ae2b 57bc 91c4 e03d 0738 46bd a4e2 923b
000003f0: 1529 b4bd aca2 7f3e c000 043d 3611 a1bc

conv1.bias f4 [32]
-0.0068302895 -0.04724991 0.05239182 0.043205116 -0.020205168 -0.103733696 0.12742706 -0.1910772
-0.21720445 0.09043048 0.05471632 -0.112847 -0.09153187 0.049195122 -0.043252345 0.11541232
0.056190133 -0.01217935 -0.22474082 0.02005357 -0.10572378 -0.043043744 -0.020455007 0.07482767
0.12147908 0.1185093 0.05922525 0.074141026 0.0060806368 -0.19925609 -0.08742202 -0.16473627
00000000: 9fd0 dfbb 1f89 41bd ce98 563d d9f7 303d
00000010: 4f85 a5bc 5572 d4bd 3d7c 023e bea9 43be
00000020: d86a 5ebe 9e33 b93d 381e 603d 541c e7bd
00000030: 1075 bbbd d380 493d 5f29 31bd 4b5d ec3d
00000040: a027 663d e58b 47bc 7522 66be 6247 a43c
00000050: b685 d8bd a34e 30bd 4291 a7bc 403f 993d
00000060: 06ca f83d 01b5 f23d 2d96 723d 40d7 973d
00000070: 1440 c73b ca09 4cbe 510a b3bd a0b0 28be

conv2.weight f4 [64, 32, 3, 3]
-0.16432254 0.0005532554 -0.08647162 -0.08392398 0.06571521 -0.03938639 0.016715648 -0.07358224
0.0976285 -0.024911534 -0.014346471 0.0068610776 0.0034728984 0.061008114 0.16280068 0.2012126
-0.11811608 0.03312245 -0.0979938 0.007747793 -0.11663345 0.068066366 0.074918374 -0.07045846
-0.079799734 0.16229993 0.027482659 0.17806429 -0.10058705 -0.23043165 -0.05650622 -0.038923815
-0.27074084 -0.20236939 0.042664535 -0.040960178 -0.13095845 0.07690186 -0.15085326 -0.1118282
0.10431342 0.053427994 -0.07420748 -0.061067488 -0.013296202 -0.006785468 0.1000916 0.13824451
0.1375384 0.056616943 0.09480656 0.16354187 0.07447954 -0.006842396 -0.046993718 -0.1518269
-0.022205988 -0.008385966 0.061877154 -0.082617536 -0.04945396 -0.09570727 -0.074942745 0.12118385
-0.058283355 -0.012671119 0.09102269 0.04110882 -0.023391252 -0.06990223 -0.029068582 -0.08314672
0.0074118623 -0.0035659957 0.04686082 0.13020504 0.022737186 -0.15348502 -0.017440697 -0.01989879
-0.07036929 -0.10333087 -0.045882583 0.005279282 0.08663157 0.10261304 -0.013009568 -0.03265824
0.014302292 -0.012862093 -0.114066154 -0.15746482 -0.15801053 -0.09561279 -0.04204915 -0.120626494
-0.10160689 -0.16726878 0.044868175 -0.15110275 -0.1539021 -0.16040424 -0.16572562 0.05475134
0.008318568 -0.09040758 -0.06181592 0.16612436 0.01599035 -0.0899034 0.22384387 -0.19794205
0.037464052 0.13030148 -0.045427185 -0.081394635 -0.0040056785 -0.034710955 0.043590575 -0.020589504
-0.021856671 -0.149877 -0.13592012 -0.01480619 0.020556634 -0.1277504 -0.31346962 -0.14347924
-0.0046099783 -0.090730004 -0.08937698 0.0151357185 -0.016712533 -0.015043399 0.02768894 -0.008055716
-0.25526935 -0.0069770277 -0.12552528 -0.15229845 -0.1551804 -0.0078220405 0.080122955 -0.011347059
-0.08016636 -0.1266738 -0.027782837 -0.20043802 0.015595689 0.12523262 -0.09703807 -0.04425439
0.01784382 -0.05518685 0.008027586 0.052908994 0.1275511 -0.026952248 0.03429438 0.08611068
-0.026314124 0.00775761 0.03561969 -0.013072892 0.013694431 0.22582203 0.13410448 0.08294823
0.20831674 0.03338077 -0.22454198 -0.05281502 -0.07113685 -0.26772547 -0.25053254 0.080460474
-0.18875171 0.17871085 -0.022843376 0.0513102 0.11456109 -0.35313788 -0.059739586 -0.13749896
-0.05639177 -0.013835273 0.11511547 0.13188314 0.17181207 -0.120376594 0.00032442575 -0.22030509
0.18083873 -0.03249297 -0.061049 -0.0022882393 -0.053292718 -0.16032477 -0.14414236 0.08596195
-0.009419577 0.03674727 0.01156192 0.06343991 0.005503894 0.12975146 -0.035716873 0.041151498
-0.069612145 0.16194123 -0.017167948 -0.040345144 -0.013125161 -0.15652671 -0.14233322 -0.11286984
0.11595807 -0.12789808 -0.051703528 0.1441444 -0.061755974 0.070072964 0.14394973 -0.17382687
-0.06520561 -0.1935211 -0.1334909 0.05707558 -0.09023632 -0.023027346 -0.15314426 -0.11249609
0.046096023 -0.024399737 0.06059613 -0.05161187 -0.010713243 -0.23384012 -0.14907281 -0.13934518
-0.14638738 0.100738615 0.02750532 -0.06834008 -0.031803265 0.0025499568 -0.011884309 0.08095645
-0.089242734 0.15801813 -0.029992195 -0.087572105 0.013707019 -0.11463178 0.04430289 -0.09299445
00000000: 2b44 28be 5708 113a 0818 b1bd 56e0 abbd
00000010: b295 863d a053 21bd 41ef 883c 49b2 96bd
00000020: 73f1 c73d 4613 ccbc 760d 6bbc e4d2 e03b
00000030: 9199 633b a5e3 793d 39b5 263e ad0a 4e3e
00000040: d8e6 f1bd 68ab 073d f9b0 c8bd 33e1 fd3b
00000050: 85dd eebd 6166 8b3d ce6e 993d 864c 90bd
00000060: 0b6e a3bd f431 263e 5023 e13c 7c56 363e
00000070: 9500 cebd 46f6 6bbe 1173 67bd 946e 1fbd
00000080: 8b9e 8abe ec39 4fbe 02c1 2e3d dcc5 27bd
00000090: f919 06be b97e 9d3d 4779 1abe 2f06 e5bd
000000a0: 46a2 d53d 50d7 5a3d 17fa 97bd e721 7abd
000000b0: 50d8 59bc a258 debb d3fc cc3d f88f 0d3e
000000c0: ded6 0c3e 2be7 673d f129 c23d 8577 273e
000000d0: bb88 983d 2e36 e0bb 7c7c 40bd 8378 1bbe
000000e0: 55e9 b5bc 4a65 09bc e672 7d3d 6233 a9bd
000000f0: 3c90 4abd 2c02 c4bd 957b 99bd 3d2f f83d
00000100: 87ba 6ebd 869a 4fbc 1b6a ba3d b961 283d
00000110: 039f bfbc e628 8fbd 3c21 eebc d448 aabd
00000120: 35df f23b 7bb3 69bb 22f1 3f3d 7854 053e
00000130: 5643 ba3c 2d2b 1dbe cbdf 8ebc ca02 a3bc
00000140: c61d 90bd 239f d3bd 60ef 3bbd d4fd ac3b
00000150: e46b b13d c926 d23d 1526 55bc a6c4 05bd
00000160: 2954 6a3c 87bb 52bc 849b e9bd 753e 21be
00000170: 83cd 21be a3d0 c3bd bb3b 2cbd 060b f7bd
00000180: 4617 d0bd 8248 2bbe b1c7 373d aeba 1abe
00000190: 8398 1dbe 0241 24be fab3 29be f142 603d
000001a0: 9a4a 083c 9c27 b9bd b132 7dbd 811c 2a3e
000001b0: 32fe 823c 461f b8bd 5437 653e 52b1 4abe
000001c0: e873 193d c06d 053e db11 3abd 3bb2 a6bd
000001d0: 1142 83bb 132d 0ebd 088c 323d 52ab a8bc
000001e0: c30c b3bc 5b79 19be a52e 0bbe a995 72bc
000001f0: 6366 a83c 00d1 02be 177f a0be 39ec 12be
00000200: 4d0f 97bb a7d0 b9bd 470b b7bd cefb 773c
00000210: b9e8 88bc 9778 76bc ead3 e23c 1ffc 03bc
00000220: aab2 82be 8d9f e4bb b389 00be 20f4 1bbe
00000230: 9ce7 1ebe 0428 00bc 8117 a43d 04e9 39bc
00000240: 432e a4bd c7b6 01be d598 e3bc a03f 4dbe
00000250: 1085 7f3c fb3c 003e e5bb c6bd 1744 35bd
00000260: 342d 923c 9b0b 62bd 2386 033c 1ab7 583d
00000270: c19c 023e f6ca dcbc 4478 0c3d cc5a b03d
00000280: b890 d7bc 8d33 fe3b f4e5 113d af2f 56bc
00000290: 9b5e 603c e43d 673e af52 093e c3e0 a93d
000002a0: fc50 553e 46ba 083d 55ee 65be 9054 58bd
000002b0: 32b0 91bd 5013 89be cd45 80be 76c8 a43d
000002c0: 2148 41be faff 363e 0822 bbbc a52a 523d
000002d0: 019f ea3d 7dce b4be 7fb1 74bd 87cc 0cbe
000002e0: 0efb 66bd 57ad 62bc a9c1 eb3d 600c 073e
000002f0: 81ef 2f3e 0188 f6bd b017 aa39 a897 61be
00000300: ca2d 393e 5917 05bd 840e 7abd 49f6 15bb
00000310: 7749 5abd 2d2c 24be 0e9a 13be d20c b03d
00000320: 9254 1abc 4e84 163d 356e 3d3c c9ec 813d
00000330: 025a b43b 91dd 043e db4b 12bd 798e 283d
00000340: d090 8ebd ecd3 253e cca3 8cbc f340 25bd
00000350: ea0a 57bc 8a48 20be cdbf 11be 4d28 e7bd
00000360: 6d7b ed3d b7f7 02be 14c7 53bd 979a 133e
00000370: d5f3 7cbd 6a82 8f3d 8f67 133e acff 31be
00000380: 858a 85bd 652a 46be d7b1 08be 15c8 693d
00000390: d2cd b8bd d8a3 bcbc d9d1 1cbe 5a64 e6bd
000003a0: 2fcf 3c3d f5e1 c7bc a633 783d f866 53bd
000003b0: 9986 2fbc c973 6fbe 8ba6 18be 81b0 0ebe
000003c0: 93e6 15be 0c50 ce3d d652 e13c e2f5 8bbd
000003d0: 2444 02bd 2d1d 273b 68b6 42bc 7fcc a53d
000003e0: e5c4 b6bd 81cf 213e 31b2 f5bc 0159 b3bd
000003f0: 6893 603c 11c4 eabd f276 353d e073 bebd

conv2.bias f4 [64]
-0.007010763 -0.009387751 -0.0950753 -0.042517215 -0.09513261 0.11001812 0.040379185 -0.029135311
-0.031072125 -0.10812455 -0.044550817 -0.03443535 0.031661496 -0.025612611 0.03022802 0.011200839
-0.030766392 -0.017604735 -0.039028622 0.021349043 0.03117071 0.012120924 -0.063489944 0.09788623
-0.07765123 0.059659388 0.054918632 -0.05617463 0.018710252 0.014128001 0.06985777 -0.012335229
-0.07052093 -0.06538507 -0.0010688883 -0.09617316 0.015254021 -0.077019215 -0.04293126 0.019046662
0.040382978 0.04004075 0.0280113 -0.020322943 -0.07065032 -0.010533722 0.0059984582 0.0042225732
-7.2366754e-05 -0.027859265 -0.009210302 -0.045115624 -0.07615544 -0.01988141 0.062004022 0.071863435
0.03740033 -0.019532017 -0.07312575 -0.10366811 -0.00017809283 -0.025123416 0.031682782 -0.059916385
00000000: 8bba e5bb 15cf 19bc d7b6 c2bd 8826 2ebd
00000010: e3d4 c2bd 2e51 e13d a564 253d 2dad eebc
00000020: f88a febc 6770 ddbd eb7a 36bd 150c 0dbd
00000030: 7caf 013d 8ad1 d1bc c1a0 f73c b983 373c
00000040: cd09 fcbc ce37 90bc 7adc 1fbd 30e4 ae3c
00000050: b859 ff3c d796 463c 0407 82bd 9378 c83d
00000060: 9c07 9fbd 675d 743d 5cf2 603d 5e17 66bd
00000070: 3e46 993c 2279 673c 9711 8f3d b319 4abc
00000080: 476d 90bd 9ce8 85bd f119 8cba 6ff6 c4bd
00000090: 00ec 793c 40bc 9dbd b0d8 2fbd bf07 9c3c
000000a0: 9f68 253d c501 243d f477 e53c 4d7c a6bc
000000b0: 1db1 90bd a295 2cbc b78e c43b 835d 8a3b
000000c0: 9bc3 97b8 1d39 e4bc cee6 16bc 29cb 38bd
000000d0: 62f7 9bbd 57de a2bc eef7 7d3d 232d 933d
000000e0: 1731 193d 9c01 a0bc f4c2 95bd f24f d4bd
000000f0: 6ebe 3ab9 9fcf cdbc cec5 013d e26a 75bd

conv3.weight f4 [128, 64, 3, 3]
-1.1599161e-38 7.10461e-40 5.624243e-39 -4.358152e-39 7.11754e-39 8.947278e-39 -6.5374e-40 -8.210597e-39
-6.370611e-39 -3.5546671e-25 -5.966737e-19 4.628668e-20 -3.2475917e-21 -5.501834e-19 -7.7389176e-20 1.3296899e-23
-3.173147e-20 1.1579244e-19 3.165068e-39 -1.436576e-39 1.107575e-39 1.1436573e-38 -7.1895627e-34 1.4656856e-37
-3.023877e-39 1.3092718e-34 9.205958e-39 1.1228746e-38 1.1345223e-38 -1.1459146e-38 5.488833e-39 1.423802e-39
4.357935e-39 3.723107e-39 -5.762924e-39 1.0119541e-38 -8.692874e-39 -4.1889395e-36 -1.5277025e-36 -2.8603591e-37
6.153958e-36 5.058493e-39 -4.877544e-39 8.0395135e-35 9.437211e-39 -1.792205e-39 1.0576565e-38 -5.357656e-39
1.136076e-39 -3.595038e-39 2.15912e-40 -4.981019e-39 -3.159785e-39 -3.36093e-39 -9.35874e-40 6.822677e-39
5.776514e-39 2.077768e-39 2.75078e-40 8.68376e-39 -1.23154e-39 -9.453012e-39 -6.203139e-39 -1.636428e-39
-7.461669e-39 8.1851e-38 -5.775655e-39 9.69875e-40 -3.605866e-39 3.434137e-39 2.125838e-39 1.1236691e-38
2.4738402e-37 -1.1546844e-36 3.0930468e-27 -1.9992207e-36 -1.5862817e-30 -8.8801857e-32 -1.9893864e-36 7.843938e-32
-2.345631e-30 4.508452e-39 -1.0457599e-36 -8.667842e-36 -1.015003e-39 8.9306964e-33 -5.104814e-37 5.357939e-39
-1.265808e-39 -8.855356e-37 9.851097e-39 1.848648e-39 -8.9401e-40 -2.022147e-39 6.59807e-39 -6.34389e-39
8.127867e-39 -7.396499e-39 -6.00318e-39 5.215386e-39 1.0359023e-38 -8.577457e-39 8.283926e-39 7.834714e-39
-4.111e-40 -1.0203495e-38 -7.026146e-39 2.365833e-39 3.6685514e-27 5.3461997e-27 3.1983266e-22 -2.3058244e-25
-1.1500297e-19 -4.7170615e-19 -9.2139924e-24 8.937117e-24 -2.2956835e-23 -1.1312656e-38 2.85429e-40 -5.415178e-39
-6.4449e-39 2.654359e-39 7.833452e-39 -7.455463e-39 5.708859e-39 -4.618114e-39 8.283294e-39 -3.713448e-39
1.8554e-39 1.0911505e-38 -1.659182e-39 -3.4033e-39 1.1818526e-38 -1.951483e-39 7.281096e-39 2.025815e-39
2.999102e-39 7.553482e-39 -5.692516e-39 -9.2896e-40 -1.067722e-39 -6.972976e-39 -5.73767e-40 -2.262845e-39
1.8542278e-31 -2.1859597e-25 -1.2309965e-30 2.1520045e-32 -2.1463607e-23 2.0343098e-21 -6.1152763e-35 -1.3574864e-24
-7.6068295e-24 -3.538985e-39 -3.65841e-39 1.585491e-39 -6.42889e-39 -4.153055e-39 -4.319159e-39 -2.56876e-40
-1.0676805e-38 3.897018e-39 7.875543e-39 -2.800866e-39 8.663039e-39 -6.205524e-39 -4.726564e-39 1.959018e-39
-1.000285e-38 -6.355396e-39 -3.447455e-39 -9.94476e-40 2.0483561e-36 5.424141e-36 -1.1549324e-38 9.131599e-38
2.755836e-35 6.668803e-39 -1.0342868e-38 5.181888e-35 3.693728e-32 -2.0684262e-24 5.62482e-31 -6.4657034e-30
-9.7045165e-30 8.91144e-27 -1.2785074e-36 1.33550415e-27 -4.3613067e-24 5.67251e-39 4.9848673e-36 2.354792e-28
-5.990709e-39 -7.735019e-37 -3.713662e-39 -8.867228e-39 -2.7758296e-33 -2.6327683e-37 -1.1307035e-38 -3.747338e-39
8.561798e-39 8.281601e-39 -6.602194e-39 1.0392311e-38 -3.038784e-39 -7.902296e-39 -4.569688e-39 3.707854e-39
1.0415591e-38 8.998943e-39 -3.228945e-39 -3.582679e-39 7.848654e-39 -6.544018e-39 -1.178419e-39 8.203107e-39
2.1560506e-37 3.6216067e-32 -2.4026104e-34 -3.460753e-33 2.5647512e-32 1.4116124e-32 1.09378956e-32 9.312802e-32
-4.4389857e-30 6.772488e-39 -1.031649e-39 8.02127e-40 9.477685e-39 -8.985805e-39 3.485053e-39 3.162211e-39
-1.0371521e-38 -1.9668e-39 3.134206e-27 -9.1439445e-21 -3.5424754e-22 -1.3525601e-22 -3.3146757e-18 -7.335759e-21
2.1778273e-31 -7.1752223e-29 -4.0197682e-25 4.354988e-39 -1.251525e-39 -9.384782e-39 4.43874e-39 -5.708217e-39
-6.22062e-39 -1.09657e-39 -1.0013094e-38 7.49965e-40 -3.608355e-39 -8.471062e-39 -6.99395e-40 -9.761105e-39
00000000: be4d 7e80 7abc 0700 1a3e 3d00 c174 2f80
00000010: ce80 4d00 5f6d 6100 5c1e 0780 ce67 5980
00000020: ac5e 4580 f305 dc96 641b 30a1 2a95 5a1f
00000030: 8f61 759d af62 22a1 e3ba b69f 8799 8019
00000040: fed8 159f 1eb4 0820 ec76 2200 97a4 0f80
00000050: 780f 0c00 8388 7c00 09ea 6e88 b07f 4702
00000060: 57ed 2080 3608 2e07 773e 6400 2d45 7a00
00000070: de89 7b00 70c7 7c80 a2c4 3b00 fb80 0f00
00000080: 2674 2f00 828a 2800 b0c0 3e80 2a31 6e00
00000090: 32a8 5e80 832d b284 6af6 0184 7caa c282
000000a0: 56e1 0205 0515 3700 9c1c 3580 18ba d506
000000b0: 1bc3 6600 f083 1380 292b 7300 f756 3a80
000000c0: eb5e 0c00 8125 2780 e059 0200 0e3d 3680
000000d0: 3268 2280 e898 2480 d630 0a80 d94a 4a00
000000e0: 92e6 3e00 f99f 1600 cefe 0200 ca8e 5e00
000000f0: 0869 0d80 27ef 6680 d48b 4380 b2d1 1180
00000100: 1940 5180 d2d1 de01 2de4 3e80 9e8f 0a00
00000110: b043 2780 fa64 2500 f925 1700 535b 7a00
00000120: 605c a802 9975 c483 710e 7513 2c13 2a84
00000130: c8b1 008e f58a e68b 003d 2984 e9a3 cb0b
00000140: da4c 3e8e bb17 3100 45ed b183 3858 3885
00000150: 6a0d 0b80 ba7b 390a 34b5 2d83 c157 3a00
00000160: 8fc8 0d80 84aa 9683 da44 6b00 4721 1400
00000170: 23bc 0980 ec04 1680 bcd8 4700 2f14 4580
00000180: 3081 5800 6e8a 5080 6c5e 4180 60ca 3800
00000190: becc 7000 7666 5d80 3734 5a00 ff4f 5500
000001a0: fb79 0480 311b 6f80 0982 4c80 fbc2 1900
000001b0: 8853 9113 e8c8 d313 b553 c11b 3fb9 8e96
000001c0: 84c5 07a0 1c39 0ba1 7b39 3299 76de 2c19
000001d0: 5f06 de99 152f 7b80 a91b 0300 50f7 3a80
000001e0: c22d 4680 46e7 1c00 7a4c 5500 cc2e 5180
000001f0: fa29 3e00 6c49 3280 7432 5a00 956f 2880
00000200: 1a34 1400 d6d0 7600 2011 1280 040f 2580
00000210: 3eb1 8000 f13f 1580 bc48 4f00 260f 1600
00000220: 47a8 2000 0940 5200 6bfc 3d80 901d 0a80
00000230: 60a0 0b80 d2ed 4b80 6e3f 0680 e4a3 1880
00000240: 4ab1 700c ea4d 8796 98bd c78d 187a df0a
00000250: 5195 cf99 46b5 191d 6a92 a286 940f d297
00000260: 3223 1399 4089 2680 29d6 2780 b443 1100
00000270: 2101 4680 0739 2d80 0f08 2f80 11cc 0280
00000280: 9742 7480 4d6f 2a00 cfc1 5500 ad7f 1e80
00000290: 0755 5e00 7a92 4380 bd77 3380 f254 1500
000002a0: e0eb 6c80 4234 4580 1a8a 2580 32d4 0a80
000002b0: 3f41 2e04 aab7 e604 d1c2 7d80 f595 f801
000002c0: 7f86 1206 e99d 4800 b59f 7080 1ac2 8906
000002d0: 11ca 3f0b 6709 2098 2d89 360d da23 038f
000002e0: bbd4 448f 5e82 3014 da86 d983 7c9e d312
000002f0: 4ab8 a898 a6c4 3d00 6608 d404 af40 9511
00000300: a93b 4180 c29a 8383 2e70 2880 398e 6080
00000310: 5e9b 6689 4b2d b382 6a1f 7b80 0ece 2880
00000320: cf3a 5d00 bc2d 5a00 3be4 4780 8929 7100
00000330: e516 2180 630c 5680 6ec2 3180 fd5f 2800
00000340: 6e6a 7100 64fd 6100 fc28 2380 0d03 2780
00000350: db76 5500 0f42 4780 f4d4 0c80 ed52 5900
00000360: b3bb 9202 690b 3c0b 4cae 9f87 0ac1 8f89
00000370: 642b 050b 1897 920a d42b 630a 30c6 f10b
00000380: 1011 b48e f1be 4900 d13b 0b80 01bc 0800
00000390: ee33 6700 c5d8 6180 e9f2 2500 f56e 2200
000003a0: 95ef 7080 a36a 1580 4051 7813 67b9 2c9e
000003b0: 2721 d69b b583 239b 7494 74a2 8e91 0a9e
000003c0: 5d59 8d0c dbe9 b590 c5cf f896 ef6b 2f00
000003d0: bea0 0d80 f430 6680 6755 3000 3028 3e80
000003e0: 8fbc 4380 cbf0 0b80 6f08 6d80 992a 0800
000003f0: a04a 2780 e03d 5c80 a19d 0780 fd49 6a80

conv3.bias f4 [128]
-0.00020755091 -0.0004922275 -0.053403728 0.019007519 -0.077028334 0.07578513 -0.022000708 -0.060479697
0.0020313591 -0.014131594 -0.02786993 0.063277766 -1.3613823e-12 0.029684195 -0.02016611 0.04587916
-0.047805585 0.08437483 0.10365848 -2.2474142e-25 -2.0439713e-07 0.023362372 -0.014100917 -0.055946335
0.01360849 -0.028709322 0.07215908 0.028493777 -0.029363085 -0.061918754 -0.07480006 0.020497974
0.07400205 -0.021099895 -0.0010296633 -1.2703639e-08 -0.035191953 -3.081866e-05 -0.006486167 -2.6206403e-14
-0.020759009 -0.00042246195 -0.078680664 -0.08855797 -3.8642156e-08 -0.0001329821 -2.110717e-12 -0.09733879
0.0048151747 0.022540342 0.029068178 -0.0004062077 0.022735763 -0.04796918 -0.048675794 -0.0005384739
-6.39526e-06 -0.0057876795 -0.058150746 -0.00054489943 0.007094264 -0.058139443 -0.009422889 -0.0034345386
-0.0053704935 -0.010080988 0.014205852 -0.08666617 0.056853816 -0.013778443 0.02866387 -0.04763825
-0.0044578644 -0.063600935 0.05503897 0.027540354 -0.022620825 0.026750721 -0.08826547 -0.014158261
-0.027994975 -3.6578732e-13 -2.7776298e-07 -0.07634677 -0.008142492 -0.014619443 0.15844028 0.017029945
0.09170022 -0.0002391624 -0.02395258 0.003872505 -0.013392044 -0.001312896 0.06440186 -0.027538385
-0.06178618 0.108396545 -0.048888825 -1.7306397e-13 0.010959559 -4.929422e-07 -0.0024361615 0.06353474
-0.056080073 -0.08532694 0.041812938 0.016181806 0.05861161 0.070912525 0.024461463 0.06731694
-1.7616296e-06 -0.024454609 -0.00066632475 0.0056999237 0.112421885 -0.005287685 -0.007818195 0.00041791695
-6.0435974e-05 -2.710193e-11 -0.09569067 0.1349984 -0.0067072576 -0.076462865 -0.086093836 -0.021631055
00000000: 06a2 59b9 d408 01ba debd 5abd a8b5 9b3c
00000010: 08c1 9dbd 3c35 9b3d d43a b4bc 8fb9 77bd
00000020: 8d20 053b 3488 67bc 7b4f e4bc c697 813d
00000030: f798 bfab 452c f33c 6633 a5bc c9eb 3b3d
00000040: cacf 43bd b6cc ac3d e64a d43d b31b 8b96
00000050: 4178 5bb4 7262 bf3c 8807 67bc fc27 65bd
00000060: 25f6 5e3c d02f ebbc 24c8 933d c86b e93c
00000070: da8a f0bc 859e 7dbd c630 99bd 5eeb a73c
00000080: 638e 973d b0d9 acbc c4f5 86ba 323f 5ab2
00000090: 7025 10bd 4943 01b8 ea89 d4bb da0b eca8
000000a0: cc0e aabc e27d ddb9 5423 a1bd e25d b5bd
000000b0: 80f7 25b3 1c71 0bb9 4c87 14ac 8f59 c7bd
000000c0: 9dc8 9d3b 86a6 b83c 6320 ee3c 46f8 d4b9
000000d0: 5a40 ba3c 557b 44bd 4560 47bd 5f28 0dba
000000e0: dd96 d6b6 93a6 bdbb 7a2f 6ebd 95d7 0eba
000000f0: 0077 e83b a023 6ebd 7662 1abc ff15 61bb
00000100: f7fa afbb ba2a 25bc a9bf 683c 087e b1bd
00000110: 8cdf 683d fbbe 61bc 7ed0 ea3c 5320 43bd
00000120: 4713 92bb 3541 82bd 8b70 613d 4f9c e13c
00000130: 4f4f b9bc 5424 db3c 87c4 b4bd 0df8 67bc
00000140: b855 e5bc 82eb cdaa 741f 95b4 b25b 9cbd
00000150: 1668 05bc 6386 6fbc 2b3e 223e 6282 8b3c
00000160: 53cd bb3d abc7 7ab9 3338 c4bc dac9 7d3b
00000170: 4e6a 5bbc 7b15 acba 1fe5 833d 2e98 e1bc
00000180: 8113 7dbd 02ff dd3d a63f 48bd 4bda 42aa
00000190: b98f 333c bb52 04b5 02a8 1fbb 801e 823d
000001a0: 38b4 65bd e4bf aebd 0b44 2b3d b58f 843c
000001b0: ba12 703d 963a 913d 6863 c83c 77dd 893d
000001c0: 2271 ecb5 0855 c8bc 4cac 2eba 6dc6 ba3b
000001d0: 723d e63d 5144 adbb e317 00bc dd1b db39
000001e0: a27c 7db8 1f64 eead 78f9 c3bd 053d 0a3e
000001f0: 8ec8 dbbb 9098 9cbd f751 b0bd 9c33 b1bc

act_conv1.weight f4 [4, 128, 1, 1]
-7.41058e-39 9.700354e-39 -0.036900885 -0.036676396 -0.023233853 0.30917636 -0.10565414 0.10603522
0.0076463097 1.7959222e-37 -0.020712465 0.16604733 4.20561e-39 -0.05552397 0.098291226 0.13946943
-0.0890506 0.050939713 -0.044511728 -1.35091e-40 9.750815e-39 -0.038252138 -0.035673775 -0.0054390715
0.038712647 0.023226777 0.14492969 -0.101381324 0.026125545 -0.01023245 -0.030157145 0.21611807
0.3292247 0.024506351 6.562019e-39 3.460711e-39 -0.1754636 4.40054e-40 4.585403e-39 -3.255305e-39
-0.13945791 0.14583828 -0.115593605 -0.15941662 6.99199e-40 1.0741719e-38 -1.368397e-39 -0.011748191
-0.042532623 0.14359917 0.02834782 5.898857e-39 0.03496647 0.12289069 0.12180673 8.474626e-39
8.168214e-39 -0.02762795 -0.10461487 -0.005814742 -0.00048463524 0.25890723 -3.790078e-39 0.02433612
0.0786562 -0.04678796 0.21425779 0.101712815 0.34912336 0.037783712 0.06911732 0.120397024
0.020917645 0.025037484 -0.01985259 0.08312534 -0.060109686 -0.058199916 0.04871802 -0.03492206
-0.034232706 -6.48829e-39 1.1216786e-38 0.05628309 0.0462709 -0.17554224 0.040312205 -0.012658813
0.07381632 3.391876e-05 0.046863716 0.043626934 -0.17172647 4.4742587e-06 0.19473712 -0.15357533
0.06778127 0.023325972 -0.13215648 -9.616593e-39 0.2101977 -6.12432e-40 9.057971e-39 0.021619441
-0.15181033 0.14214425 0.0029333124 0.028375184 0.0059250332 0.02852231 0.011450478 0.07527286
1.83832e-40 0.02166187 0.026344487 -0.078241706 0.111852266 0.3509034 0.011183321 -0.011347772
2.951664e-39 1.05323e-39 -0.041899793 0.092850305 -0.11743457 -0.10340071 0.009684994 -0.049076065
-9.170775e-39 1.729976e-39 0.08325769 0.08925022 -0.012670567 -0.16181496 0.26673985 0.12958938
0.047021873 -0.04179473 -0.04665171 -0.005294142 -5.730037e-39 0.1830869 -0.3126982 0.004308139
0.0104613 -0.10529817 0.049605105 -1.394597e-39 -4.7343126e-38 0.044332806 -0.074893035 0.018501265
-0.110494405 -0.17524263 0.0042821206 0.073105805 -0.17155837 0.0017719248 0.021517254 -0.3317361
0.100716956 0.019275172 3.9728e-40 -1.0711363e-38 0.28661588 -8.7095e-40 0.0012693431 -7.419238e-39
-0.031461585 0.017311651 0.15080167 0.11159853 -4.558673e-39 -2.048805e-39 -4.91466e-39 -0.15687124
0.265818 0.05755461 0.086078115 -6.432868e-39 -0.039971568 0.037621394 -0.031254478 -2.526963e-39
-6.882821e-39 0.067979716 0.52006346 0.034030948 0.11180026 -0.071545996 1.4504452e-19 0.12593506
-0.028665902 0.033895776 0.08993399 0.1437139 -0.41343775 0.016675683 -0.0911231 -0.10662665
-0.042707734 -0.019563233 0.03477024 0.042723946 -0.09206518 0.1202007 0.10404709 0.08982408
0.16796978 6.103853e-39 1.86921e-39 -0.11421601 -0.1702216 0.13004853 0.179486 0.18508992
0.094738066 -1.1897431e-17 0.08612648 -0.06400508 0.2243258 1.6703773e-06 -0.061654534 0.13624303
0.008649569 0.081024826 0.21876298 -1.612588e-39 -0.14709288 -4.483567e-39 -9.502152e-39 -0.062295157
0.014629924 -0.12672272 0.047544096 -0.08106008 0.036430463 0.11361825 -0.107527934 -0.17314184
5.895742e-39 -0.1457274 0.023852568 0.21688144 0.08363236 0.054405298 -0.01739391 0.02612235
-3.33354e-39 -2.724205e-39 0.021379631 0.14186637 0.104953475 0.12372792 0.023535775 0.1537725
00000000: afb1 5080 a4a0 6900 6225 17bd fd39 16bd
00000010: ec54 bebc 5d4c 9e3e 3361 d8bd fe28 d93d
00000020: e58d fa3b c172 7402 30ad a9bc 5008 2a3e
00000030: 88cb 2d00 1a6d 63bd e94c c93d 13d1 0e3e
00000040: 2960 b6bd 29a6 503d ee51 36bd 9478 0180
00000050: 4e2d 6a00 46ae 1cbd aa1e 12bd 3d3a b2bb
00000060: 2791 1e3d 1546 be3c 7368 143e 03a1 cfbd
00000070: 3d05 d63c 02a6 27bc 1e0c f7bc 0e4e 5d3e
00000080: 2490 a83e 8bc1 c83c 3d74 4700 0eaf 2500
00000090: bbac 33be b1ca 0400 3dee 3100 7772 2380
000000a0: 0ece 0ebe a156 153e 57bc ecbd 1c3e 23be
000000b0: 159d 0700 8bf7 7400 89e6 0e80 7c7b 40bc
000000c0: b036 2ebd a90b 133e b039 e83c 9d3b 4000
000000d0: 0039 0f3d 1dae fb3d cf75 f93d cf47 5c00
000000e0: a8f1 5800 0354 e2bc 5240 d6bd 9789 bebb
000000f0: a416 feb9 7d8f 843e 3245 2980 8b5c c73c
00000100: 8016 a13d bba4 3fbd 6566 5b3e cf4e d03d
00000110: 4cc0 b23e 18c3 1a3d 628d 8d3d b792 f63d
00000120: 7b5b ab3c 691b cd3c e6a1 a2bc 9e3d aa3d
00000130: 9335 76bd 0963 6ebd 8c8c 473d 6f0a 0fbd
00000140: 9837 0cbd b6a6 4680 d623 7a00 1989 663d
00000150: 8e86 3d3d 58c1 33be 691e 253d e966 4fbc
00000160: 032d 973d fe43 0e38 2bf4 3f3d 28b2 323d
00000170: 10d9 2fbe 9721 9636 2b69 473e da42 1dbe
00000180: e8d0 8a3d 1c16 bf3c 0754 07be 26b7 6880
00000190: 113e 573e 36ab 0680 f0a1 6200 411b b13c
000001a0: 2b74 1bbe 438e 113e d13c 403b 1373 e83c
000001b0: c826 c23b 9fa7 e93c c99a 3b3c a828 9a3d
000001c0: 7300 0200 3c74 b13c 65d0 d73c 303d a0bd
000001d0: cd12 e53d 9ca9 b33e 3f3a 373c 01ec 39bc
000001e0: 0a24 2000 fa77 0b00 1e9f 2bbd 4d28 be3d
000001f0: 8981 f0bd c0c3 d3bd cfad 1e3c fc03 49bd
00000200: 64dc 6380 78d6 1200 0283 aa3d d2c8 b63d
00000210: 3698 4fbc d2b2 25be 2092 883e 14b3 043e
00000220: 029a 403d f330 2bbd dd15 3fbd 7b7a adbb
00000230: 0365 3e80 227b 3b3e fa19 a0be 4a2b 8d3b
00000240: df65 2b3c 91a6 d7bd b92e 4b3d 922f 0f80
00000250: 58e1 8081 5196 353d 8561 99bd f78f 973c
00000260: e44a e2bd ce72 33be 0851 8c3b 7fb8 953d
00000270: ffac 2fbe ee3f e83a f444 b03c 50d9 a9be
00000280: b144 ce3d f7e6 9d3c 7453 0400 eca2 7480
00000290: 51bf 923e db7b 0980 1660 a63a d1c9 5080
000002a0: dddd 00bd 2ad1 8d3c c16b 1a3e c58d e43d
000002b0: baa3 3180 3c4f 1680 1384 3580 dba2 20be
000002c0: 4c19 883e 62be 6b3d b949 b03d 380c 4680
000002d0: 3ab9 23bd e418 1a3d b204 00bd 2584 1b80
000002e0: 81f2 4a80 f338 8b3d e122 053f 0964 0b3d
000002f0: 89f7 e43d b586 92bd 043d 2b20 1ff5 003e
00000300: c1d4 eabc 4cd6 0a3d 502f b83d bd29 133e
00000310: 1dae d3be 719b 883c bf9e babd 135f dabd
00000320: 4eee 2ebd 1343 a0bc 3d6b 0e3d 4eff 2e3d
00000330: ab8c bcbd c92b f63d a416 d53d b0f5 b73d
00000340: 4500 2c3e 0f77 4200 995a 1400 15ea e9bd
00000350: 924e 2ebe 712b 053e 2ecb 373e 3688 3d3e
00000360: 0806 c23d 0878 5ba3 1463 b03d 1815 83bd
00000370: aab5 653e ba31 e035 7789 7cbd 4b83 0b3e
00000380: ecb6 0d3c 58f0 a53d 6703 603e 3d8f 1180
00000390: 849f 16be 5cd2 3080 2278 6780 3529 7fbd
000003a0: 59b2 6f3c 9ac3 01be 99bd 423d d402 a6bd
000003b0: 1c38 153d afb0 e83d 9b37 dcbd 184c 31be
000003c0: ee32 4000 9039 15be 7666 c33c 2b16 5e3e
000003d0: 7147 ab3d 17d8 5e3d ac7d 8ebc 8afe d53c
000003e0: 8e4c 2480 faa9 1d80 5624 af3c 6b45 113e
000003f0: d9f1 d63d 1065 fd3d 19ce c03c 8a76 1d3e

act_conv1.bias f4 [4]
0.070157394 -0.010776629 0.072165206 7.487771e-27
00000000: aeae 8f3d 7590 30bc 5acb 933d 824f 1414

act_fc1.weight f4 [81, 324]
0.04418731 0.052974686 0.009764582 0.03745899 0.009394641 0.0672392 -0.055213496 0.034831423
0.06620577 -0.05084456 -0.09388533 0.009965563 -0.009013146 0.0010246821 -0.033548087 0.035043042
-0.010609163 0.013325998 -0.05597692 -0.014949767 -0.086764924 -0.044672914 -0.10499531 -0.033715285
-0.06258589 0.031805273 -0.07110367 -0.0894639 -0.040773697 -0.022215048 -0.04072405 -0.08902931
-0.027549913 -0.07173406 -0.01840025 0.0076622395 -0.03005793 -0.062247682 -0.05216701 -0.062450133
-0.099959336 0.024500132 -0.0011934085 -0.102981634 -0.0025905715 -0.045618076 0.03497479 -0.08052253
-0.050763447 0.007550703 0.009165078 -0.024726069 -0.03240655 -0.012614177 -0.08996675 -0.13340017
-0.10917706 -0.045627896 -0.06784316 0.016845983 -0.0975563 0.024089448 -0.057267338 0.14401877
0.10398712 0.09470644 -0.040378008 -0.07452129 0.004956249 -0.013409914 0.011770574 -0.014495665
-0.08389993 -0.21689738 -0.13993259 -0.009404801 0.018049486 -0.10136268 0.005944651 0.046092745
-0.070729464 -0.07430019 -0.118635975 -0.0171997 -0.04643342 -0.0013889917 0.14783019 0.014285169
-0.1784978 -0.13309644 0.057544842 -0.044961706 -0.02998555 -0.0017021636 -0.072703615 0.038314436
0.116424315 -0.07341287 0.06168002 0.050448123 0.07795783 0.025515407 -0.03679593 0.015810097
-0.044018086 -0.012702135 0.024920737 0.11738999 -0.027764734 0.04245289 0.019809322 0.05812391
0.053767223 0.042030916 -0.072541945 -0.040279087 0.0023997666 -0.006600674 0.011122263 -0.011834885
0.04200032 -0.011107548 0.054138746 -0.026187658 0.040986534 0.03155086 0.10599829 0.0003951377
0.012245199 -0.061897527 0.110135645 0.07818392 -0.018405601 0.038752954 -0.06646628 0.0008769611
0.02524204 0.07022866 0.010298746 0.029639222 0.039394908 -0.032461148 -0.100277245 -0.13239351
-0.4160179 -0.078318484 -0.059985675 0.017374143 0.018549114 -0.022882678 0.05373712 -0.014982049
-0.028814571 -0.15406238 -0.037494823 -0.0541714 -0.0073851696 0.07302104 -0.05751218 0.044973094
0.10068679 0.038563695 0.10584957 0.09080604 -0.020133602 -0.0125516215 -0.005567851 -0.03731154
0.0047428403 0.10333289 0.01323012 -0.06330996 -0.0026581339 -0.0072338562 -0.04918104 -0.04466273
-0.033712417 -0.032389432 0.022270273 -0.03952807 -0.09226928 -0.09224207 -0.0066354214 -0.079431884
-0.01777263 -0.035463825 0.008425288 -0.09142246 -0.09148943 -0.15527058 0.04054535 -0.0732303
-0.021548396 -0.105117485 -0.109597154 0.018378029 -0.0074081076 -0.028083771 -0.05653576 -0.03609367
-0.00019034892 -0.04576234 -0.029385714 -0.10857139 -0.044753887 0.025445499 0.03636116 -0.05607737
0.055425398 0.002571406 -0.038100667 -0.09844436 -0.06978317 -0.10411579 -0.024027482 -0.05289916
0.03437419 -0.07258263 0.019806853 0.018985115 0.016549 0.013574701 -0.038304538 -0.04620185
0.0025152839 -0.39886308 0.058118887 -0.0353636 -0.058325928 -0.012069992 0.020641156 -0.09306747
0.042887166 0.05408445 0.05465112 -0.30521864 -0.17559323 -0.060022224 -0.04881456 -0.012114476
-0.012037358 -0.085283086 -0.08571016 7.264513e-39 -1.0337218e-38 7.336605e-39 -2.444218e-39 3.5207887e-38
-4.197803e-39 -5.24835e-39 -8.81833e-39 8.902701e-39 -8.629068e-39 4.4986e-41 -3.1573864e-38 -3.34455e-40
00000000: c1fd 343d fcfb 583d a0fb 1f3c 996e 193d
00000010: fbeb 193c b5b4 893d 8c27 62bd 65ab 0e3d
00000020: e496 873d 6342 50bd f446 c0bd 9a46 233c
00000030: e0ab 13bc a04e 863a b869 09bd 4b89 0f3d
00000040: 0ed2 2dbc 4955 5a3c 0e48 65bd deef 74bc
00000050: cfb1 b1bd f2fa 36bd c807 d7bd 0a19 0abd
00000060: 082d 80bd 3f46 023d cd9e 91bd d938 b7bd
00000070: 5202 27bd 55fc b5bc 43ce 26bd 0055 b6bd
00000080: 5bb0 e1bc 4fe9 92bd 1fbc 96bc 8613 fb3b
00000090: 0c3c f6bc 6df7 7ebd 13ad 55bd b6cb 7fbd
000000a0: 7bb7 ccbd 80b4 c83c 256c 9cba 09e8 d2bd
000000b0: 94c6 29bb 05da 3abd ba41 0f3d ffe8 a4bd
000000c0: 55ed 4fbd e36b f73b 2029 163c 538e cabc
000000d0: bbbc 04bd b1ab 4ebc 7d40 b8bd 0e9a 08be
000000e0: 3998 dfbd 51e4 3abd 5bf1 8abd 9600 8a3c
000000f0: 99cb c7bd 3c57 c53c 2891 6abd a879 133e
00000100: 33f7 d43d 73f5 c13d 6963 25bd 9e9e 98bd
00000110: 0868 a23b 42b5 5bbc 5ed9 403c 3a7f 6dbc
00000120: bad3 abbd 591a 5ebe 7d4a 0fbe 9816 1abc
00000130: 84dc 933c 3d97 cfbd 59cb c23b bfcb 3c3d
00000140: 9cda 90bd b32a 98bd 6bf7 f2bd 63e6 8cbc
00000150: f830 3ebd d40e b6ba cc60 173e 570c 6a3c
00000160: 21c8 36be 6f4a 08be 24b4 6b3d c429 38bd
00000170: 42a4 f5bc 221b dfba a2e5 94bd 99ef 1c3d
00000180: df6f ee3d 7d59 96bd 30a4 7c3d b1a2 4e3d
00000190: 5ba8 9f3d b005 d13c 54b7 16bd 2d84 813c
000001a0: 4f4c 34bd 9e1c 50bc 9326 cc3c 2a6a f03d
000001b0: de72 e3bc 15e3 2d3d 2947 a23c 5613 6e3d
000001c0: 053b 5c3d 9c28 2c3d df90 94bd affb 24bd
000001d0: 6745 1d3b 774a d8bb 273a 363c 1be7 41bc
000001e0: 8708 2c3d 6ffc 35bc 97c0 5d3d 8087 d6bc
000001f0: 7fe1 273d 793b 013d a215 d93d 7c2a cf39
00000200: 16a0 483c 4388 7dbd cc8e e13d e41e a03d
00000210: 58c7 96bc 6bbb 1e3d 791f 88bd dde3 653a
00000220: 65c8 ce3c 0bd4 8f3d 12bc 283c f4cd f23c
00000230: 8e5c 213d fbf5 04bd 285e cdbd 2a92 07be
00000240: 4c00 d5be 7165 a0bd 8ab3 75bd 3854 8e3c
00000250: 50f4 973c 7474 bbbc 741b 5c3d 4577 75bc
00000260: 890c ecbc 87c2 1dbe 2c94 19bd d4e2 5dbd
00000270: 4bff f1bb 0e8c 953d e491 6bbd b535 383d
00000280: e034 ce3d f7f4 1d3d a9c7 d83d 84f8 b93d
00000290: 39ef a4bc 51a5 4dbc 8572 b6bb fcd3 18bd
000002a0: d469 9b3b 32a0 d33d 25c3 583c a7a8 81bd
000002b0: 1634 2ebb fc09 edbb 0f72 49bd 44f0 36bd
000002c0: 0816 0abd c8aa 04bd 2670 b63c 2fe8 21bd
000002d0: adf7 bcbd 69e9 bcbd f36d d9bb 2fad a2bd
000002e0: e897 91bc 8442 11bd 380a 0a3c b33b bbbd
000002f0: cf5e bbbd 40ff 1ebe e212 263d c4f9 95bd
00000300: 4386 b0bc d647 d7bd 7974 e0bd 858d 963c
00000310: b6bf f2bb f00f e6bc 0b92 67bd f5d6 13bd
00000320: 6698 47b9 4b71 3bbd 4fba f0bc ad5a debd
00000330: da4f 37bd 1473 d03c 71ef 143d 62b1 65bd
00000340: be05 633d 0985 283b 720f 1cbd 329d c9bd
00000350: 7bea 8ebd a93a d5bd 48d5 c4bc caac 58bd
00000360: f3cb 0c3d 34a6 94bd fb41 a23c ac86 9b3c
00000370: c591 873c 6c68 5e3c 38e5 1cbd 273e 3dbd
00000380: 76d7 243b c837 ccbe 120e 6e3d 6cd9 10bd
00000390: 2be7 6ebd 37c1 45bc a417 a93c 289a bebd
000003a0: 74aa 2f3d a887 5d3d dad9 5f3d 9e45 9cbe
000003b0: b6ce 33be ddd9 75bd c7f1 47bd cc7b 46bc
000003c0: 5738 45bc e6a8 aebd cf88 afbd 821a 4f00
000003d0: f58f 7080 78e3 4f00 7c9d 1a80 a2b0 3f01
000003e0: c4b5 2d80 4426 3980 eb05 6080 1cf1 6000
000003f0: 55f6 5d80 677d 0000 8be7 2b81 53a4 0380

act_fc1.bias f4 [81]
0.13392693 -0.06582492 -0.15632379 -0.05452415 -0.06073346 -0.08679675 -0.17395344 -0.02771041
0.13029738 -0.052558057 0.028075932 -0.11382774 0.104099706 0.016189363 0.14016825 -0.10182056
-0.047698636 -0.028322067 -0.16845013 -0.10405667 0.19548789 0.07677621 0.10474198 0.025847772
0.11294753 -0.15785989 -0.11234815 -0.046049036 0.12183922 0.043828566 -0.02081175 1.7903978e-05
-0.026133636 0.009266747 0.11596001 -0.07738179 -0.04453723 -0.017121531 0.13957658 -0.030393949
0.096144855 0.009805711 0.12607804 -0.030810626 -0.031731848 -0.04716108 0.11655429 0.015419534
-0.012708335 0.016760608 -0.036737356 0.047267284 0.057133783 -0.08402207 -0.12387783 -0.10896251
0.18955845 0.055482164 0.17216668 0.095172085 0.24863993 -0.090470314 -0.10223731 -0.0711405
0.03287272 -0.11274576 0.11506971 0.012682485 0.115866065 -0.10388396 0.031591427 -0.03984039
0.12932104 -0.035939373 -0.15378834 -0.073539995 -0.030125609 -0.10341556 -0.07604741 -0.033387087
0.121715106
00000000: 2424 093e 37cf 86bd 5813 20be b754 5fbd
00000010: a6c3 78bd 7fc2 b1bd da20 32be f100 e3bc
00000020: ad6c 053e 1e47 57bd 7fff e53c 851e e9bd
00000030: 3a32 d53d 8e9f 843c 4488 0f3e 4c87 d0bd
00000040: a55f 43bd ae03 e8bc 317e 2cbe aa1b d5bd
00000050: fa2d 483e d83c 9d3d f782 d63d b5be d33c
00000060: 0951 e73d 06a6 21be c916 e6bd ea9d 3cbd
00000070: d786 f93d 9585 333d 677d aabc 8030 9637
00000080: 3516 d6bc 8ed3 173c 717c ed3d 587a 9ebd
00000090: ac6c 36bd 7442 8cbc 2aed 0e3e bbfc f8bc
000000a0: 98e7 c43d 22a8 203c 9a1a 013e 9166 fcbc
000000b0: 41f9 01bd fa2b 41bd 04b4 ee3d 37a2 7c3c
000000c0: 9f36 50bc 8b4d 893c e979 16bd 579b 413d
000000d0: 1d05 6a3d c313 acbd a9b3 fdbd bd27 dfbd
000000e0: 9c1b 423e 4441 633d 764c 303e 95e9 c23d
000000f0: 779b 7e3e 8048 b9bd cb61 d1bd 1cb2 91bd
00000100: 8ca5 063d 40e7 e6bd aba9 eb3d 33ca 4f3c
00000110: 304b ed3d 1dc1 d4bd 0366 013d ad2f 23bd
00000120: bc6c 043e 2a35 13bd b17a 1dbe 239c 96bd
00000130: fbc9 f6bc 8acb d3bd bfbe 9bbd e6c0 08bd
00000140: c545 f93d

val_conv1.weight f4 [2, 128, 1, 1]
-4.965891e-36 3.1500837e-09 -6.3777056e-10 -2.5361575e-15 -0.00021972036 2.92509e-39 3.579597e-39 1.3616711e-06
-1.393869e-39 6.042737e-15 -0.0013053823 8.573449e-11 3.06915e-39 -1.1743016e-05 -0.00017889985 -0.0012109604
-6.7056793e-10 -0.00066424866 6.965912e-39 7.023983e-39 1.3251779e-20 -0.0011437645 -4.39088e-05 -8.927462e-22
-0.0016501535 0.0001583484 6.874559e-05 -6.839733e-20 0.0001563808 -1.7324036e-24 6.360621e-39 -0.00063291815
0.00010349159 1.8119194e-29 -4.7623e-41 -8.884329e-39 1.158028e-26 3.029877e-10 1.158957e-39 5.228975e-39
-1.2699378e-05 -2.4063183e-07 -5.007165e-07 -6.844956e-39 5.0023505e-07 2.1681782e-07 5.706075e-39 -0.002397077
-3.5462308e-05 -0.00038143143 0.0006586988 -3.948038e-39 4.086336e-31 3.164198e-39 0.0005065797 -0.00018053818
2.832289e-39 -4.3903096e-11 -9.658326e-39 -7.515226e-30 -0.0011468611 -0.001158993 -1.4765204e-18 -6.1547325e-05
-9.058964e-07 -0.00055579445 -7.961889e-05 -4.4258663e-06 -0.002017479 8.3450643e-26 0.00027510978 7.217421e-39
2.919769e-09 -2.698961e-12 1.088756e-39 0.000103054816 -0.00070276094 -1.5549887e-05 -7.369022e-06 -2.955308e-33
-8.791654e-39 2.459639e-39 2.4224927e-17 -0.0002696146 1.2995153e-05 9.645021e-39 4.61895e-40 4.9284572e-05
0.00065520045 1.6066e-39 -0.0011533141 -0.00011324888 -6.864832e-39 4.59922e-39 4.139123e-06 -3.4626482e-05
-0.0018745405 0.00024893295 -1.5472747e-16 -1.702878e-39 -5.280782e-34 6.372794e-12 -9.762922e-39 -0.0007656772
3.790616e-39 -7.252717e-13 2.1891995e-26 -0.0005188031 -0.0014030446 -0.0010540253 -0.0014366328 2.702223e-39
7.192198e-39 -0.0035291566 -0.0004398179 3.7149964e-14 -0.00061487075 0.00035401038 -0.0006882546 -5.0881166e-08
-7.0234495e-12 -1.3388e-40 -6.87679e-40 -2.7795764e-05 4.167015e-27 -8.560197e-06 -1.875767e-39 -1.10206165e-05
-0.00193198 0.0015508896 0.06437866 -0.33356658 0.18111247 -0.2706509 0.14816618 -0.24965847
-0.018685285 -0.049663283 0.42257196 -0.38882828 1.0932415e-38 0.03541197 0.027563771 0.2295904
0.26308396 0.020143332 0.010955337 -1.3660273e-19 -1.7776358e-33 -0.04640207 0.023116784 -0.3128559
-0.0021105872 0.012440245 0.20054646 -0.27733943 0.26733568 -0.28123343 -0.3414746 0.22382376
0.061922383 -0.22650957 -0.00016127455 -4.851233e-08 0.0035644541 3.255911e-39 0.003467227 -1.1718143e-08
0.37360272 -0.1858839 0.16980854 0.07734784 -2.7189348e-10 0.00043285114 -1.997622e-37 0.12391481
-0.017092243 0.18210109 -0.002945865 -5.24805e-06 0.039002214 -0.3345275 0.26866528 -0.0069365334
-0.0020186251 -0.11604144 -0.04419271 -0.3421955 0.39438742 0.29196465 -0.004453103 -0.0040979227
-0.22296895 0.17955382 0.031581905 0.1829251 0.20475955 -0.22524314 0.19851218 -0.14894375
-0.08102092 -0.22544265 -0.39736167 0.1971565 0.32007226 0.0046274606 0.14147381 -0.29634613
0.13769318 0.00024712243 -5.2698603e-23 0.020881543 -0.15052165 0.046129238 -0.18168062 0.14460833
0.071148686 0.0019656233 0.002893289 0.15187506 0.16578217 -0.005710914 -1.5464e-05 0.46691748
0.19423495 0.08182885 -0.15090723 1.1138645e-38 -0.29004925 -0.00029908665 0.002940995 0.055870116
0.43325987 -0.33223706 0.037790757 0.0490193 -0.009616162 0.04226567 -0.0112384 -0.14525516
1.4694627e-19 0.024630621 0.19139294 -0.007140013 0.043193 0.30226722 0.3109266 -0.28487295
-0.00391886 6.580862e-39 -0.2657203 0.017206103 -0.21399632 -0.22388786 0.31978422 -0.025401184
00000000: c439 d384 dc78 5831 1d4f 2fb0 d9bf 36a7
00000010: bc64 66b9 f6d9 1f00 76fa 2600 aac2 b635
00000020: 8a2d 0f80 69b6 d927 5d19 abba 3a88 bc2e
00000030: 8b6b 2100 df03 45b7 1097 3bb9 17b9 9eba
00000040: 0653 38b0 f920 2eba 21da 4b00 027c 4c00
00000050: ac51 7a1e 5eea 95ba b72a 38b8 72e8 869c
00000060: f749 d8ba 530a 2639 822b 9038 a67f a19f
00000070: 27fa 2339 ca09 0698 d342 4500 6bea 25ba
00000080: a009 d938 1ec0 b70f c184 0080 e5bd 6080
00000090: ff5e 6514 ba91 a62f b39e 0c00 41f0 3800
000000a0: 6a0f 55b7 3030 81b4 fa68 06b5 f488 4a80
000000b0: e447 0635 6ece 6834 3722 3e00 4718 1dbb
000000c0: 5dbd 14b8 dcfa c7b9 87ac 2c3a 86fd 2a80
000000d0: f49b 040d 7f74 2200 fdcb 043a d94e 3db9
000000e0: 45d7 1e00 7e16 41ae 7c2b 6980 496d 188f
000000f0: 4652 96ba 5ae9 97ba 5de5 d9a1 f812 81b8
00000100: ba2c 73b5 bcb2 11ba 11f9 a6b8 e781 94b6
00000110: ae37 04bb 219d ce15 9c3c 9039 3c97 4e00
00000120: 1fa5 4831 29ec 3dac 02db 0b00 221f d838
00000130: 7d39 38ba 2171 82b7 6b43 f7b6 7384 7589
00000140: 8ebb 5f80 79c8 1a00 7e6f df23 0f5b 8db9
00000150: c205 5a37 6506 6900 9307 0500 e8b6 4e38
00000160: c2c1 2b3a 8c7e 1100 cd2a 97ba 0880 edb8
00000170: 5cc0 4a80 c114 3200 cce2 8a36 e73b 11b8
00000180: 24b3 f5ba 3783 8239 7d63 32a5 ee8a 1280
00000190: ed7b 2f88 0639 e02c 0e4f 6a80 bab7 48ba
000001a0: b246 2900 5525 4cab cdce d814 4900 08ba
000001b0: 5de6 b7ba 3827 8aba 664d bcba b36c 1d00
000001c0: ec50 4e00 6c49 67bb 5c97 e6b9 fe4e 2729
000001d0: 472f 21ba 789a b939 fc6b 34ba 6f88 5ab3
000001e0: 9c1d f7ac 3475 0180 f87c 0780 f32a e9b7
000001f0: 8d12 a513 c49d 0fb7 e06c 1480 30e5 38b7
00000200: 7e3a fdba 3847 cb3a f5d8 833d 3dc9 aabe
00000210: 8c75 393e c192 8abe e0b8 173e 78a6 7fbe
00000220: e211 99bc ba6b 4bbd 5a5b d83e 8014 c7be
00000230: 200b 7700 240c 113d 6bcd e13c bf19 6b3e
00000240: f1b2 863e a103 a53c 047e 333c a445 21a0
00000250: 22ae 1389 1910 3ebd 695f bd3c a62e a0be
00000260: c751 0abb 2bd2 4b3c 0d5c 4d3e 6fff 8dbe
00000270: 39e0 883e d4fd 8fbe c2d5 aebe 0e32 653e
00000280: 53a2 7d3d 20f2 67be cf1b 29b9 df5b 50b3
00000290: 9e99 693b 2874 2300 6b3a 633b f050 49b2
000002a0: db48 bf3e 5958 3ebe 4ae2 2d3e 8b68 9e3d
000002b0: 9b79 95af 4cf0 e239 7cf3 8782 0cc7 fd3d
000002c0: 0805 8cbc b578 3a3e 6a0f 41bb 6818 b0b6
000002d0: c9c0 1f3d 3047 abbe 7f8e 893e dc4b e3bb
000002e0: e94a 04bb 22a7 edbd 6a03 35bd 4034 afbe
000002f0: 26ed c93e 647c 953e 56eb 91bb de47 86bb
00000300: f951 64be f5dc 373e 075c 013d b850 3b3e
00000310: 7dac 513e 23a6 66be c746 4b3e b684 18be
00000320: 4cee a5bd 70da 66be fd72 cbbe 65e3 493e
00000330: 83e0 a33e f4a1 973b 83de 103e aeba 97be
00000340: 71ff 0c3e 3690 8139 b6d5 7e9a c50f ab3c
00000350: 5922 1abe 03f2 3c3d 7c0a 3abe 3514 143e
00000360: 67b6 913d b0d1 003b 569d 3d3b 2385 1b3e
00000370: cdc2 293e 9e22 bbbb b0b8 81b7 cf0f ef3e
00000380: 87e5 463e e295 a73d 6d87 1abe 034a 7900
00000390: 5681 94be bbce 9cb9 b5bd 403b 10d8 643d
000003a0: 3dd4 dd3e fa1a aabe 7bca 1a3d 76c8 483d
000003b0: 1b8d 1dbc c41e 2d3d 4421 38bc c5bd 14be
000003c0: c97b 2d20 28c6 c93c 83fc 433e c5f6 e9bb
000003d0: 25eb 303d c5c2 9a3e c531 9f3e deda 91be
000003e0: c869 80bb c4a8 4700 7e0c 88be d0f3 8c3c
000003f0: da21 5bbe dc42 65be c2ba a33e 2516 d0bc

val_conv1.bias f4 [2]
-0.021227285 0.026684973
00000000: d8e4 adbc 729a da3c
