current_policy.model (torch, 529587 bytes, 15 tensors)

conv1.weight f4 [32, 4, 3, 3]
000000 c8 05 cd 3e 6c 4d 5a bc 4d 48 48 bc d7 da d5 bd
       0.40043473 -0.013324123 -0.012224269 -0.10442131
000010 58 ab 18 3e 26 80 39 be f8 d6 4f 3e 3c aa 75 be
       0.14909112 -0.18115291 0.20296848 -0.2399072
000020 7f ac 49 3d dc 77 19 3e 2c 2c 80 be 3d c4 25 3d
       0.04923677 0.14987129 -0.250337 0.04047035
000030 bc 7d 9f be 9e be 9c 3d e6 42 09 3e e8 3c c7 bd
       -0.31150615 0.07653545 0.13404426 -0.09728414
000040 95 59 14 3e 20 28 92 be f4 01 84 bc 9a 08 d3 3d
       0.14487298 -0.28546238 -0.016114213 0.10304375
000050 14 96 5c 3d fc 08 33 3d e5 a4 e5 3c ba 4f 08 be
       0.053854063 0.04370974 0.02803273 -0.13311663
000060 41 9a ec 3d 5c 92 86 3d a0 00 2a bd 58 f4 80 bd
       0.11552859 0.065708846 -0.041504502 -0.06296605
000070 ef 02 19 be 4a 1c 12 3e ae b3 e6 3c 38 a6 82 3c
       -0.14942525 0.14268604 0.02816185 0.0159484
000080 60 cc b2 bc b1 cf 0a be dd 2d 21 3e 8f e0 00 3e
       -0.02182597 -0.1355579 0.15740152 0.12585662
000090 30 b3 6e be 1a 2e 96 bc 66 ba 81 3d ec 11 58 be
       -0.23310542 -0.01833253 0.06334381 -0.21100587
0000a0 e3 a4 e2 bd 76 d7 98 be cd 60 84 be 42 5a 41 bd
       -0.11066606 -0.29851884 -0.25855103 -0.047205217
0000b0 80 12 30 be 39 b0 85 be 59 9e 4a be ec ab 90 bd
       -0.17194557 -0.2611101 -0.19786967 -0.070640415
0000c0 1a 1a 8c be ab ff f4 3d df e1 b9 be 9b 04 ee be
       -0.27363664 0.11962827 -0.36305138 -0.4648789
0000d0 5f f8 11 3e 34 29 0a bd 01 b7 00 3c e3 e1 31 3d
       0.14254902 -0.0337307 0.0078561315 0.043428313
0000e0 fd 8f a1 3b 77 c1 23 bd fd 54 89 3d 75 d1 a5 bd
       0.004930495 -0.039979424 0.06705663 -0.080965914
0000f0 c0 4d ba bb 7f eb 9f bc f5 af 2f 3d c7 f0 c2 bd
       -0.005685538 -0.019521473 0.042892415 -0.09518581
000100 8b 8f b9 bd b3 ce 06 be f6 49 92 bc e0 02 62 3e
       -0.09060582 -0.13164787 -0.017857533 0.22071409
000110 cd 00 0d 3e 0c f4 16 3e 4f 69 39 3d c9 17 2f 3e
       0.13769837 0.14741534 0.045266446 0.17098917
000120 52 b1 2a 3e 27 37 7a be b9 7a a6 be 52 f6 4c 3e
       0.16669205 -0.24435101 -0.32515505 0.20015839
000130 c2 7e c2 3d 08 57 1c 3e 4f 83 3a 3e 1b ab 62 be
       0.094968334 0.15267575 0.18214153 -0.22135584
000140 ae 8c 16 be 39 c2 de be 2b 5f 5f 3e c1 8c 3f 3e
       -0.14702103 -0.43507555 0.21813647 0.18706037
000150 ee 3b db be 13 03 1b 3e 62 17 61 be f8 27 0d be
       -0.4281916 0.15137891 -0.21981576 -0.13784778
000160 70 a9 2f be 09 08 f1 3d f2 cc 1e 3d f9 c2 94 bd
       -0.17154479 0.11769111 0.03876967 -0.072637506
000170 d2 9a 74 bc cf 0e 6a bd 16 d3 b9 3d 0c 99 ff bd
       -0.01492949 -0.05714303 0.090734646 -0.12480363
000180 4d bb 63 bd bb f6 ad 3d 00 6b 75 3d 70 a4 16 3e
       -0.055598546 0.08494326 0.059916496 0.14711165
000190 04 3a 27 be 17 8c af 3d b1 fa 34 3e 98 5c 0a 3e
       -0.16330725 0.08571642 0.17673756 0.13511884
0001a0 a2 13 f3 3d 55 61 ae bd 25 c1 8f bd 7c 0e 91 bd
       0.11868979 -0.08514658 -0.07019261 -0.07082841
0001b0 36 73 9d be e0 54 4f bd 28 b9 bf bd 6a 38 00 be
       -0.3075196 -0.050618052 -0.093614876 -0.1252152
0001c0 e6 92 76 be 33 fe 14 be 25 43 e6 bd d0 dc 24 be
       -0.24079475 -0.14550094 -0.112432756 -0.16099858
0001d0 a4 a5 52 3e d0 2d 38 bd b2 e8 be 3e b8 55 30 be
       0.20571 -0.044965565 0.37286907 -0.17220199
0001e0 49 dc dc 3c 07 be cc 3e 20 cf ac 3e 44 97 9e be
       0.026960509 0.3998873 0.33751774 -0.30974782
0001f0 7d 89 93 3e 9a cc c9 be 27 79 3b 3c ae 94 8a b9
       0.28815833 -0.3941391 0.011442459 -0.00026432186
000200 01 de dd 3d 49 ca 93 ba b5 59 03 3c f8 60 82 3c
       0.108333595 -0.0011275496 0.008016993 0.015915379
000210 27 03 ac bd 8d 5c 76 bc 48 ea ff bd 2b 1c ef 3d
       -0.08399039 -0.015036714 -0.124958575 0.116752945
000220 63 99 ab 3d 2d 23 03 3e 3f 55 31 3c 3a 91 44 bd
       0.083788656 0.12806387 0.010823547 -0.04799006
000230 c4 83 3d 3e 9c 9d ed bd 0b 07 00 be b6 13 28 be
       0.18507296 -0.11602327 -0.12502687 -0.16413769
000240 99 e6 a1 be 34 a9 bc be fc 66 3d be fc 88 3c 3e
       -0.31621245 -0.36847842 -0.18496317 0.1841163
000250 72 a5 09 be 20 c7 d8 3d b0 4d 3d ba 12 c7 f0 3d
       -0.13442019 0.10584855 -0.0007221354 0.1175672
000260 0c e7 0a 3e 08 20 29 be ec 15 0b be a8 1d 80 be
       0.135647 -0.16516125 -0.13582581 -0.25022626
000270 fe 97 52 bb 69 a5 3d 3d c3 1f 6e 3e 4c 88 a0 3d
       -0.0032134051 0.046300326 0.23254304 0.078384966
000280 b7 c2 92 3e ee 6d 24 be c6 c2 4c 3d fa d2 21 bc
       0.2866418 -0.1605756 0.049990438 -0.009876961
000290 67 51 a1 bc 17 c7 1e 3c 66 a9 1c bd 49 72 18 be
       -0.019692136 0.009691021 -0.03824749 -0.14887346
0002a0 2e 79 ac 3c e1 a5 0d bd 41 cd 39 3e 51 2f 72 bd
       0.021053877 -0.034582023 0.18144704 -0.059127156
0002b0 1b 82 01 be c0 9f c3 bd 20 a5 23 be e5 65 ef bd
       -0.12647288 -0.09551954 -0.15980959 -0.11689357
0002c0 6f 30 1b 3d f1 e8 1c be b5 95 5a bd 2c 74 a3 3d
       0.037887987 -0.15323235 -0.053365428 0.079811424
0002d0 a8 c0 e4 3e 3c 17 34 3e 7b 0c c1 3e 91 b7 07 be
       0.44678235 0.17586988 0.37704834 -0.13253619
0002e0 96 b3 8e 3e 84 c7 1c 3e 5a 76 7b 3e 8e f4 6a 3e
       0.27871388 0.15310484 0.24556866 0.22944853
0002f0 e3 9a b7 3e 17 0f 5e be ec f6 1b be 60 4b c8 bd
       0.35860357 -0.21685444 -0.15230912 -0.09780002
000300 46 15 b9 bd 8f e3 cf bd e8 c6 e1 b9 e0 f2 9d bc
       -0.09037261 -0.10150825 -0.0004306354 -0.01928085
000310 b2 8b 28 bd d6 74 01 be 74 8e d5 bd 50 1a 03 be
       -0.04114885 -0.12642226 -0.104275614 -0.12803006
000320 e8 b3 a1 3d 2b 01 7b 3d 64 29 36 3d 92 1c a1 bc
       0.078956425 0.06128041 0.044473067 -0.019666944
000330 13 07 01 bd c0 1d 91 bd c4 a9 41 bc 00 b0 4d 3c
       -0.031500887 -0.070857525 -0.01182026 0.012554169
000340 86 89 b1 3d dc 84 30 be f3 04 07 3c 7d a0 d0 bc
       0.08668809 -0.17238182 0.008240926 -0.025467152
000350 f7 b3 fa bd 93 b1 b9 bd 6f ea af bd 16 0b 09 3e
       -0.12241357 -0.09067073 -0.085896365 0.13383135
000360 1e 2a 26 3e 3a bc 57 3e b2 a8 a2 be 33 55 9e bd
       0.16227004 0.21067896 -0.3176933 -0.07731094
000370 60 16 59 be 82 86 54 bd d4 eb ab 3e 9e 8d 11 be
       -0.21199942 -0.05188609 0.3357836 -0.14214179
000380 e4 37 b7 3c 0d 6e 2d 3e 94 be c5 bd 79 de b0 3e
       0.022365518 0.16936512 -0.096554905 0.34544733
000390 1b a7 64 be f0 72 e7 3c 50 a0 9b bc e6 0b a3 3e
       -0.2232937 0.028253049 -0.018997341 0.31845015
0003a0 8d fe ec bd 85 e9 46 3c 29 66 cf bb d9 6a b3 3d
       -0.11571989 0.012140636 -0.006329317 0.08760614
0003b0 b2 56 56 3c 6a 3f 55 bd 7b 7a 03 3d f8 44 38 bd
       0.013082193 -0.05206243 0.03209923 -0.04498765
0003c0 4e bd a8 bd d1 e4 d5 3d a9 92 af bd 1a 1a 06 be
       -0.08239232 0.10444034 -0.08572895 -0.13095894
0003d0 bb 2a c0 bb a2 ff 3a bd cd d4 ad 3d 8e c2 0b be
       -0.005864469 -0.045653947 0.08487854 -0.13648435
0003e0 5d 05 7e 3c ec 40 b1 3d 71 c6 ae bd d3 45 aa 3c
       0.015504208 0.08654961 -0.085339434 0.020785248
0003f0 46 91 52 be c9 6e 8e 3e aa ba 91 bd b5 08 12 3d
       -0.2056323 0.27818897 -0.071156815 0.035652835

conv1.bias f4 [32]
000000 2a 05 c7 3c 80 73 a8 bd 4b 03 6a 3d dd 1f 90 3c
       0.024294455 -0.08225155 0.057132047 0.017593319
000010 be 9a 05 3c 9c 92 2f be 4b dc 4d 3e 95 7d 21 be
       0.008154569 -0.17145771 0.20103566 -0.15770562
000020 91 b3 40 be de b5 fb 3d d7 05 b6 3d f0 a7 e6 bd
       -0.18818499 0.12290548 0.088878326 -0.112625
000030 04 97 32 bd 4e 4f a7 3d 56 ac 29 3c 97 8c f2 3d
       -0.04360105 0.08169423 0.0103560295 0.11843222
000040 26 02 b1 3d 65 3e 04 bd b3 12 35 be d9 c7 a8 3c
       0.08642988 -0.032286067 -0.17682914 0.020603107
000050 46 17 2c be a5 2b 04 bd 7d 3a bc bc d1 71 0a 3e
       -0.16805753 -0.032268185 -0.022977108 0.1351998
000060 01 dd 07 3e 63 c0 43 3e a9 d4 79 3d 18 63 87 3d
       0.132679 0.19116358 0.060993824 0.066106975
000070 b1 c5 a5 3d e7 44 2e be 64 ee 9a bd 77 f3 5f be
       0.08094347 -0.17018472 -0.07565001 -0.21870218

conv2.weight f4 [64, 32, 3, 3]
000000 21 48 c4 bd fc 07 1d 3c c8 34 79 bd 7f 02 37 be
       -0.0958407 0.009584423 -0.06084135 -0.17872046
000010 bd 21 ed 3d 03 22 53 bd be 1a 47 3d 96 28 47 be
       0.11578701 -0.051546108 0.048609488 -0.19449076
000020 23 12 c1 3c 50 21 0b be ae 39 80 3d 6a 47 4a bd
       0.023568219 -0.13586926 0.062610015 -0.049384512
000030 c5 cb fa 3b 8f 78 f3 3d bb 5b dd 3d a5 91 d8 3d
       0.0076536858 0.11888229 0.10808512 0.105746545
000040 d3 df 26 be 7e 6d ee bc 22 32 a6 bd 19 47 bc 3d
       -0.1629632 -0.029104944 -0.08115031 0.09193248
000050 72 33 f7 bc c8 22 b9 3d c4 43 95 3d 30 05 87 bd
       -0.030175898 0.09039837 0.07288316 -0.06592786
000060 73 76 3f bc 8f 07 7c 3e 52 a4 0a bc 63 0d 6d 3e
       -0.011685955 0.24612258 -0.008462029 0.23149638
000070 40 cb 0b be 94 45 38 be 60 63 71 be 72 8c 9f 3d
       -0.13651752 -0.17995292 -0.23573065 0.0779046
000080 3b 0c 18 be 4b 77 9c bd 79 8e a7 3d 10 f1 60 3d
       -0.14848416 -0.07639941 0.081814714 0.054917395
000090 b7 28 db bd d7 ba 07 3d 8f 64 0d be 6f da b9 bd
       -0.10701125 0.03313717 -0.13807891 -0.09074866
0000a0 df b2 6a 3d 4d 9a bf 3c 4e 0f 63 3d 8b c8 1c be
       0.05729949 0.023389006 0.055434518 -0.15310876
0000b0 99 4b 9f bd cc 73 1b 3d 8f 0a db 3d bc d8 17 3e
       -0.07778091 0.03795223 0.10695373 0.14828771
0000c0 04 84 2b 3e 78 54 46 3d 76 be 82 3d 76 6d 61 3e
       0.16749579 0.0484204 0.06383984 0.22014412
0000d0 36 5f ea 3d b5 f0 53 3c f0 6f ba bc 02 0a 39 be
       0.11443941 0.012935807 -0.022758454 -0.18070224
0000e0 a8 24 38 bd bd 03 80 bd 36 d7 39 3e e5 61 80 3b
       -0.044956833 -0.06250713 0.18148503 0.00391792
0000f0 ad 7a ae bd ca 17 43 be f9 3c f3 bd 80 dc be 3d
       -0.08519492 -0.19052044 -0.11876864 0.09319401
000100 80 39 a9 bd 2a 85 99 3c 26 94 e5 3d 53 0b c7 3d
       -0.082629204 0.018740255 0.11209898 0.09718957
000110 81 b9 99 3c 3b cb 94 bd df 75 06 3c 99 53 d6 bd
       0.018765213 -0.07265326 0.008206814 -0.10465164
000120 4a 90 5a bd d9 da a7 bc e1 87 d3 3d 8a 58 d7 3c
       -0.05336026 -0.020490097 0.10328651 0.026287336
000130 99 ae da bb 3b 91 24 be 96 c4 80 3d 56 79 87 bd
       -0.0066736457 -0.16071026 0.06287496 -0.0661494
000140 60 69 d1 bc e3 90 dd bd f9 d3 26 bd 14 03 fe 3d
       -0.025562942 -0.108186506 -0.040729497 0.12402931
000150 c4 4d 45 3d 91 14 9e 3d 44 93 87 bc 3f 84 7a bd
       0.048169866 0.077187665 -0.016549714 -0.061161276
000160 51 ef 15 bc a2 6f 40 bd b0 1b e4 bd 94 5d 82 bc
       -0.009151296 -0.04698146 -0.111380935 -0.015913762
000170 ae 3b 08 be fe c6 97 bd 55 fd 1a 3d bc 3f fc bd
       -0.13304016 -0.074110016 0.037839253 -0.12316844
000180 a6 52 25 be c4 09 a6 bd 0d 3b 05 3e df 89 8d bd
       -0.16144809 -0.081073314 0.13010807 -0.069110624
000190 fe 5c 41 be cd ad 82 3c a5 03 c1 be 74 d6 28 3e
       -0.1888313 0.015952015 -0.37698093 0.16488057
0001a0 3d 55 f0 3d 31 b9 1a bd 33 e7 94 bd 85 89 78 3e
       0.11735008 -0.03777427 -0.0727066 0.2427121
0001b0 38 a0 8f 3d 93 81 c8 bc f9 8d 8e 3e 63 14 75 be
       0.07012981 -0.024475848 0.27842692 -0.23933558
0001c0 8d f3 0f 3d 1b 31 86 3d b5 f7 a2 bd 59 dc 04 bd
       0.035144377 0.06552335 -0.079574026 -0.032436702
0001d0 0c 09 dc bc 20 5b 8a bd 4f da e4 3d 25 1d ac 3a
       -0.026859783 -0.06755662 0.111744516 0.0013131244
0001e0 98 54 bd bc 90 90 e1 bd 84 e3 ea bd 97 3c 8b 3c
       -0.023111627 -0.11013901 -0.114691764 0.016996665
0001f0 e0 85 06 3d 5f b2 54 be 05 f1 96 be 89 80 1b be
       0.032842517 -0.20771168 -0.29480758 -0.15185751
000200 97 71 88 bd b1 eb e8 3b d6 90 29 bd a6 8e a5 3b
       -0.066622905 0.0071081747 -0.041397892 0.0050524054
000210 2b 0c 69 3d 2f 9d 36 3d 23 66 ea 3c e9 b1 82 3d
       0.05689637 0.044583496 0.028613156 0.0638159
000220 36 80 17 be 1b bf 82 3d d9 d9 c3 bd 65 f0 ab bd
       -0.14795002 0.06384107 -0.095630355 -0.08395461
000230 66 69 98 be 90 08 a3 b7 8b 6c 00 3e bc f8 e6 39
       -0.29767913 -1.9435101e-05 0.12541406 0.0004405434
000240 3e b4 96 bb 8c 08 23 be c3 33 9f bc f7 0b 41 be
       -0.0045991233 -0.15921229 -0.019433862 -0.1885222
000250 49 b2 29 3d bd 43 00 3e 7e 61 77 be c5 e9 09 bd
       0.04142979 0.1252584 -0.24158284 -0.033670206
000260 3e 29 3f bd de 1f 6c bc 64 f0 ea bc ac 64 d9 3d
       -0.04667019 -0.014411895 -0.02867908 0.10614905
000270 2f c5 1e 3e 23 ba 16 bd e4 b9 86 3c 8f 38 2d 3e
       0.15504907 -0.036798608 0.016446061 0.16916107
000280 48 6b 01 3c 4d e7 ea 3d ed b0 72 3d f6 e3 a7 bc
       0.007899113 0.114698984 0.05925076 -0.020494442
000290 dc 39 1d bd f0 69 7c 3e 35 89 f1 3d 7e bf 30 3e
       -0.038385257 0.24649787 0.11793748 0.17260548
0002a0 20 6e 7c 3e 73 6d 77 3c 6c 80 4a be f7 48 bb bd
       0.24651384 0.015101778 -0.19775552 -0.09144776
0002b0 4e a3 e3 bd 76 49 c4 bd 5d b4 4c be 96 58 f1 bb
       -0.11115132 -0.09584324 -0.19990678 -0.0073652966
0002c0 79 d6 86 be 19 1b 43 3e 8b 27 7b bc d6 9c a3 3d
       -0.26335505 0.19053306 -0.015329252 0.079888985
0002d0 11 93 5d 3d 8b b6 a2 be 60 fc 8e bd 17 f6 f6 bd
       0.05409533 -0.31779894 -0.069817305 -0.12058657
0002e0 fa 5f 09 b9 f6 2d d3 3d 1b 76 9d 3d 03 d9 5e 3e
       -0.00013101092 0.10311501 0.076885425 0.21762471
0002f0 dc 4f 28 3e 81 37 2c be 58 af 0a 3d 18 ce 33 be
       0.16436714 -0.16818048 0.033858627 -0.17559087
000300 10 87 2a 3e 1c 2b ad 3c fb 90 ca 3c 11 cf 04 be
       0.16653085 0.02113872 0.024727335 -0.12969615
000310 df 21 ec 3c e0 22 7e bd 99 bc 93 bd de 1e 03 3e
       0.028824745 -0.06204498 -0.072137065 0.12804744
000320 8b 88 4b bd fc a6 95 3d ab 46 3d bc e3 8f d8 3d
       -0.049690764 0.0730724 -0.011552493 0.10574319
000330 f0 9a 8a bc 9d a9 0a 3e 43 86 5f bd 3d 06 a6 3d
       -0.016919583 0.13541265 -0.0545714 0.081066586
000340 75 ab ad bd 8a 59 27 3e e4 03 05 bd c8 1e 56 bd
       -0.084799685 0.1634275 -0.032474414 -0.05227545
000350 33 2a 80 3a 67 15 ed bd a7 16 2a be 61 0a 1e be
       0.0009778201 -0.11576348 -0.16610204 -0.15433647
000360 55 3e df 3d 7f 1a ee bd 7b 6b d7 3c 24 95 20 3e
       0.10900561 -0.116261475 0.026296368 0.15681893
000370 01 3b 3a bd 22 d0 98 3d de 63 21 3e 10 89 6c be
       -0.045466427 0.07461573 0.15760753 -0.2309916
000380 b9 9f 93 bd 2a 07 8f be ec c9 3b be 86 f9 75 3c
       -0.07208199 -0.27935153 -0.18338746 0.015013104
000390 3f d1 e2 bd ae 90 bd bd 9e a4 48 be 2b 4a 03 bd
       -0.11075067 -0.09256111 -0.19594046 -0.032053154
0003a0 53 6e 6a 3d a5 58 c5 3c 14 48 95 3d c8 3e 9d bd
       0.05723412 0.02409012 0.072891384 -0.0767799
0003b0 ad 59 2c 3d 9b bf 95 be 57 35 00 be 26 43 dd bd
       0.04207771 -0.29247746 -0.12520348 -0.10803823
0003c0 12 dc 35 be f1 0a d6 3d f6 2a d0 3d 1f f5 b5 bd
       -0.17759731 0.10451306 0.10164444 -0.08884644
0003d0 8f 21 5d bc db eb 46 3d 33 42 31 3d ba 50 92 3d
       -0.0134967705 0.048564773 0.043276023 0.071443036
0003e0 7a 15 1e be 1c ce 37 3e 55 dd 3c bd e9 fc 99 bd
       -0.1543788 0.17949718 -0.046109516 -0.07518942
0003f0 cf 2e 86 3d 92 81 1f be 13 54 88 3c ce d1 2a bd
       0.06551897 -0.15576771 0.016641652 -0.04170399

conv2.bias f4 [64]
000000 94 bc be bc ae 75 b4 3b 2c e5 a8 bd 3d 37 25 bd
       -0.02328328 0.0055071926 -0.08246836 -0.040335882
000010 dc df 8a bd 6f 1e b2 3d ee f8 0f 3d 64 17 b3 3b
       -0.06780979 0.08697211 0.035149507 0.005465435
000020 44 e4 9b bc e3 6c ce bd ca 2f 22 bd 73 45 51 bd
       -0.019029744 -0.10079362 -0.039596356 -0.051091623
000030 fa 09 36 3d 4a 21 8d 3c 2f ee 78 3d d6 8d fa 3b
       0.04444311 0.017227788 0.060774025 0.0076463027
000040 2d 18 45 bd 74 72 62 bc 4d 64 85 bc 44 fc 0d 3d
       -0.04811876 -0.013821233 -0.016283179 0.034664407
000050 98 86 24 3d 27 c5 23 3d 76 c6 16 bd 4e 58 c5 3d
       0.04016742 0.03998294 -0.03681036 0.096359834
000060 37 12 ea bd 6a 51 4d 3d b9 4f 8f 3d b8 4c 56 bd
       -0.114292555 0.05012647 0.06997628 -0.05231926
000070 35 5a 04 3c ea 7d ea 3b 59 d3 45 3d 77 6e d4 bc
       0.008078148 0.0071561234 0.04829726 -0.02593158
000080 42 26 00 be 6d 49 f8 bc 26 d2 e6 bb fa e9 83 bd
       -0.12514594 -0.03030845 -0.0070440946 -0.06441112
000090 10 27 bb bc 44 54 01 be 1f 72 c1 bd 9a b9 eb 3b
       -0.022845775 -0.12629801 -0.09445595 0.0071937563
0000a0 35 2e 88 3d 37 6c 89 3d 71 e2 2a bb ea 53 78 bd
       0.06649438 0.067100935 -0.002607491 -0.0606269
0000b0 b8 f0 7f bd 7a a5 73 3c 2d 3b 5a 3b fc 00 60 bc
       -0.062485427 0.014870996 0.0033299432 -0.01367211
0000c0 07 5f 80 bb c2 c1 79 bd 7a 4b eb 3b 6b 51 22 bc
       -0.003917578 -0.060975797 0.0071806284 -0.009907107
0000d0 1a 09 95 bd 6f 46 57 bb c6 19 3b 3c 54 54 46 bb
       -0.072771266 -0.0032848378 0.011419719 -0.0030262666
0000e0 11 e5 a7 3c 06 96 39 bd 07 8d c1 bd 08 a6 26 be
       0.02049497 -0.04530909 -0.09450727 -0.16274273
0000f0 37 86 f0 bc b4 b9 21 bd 56 f5 88 ba 82 c7 ae bd
       -0.029360874 -0.03948374 -0.0010449092 -0.08534147

conv3.weight f4 [128, 64, 3, 3]
000000 70 f7 1c bd 09 4b 83 bd 4c bf d3 bd a4 0e 81 bc
       -0.038321912 -0.06410796 -0.10339221 -0.015754052
000010 73 1d 3f 3d 67 6f 22 3b fe 4e dd 3d 90 25 97 bd
       0.046658944 0.002478564 0.10806082 -0.07380211
000020 cc a0 07 be bb 82 94 bd b0 08 4a bd ec 67 a3 bc
       -0.13244933 -0.07251497 -0.04932469 -0.019947015
000030 e4 dd 8f 3d 73 4a 13 bd 27 90 97 3c 02 ae 63 bc
       0.07024744 -0.035959672 0.018501354 -0.013896467
000040 37 c5 17 bd d4 e3 9b 3d fb fe 26 bd f6 b0 bc bd
       -0.037053313 0.07611814 -0.040770512 -0.0921344
000050 cb f4 c4 3c 48 ce 6a bc ad dc ab bd 2a 76 1c bd
       0.024042508 -0.014331408 -0.083917 -0.038198628
000060 82 72 8e bd bd 69 cc bc c7 d0 04 bd 4c f8 65 3d
       -0.069554344 -0.024952764 -0.032425668 0.056144997
000070 a7 48 c0 3c 1e 6a 13 3d 02 f6 ca 3c 41 b3 f3 bd
       0.023472143 0.035989873 0.024775509 -0.11899424
000080 51 e5 b4 3d 28 06 53 3b 90 23 92 3d 26 02 19 bd
       0.08832801 0.0032199714 0.07135689 -0.037355565
000090 b4 9a c2 bd b9 42 d6 3c e2 ed 35 bd 09 1a c7 bd
       -0.095021635 0.026154863 -0.044416316 -0.09721763
0000a0 9e 82 f3 bd c6 a6 25 3d 54 c5 76 3b 7b 6b 27 bd
       -0.118901476 0.04044225 0.0037654238 -0.040873986
0000b0 b9 5a 20 3d d1 ef 7e 3b d1 cf 18 bc a5 c2 30 bd
       0.03914902 0.0038900266 -0.009326891 -0.043154377
0000c0 0d 67 21 3c 61 34 54 3d a3 a7 13 3c f5 06 81 3c
       0.009851229 0.051807765 0.009012136 0.015750388
0000d0 93 bd d0 3b 40 40 0b bd 8c 33 1f bd 91 5c ab bd
       0.0063702553 -0.03399682 -0.03886752 -0.08367265
0000e0 d7 3f df 3c 0e ed 7a 3c 37 f6 7e 3c 18 60 50 3d
       0.02725212 0.015315307 0.015561632 0.050872892
0000f0 d6 68 40 3d 24 01 c4 3d 58 f9 0a 3b bf 42 00 be
       0.04697498 0.0957053 0.002120575 -0.12525462
000100 98 db 27 be c2 9f 01 be c1 fc 2d 3c 12 3c ba bd
       -0.16392362 -0.12658599 0.010619343 -0.09093489
000110 fd 78 b3 3d 02 fe 2b 3d ce 0b 5e bd ee a9 42 3c
       0.08763311 0.041990288 -0.054210477 0.011881335
000120 8f 3f 0d 3c cc 4f 8f 3d e9 6c 02 3e 5b 77 d0 3d
       0.008621111 0.06997642 0.12736858 0.10179015
000130 e7 44 ac 3d 19 44 34 3d 38 d8 b2 3d a9 a6 2b 3d
       0.084115796 0.044010255 0.08732647 0.041906986
000140 60 8c cf 3c 38 72 7c 3d c1 5f 66 bd fd 2e 56 bd
       0.02533549 0.061632365 -0.05624366 -0.052290905
000150 64 1f ba bc eb 52 ed 3d 57 4b 9b 3d 2a 0d 3a bd
       -0.022720046 0.11588081 0.07582729 -0.04542271
000160 7f 6b dd 3d 1a 2a 0d 3c ac cf a4 bb 91 37 3a 3d
       0.10811519 0.008615995 -0.005029639 0.04546315
000170 ef ae b5 3d 6d 96 42 3d 0c 58 37 3d cd 1e 3c 3d
       0.088712566 0.04750674 0.044761702 0.04592781
000180 97 6c 0a 3e e2 95 da bc 5d c3 0d bc b5 f4 23 3d
       0.13517986 -0.026682798 -0.008652535 0.040028293
000190 de 9c 0b be 22 22 18 bc 8b e2 1d bd be 70 c0 3d
       -0.13634059 -0.009285482 -0.038546126 0.09396504
0001a0 fa 88 d3 bc f6 ef 9b bd cf 88 33 3d 69 6d 92 3d
       -0.025822151 -0.07614128 0.043831643 0.071497746
0001b0 be 98 45 bd af 8b c4 bd 3b a0 87 bd ca 95 8e 3c
       -0.04824137 -0.09596955 -0.066223584 0.01740541
0001c0 8e 39 4e be 1f 22 e6 bd d3 49 a7 bd 62 93 a4 bd
       -0.20139143 -0.11236977 -0.08168378 -0.080359235
0001d0 39 b6 8c bd 97 52 4d bc 86 c3 ac 3d 3c 8c 82 bb
       -0.06870694 -0.012531898 0.08435731 -0.0039840024
0001e0 aa 11 da b9 29 b8 9f bd 51 ba 3b bc 5c 71 18 3d
       -0.0004159336 -0.07798798 -0.0114579955 0.037217483
0001f0 fb b6 12 3e b6 4e f3 bd 2b ea a8 bd e2 07 ab bc
       0.14327614 -0.11880247 -0.08247789 -0.020877782
000200 40 08 c5 bd 5f 1d 20 bd 9d 80 13 be 32 35 ea bd
       -0.09620714 -0.03909051 -0.14404531 -0.114359275
000210 9f fd 25 be a7 9a be bd 22 1f 8a 3d e7 f1 b0 bd
       -0.1621003 -0.09306841 0.06744219 -0.08639889
000220 61 33 fc bd b8 5e 35 bd 69 e0 40 3d ff 63 6f bd
       -0.12314487 -0.044279784 0.047089014 -0.058444973
000230 e6 1f 01 bd 93 ce 83 bc 88 1d 76 bb 8d 41 f2 bd
       -0.03152456 -0.016089713 -0.0037554223 -0.11828909
000240 f4 2c fd bd 0c 8a b9 bc 7c f7 c4 bd 2e 83 26 3e
       -0.1236209 -0.022648834 -0.096175164 0.16260979
000250 1b 83 05 3e f8 d9 52 3d 61 b6 07 be c2 31 a6 3c
       0.13038294 0.051477402 -0.13253166 0.020287398
000260 5b 83 15 be 97 ed 65 3d 09 7a 18 bd e4 36 dd bc
       -0.1460089 0.056134786 -0.037225757 -0.027003713
000270 7b a9 ff bd 12 aa 0b be bd fb 82 bd 3c 4e 34 3d
       -0.12483498 -0.13639095 -0.063956715 0.044019923
000280 a1 9f 03 3d 79 32 ab 3c ef 04 e3 bc 5a b0 76 3d
       0.032134656 0.02089809 -0.027712313 0.060226776
000290 72 aa 0c be 59 c8 79 bd 9b 9d 1f bd 54 eb 7f bd
       -0.13736895 -0.060982082 -0.038968664 -0.062480286
0002a0 db c3 38 bd af ee dd bd 0b 1b e0 3c 52 56 b8 3c
       -0.045108657 -0.10836541 0.027356645 0.022502098
0002b0 f5 54 10 be 55 3e a3 3c 26 7f ed 3c a9 fa 61 3d
       -0.14094909 0.019927183 0.028991293 0.05517069
0002c0 4a f7 ed 3d 52 f2 7b bd 09 22 82 bd 08 fd 91 bd
       0.11619432 -0.06151039 -0.06354148 -0.0712834
0002d0 c7 1d df bb dc e9 36 be 58 07 e7 bd ce 10 63 3d
       -0.0068089697 -0.17862648 -0.112806976 0.055435948
0002e0 29 fa b5 bc e7 8b b1 bc d7 e0 cf 3c 90 14 ff bc
       -0.022214012 -0.021673156 0.025375767 -0.031137735
0002f0 48 a9 56 bd 08 e7 94 3d 71 8d 06 bd dc ca 30 be
       -0.052407533 0.07270628 -0.032849733 -0.17264885
000300 f4 0a 3f bd dd b7 b1 3d c2 2f 04 3e 37 b6 0f 3d
       -0.046641305 0.08677647 0.12908843 0.035085883
000310 94 62 3e 3e c9 68 99 bc bc 6e 01 bd 57 b8 6c 3b
       0.18592292 -0.018726723 -0.031599745 0.0036120617
000320 fd bc a8 3d 33 30 e7 3c a7 a9 9a 3d 67 6e bf 3c
       0.08239172 0.028221225 0.0755189 0.023368074
000330 52 ac 1f 3e 48 b2 06 be 88 7c 80 bd 30 0e af bd
       0.15593079 -0.13153946 -0.062737525 -0.08547628
000340 b4 fc 73 3d 4c 47 14 3d 72 f7 c8 bc c9 a0 65 3c
       0.05956717 0.036200806 -0.024532054 0.014015385
000350 b7 b8 1c 3d 82 de 8a bd 18 c9 96 3a c1 cb ac bb
       0.038262095 -0.06780721 0.0011504022 -0.005273313
000360 24 be 93 bd 52 04 89 ba bf 5b c1 3c 40 b3 ad 3c
       -0.07214001 -0.0010453558 0.023603318 0.021203637
000370 ce 84 45 3e 95 f4 e3 3c 2c e2 a5 bd 2d e7 84 bd
       0.19288942 0.027826587 -0.080997795 -0.06489406
000380 cd 93 5c bc 2f 6d 97 3d 6e 9b 2b be e0 c8 16 bd
       -0.013462973 0.07393872 -0.1675851 -0.036812663
000390 4c 55 7d bc 27 bf 44 bd 5b 3f 36 be d5 41 25 3d
       -0.015462231 -0.04803386 -0.17797606 0.040345985
0003a0 e3 fa 20 3d e4 1f 02 bd 65 75 c1 3d 82 aa 00 be
       0.039301764 -0.031768695 0.09446219 -0.12565044
0003b0 45 27 e7 bd b6 28 a9 bd 27 59 4e be bb d8 16 be
       -0.11286787 -0.08259718 -0.20151196 -0.14731114
0003c0 7d 57 e2 3d d6 32 18 3c 04 90 28 bc b9 a1 b6 3d
       0.11051843 0.009289464 -0.010288242 0.08917565
0003d0 4c 66 b6 bc 91 6e 3b bd 03 b5 d6 bd 8d a0 4b bd
       -0.022265576 -0.04575974 -0.10483744 -0.04971366
0003e0 39 88 fa 3d ea c5 89 3d 24 5b ac 3d ac a3 b1 3d
       0.12233014 0.06727202 0.08415821 0.08673796
0003f0 1f f3 2c 3e de ad 1b be ff f7 2b bc 0c de e5 bd
       0.16889618 -0.15203044 -0.010496139 -0.11223993

conv3.bias f4 [128]
000000 32 a8 8e bc 27 6b 41 bb 63 92 ee bd 2f 8c b2 3c
       -0.017414186 -0.002951333 -0.11649015 0.02179536
000010 0b e4 b6 bd 80 03 90 3d f3 80 be bc b0 32 a8 bd
       -0.089302145 0.070319176 -0.023254847 -0.08212793
000020 27 d9 40 3d 2c ca 50 ba 57 0e 51 bd c7 90 e3 3d
       0.047082093 -0.0007964696 -0.051039066 0.111115985
000030 16 13 e0 3c 74 7a 43 3d 07 d5 dd bd 44 3f 8f 3c
       0.02735285 0.047724202 -0.10831647 0.017486222
000040 31 57 b6 bd 5e 9c 6d 3d a3 98 ec 3d ad 33 1e 3b
       -0.08903349 0.05801045 0.11552551 0.0024139688
000050 ac 9c 17 3d 9c a0 ac 3c e1 52 2e 3d 75 23 b3 bd
       0.03701465 0.021072678 0.04255951 -0.08746997
000060 83 81 01 bc 97 7f 8f bd b1 d4 05 3d 06 a5 78 3a
       -0.007904413 -0.07006758 0.03267354 0.00094850396
000070 c2 ae 75 bd fc 7c eb bd ef 73 5e bd 5a f4 91 bb
       -0.059981115 -0.11498448 -0.05430978 -0.004454178
000080 c4 e6 74 3d ac 7f d8 3b 9b dd 69 3c 35 22 e6 3c
       0.059790388 0.0066070165 0.014274026 0.028092483
000090 5b 73 32 bd 6e 90 96 3b 5f 1f 39 bd 06 95 68 3b
       -0.043567043 0.004594854 -0.045195933 0.0035489216
0000a0 bf 4c ae 3c ed b2 8b bd 90 bb 05 be 44 3b cf bd
       0.02127683 -0.06821237 -0.1305983 -0.10118726
0000b0 33 80 14 3c 79 e3 4c 3d 9a cb 64 39 42 04 00 be
       0.009063768 0.050021622 0.00021819622 -0.12501624
0000c0 44 ca 16 3d c0 90 9e 3d d7 10 3d 3d b9 cb 3c ba
       0.03681399 0.077424526 0.046158638 -0.0007201988
0000d0 61 a4 0e bb ec 61 c2 bd f5 00 13 3d 36 a6 6b bc
       -0.0021765458 -0.09491333 0.035889585 -0.0143828895
0000e0 19 1f 4d bd eb 4b 9a bd 75 9c a7 bd 3b 6e 65 bd
       -0.050078485 -0.075340115 -0.08184139 -0.056013327
0000f0 ac 8a b4 bc 05 ee d9 bd 2d fa 00 bd b0 7a 45 bd
       -0.02203878 -0.10641102 -0.031488586 -0.048212707
000100 b3 6a bf 3a 29 2f 21 3a 51 5f ef 3c b0 d1 fc bc
       0.0014603942 0.000614869 0.029220255 -0.030861706
000110 52 20 f8 bc 6f 88 1b 3d c3 64 75 3d 3f cd 9a bd
       -0.030288849 0.03797191 0.059910547 -0.07558679
000120 a3 62 ae bc f3 d6 6b bc 99 df 1b 3a 44 a4 43 bc
       -0.021287268 -0.01439451 0.00059460994 -0.011941019
000130 d5 a0 80 bd 68 3e e1 3c 1a f5 81 bd 58 9f 1f 3a
       -0.06280676 0.027495578 -0.063455775 0.0006089113
000140 80 26 dc bc 1f 7a 62 3b 09 e5 c2 3b 77 63 d6 bd
       -0.026873827 0.0034557653 0.0059477133 -0.1046819
000150 12 e9 d6 bb bc 2f 29 bd e4 d5 05 3e 27 52 a8 bb
       -0.006558546 -0.04130529 0.13069874 -0.0051367464
000160 8f 5a dd 3d d1 af c7 3a ce 6a 82 bd 25 34 9b bc
       0.10808288 0.0015234892 -0.063680276 -0.018945763
000170 b6 50 8d bd 5a 01 9d bc db 8b 59 3d a8 56 49 bd
       -0.0690016 -0.019165684 0.053111892 -0.049154907
000180 66 82 aa bc 9b 9c f3 3d e0 99 42 bd 44 0a 69 bb
       -0.020814132 0.118951045 -0.047510028 -0.0035559097
000190 ab ff 78 bd bd 92 1d bd fc a2 19 bc 1f 9c 4d 3d
       -0.0607907 -0.03847002 -0.009377237 0.050197717
0001a0 f3 70 b7 ba 6d 95 fe bd 11 be 6a bc db 84 9d bc
       -0.0013995453 -0.124308445 -0.014327542 -0.01922839
0001b0 25 98 17 bd 4f 52 92 3d 35 c0 23 3d 1c d7 9d 3c
       -0.03701033 0.07144605 0.039978225 0.019267611
0001c0 f1 0b cb bc 3a de 6a 3a e6 b5 a7 bc e4 4d b9 3c
       -0.024785968 0.0008959506 -0.020472478 0.022620149
0001d0 81 b7 f8 3d ac db 8c bd cf a6 07 bd 82 b4 15 bd
       0.121443756 -0.068778366 -0.033118065 -0.0365491
0001e0 36 d6 f3 ba 0e 2e a4 bc c4 5e fd bd ec 0e 0f 3e
       -0.0018603269 -0.020041492 -0.12371591 0.13970536
0001f0 d4 2f 8a bd 26 ae bb bd 9a 9e f8 bd 4b df 4d bc
       -0.06747404 -0.091640756 -0.12139626 -0.012565444

act_conv1.weight f4 [4, 128, 1, 1]
000000 1c 54 21 3d 82 d3 1b bb 4a bf b4 bd e7 3a 68 bd
       0.039386854 -0.0023777192 -0.08825548 -0.0566968
000010 c2 ef c3 3b 7e ba a4 3e cf 57 45 bd 86 41 5a 3e
       0.005979509 0.32173532 -0.048179444 0.21314058
000020 4b 8a 83 3d d4 46 3c bd 0f 92 b6 bd 76 24 db 3c
       0.06422862 -0.045965984 -0.08914577 0.026750784
000030 20 9e b1 bc 0b 8c 2f bd b3 87 e3 3d 18 46 b2 3d
       -0.021681845 -0.042858165 0.11109867 0.087047756
000040 0d ae 55 bd c6 f5 8a 3d de 98 30 bd 98 00 f1 3a
       -0.05216794 0.06785159 -0.043114536 0.0018387018
000050 f7 02 fa 3c 8c 0d 0f bd 13 f1 ed ba 8b 7c 50 3d
       0.030518992 -0.03492503 -0.0018153511 0.050900023
000060 1a 35 54 3d fb 83 d3 3d 2d 74 09 3e 77 1a e4 bd
       0.051808454 0.10327908 0.13423224 -0.1113786
000070 f5 c5 87 3d a9 24 88 bd 17 10 88 bd 82 47 80 3e
       0.06629554 -0.06647617 -0.06643694 0.25054556
000080 8b ef c7 3e 21 c1 a7 3d 15 90 b4 3c 36 8e 6f 3d
       0.39049944 0.08191133 0.02204136 0.058485232
000090 d6 83 5c be c7 3b 03 3e fc 46 63 bc b4 03 21 3a
       -0.21534666 0.12815772 -0.013871904 0.00061422144
0000a0 7c 94 ea 3c ba 70 59 3e 04 ff 3c be 36 5e 2d be
       0.028635256 0.21234408 -0.18456656 -0.1693047
0000b0 db 11 3b bd 3c 46 2d be c6 07 69 bd 31 da 1f be
       -0.045671325 -0.16921324 -0.05689218 -0.15610577
0000c0 88 8d 5c bd fb 33 7e 3d 7e e3 61 3d 11 82 d9 bb
       -0.053845912 0.06206129 0.055148594 -0.0066378196
0000d0 64 b2 2a 3e cc 43 ed 3d 19 aa 3b 3d b7 59 8c bd
       0.16669613 0.11585197 0.045816515 -0.06853049
0000e0 d8 63 9e bd ce c7 7c bd 11 16 f8 bc cc be 22 bd
       -0.077338874 -0.061713986 -0.03028396 -0.03973274
0000f0 06 33 ed bd c6 b4 2d 3e ed bc 7f 3d 5b 3a 18 bc
       -0.115819976 0.16963491 0.062436033 -0.009291257
000100 1b 91 be 3d 7b a2 b9 3b 2c 8a eb 3e 4d 0a 0e bd
       0.093050204 0.005665121 0.46003854 -0.034677792
000110 c4 f9 00 3f 4f aa b5 3c e4 e9 8e 3c bd 59 58 3e
       0.5038111 0.022175936 0.017445512 0.21127982
000120 11 36 e6 bb 4a 24 fe bb 3d 30 ac bd 42 77 c0 bd
       -0.007025488 -0.007755791 -0.08407638 -0.093977466
000130 a0 61 f8 bc 05 29 5c bb 81 85 a0 3d 8a ba 7d bd
       -0.030319989 -0.0033593785 0.07837964 -0.061945476
000140 a4 fc f4 bd 59 7b 83 be bc 7f 40 3d f3 8c 1c 3c
       -0.1196225 -0.25680044 0.046996817 0.009555089
000150 98 2e 81 3c b9 ab 83 be 51 60 25 3d fd 52 87 bd
       0.015769288 -0.2571695 0.040375058 -0.06607626
000160 f3 d3 dd 3d 79 ff 5a bd 48 d3 a8 3d b7 d5 20 bc
       0.10831442 -0.053466294 0.08243424 -0.009816579
000170 d9 94 37 be 20 a6 21 bd 78 51 8a 3e da aa dc 3b
       -0.17927875 -0.03946507 0.2701528 0.0067342343
000180 05 69 d5 3d b1 68 25 3d 38 7a 15 be dd 85 65 bb
       0.104204215 0.040383045 -0.14597404 -0.0035022416
000190 30 45 37 3e fb 04 94 3e 8b f6 3a 3e 33 01 3e 3d
       0.17897487 0.2891005 0.18258111 0.046387862
0001a0 d0 1f df bd b4 1e 63 3d e5 c3 07 3e 7c 56 83 3d
       -0.1089474 0.055449203 0.13258322 0.0641298
0001b0 cf fa ca bc 8b 89 9f 3d fb 48 11 3d 9b d8 5c 3e
       -0.024777798 0.07789906 0.03546999 0.21567003
0001c0 f3 1b fa bc 8e 49 82 3d bb 27 62 3d 1e 12 84 bd
       -0.030530905 0.06361686 0.05521367 -0.06448768
0001d0 ba a1 16 3e f9 83 8b 3e d7 2e 3c bd b7 87 9d bd
       0.14710131 0.27249125 -0.045943107 -0.07691901
0001e0 7e 5d 40 bb 9b c8 2b bd 58 21 52 3d 0d 6b 10 3e
       -0.00293526 -0.04193936 0.05130133 0.14103337
0001f0 a2 00 5d be c4 de 67 bd 31 83 7b bd 2b b6 9e bd
       -0.21582273 -0.05660893 -0.06140441 -0.077495895
000200 8c 32 52 bd 4e bf fa bc 78 e6 a4 3d 1d c1 97 bb
       -0.051317737 -0.0306088 0.08051771 -0.004631175
000210 7b 8c 27 bd fd 14 d5 bd 34 ea 87 3e e0 2e 1d 3e
       -0.040905457 -0.10404394 0.2654587 0.15349913
000220 c5 46 70 3e 73 dc 83 3c ac 0b 47 bd fd 97 4c 3d
       0.23464496 0.01609633 -0.048595116 0.049949635
000230 80 88 38 bd 88 4e 9e 3e 30 97 5b be 04 0f 4c 3d
       -0.04505205 0.3091929 -0.21444392 0.049819008
000240 10 73 61 3d ac 47 3c be 04 fd 8c 3c 1c 6b 1c bb
       0.055041373 -0.18386716 0.017210491 -0.0023867553
000250 5e 5b b9 bc dd 31 4e 3d e9 7b 25 be 54 6b 53 3d
       -0.022626575 0.050340522 -0.16160549 0.051616028
000260 73 8e b7 bd f4 cc 5c be 75 87 ec bc 42 ee 50 bb
       -0.08962717 -0.21562558 -0.028873185 -0.0031880294
000270 a5 43 a6 bd aa 25 de 3d c0 96 69 3d c9 47 a3 be
       -0.08118371 0.108470276 0.057028532 -0.31890705
000280 60 56 01 3e a3 78 5e bd c3 b0 57 bd 1b 5a 58 bd
       0.12630606 -0.054314267 -0.052658807 -0.052820306
000290 ce 65 b2 3e a2 8c 7b bc d2 21 92 3d 2a 77 c8 3a
       0.34843296 -0.015353354 0.07135357 0.0015294303
0002a0 1c c3 11 be 77 fe 5b 3d 83 49 68 3d 63 5f d4 3d
       -0.14234585 0.053709473 0.05671073 0.10369756
0002b0 f2 2e ec 3b 8e e3 81 3e 68 a8 87 3c 18 86 18 be
       0.0072077448 0.25368923 0.016559795 -0.14894903
0002c0 54 76 a5 3e 8e 7a 86 3d 8d cc fe 3d 6c 2d c8 bd
       0.3231684 0.06566344 0.12441359 -0.097742885
0002d0 87 70 4b be 86 b8 8e 3d c5 15 d2 3b b6 61 ec 3d
       -0.19867145 0.06968789 0.0064112865 0.115420744
0002e0 bd e1 86 3d 3f 6c e0 3d d4 34 11 3f 4d 78 4c 3d
       0.06586025 0.10958146 0.56721234 0.049919415
0002f0 20 dc da 3c 00 87 5e bb 04 a4 6f bc f5 3d 7a 3e
       0.026716292 -0.0033954978 -0.014626507 0.24437697
000300 a0 7e 17 3d f8 e8 09 3c 92 4a c0 3d 4a 24 c9 bd
       0.036985993 0.0084173605 0.09389223 -0.09821375
000310 ae d1 78 be 29 32 4c bc 97 a4 0a be 2d 53 44 bd
       -0.24298736 -0.012463131 -0.13539349 -0.047930885
000320 0c f2 c9 bd 05 7a 04 bd 29 cc 83 3c 44 84 23 bd
       -0.0986062 -0.03234293 0.016088562 -0.03992106
000330 62 da eb bd 47 e9 6c 3e 2b 15 3c 3d ea a3 39 3d
       -0.115162626 0.23135863 0.045918625 0.045322336
000340 1d 09 36 3e e7 92 98 3e 4f d9 9e bc 5d 86 e4 bd
       0.17776914 0.29799578 -0.01939073 -0.1115844
000350 01 f7 11 be 98 4e 15 3e 07 ff 47 3e a4 14 2e 3e
       -0.14254381 0.14580762 0.19530879 0.17000061
000360 7e 04 cb 3d 7f df 87 3d 8c b6 ee 3d d1 06 25 3c
       0.09912966 0.06634425 0.11655912 0.010072426
000370 d2 24 32 3e 9f 75 93 bc 19 dd 0d bd 2e c1 14 3d
       0.17396858 -0.018000422 -0.034634683 0.036317043
000380 9c a8 06 3d 9c 1c 9e 3d b1 22 fc 3d d6 d3 64 3b
       0.032875642 0.077203006 0.12311304 0.0034916303
000390 92 8c 93 be c4 7b 03 be c7 3a 8e be 41 68 9b bd
       -0.28818184 -0.12840182 -0.2777922 -0.07588244
0003a0 9e 65 2d 3c 7d fa ce bb aa 46 cb 3d 8a 3e c0 bd
       0.010583309 -0.0063164816 0.099255875 -0.093869284
0003b0 df ad 2f 3e f6 8c 06 3e b3 35 2a be 63 20 4d bc
       0.1715617 0.1313971 -0.16622047 -0.012519929
0003c0 7f 25 12 3c 7e bb 20 be 50 fd 82 3d 5b d6 78 3e
       0.008920073 -0.15696523 0.06395972 0.2430052
0003d0 3f 40 b7 3d 45 25 1a 3d ec f9 80 bd ca 9b cc 3c
       0.08947801 0.0376332 -0.06297669 0.02497663
0003e0 0b d7 db 3a fd 2e 11 bd 7b 0a b0 bc 77 e0 1c 3e
       0.0016772462 -0.035445202 -0.021489372 0.15320002
0003f0 47 0c ee 3d bf 12 9f 3d 2f ef 22 3d 86 40 4c 3e
       0.116234355 0.077672474 0.039778885 0.19946489

act_conv1.bias f4 [4]
000000 69 22 84 3d 73 cc 6f 3c ea af ca 3d c1 42 e8 39
       0.06451876 0.014636147 0.09896834 0.00044300224

act_fc1.weight f4 [81, 324]
000000 81 62 7d b9 02 b4 e9 bc b3 12 17 bd 61 da 99 bd
       -0.00024164656 -0.028528217 -0.036883067 -0.075123556
000010 18 6e 51 bd 55 5f 6c bc 26 3c 9d bd 55 88 75 bd
       -0.051130384 -0.014427026 -0.07677488 -0.05994447
000020 78 f6 7c bc 0f 7e 80 3a 23 75 a6 bd 79 17 ff bc
       -0.015439622 0.0009803193 -0.08127811 -0.031139122
000030 d0 b1 f5 bc 38 04 87 bd 4e 9d 95 bd 31 39 24 bd
       -0.029992014 -0.065926015 -0.07305394 -0.040093604
000040 f2 5d 95 bd 54 89 7e bd fe c9 34 bd 64 73 93 bd
       -0.07293309 -0.062142685 -0.044137947 -0.071997434
000050 92 49 2b bd be 96 67 bd 9a 93 eb bc 29 b1 80 bc
       -0.04181821 -0.056540243 -0.028756905 -0.015709477
000060 05 4b 51 bd fe 47 07 bd d2 a6 2c bd 06 8b 1f 3a
       -0.051096935 -0.03302764 -0.04215128 0.0006086085
000070 29 9b ba bc a0 88 74 bd 92 09 62 bd 90 93 5a 3c
       -0.022779064 -0.05970061 -0.05518491 0.013340846
000080 bc 9e b1 3c 1d 8a a0 bd 12 34 b3 bc 0c 3b c9 bb
       0.021682136 -0.07838843 -0.021875415 -0.006141072
000090 33 f4 15 3c 5f f5 9c 3c ba cc 0f bd 57 c0 e8 bd
       0.00915246 0.01915997 -0.03510735 -0.11364811
0000a0 08 3c 63 bd d3 ef 58 bb c5 d5 87 bd ef bc 78 bd
       -0.055477172 -0.003310193 -0.0663257 -0.060727056
0000b0 b3 f9 8e bd 29 45 c8 3c 72 9e d4 bd 7a e5 48 be
       -0.0698122 0.02444704 -0.103817835 -0.19618788
0000c0 c8 55 3a bd b7 26 99 3c 61 28 01 bb c4 71 c2 bc
       -0.045491964 0.018695218 -0.0019707906 -0.023735888
0000d0 d5 76 60 bd 69 91 76 bd ae 18 94 bd 37 b9 79 be
       -0.054800827 -0.060197268 -0.0723127 -0.2438706
0000e0 75 73 08 bd 55 f0 f5 3c 88 64 a5 3b e4 5d 49 bd
       -0.033313233 0.030021826 0.0050473846 -0.049161807
0000f0 7e e1 7b bd 28 ac 32 bd 35 97 b4 bd 53 d1 b1 3d
       -0.061494343 -0.043621212 -0.08817903 0.086825036
000100 13 ce 0f 3e de b2 bb 3d 6c 48 40 3d d3 88 22 bd
       0.14043455 0.091649756 0.046944067 -0.039681267
000110 90 71 8e bc a0 0a 20 bc 04 57 bb 3c 35 41 97 bc
       -0.017388135 -0.009768158 0.02286864 -0.01846371
000120 e8 f1 ab 3d f7 88 9f bd c5 3f fe 3c bc 33 01 bd
       0.08395749 -0.07789796 0.031036267 -0.03154348
000130 b9 52 c5 bc 65 dd e4 bd f3 be a3 bc 74 f3 08 bc
       -0.024087297 -0.1117504 -0.019988513 -0.008358825
000140 09 b6 8f bd b2 fc 04 bd 82 c8 85 bd de ae 99 bc
       -0.07017142 -0.03246755 -0.065323845 -0.018760141
000150 21 47 11 bd e6 9e 67 bc 4c be 10 3d 75 2e 86 bc
       -0.035468224 -0.014137005 0.03533773 -0.016379574
000160 ea 8a c8 bd 64 b7 8e bc 36 88 3f bd df 1a 33 bd
       -0.09792121 -0.017421432 -0.04676076 -0.0437268
000170 2d d8 6a bc 3a ae 48 bc b5 18 53 bd d9 ff c8 3c
       -0.014333767 -0.01224857 -0.051537234 0.02453606
000180 49 dc 5b 3d 1e d1 a8 bc 78 74 9c 3c 8d 80 14 3c
       0.053676877 -0.020607527 0.019098505 0.009063852
000190 48 02 8d 3d 83 97 4e 3d 74 01 8b bb c8 cb 17 3c
       0.06885201 0.05043746 -0.0042421166 0.009264894
0001a0 df 77 b4 3c 1f 0e b3 3c 9b 98 4e 3c ca 29 5d 3c
       0.022029815 0.02185732 0.012609626 0.013498733
0001b0 59 d6 ac bb 7e 3d bb 3a fc 4b 58 3c 0e b1 65 3d
       -0.0052745757 0.0014285294 0.01320171 0.056077056
0001c0 0c 10 94 3d b2 33 b0 3c 38 e5 9f bc c4 73 8d bb
       0.07229623 0.021509025 -0.01951848 -0.004316779
0001d0 d7 0e 0d bd 7e 46 87 bb fd 64 09 3d 73 9b 09 3d
       -0.03443798 -0.0041282764 0.033543576 0.033595514
0001e0 ad 9c b4 3d 38 66 de 3b 00 45 02 3d a6 92 1e 3d
       0.08818946 0.006787088 0.031804085 0.038714074
0001f0 ae fe 01 3d 2c 8c 8a bc 56 2a 98 3d cb 40 b5 3c
       0.031737022 -0.016912542 0.0742995 0.022125622
000200 d4 62 b2 3d d2 7f 08 3d 24 9f 94 3d ec a1 96 3d
       0.08710256 0.033325024 0.07256916 0.07355103
000210 d4 8f 94 3a 9e 7a 87 3c 69 63 e0 bc 65 c1 2d 3d
       0.0011334368 0.01653796 -0.027391152 0.042420764
000220 5f 42 86 3d 89 20 c7 3d 3b 7d 56 3d 75 59 c6 3c
       0.06555628 0.097230025 0.052365523 0.024212578
000230 05 1c 54 3c 8d 89 91 bc f3 42 4a bd c0 15 51 bd
       0.0129461335 -0.017765785 -0.049380254 -0.051046133
000240 89 fa 88 be 1e b9 0c 3d f8 c6 7b 3d 2d 87 c2 3c
       -0.26753643 0.03435623 0.06146905 0.023746097
000250 6f 87 f2 3b 75 63 87 3d dc 08 e1 ba 57 0c 75 bc
       0.007401399 0.06610767 -0.0017168778 -0.014956555
000260 3f e6 19 bd d3 31 8b 3c b4 3c f2 3d 89 be 13 bc
       -0.037573095 0.016991531 0.118279845 -0.009017595
000270 d5 3e 1b bd eb 05 65 bc b7 b8 34 3d 92 46 c2 3c
       -0.03790172 -0.013978462 0.04412147 0.023715291
000280 ed 7c 52 3c 47 5b e3 bc 68 c2 e1 3b 03 4b ad bc
       0.012847167 -0.027753485 0.00688963 -0.021153932
000290 d7 82 e6 bc e5 70 d4 bc 45 e6 6a bd b6 6c 5a bd
       -0.028138561 -0.025932739 -0.05734851 -0.05332633
0002a0 9f 55 df bc e1 55 85 bd 59 52 67 bc 51 01 00 bd
       -0.027262507 -0.06510521 -0.014118754 -0.031251255
0002b0 be 68 16 bd 00 41 41 bc 19 36 3b bd 6e 1e 1d bd
       -0.036720984 -0.011795282 -0.04570589 -0.038359098
0002c0 bf f0 86 bc 3d cd fe bc 11 5a 66 bc 68 3d 53 3c
       -0.016472219 -0.031103725 -0.014059559 0.012893058
0002d0 f2 ec a0 bc d6 b5 d3 bb 8d 9b 86 3c f1 40 ad bd
       -0.019644234 -0.0064608855 0.016431594 -0.08459652
0002e0 65 5f f4 bc ab 25 81 3c 78 07 f5 bc 15 30 7d bd
       -0.029830644 0.015765032 -0.029910788 -0.061813433
0002f0 d9 8b e0 bd 7a 3e 62 bd 9c 34 1f bd 07 59 6a bd
       -0.10964174 -0.055235364 -0.03886853 -0.05721381
000300 70 6f 2e bd ce 93 38 bd 39 4d 9c bd fa 01 01 bd
       -0.042586744 -0.045062833 -0.076319166 -0.031496026
000310 2d 1b 97 bd 33 cf 4f bd d3 87 e5 3c 82 1d 85 bc
       -0.0737823 -0.05073471 0.028018868 -0.016249422
000320 8d 56 0c bd ba c0 ff 3b bb b8 84 bd d0 d6 bc bd
       -0.03426223 0.007804957 -0.06480547 -0.0922066
000330 65 39 60 bd 23 19 d3 bc 70 fd 0e bd 44 ec 85 3d
       -0.054742236 -0.025768822 -0.034909666 0.06539205
000340 9c aa 81 bd fd 72 c3 3d d7 81 96 bd a8 b6 91 bd
       -0.06331369 0.09543417 -0.07348984 -0.07114917
000350 84 34 1d bd 94 2b 86 bd 7d 11 ff bc c8 94 dd bc
       -0.03838016 -0.065512806 -0.031136269 -0.027048483
000360 96 b1 56 bd 4d 35 20 3d ce e4 04 be c5 70 ca bc
       -0.052415453 0.03911333 -0.12977907 -0.024711976
000370 0e 75 37 bd 10 8d 63 bd f6 ac bb bd 6c 59 74 bd
       -0.044789366 -0.05555445 -0.09163849 -0.05965559
000380 4c 4e 2a bd a3 5a ba be 0b 80 9b 3c 22 d3 9c 3d
       -0.041578576 -0.36397275 0.018981954 0.07657458
000390 fa a1 3d bd 0a d6 81 bd c9 0a 37 bd 92 1c c2 bd
       -0.04629705 -0.06339653 -0.04468802 -0.094781056
0003a0 27 7a 8f bd 48 af f8 bc 75 1a a0 3d 19 cc f5 3b
       -0.070057206 -0.030357018 0.07817546 0.007501137
0003b0 77 51 57 bc 74 36 4a 3c 2b f6 3e bd 7f 78 dc bd
       -0.013141981 0.012342084 -0.046621483 -0.1076517
0003c0 ac a6 3b bd 6e 82 fb bc b8 41 06 bd c5 55 f6 ba
       -0.045813248 -0.030701842 -0.032777518 -0.0018793872
0003d0 20 fc 88 3a 2b 7e d9 ba 63 bf 92 ba f4 db 9e ba
       0.0010451116 -0.0016593387 -0.0011195954 -0.0012119994
0003e0 9e b5 28 ba ff 14 e2 b9 cf 3f b2 39 60 72 33 ba
       -0.00064357545 -0.00043121722 0.00033998347 -0.00068453513
0003f0 cd d6 42 ba 4e c7 89 ba 20 80 04 bb 39 b0 8c ba
       -0.00074325205 -0.0010511668 -0.002021797 -0.0010733671

act_fc1.bias f4 [81]
000000 d0 56 1a 3c b4 a3 62 bd f3 51 e5 bd bb 5d 8a bd
       0.009420112 -0.0553319 -0.11197271 -0.06756159
000010 6f 78 22 bd aa 7a bd bd 59 b7 fd bd 41 3d 33 bd
       -0.039665636 -0.09251912 -0.123884864 -0.04375959
000020 82 c1 88 3c 40 cf 4f bd 17 0c 7c bc dd d8 f3 bd
       0.016693834 -0.05073476 -0.015383742 -0.11906598
000030 32 4e 9c 3d 53 3b b8 3c d2 c0 bc 3d 2c 6e c8 bd
       0.07632102 0.022489225 0.09216465 -0.097866386
000040 99 2e 86 bd 44 f9 09 bc 41 fb 03 be 44 16 d1 bd
       -0.065518565 -0.008421246 -0.12888815 -0.10209325
000050 ab 6f 46 3e f1 0f 65 3d ea 08 c5 3d 7a e1 fb 3c
       0.19378535 0.055923406 0.09620841 0.030747164
000060 50 36 09 3e 53 5c 21 be fd fa 93 bd 20 ca 20 bd
       0.13399625 -0.15757875 -0.072256066 -0.03925526
000070 bd e0 b6 3d bb c9 07 3d 8c b7 e2 3c c5 e9 0b 3d
       0.08929584 0.03315137 0.027675413 0.034158487
000080 08 1d 14 3c 14 78 1b 3a 39 4a 9d 3d fa d5 5d bd
       0.009040125 0.0005930674 0.076801725 -0.054159142
000090 21 5e f9 bb ff 51 b2 bc 63 ab fd 3d 9f 47 05 3c
       -0.007610098 -0.021767614 0.12386205 0.008134752
0000a0 91 4b 03 3d 24 bd 3b 3d 64 06 db 3d d4 88 0b bd
       0.032054488 0.045834675 0.10694578 -0.034066036
0000b0 f9 c0 7b 3c 16 f2 67 bd 56 8f 9b 3d dc a6 da b9
       0.0153658325 -0.056627356 0.075956985 -0.0004170452
0000c0 77 72 e9 3c 3a 76 50 3d 8b 96 01 bc f6 ff f0 3c
       0.028496964 0.050894 -0.007909427 0.029418927
0000d0 e1 ce bd 3c 42 68 90 bd 43 b0 c3 bd af 89 df bd
       0.023169937 -0.070511356 -0.09555104 -0.10914933
0000e0 ce d2 3f 3e e3 fd e2 3c 11 89 08 3e ba 61 8d 3d
       0.1873276 0.027708953 0.13333537 0.069034055
0000f0 d1 74 6a 3e ef 41 b6 bd 18 8c 83 bd 86 f0 2c bd
       0.22896124 -0.088992946 -0.06423205 -0.04222157
000100 30 32 82 3b 08 7c e8 bd 7b cb 96 3d b0 43 ea bb
       0.003973268 -0.11351782 0.073630296 -0.0071491823
000110 86 39 76 3d 56 ae c0 bd 90 f9 47 bb 42 2b 53 bc
       0.060113452 -0.09408252 -0.003051374 -0.012888731
000120 54 c3 c5 39 a1 b1 09 bc c0 47 c6 bd 77 63 98 bd
       0.000377203 -0.008404166 -0.09681654 -0.074408464
000130 5a e9 95 3a 55 aa bc bd c0 c1 49 bd ce c1 4c bc
       0.0011437342 -0.09212176 -0.04925704 -0.0124973785
000140 ac 17 af 3b
       0.005343398
